vaes/trained_vaes/rapport/VAELow_25epochs_60000steps_NEW_ENVIRONMENT__batch64_Adam_lr95E-4.pt (torch_old, 76417 bytes, 19 tensors)

conv1.weight f4 [4, 1, 11]
-0.19353321 0.2640713 -0.22519892 -0.110393286 -0.08221534 -0.04122445 0.031321883 -0.009421885
0.106680244 -0.05796042 -0.094748065 -0.5157472 -0.103201285 0.5526176 -0.22912921 -0.13912229
-0.09059565 -0.076825894 -0.2538554 -0.3243646 0.060257435 -0.09501052 -0.014820353 -0.15879534
-0.16006684 0.10442653 0.050357707 -0.06278393 0.012234459 0.14746854 -0.27341375 -0.49980536
-0.62799907 -0.01747549 -0.12009972 0.108033925 -0.100442044 -0.016140554 0.0716142 -0.12365232
0.03509732 -0.112377465 -0.07985856 -0.1628334
00000000: 922d 46be 5a34 873e 8c9a 66be e015 e2bd
00000010: 8460 a8bd f8da 28bd 604b 003d 405e 1abc
00000020: 2c7b da3d e867 6dbd 460b c2bd 0208 04bf
00000030: 325b d3bd 5978 0d3f d9a0 6abe 1376 0ebe
00000040: 368a b9bd e556 9dbd 56f9 81be 1e13 a6be
00000050: 80d0 763d e094 c2bd 11d1 72bc 3f9b 22be
00000060: 90e8 23be 94dd d53d e243 4e3d dc94 80bd
00000070: 0a73 483c fe01 173e e3fc 8bbe 7de6 ffbe
00000080: 8cc4 20bf c228 8fbc d8f6 f5bd e440 dd3d
00000090: 8fb4 cdbd 3239 84bc 77aa 923d 6d3d fdbd
000000a0: 35c2 0f3d 2826 e6bd e28c a3bd ccbd 26be

conv1.bias f4 [4]
-0.25034297 -0.010379239 0.23801371 0.46589425
00000000: f42c 80be af0d 2abc deb9 733e b189 ee3e

conv2.weight f4 [8, 4, 11]
0.020466492 -0.028791346 -0.06835922 0.049946412 -0.10055828 0.1236701 -0.06127736 -0.026398897
-0.026467167 0.057715133 0.06553501 -0.04952465 -0.10447241 0.0011006948 -0.06049487 -0.15208095
-0.10585366 -0.017887687 -0.08883806 -0.08825607 -0.08024544 -0.043765593 -0.10972933 -0.047722764
-0.15894343 0.026863728 0.048690856 -0.17251718 -0.018628802 0.0459663 0.06185191 0.037416838
-0.12166502 -0.05250571 0.01612697 -0.12675497 -0.13797225 -0.034189187 0.06955628 -0.03838834
-0.16492079 -0.13721502 -0.19908209 -0.14250648 -0.08413954 -0.01314348 0.06320275 -0.010673046
-0.08353383 -0.06806824 0.10764101 -0.09688944 -0.011308745 -0.040077455 0.025585935 -0.5729666
0.09540409 0.4659311 0.053323276 8.986715e-05 0.58382916 -0.10874941 -0.009038411 -0.70879054
-0.6248636 -0.4612194 0.12407909 0.09353107 -0.0072581354 0.049589667 0.055842802 -0.045294136
-0.066202715 -0.14816678 -0.585225 -0.05086863 0.3007637 0.011538103 0.060571674 -0.051030137
-0.14547454 0.021465523 -0.0061664237 -0.0003083286 -0.042995676 -0.12223941 0.07108177 0.83418477
0.016911507 0.12118417 0.048229992 -0.041363418 -0.0372672 -0.092556216 0.037855133 -0.0621711
0.07874146 0.13184047 0.11040172 -0.1829482 0.4317267 -0.24894638 0.057256512 0.09300474
-0.02325185 0.13338113 0.052092306 0.17443459 0.13285457 -0.09481083 0.17522359 0.28775606
-0.12844923 -0.08168726 -0.11647743 -0.20849118 -0.24275725 0.080787666 0.18417513 -0.033120923
0.053246766 -0.17302246 -0.15439242 -0.2916836 -0.21217173 -0.16021495 -0.18371174 -0.14540476
-0.00844218 -0.026760302 0.10934293 0.12840427 0.06299053 -0.12053877 0.08743411 -0.061399877
0.07871638 0.016981542 -0.03700185 -0.098714784 -0.14109717 0.0920701 0.028887913 0.0071299067
-0.24112992 0.08636488 -0.07151876 0.17672136 0.4101601 -0.09273222 -0.07428593 0.29525992
0.080832034 -0.441418 -0.12880564 -0.04717021 -0.056163974 -0.04233723 -0.05261486 -0.1336777
-0.1609031 0.052902114 0.101156 0.13911247 0.6233973 0.26408678 0.17064394 0.1456033
0.14800113 -0.022514151 0.1584795 0.049727973 0.14876588 0.09397492 -0.005576384 0.40817258
-0.14840308 -0.0963652 0.056451857 -0.13479604 -0.06951024 0.085541815 0.01160565 -0.04895576
0.1018334 0.13470486 -0.062463567 -0.11937007 -0.47200403 0.08350639 -0.14923295 0.20194851
0.41971064 -0.07415407 -0.06701418 -0.22880454 -0.28927112 0.008024663 0.043696273 0.1459393
0.15261315 -0.03935175 0.22242874 0.097127154 0.116264425 0.31090084 0.18512595 0.38927066
1.0658953 0.0055535715 0.04040353 0.058447905 -0.07844798 -0.010378938 -0.16521615 -0.16154423
-0.14833483 -0.03712177 0.15549718 0.50360584 0.11507189 -0.14178056 0.037941277 -0.14585657
0.04336776 -0.017316967 0.12373805 -0.0055681765 0.026122168 -0.017411187 0.12837192 -0.14369306
-0.005891502 0.14008269 -0.046328433 -0.14306685 -0.010280892 -0.07080215 0.14795998 0.10215655
0.0016160905 0.018294573 -0.16924769 -0.13380133 -0.22157285 -0.029549778 -0.2724357 -0.063224174
-0.0590744 -0.020992264 -0.098224685 -0.10365425 -0.11854915 -0.2413147 -0.22265632 -0.083107196
00000000: 58a9 a73c d4db ebbc ebff 8bbd 9c94 4c3d
00000010: 80f1 cdbd c046 fd3d f8fd 7abd 8042 d8bc
00000020: acd1 d8bc b466 6c3d 3837 863d 5cda 4abd
00000030: a2f5 d5bd 3045 903a 78c9 77bd 1cbb 1bbe
00000040: cec9 d8bd 3389 92bc bbf0 b5bd 99bf b4bd
00000050: b957 a4bd 8d43 33bd c5b9 e0bd f278 43bd
00000060: 11c2 22be 5211 dc3c 1070 473d 58a8 30be
00000070: 6e9b 98bc 2947 3c3d 6e58 7d3d 6642 193d
00000080: 832b f9bd 3a10 57bd b51c 843c 0ecc 01be
00000090: 9948 0dbe f609 0cbd 8673 8e3d 183d 1dbd
000000a0: ffe0 28be 1882 0cbe 2ddc 4bbe 38ed 11be
000000b0: 5a51 acbd c057 57bc 7270 813d 00de 2ebc
000000c0: c913 abbd 5d67 8bbd e472 dc3d f96d c6bd
000000d0: 5048 39bc 4228 24bd 9899 d13c f0ad 12bf
000000e0: 3863 c33d 858e ee3e 8269 5a3d 0f77 bc38
000000f0: d475 153f 03b8 debd d815 14bc 4c73 35bf
00000100: 10f7 1fbf f324 ecbe 2e1d fe3d 388d bf3d
00000110: a7d5 edbb 891e 4b3d 6cbb 643d 5886 39bd
00000120: 4a95 87bd 08b9 17be 4ed1 15bf a05b 50bd
00000130: b3fd 993e 500a 3d3c 011a 783d fa04 51bd
00000140: 47f7 14be 77d8 af3c b60f cabb 2aa7 a1b9
00000150: 3c1c 30bd a858 fabd 5293 913d 228d 553f
00000160: 008a 8a3c 682f f83d d08c 453d b06c 29bd
00000170: 7ea5 18bd 1d8e bdbd fc0d 1b3d 20a7 7ebd
00000180: 3443 a13d 3001 073e 4c1a e23d c656 3bbe
00000190: 480b dd3e cdeb 7ebe ce85 6a3d 4579 be3d
000001a0: aa7a bebc 1095 083e be5e 553d fb9e 323e
000001b0: 070b 083e 2e2c c2bd d06d 333e c354 933e
000001c0: 3288 03be a64b a7bd b88b eebd b67e 55be
000001d0: 5b95 78be 0174 a53d 6898 3c3e cea9 07bd
000001e0: 4819 5a3d cd2c 31be 0c19 1ebe 8e57 95be
000001f0: 8c43 59be 630f 24be ee1e 3cbe fce4 14be
00000200: 1251 0abc 6c38 dbbc 30ef df3d 697c 033e
00000210: 2e01 813d 08dd f6bd a810 b33d 707e 7bbd
00000220: 0e36 a13d e01c 8b3c 408f 17bd fa2a cabd
00000230: c77b 10be 408f bc3d 58a6 ec3c fea1 e93b
00000240: c3ea 76be 12e0 b03d 6d78 92bd 72f6 343e
00000250: 8100 d23e 64ea bdbd 3923 98bd 4f2c 973e
00000260: 448b a53d 8a01 e2be a0e5 03be 8d35 41bd
00000270: 320c 66bd ce69 2dbd ae82 57bd cfe2 08be
00000280: c8c3 24be e3af 583d e02a cf3d 8073 0e3e
00000290: f796 1f3f 6236 873e 49bd 2e3e 0819 153e
000002a0: 9c8d 173e 996f b8bc 7348 223e 8faf 4b3d
000002b0: 1556 183e ec75 c03d 19ba b6bb fffb d03e
000002c0: faf6 17be 1e5b c5bd 103a 673d f907 0abe
000002d0: 625b 8ebd 8c30 af3d a025 3e3c d685 48bd
000002e0: 088e d03d 12f0 093e ccd9 7fbd 4c78 f4bd
000002f0: 83aa f1be 6605 ab3d 86d0 18be 97cb 4e3e
00000300: 50e4 d63e 17de 97bd bb3e 89bd bd4b 6abe
00000310: 581b 94be e079 033c ddfa 323d 1d71 153e
00000320: 9f46 1c3e 4d2f 21bd 5cc4 633e 9aea c63d
00000330: 0b1c ee3d 652e 9f3e a891 3d3e 7c4e c73e
00000340: 426f 883f bcfa b53b 2c7e 253d 1267 6f3d
00000350: 56a9 a0bd 6c0c 2abc 6c2e 29be da6b 25be
00000360: 16e5 17be ff0c 18bd a73a 1f3e 50ec 003f
00000370: d0aa eb3d ec2e 11be 5068 1b3d 6d5b 15be
00000380: 64a2 313d 50dc 8dbc 606a fd3d 4075 b6bb
00000390: 28fe d53c e8a1 8ebc ee73 033e 4624 13be
000003a0: 800d c1bb d671 0f3e e2c2 3dbd 1e80 12be
000003b0: 3071 28bc b800 91bd d282 173e 7437 d13d
000003c0: 00d3 d33a 80de 953c 444f 2dbe 3703 09be
000003d0: fee3 62be 6012 f2bc b17c 8bbe ad7b 81bd
000003e0: 00f8 71bd f8f7 abbc 062a c9bd ae48 d4bd
000003f0: e6c9 f2bd 331b 77be 0500 64be 1b34 aabd

conv2.bias f4 [8]
-0.15317437 -0.18654704 0.24614556 -0.012549217 -0.4719684 -0.21550114 0.15173896 -0.050078098
00000000: bed9 1cbe 3006 3fbe 950d 7c3e 3b9b 4dbc
00000010: d8a5 f1be 55ac 5cbe 7561 1b3e b11e 4dbd

conv3.weight f4 [16, 8, 11]
-0.00889726 -0.08943605 0.092078865 -0.08370184 0.101219654 -0.0038544387 0.07090257 0.079609245
-0.052494153 0.01889415 0.017055392 -0.2313077 -0.07838631 -0.08812884 -0.21908392 -0.031453565
-0.1862303 -0.037841998 -0.10280544 -0.179339 -0.1169181 -0.06409839 0.15841272 0.1542395
0.10830243 0.12742445 0.028691333 0.023703791 0.013596381 -0.065076165 -0.11138594 -0.1389506
-0.20889919 -0.03167064 -0.12536152 -0.12958275 -0.20181939 -0.14170897 -0.109111436 -0.13427468
-0.20361407 -0.06834715 -0.054249477 -0.08113547 -0.21056084 -0.093818866 -0.08384544 -0.21563485
-0.10999455 -0.08784321 -0.027821139 -0.20064671 -0.18934911 -0.004534264 -0.027275633 -0.0014115274
-0.03547594 -0.021756679 -0.022725426 0.04285194 -0.05219368 0.10587074 -0.050521463 0.08381501
-0.023028001 -0.00010384619 -0.017952412 -0.024841916 -0.028601656 -0.21660171 -0.0042316318 -0.067063354
-0.11918932 -0.1855815 -0.06888032 -0.07159185 -0.17646714 -0.17962022 -0.18226004 -0.21127246
-0.08662069 -0.10345695 -0.042637203 -0.15808807 -0.02106922 -0.011749831 -0.19831955 -0.10320135
-0.0005178879 0.032130554 -0.028401904 -0.03228502 -0.014071022 -0.15332338 -0.011511641 0.020987526
-0.029926632 -0.14234138 -0.14663596 -0.059509333 -0.06948214 -0.030621948 -0.06821859 -0.0645931
-0.06640195 0.039397437 0.0056668012 -0.10590516 0.039620925 -0.0116966665 -0.115401626 -0.022792922
0.007357077 -0.13333447 -0.09398113 -0.101285465 -0.08050621 -0.019599495 -0.0379964 0.04829613
0.0078743845 -0.11896841 -0.002491905 0.008198151 -0.13464321 0.0065730237 -0.10090623 0.006006969
-0.13991503 -0.073849596 0.051873483 0.0024896245 -0.04523538 0.053700566 0.036489043 -0.06243403
-0.091897584 -0.11202414 -0.07328255 0.0060189357 0.031874496 0.029980674 -0.120026045 0.03244336
-0.05363405 -0.008724153 0.04657425 0.078273505 0.05768141 0.051197067 -0.1024048 -0.024668925
-0.04549453 -0.015281834 -0.04170061 -0.08059792 -0.033492632 0.001714939 0.012336385 -0.06260988
-0.12293858 -0.049270425 -0.038553037 -0.1277237 -0.078494705 -0.12356552 -0.0012001706 0.0525348
-0.014169012 -0.026854184 -0.14369856 -0.09169224 -0.049763776 -0.09618677 -0.11078034 0.028436448
-0.082485504 -0.0700829 -0.028749347 0.0001578778 -0.02653458 -0.06739871 0.104932904 -0.052113872
0.07478131 0.07530068 -0.065188296 -0.003834198 -0.06787299 -0.08571852 -0.12238707 -0.0769909
0.057421234 0.08418073 0.17093351 0.21741165 0.06175813 0.09771573 0.71592784 0.6852218
-0.08278441 -1.7596056 -2.984022 -1.0974395 0.4156423 1.1475422 1.1365248 0.6654606
-0.0070420015 0.12765716 0.039352555 0.13738777 0.1624865 0.17108922 0.295073 0.2221588
0.30468616 0.13131672 0.106694795 -0.023912689 0.39329702 0.13218816 -0.16883214 -0.057919983
-0.06484926 -0.060233455 0.049035642 0.18118846 0.19787458 -0.09034764 -0.17009152 0.0827108
0.086127594 0.0787061 -0.03986276 0.046068966 0.03987828 0.081552446 0.08918291 0.03537707
0.021361753 -0.0635452 -0.13485701 -0.3439549 -0.18839025 -0.35741314 -0.1709084 -0.075642966
-0.18191044 0.08436432 -0.20051152 -0.06544002 0.15141809 0.6107949 0.68152785 0.3037982
00000000: d0c5 11bc 3f2a b7bd d893 bc3d df6b abbd
00000010: 404c cf3d c09a 7cbb 5e35 913d 2c0a a33d
00000020: 1c04 57bd e8c7 9a3c c0b7 8b3c eddb 6cbe
00000030: 0089 a0bd e57c b4bd 8957 60be 74d5 00bd
00000040: 28b3 3ebe 3600 1bbd a98b d2bd a5a4 37be
00000050: c272 efbd 0446 83bd f236 223e f6f0 1d3e
00000060: aacd dd3d 8e7b 023e 160a eb3c 742e c23c
00000070: 5bc3 5e3c a746 85bd 501e e4bd 1149 0ebe
00000080: abe9 55be 13b9 01bd c55e 00be 57b1 04be
00000090: bea9 4ebe 281c 11be d175 dfbd 4d7f 09be
000000a0: 3580 50be 97f9 8bbd b334 5ebd 5a2a a6bd
000000b0: 439d 57be 1b24 c0bd 28b7 abbd 62cf 5cbe
000000c0: d344 e1bd 24e7 b3bd 28e9 e3bc 5576 4dbe
000000d0: bce4 41be 2a94 94bb 2671 dfbc 0003 b9ba
000000e0: 384f 11bd 103b b2bc ac2a babc 8485 2f3d
000000f0: 0ac9 55bd c2d2 d83d 98ef 4ebd 34a7 ab3d
00000100: 38a5 bcbc 00c8 d9b8 f010 93bc 4681 cbbc
00000110: 054e eabc d7cc 5dbe 80a9 8abb 8358 89bd
00000120: 8819 f4bd 1409 3ebe 2011 8dbd bf9e 92bd
00000130: cdb3 34be 5dee 37be 60a2 3abe cf57 58be
00000140: 3066 b1bd 3de1 d3bd 59a4 2ebd d7e1 21be
00000150: 5b99 acbc 5d82 40bc 4814 4bbe 3b5b d3bd
00000160: dec2 07ba 549b 033d 1cab e8bc 4c3d 04bd
00000170: 258a 66bc ce00 1dbe 529b 3cbc 08ee ab3c
00000180: b228 f5bc f0c1 11be bd27 16be 0fc0 73bd
00000190: a74c 8ebd e1da fabc 30b6 8bbd 6349 84bd
000001a0: bffd 87bd 355f 213d 93b0 b93b cee4 d8bd
000001b0: 8d49 223d 60a3 3fbc b057 ecbd 39b8 babc
000001c0: a313 f13b d588 08be 2e79 c0bd c16e cfbd
000001d0: 71e0 a4bd 1f8f a0bc 1da2 1bbd 2ad2 453d
000001e0: 9003 013c b6a5 f3bd 3a4f 23bb 8a51 063c
000001f0: e9df 09be 8562 d73b eda7 cebd 1cd6 c43b
00000200: e345 0fbe 753e 97bd 4a79 543d f828 233b
00000210: bc48 39bd 20f5 5b3d 8975 153d d3ba 7fbd
00000220: cd34 bcbd ea6c e5bd 2915 96bd 7e3a c53b
00000230: d58e 023d 089a f53c 37d0 f5bd 54e3 043d
00000240: 61af 5bbd c0ef 0ebc a4c4 3e3d dc4d a03d
00000250: 5843 6c3d 04b4 513d 9cb9 d1bd 7c16 cabc
00000260: 7958 3abd a860 7abc 42ce 2abd 8610 a5bd
00000270: 922f 09bd cec7 e03a 8d1e 4a3c 9c39 80bd
00000280: 39c7 fbbd c9cf 49bd cae9 1dbd 00ca 02be
00000290: d5c1 a0bd eb0f fdbd 0b4f 9dba bb2e 573d
000002a0: 2525 68bc 4efd dbbc b725 13be 24c9 bbbd
000002b0: 1ad5 4bbd 92fd c4bd cee0 e2bd 8ef3 e83c
000002c0: 29ee a8bd a087 8fbd c083 ebbc 008c 2539
000002d0: 0c5f d9bc 5608 8abd 10e7 d63d 5b75 55bd
000002e0: f226 993d 3e37 9a3d 7181 85bd 2b47 7bbb
000002f0: ff00 8bbd 318d afbd 12a6 fabd 68ad 9dbd
00000300: 8732 6b3d f266 ac3d 3209 2f3e 29a1 5e3e
00000310: 18f6 7c3d 2f1f c83d 0c47 373f b26a 2f3f
00000320: df8a a9bd c23a e1bf 37fa 3ec0 e678 8cbf
00000330: 11cf d43e aae2 923f a579 913f a05b 2a3f
00000340: 97c0 e6bb 8fb8 023e 2530 213d 61af 0c3e
00000350: dc62 263e 0332 2f3e cf13 973e 997d 633e
00000360: d3ff 9b3e e477 063e cd82 da3d 8be4 c3bc
00000370: 3a5e c93e 555c 073e 55e2 2cbe 813d 6dbd
00000380: b0cf 84bd 5bb7 76bd 99d9 483d 7889 393e
00000390: a29f 4a3e 2f08 b9bd 792c 2ebe 4864 a93d
000003a0: aa63 b03d aa30 a13d 2247 23bd d0b2 3c3d
000003b0: 6857 233d f804 a73d 88a5 b63d 8ce7 103d
000003c0: d8fe ae3c fc23 82bd f517 0abe db1a b0be
000003d0: 60e9 40be dbfe b6be 9d02 2fbe b3ea 9abd
000003e0: bb46 3abe 33c7 ac3d e452 4dbe 6b05 86bd
000003f0: 580d 1b3e 0e5d 1c3f 9c78 2e3f 708b 9b3e

conv3.bias f4 [16]
-0.15251288 -0.13585953 -0.812624 -0.07293998 -0.2914163 -0.050726473 0.13289231 -0.0870416
-0.050252702 -0.03929823 -0.06881915 0.120775394 -0.068391606 0.28564593 0.33931434 -0.060313758
00000000: 562c 1cbe c31e 0bbe 2008 50bf 8e61 95bd
00000010: 8434 95be 90c6 4fbd ec14 083e de42 b2bd
00000020: c7d5 4dbd 2ef7 20bd 0ef1 8cbd 1759 f73d
00000030: e610 8cbd 2f40 923e 9cba ad3e 8f0b 77bd

conv4.weight f4 [32, 16, 11]
0.18472749 0.048698727 -0.010027844 -0.019104505 -0.068194725 -0.14528504 -0.012724416 -0.029831875
0.11734358 0.1114992 0.068605065 0.0067911446 -0.009043232 -0.029972777 -0.0070166364 -0.07457193
0.027676173 0.07128057 -0.007486008 -0.060858436 -0.06972438 -0.030198757 0.41356143 -0.22701046
0.27871352 0.55965286 -0.23322687 -0.18075275 0.015925251 0.15271299 0.2442148 -0.27791908
-0.55914265 -0.05727196 -0.015777968 0.07027282 -0.070750356 0.046618342 -0.06354698 0.004982941
0.021314748 0.068964794 0.05862905 -0.011773959 0.5644201 0.2121562 0.22834404 0.042315252
-0.2075873 -0.20806153 0.122518085 0.24143656 0.12275486 0.02685742 0.7567811 -0.028370652
-0.0041294396 -0.0112789795 -0.06414945 0.065597594 0.05088292 0.047047064 0.039077245 0.021358348
-0.0033543855 0.036933936 0.35680732 -0.08931847 0.014086731 0.45481756 0.4237097 0.08225297
-0.14605884 -0.14971383 0.079818234 0.10203574 -0.4813986 -0.036731 -0.032457925 0.059828356
-0.07039469 0.019490562 0.053179592 0.052420527 -0.03890459 0.011395022 0.062664226 -0.014578156
-0.029378664 0.01340954 -0.048763357 -0.007321097 -0.0630885 0.027873144 0.025015004 -0.0028509572
0.03845942 -0.0127132535 0.009248152 -0.051849402 -0.052859586 -0.024525594 0.026117735 -0.06912005
0.048768304 0.05235824 -0.06311859 -0.0723231 -0.06715446 -0.02585718 -0.030619632 0.02626466
-0.018322695 0.04639393 0.014901511 0.0041222274 0.028001748 0.031057842 0.06345753 -0.044435456
-0.04109038 -0.12640136 -0.07678855 -0.07318031 -0.2678241 0.14800811 -0.004194129 0.11519831
-0.09390936 -0.072841704 -0.0051121623 0.5836263 0.7448801 0.17466024 -0.36761016 0.27340785
0.38929683 -0.17104927 -0.23609895 -0.0341769 0.10139602 0.18781704 -0.14589961 -0.33825484
0.2294431 0.037329387 -0.51015097 -0.189184 0.20800817 0.06225218 -0.37743887 -0.5107916
-0.0089881765 1.1816686 -0.38515142 -0.046007037 0.079649836 -0.14490184 -0.17354746 0.13707735
0.16666101 -0.02226322 -0.34264484 0.12807804 0.8619512 -0.04491339 -0.049720787 -0.041070342
0.021089293 -0.034404173 0.056377545 -0.04885277 0.05567503 0.02752924 0.062002838 -0.033443563
0.04577305 -0.074464075 0.059874803 0.0484045 -0.039365638 0.069911405 0.070990264 0.037139982
0.066932306 -0.048986465 0.06173402 0.004851781 0.011170179 -0.071994044 -0.05616019 -0.061195556
0.015983418 -0.065011136 0.060774297 0.011951938 0.0048226714 0.057469964 -0.025971137 0.03640318
-0.038277466 -0.05430416 0.037238024 0.05235003 0.010341294 -0.04730341 0.0053672865 -0.04030838
-0.04330309 -0.029584501 0.010179475 -0.05919382 -0.049081936 -0.05058703 0.04539246 -0.07427301
0.04911492 -0.03981162 -0.023568738 0.02154573 -0.018940873 -0.058284383 -0.13383807 -0.05732704
-0.099940814 -0.048989173 -0.06857221 -0.02159149 -0.15495045 -0.03351785 -0.04282813 0.06326635
0.04937981 0.037688777 0.031922616 0.033986613 0.070865676 -0.016288314 -0.014092505 0.05890104
0.035155185 0.052563697 -0.09260369 -0.06127512 -0.010253105 -0.11396074 -0.15142258 -0.11236607
-0.016847746 -0.10281786 -0.07192275 -0.1404883 -0.024830889 -0.06691392 0.048105203 -0.008414783
00000000: 3429 3d3e 5178 473d d44b 24bc 0d81 9cbc
00000010: ada9 8bbd 9ac5 14be 127a 50bc fa61 f4bc
00000020: d551 f03d b159 e43d d080 8c3d 4088 de3b
00000030: 102a 14bc 7889 f5bc d0eb e5bb 2bb9 98bd
00000040: 24b9 e23c 8cfb 913d 304d f5bb b246 79bd
00000050: a8cb 8ebd 6263 f7bc 53be d33e 6e75 68be
00000060: 8ab3 8e3e 6945 0f3f 06d3 6ebe 4017 39be
00000070: ac75 823c cb60 1c3e 7213 7a3e 694b 8ebe
00000080: f923 0fbf 0196 6abd cc40 81bc 32eb 8f3d
00000090: 90e5 90bd e0f2 3e3d eb24 82bd f047 a33b
000000a0: 449c ae3c 6a3d 8d3d 0425 703d 90e7 40bc
000000b0: d67d 103f 7a3f 593e 05d3 693e c252 2d3d
000000c0: c491 54be 150e 55be c3ea fa3d 253b 773e
000000d0: e666 fb3d 1804 dc3c 68bc 413f 9269 e8bc
000000e0: 4050 87bb 78cb 38bc c960 83bd 0858 863d
000000f0: 9c6a 503d 6cb4 403d 760f 203d b4f7 ae3c
00000100: 40d5 5bbb 0a48 173d 73af b63e 9aec b6bd
00000110: 08cc 663c d9dd e83e 7af0 d83e 3f74 a83d
00000120: 7390 15be 954e 19be be77 a33d 1df8 d03d
00000130: e179 f6be 3f73 16bd 9af2 04bd 940e 753d
00000140: 172b 90bd acaa 9f3c d8d2 593d e8b6 563d
00000150: 6b5a 1fbd 30b2 3a3c 1a56 803d 38d9 6ebc
00000160: 86ab f0bc b0b3 5b3c 16bc 47bd d0e5 efbb
00000170: 8b34 81bd 3856 e43c 44ec cc3c 20d7 3abb
00000180: a087 1d3d 404b 50bc 9085 173c 0a60 54bd
00000190: 4b83 58bd e6e9 c8bc dcf4 d53c d08e 8dbd
000001a0: 46c1 473d 9875 563d 5244 81bd 221e 94bd
000001b0: 4788 89bd 70d2 d3bc 06d6 fabc fc28 d73c
000001c0: 7a19 96bc 9007 3e3d 7825 743c c013 873b
000001d0: ec63 e53c 046d fe3c 06f6 813d f401 36bd
000001e0: 634e 28bd 5c6f 01be 5143 9dbd 8fdf 95bd
000001f0: 3e20 89be 708f 173e e76e 89bb 17ed eb3d
00000200: 8d53 c0bd 082e 95bd ed83 a7bb 8868 153f
00000210: 76b0 3e3f 22da 323e 6637 bcbe 1dfc 8b3e
00000220: ea51 c73e 8a27 2fbe ecc3 71be 14fd 0bbd
00000230: b7a8 cf3d 1c53 403e b566 15be bd2f adbe
00000240: 22f3 6a3e b3e6 183d 4199 02bf 73b9 41be
00000250: 1800 553e 24fc 7e3d ab3f c1be 3dc3 02bf
00000260: 2543 13bc eb40 973f 9132 c5be e071 3cbd
00000270: 741f a33d 2661 14be 6db6 31be 015e 0c3e
00000280: 2fa9 2a3e 5b61 b6bc 256f afbe e426 033e
00000290: d5a8 5c3f 1af7 37bd 06a8 4bbd 6039 28bd
000002a0: 74c3 ac3c 64eb 0cbd 24ec 663d d819 48bd
000002b0: 800b 643d 0085 e13c b0f6 7d3d 1efc 08bd
000002c0: 867c 3b3d 9f80 98bd 483f 753d cc43 463d
000002d0: dd3d 21bd b62d 8f3d 5863 913d 1820 183d
000002e0: ce13 893d 08a6 48bd d0dc 7c3d b0fb 9e3b
000002f0: 2003 373c 9d71 93bd 3a08 66bd 31a8 7abd
00000300: a8ef 823c 8f24 85bd 78ee 783d 10d2 433c
00000310: 8007 9e3b a065 6b3d 6cc1 d4bc 801b 153d
00000320: d5c8 1cbd 0a6e 5ebd e686 183d fc6c 563d
00000330: 886e 293c 38c1 41bd 10e0 af3b 661a 25bd
00000340: 955e 31bd 325b f2bc d0c7 263c 3875 72bd
00000350: 240a 49bd 5834 4fbd 72ed 393d 731c 98bd
00000360: ba2c 493d 8211 23bd 3a13 c1bc ac80 b03c
00000370: e429 9bbc 9bbb 6ebd d90c 09be c2cf 6abd
00000380: c5ad ccbd dfa8 48bd 966f 8cbd a3e0 b0bc
00000390: 55ab 1ebe 034a 09bd 8d6c 2fbd ca91 813d
000003a0: 7c42 4a3d 8c5f 1a3d 4ac1 023d 8c35 0b3d
000003b0: 0622 913d 126f 85bc 40e4 66bc 3842 713d
000003c0: e2fe 0f3d 084d 573d 01a7 bdbd 9ffb 7abd
000003d0: a4fc 27bc 4064 e9bd 850e 1bbe 2f20 e6bd
000003e0: 4904 8abc 2c92 d2bd 3c4c 93bd 2adc 0fbe
000003f0: 266a cbbc 2a0a 89bd f609 453d 28de 09bc

conv4.bias f4 [32]
-0.32205006 -0.13357244 -0.22455958 0.58053416 0.056688163 -0.012280918 0.045858454 -0.05507935
-0.023711728 -0.0031461148 -0.23384027 -0.0035090158 -0.026856093 0.076694794 -0.12993148 -0.04568848
-0.40801913 -0.29799986 0.27230516 0.011712484 -0.017634727 -0.11876811 -0.10754275 0.20787667
-0.15228535 -0.010427654 -0.11511175 -0.23848797 -0.45351952 -0.09988865 0.55432844 -0.0044011194
00000000: bfe3 a4be 37c7 08be f2f2 65be e39d 143f
00000010: d931 683d e735 49bc 13d6 3b3d e29a 61bd
00000020: 193f c2bc 0c2f 4ebb d373 6fbe 84f7 65bb
00000030: 4f01 dcbc 2912 9d3d c20c 05be d823 3bbd
00000040: e2e7 d0be 7093 98be 956b 8b3e b8e5 3f3c
00000050: b476 90bc b23c f3bd 603f dcbd 9fdd 543e
00000060: b1f0 1bbe c0d8 2abc b6bf ebbd 3136 74be
00000070: b633 e8be 6c92 ccbd 78e8 0d3f 4437 90bb

fc_moy.weight f4 [32, 32]
0.43105474 -0.007961094 -0.45300415 -0.30414343 0.02138984 0.06041458 -0.18273978 0.039983828
0.19198625 -0.082063064 0.19431981 -0.00031269458 0.18272902 0.042544644 0.23443437 -0.060432587
0.36535287 0.045008067 0.34095523 -0.025251443 -0.10840911 0.2457339 0.039295882 -0.0491279
0.094634935 0.0054853093 0.1914822 0.012275067 0.09322618 -0.04154727 0.096780166 -0.06996771
-0.1069365 -0.043834247 0.2836069 0.14533018 -0.07654374 0.035927862 0.11947251 0.106301814
-0.06284085 0.08229338 0.1304787 0.18316856 0.051157877 0.13249627 -0.23193434 -0.008067416
0.13326335 0.22140445 -0.050737254 0.04777222 0.09372068 -0.05123671 -0.06714539 -0.13594277
-0.14236411 0.010884741 -0.19707969 -0.05761223 0.26473162 -0.0600741 -0.14059585 -0.22314477
0.12605467 0.091157645 0.2588383 0.22258118 -0.057425447 0.13271958 -0.69212335 0.19208731
0.055023212 0.13338144 -0.06907601 0.054080263 0.060449038 0.93805546 -0.13339245 -0.09623744
-0.056545455 -0.07731414 -0.37753046 0.07158923 0.11277486 -0.042127382 -0.08355515 0.1480333
0.23842593 -0.11919178 0.09507668 0.23003232 -0.66577446 0.11208892 -0.1802313 0.048291277
-0.18479788 0.055846922 0.5506322 0.48705873 -0.26456752 -0.06815885 0.28737426 0.07432958
-0.012362596 0.09690795 0.26752448 -0.09020963 0.18312413 -0.1587511 -0.1688265 0.08369048
-0.2884798 -0.41177106 -0.19834775 0.18383013 0.1209756 -0.10016848 -0.014650485 -0.1758148
0.02161345 -0.10081637 -0.026540877 0.1361364 0.18230534 0.21683213 -0.38168284 0.114285335
0.46570742 0.21242768 -0.068643965 -0.42645258 0.03397408 0.029852161 -0.15081163 0.21624057
0.22691199 -0.067701675 -0.1767809 -0.05930335 -0.18759869 0.30887988 -0.03213629 0.11289726
-0.08446711 0.2717353 0.08622932 -0.07497369 -0.1397475 -0.018053457 -0.21695793 0.14610614
0.261528 -0.16584672 -0.042225752 0.11267653 0.21456458 -0.14949048 -0.09161732 0.020177364
0.22691116 -0.11258977 -0.10905333 0.31692713 0.02184956 -0.06730518 -0.42681995 -0.14326455
-0.2567751 0.015114281 -0.37638813 -0.14732188 -0.0026340997 0.10208675 0.011577176 -0.15948528
0.6611536 -0.32620284 -0.8202817 -0.044069532 -0.22546199 -0.25975057 0.052618362 0.07665409
0.12902273 -0.14842229 -0.25655216 0.5247547 0.5476923 0.18771143 -0.136592 -0.18157974
0.11764347 -0.22336404 0.26000255 0.23550998 0.032330055 -0.099786155 -0.09341492 0.08621025
-0.25793222 0.05339872 0.28617272 0.05401202 0.07788057 -0.37667626 -0.02305743 0.04304346
0.2423843 -0.37508774 0.20935598 -0.14765692 0.106620386 0.24077103 0.1783874 -0.5773456
0.00744147 -0.16217253 -0.2722028 -0.14815018 -0.16611467 0.16576526 -0.095206596 -0.011680147
-0.48944604 -0.18864031 0.023691554 0.46143863 0.08774692 -0.20379391 -0.6708937 -0.008621027
0.18350738 -0.02464428 0.0126289055 0.057338014 -0.23016885 0.39502072 0.0077905133 0.02784148
-0.15014048 0.11106043 -0.15159406 -0.14726566 -0.19041625 -0.15295947 0.033094216 -0.23536637
0.048533447 -0.23122258 0.05903747 -0.41704515 0.63674664 0.21322867 0.2171322 0.0600558
00000000: 35b3 dc3e 406f 02bc 29f0 e7be b0b8 9bbe
00000010: bf39 af3c 4775 773d 2320 3bbe 15c6 233d
00000020: 0b98 443e ae10 a8bd c6fb 463e 28f1 a3b9
00000030: 511d 3b3e 4b43 2e3d 900f 703e 2988 77bd
00000040: 880f bb3e 615a 383d af91 ae3e 1ddc cebc
00000050: 9805 debd aba1 7b3e b8f4 203d 563a 49bd
00000060: f6cf c13d 1cbe b33b e913 443e 5d1d 493c
00000070: 5eed be3d 782d 2abd ae34 c63d 3b4b 8fbd
00000080: 8601 dbbd 8a8b 33bd ec34 913e 6fd1 143e
00000090: f7c2 9cbd 1829 133d 01ae f43d c4b4 d93d
000000a0: b4b2 80bd 6e89 a83d 359c 053e 8a90 3b3e
000000b0: ec8a 513d 1aad 073e 3280 6dbe 322d 04bc
000000c0: 3076 083e d9b7 623e ded1 4fbd ceac 433d
000000d0: a1f0 bf3d 96dd 51bd 8683 89bd 9534 0bbe
000000e0: e6c7 11be ea55 323c 42cf 49be cdfa 6bbd
000000f0: e78a 873e 4210 76bd 5cf8 0fbe 1080 64be
00000100: 7a14 013e dcb0 ba3d 7486 843e 52ec 633e
00000110: f236 6bbd a4e7 073e ff2e 31bf 89b2 443e
00000120: 0560 613d 2595 083e b977 8dbd 4483 5d3d
00000130: 6999 773d 6724 703f 0898 08be 2318 c5bd
00000140: 359c 67bd e056 9ebd ac4b c1be 609d 923d
00000150: 81f6 e63d c38d 2cbd f61e abbd 0b96 173e
00000160: ed25 743e d21a f4bd 90b7 c23d 988d 6b3e
00000170: 3270 2abf e08e e53d 8e8e 38be 13cd 453d
00000180: a83b 3dbe bebf 643d 3bf6 0c3f c35f f93e
00000190: 6575 87be de96 8bbd b822 933e 1b3a 983d
000001a0: 7c8c 4abc ad77 c63d f8f8 883e d4bf b8bd
000001b0: e484 3b3e a68f 22be dbe0 2cbe ea65 ab3d
000001c0: a0b3 93be a8d3 d2be ac1b 4bbe f73d 3c3e
000001d0: 0ec2 f73d 2225 cdbd 9608 70bc cc08 34be
000001e0: b10e b13c d078 cebd 416c d9bc 5767 0b3e
000001f0: 40ae 3a3e 3e09 5e3e ef6b c3be 6e0e ea3d
00000200: 3471 ee3e a486 593e 3595 8cbd fe57 dabe
00000210: 6828 0b3d 858c f43c 5d6e 1abe 2b6e 5d3e
00000220: 9e5b 683e 2da7 8abd 0d06 35be 12e8 72bd
00000230: df19 40be 8125 9e3e 58a1 03bd ae36 e73d
00000240: 18fd acbd e420 8b3e ff98 b03d ce8b 99bd
00000250: f819 0fbe d8e4 93bc 382a 5ebe d99c 153e
00000260: ffe6 853e b9d3 29be e9f4 2cbd f4c2 e63d
00000270: d1b6 5b3e 0814 19be dda1 bbbd 004b a53c
00000280: 665b 683e 7795 e6bd 5a57 dfbd 4644 a23e
00000290: d9fd b23c 4cd7 89bd 2588 dabe f1b3 12be
000002a0: 0778 83be e4a1 773c f2b5 c0be 8cdb 16be
000002b0: dca0 2cbb dc12 d13d 32ae 3d3c 1c50 23be
000002c0: 5d41 293f 0f04 a7be fbfd 51bf 4182 34bd
000002d0: 82df 66be 07fe 84be 5a86 573d d2fc 9c3d
000002e0: 891e 043e 03fc 17be ce5a 83be 5356 063f
000002f0: 9035 0c3f 6d37 403e c6de 0bbe 0af0 39be
00000300: 0fef f03d 8bb9 64be 0e1f 853e 8729 713e
00000310: 856c 043d af5c ccbd 5250 bfbd 008f b03d
00000320: b10f 84be 9eb8 5a3d 3b85 923e b53b 5d3d
00000330: d97f 9f3d b6db c0be efe2 bcbc 574e 303d
00000340: 9733 783e 800b c0be 6a61 563e 6033 17be
00000350: ca5b da3d ae8c 763e 30ab 363e eccc 13bf
00000360: 93d7 f33b 8e10 26be 2a5e 8bbe aeb4 17be
00000370: f719 2abe 5ebe 293e adfb c2bd 165e 3fbc
00000380: ac98 fabe ed2a 41be ca14 c23c af41 ec3e
00000390: a8b4 b33d 5aaf 50be b1bf 2bbf 353f 0dbc
000003a0: 5ce9 3b3e cde2 c9bc 78e9 4e3c 44db 6a3d
000003b0: 62b1 6bbe 2840 ca3e 9047 ff3b d113 e43c
000003c0: 6dbe 19be a773 e33d 793b 1bbe cfcc 16be
000003d0: 7afc 42be 68a1 1cbe cd8d 073d e203 71be
000003e0: 02cb 463d 9dc5 6cbe 46d1 713d f186 d5be
000003f0: d401 233f 9e58 5a3e e757 5e3e 12fd 753d

fc_moy.bias f4 [32]
-0.110415116 -0.035956923 0.43197522 -0.814646 -0.54292125 -0.47504675 -0.16158806 0.16143811
-0.8208668 -0.06667199 -0.12874524 -0.35620052 1.2659776 0.83540124 0.06545923 0.9427429
1.438495 0.53473115 0.46616933 -0.36372766 -1.0343654 1.5068697 0.68008375 -0.70841926
0.9617946 -0.49418584 0.36728218 1.4260191 -1.5730789 0.80351204 0.85806865 -0.9703
00000000: 5221 e2bd 9147 13bd db2b dd3e a48c 50bf
00000010: e3fc 0abf 5439 f3be 5777 25be 0850 253e
00000020: 5424 52bf 538b 88bd cbd5 03be ea5f b6be
00000030: 8e0b a23f dbdc 553f 7d0f 863d 9957 713f
00000040: 9b20 b83f 24e4 083f bfad ee3e 833a babe
00000050: 1666 84bf 1be1 c03f f819 2e3f f75a 35bf
00000060: 2c38 763f ed05 fdbe 690c bc3e cb87 b63f
00000070: a65a c9bf f7b2 4d3f 63aa 5b3f 9565 78bf

fc_var.weight f4 [32, 32]
-1.1441826 -0.029971648 -0.41139174 -1.5038059 0.009374888 0.024044428 -0.42073298 -0.016866524
-0.027758867 0.050490588 -0.36609402 0.07789348 -0.092994735 -1.0172492 -0.075571954 0.1310769
-0.42440432 -0.3499682 -0.87162983 -0.07681801 -0.16778833 -0.39520442 -0.21150123 -0.6002484
0.005878935 -0.032817528 0.037222162 -0.5093259 -0.34308058 -0.07156954 -1.1202195 -0.11967926
-1.4909196 0.058544744 -0.13476026 -1.516463 -0.025547976 0.07754211 -0.12632832 0.2199961
0.113206185 0.043802116 -0.10086379 0.05880939 -0.21863902 -1.4856871 0.12466235 0.118538186
-0.31501913 -0.23014578 -1.5612006 -0.08552328 -0.090429716 -0.3167886 -0.07483032 -0.63919145
0.18965457 0.09643489 0.16755177 -0.21535513 -0.4074508 0.244377 -2.2710342 0.018624352
-1.6498498 0.25097352 -0.24736184 -1.5735373 -0.1546422 -0.01842192 -0.3101393 -0.0036645066
0.15924796 0.1293174 -0.5056997 -0.068410434 0.053901877 -1.2516764 -0.029487548 0.119117655
-0.39297286 -0.34823802 -1.7048948 0.096642464 0.08315316 -0.4295001 -0.061964642 -0.62055975
-0.13699812 0.04621904 0.1389775 -0.50240415 -0.24092007 0.10625398 -1.6619533 -0.0728952
-0.78606504 0.2380339 -0.42965493 -1.0707248 0.14985962 -0.21097907 -0.721963 -0.08042714
0.16630311 0.035943214 -0.4583645 -0.09440102 -0.23073076 -1.0596367 -0.2596268 0.13926992
-0.5632191 -0.62712824 -1.4274753 -0.078348115 0.078358136 -0.7191671 0.1878402 -0.719662
-0.2501769 -0.013064382 0.111808084 -0.60964197 -0.5910849 0.08002897 -1.0932689 -0.15241733
-1.3582814 0.037252877 -0.59344774 -1.2728206 -0.20350736 -0.008415677 -0.3862043 -0.033570796
0.05978734 -0.06927653 -0.22926426 0.11853373 -0.22839266 -1.0117196 -0.2548897 -0.042934347
-0.2545428 -0.3781868 -1.095318 -0.08514921 -0.038294166 -0.62081116 -0.07264472 -0.80941945
0.04742361 -0.01845958 0.05626279 -0.52612925 -0.4413391 0.003061151 -1.0701845 -0.19100495
-1.7400721 0.02783711 -0.42712584 -1.6415602 0.099307336 -0.16818026 -0.29795215 -0.08863879
-0.06382454 0.1806321 -0.25484675 0.13094208 0.051171232 -0.9842056 -0.0052988552 0.0068237716
-0.25068665 -0.359262 -1.249174 -0.049062565 -0.028268764 -0.48729062 0.09470252 -0.8228377
-0.09289741 0.06610777 -0.14473845 -0.45887253 -0.31429845 0.05367459 -1.1062298 -0.078781836
-1.558687 -0.1235295 -0.39457753 -0.90990734 0.21167755 -0.034464817 -0.4305272 0.10106994
0.104440115 -0.08605252 -0.612323 0.10713546 -0.05982596 -0.60451454 0.17037569 0.124289595
-0.33299434 -0.61391 -0.96088153 -0.10338611 0.117654815 -0.5869283 0.11396941 -0.7068987
0.08611969 0.028175335 0.07480747 -0.32695115 -0.40799606 -0.04961237 -0.6750716 0.0012407155
-1.2835517 0.23342547 -0.25070256 -0.9708942 -0.22337824 -0.009923878 -0.3390595 0.109469675
0.12994337 0.009517043 -0.37592155 0.1526976 -0.012181898 -1.2257223 0.116470754 -0.013354458
-0.18252309 -0.23513713 -1.625556 -0.0048053674 0.048588708 -0.4662204 -0.03153421 -0.5269952
-0.0013175256 -0.13192233 -0.04221222 -0.35778806 -0.26502293 -0.016629014 -1.1704161 -0.21238063
00000000: 9374 92bf 1a87 f5bc f0a1 d2be b67c c0bf
00000010: 2199 193c d2f8 c43c 506a d7be aa2b 8abc
00000020: 9066 e3bc 38cf 4e3d ad70 bbbe 9e86 9f3d
00000030: 0674 bebd 3935 82bf 78c5 9abd 0639 063e
00000040: 864b d9be 082f b3be 2223 5fbf c352 9dbd
00000050: b4d0 2bbe 3c58 cabe c793 58be e1a9 19bf
00000060: 15a4 c03b ac6b 06bd 4476 183d 2f63 02bf
00000070: 42a8 afbe 0d93 92bd 5a63 8fbf 661a f5bd
00000080: 74d6 bebf 9dcc 6f3d 98fe 09be 761b c2bf
00000090: fd49 d1bc 66ce 9e3d 365c 01be a846 613e
000000a0: a5d8 e73d d969 333d ad91 cebd 1de2 703d
000000b0: e8e2 5fbe ff2a bebf f94e ff3d 26c4 f23d
000000c0: 304a a1be 56ab 6bbe 6cd5 c7bf d426 afbd
000000d0: 3733 b9bd 1e32 a2be a440 99bd 0da2 23bf
000000e0: cf34 423e a87f c53d b192 2b3e 0e86 5cbe
000000f0: 649d d0be f73d 7a3e a058 11c0 1992 983c
00000100: 472e d3bf 9a7f 803e 6c4c 7dbe ac69 c9bf
00000110: 865a 1ebe 91e9 96bc 94ca 9ebe 3828 70bb
00000120: e611 233e c86b 043e 8975 01bf c51a 8cbd
00000130: 37c8 5c3d ef36 a0bf df8f f1bc f5f3 f33d
00000140: bd33 c9be 414c b2be fe39 dabf 7cec c53d
00000150: 344c aa3d 70e7 dbbe a3ce 7dbd 01dd 1ebf
00000160: 3c49 0cbe 2d50 3d3d 1e50 0e3e 8f9d 00bf
00000170: c0b3 76be b09b d93d e3ba d4bf 144a 95bd
00000180: 8f3b 49bf 29bf 733e bbfb dbbe 830d 89bf
00000190: cd74 193e e60a 58be 91d2 38bf fcb6 a4bd
000001a0: 5d4b 2a3e 3139 133d c0ae eabe 5255 c1bd
000001b0: af44 6cbe 2da2 87bf ceed 84be c69c 0e3e
000001c0: 202f 10bf 7a8b 20bf 83b7 b6bf fa74 a0bd
000001d0: 3b7a a03d 561b 38bf 2e59 403e c53b 38bf
000001e0: 3017 80be fd0b 56bc a3fb e43d 7f11 1cbf
000001f0: 5751 17bf 3be6 a33d 3cf0 8bbf 4a13 1cbe
00000200: 2adc adbf 7996 183d 31ec 17bf c9eb a2bf
00000210: 3c64 50be e8e1 09bc 92bc c5be 8881 09bd
00000220: 92e3 743d dae0 8dbd 40c4 6abe d0c1 f23d
00000230: c4df 69be 0780 81bf e780 82be eddb 2fbd
00000240: 6f53 82be b3a1 c1be 6133 8cbf b662 aebd
00000250: 58da 1cbd 7bed 1ebf c1c6 94bd 1d36 4fbf
00000260: 423f 423d 8c38 97bc d073 663d 68b0 06bf
00000270: 33f7 e1be 979d 483b cefb 88bf cd96 43be
00000280: afba debf a70a e43c 3db0 dabe a51e d2bf
00000290: a561 cb3d 7237 2cbe 2f8d 98be 4188 b5bd
000002a0: 71b6 82bd 9ff7 383e 467b 82be ae15 063e
000002b0: ed98 513d e6f4 7bbf 05a2 adbb f299 df3b
000002c0: 005a 80be 30f1 b7be efe4 9fbf d4f5 48bd
000002d0: e593 e7bc 287e f9be 65f3 c13d 7ea5 52bf
000002e0: ff40 bebd 8363 873d 5136 14be 57f1 eabe
000002f0: baeb a0be e3d9 5b3d f098 8dbf 5f58 a1bd
00000300: 0e83 c7bf 09fd fcbd 1106 cabe b0ef 68bf
00000310: 00c2 583e fb2a 0dbd 106e dcbe c2fd ce3d
00000320: b3e4 d53d 4e3c b0bd 33c1 1cbf d669 db3d
00000330: 110c 75bd 77c1 1abf f776 2e3e 8b8b fe3d
00000340: 3c7e aabe 3529 1dbf 55fc 75bf 19bc d3bd
00000350: 02f5 f03d ef40 16bf cb68 e93d 50f7 34bf
00000360: 855f b03d f6cf e63c a934 993d 2466 a7be
00000370: dce4 d0be 5736 4bbd 7ed1 2cbf 819f a23a
00000380: 6c4b a4bf 1607 6f3e 165c 80be 868c 78bf
00000390: 44bd 64be c397 22bc 3599 adbe a331 e03d
000003a0: e00f 053e 5fed 1b3c ca78 c0be c25c 1c3e
000003b0: 9596 47bc 78e4 9cbf 3888 ee3d a8cc 5abc
000003c0: 55e7 3abe cac7 70be 3812 d0bf 5876 9dbb
000003d0: f404 473d 71b4 eebe 042a 01bd 28e9 06bf
000003e0: d3b0 acba a616 07be b9e6 2cbd ff2f b7be
000003f0: 16b1 87be 9239 88bc 32d0 95bf 4f7a 59be

fc_var.bias f4 [32]
-0.26322123 -0.37043136 -0.51932454 -0.3584826 -0.52719355 -0.6781583 -0.46177655 -0.40456554
-0.5316516 -0.48565993 -0.20594266 -0.48498598 -0.47862798 -0.054425582 -0.21018042 -0.3974151
-0.67756456 -0.47466215 -0.4861431 -0.5350657 -0.32754937 -0.13459651 -0.45018712 -0.23838153
-0.22902879 -0.43278423 -0.52244467 -0.44076088 -0.13714963 -0.3895795 -0.26853985 -0.3702334
00000000: efc4 86be 2ea9 bdbe 74f2 04bf 088b b7be
00000010: 28f6 06bf c89b 2dbf fa6d ecbe 3723 cfbe
00000020: 521a 08bf 6ba8 f8be a2e2 52be 1550 f8be
00000030: ba0e f5be 5ced 5ebd 8939 57be fe79 cbbe
00000040: df74 2dbf eb06 f3be c0e7 f8be 11fa 08bf
00000050: 8db4 a7be abd3 09be ed7e e6be 4a1a 74be
00000060: 8686 6abe e595 ddbe efbe 05bf 69ab e1be
00000070: f470 0cbe f776 c7be 0e7e 89be 3b8f bdbe

convt1.weight f4 [32, 16, 13]
-0.15518297 -0.10678043 -0.045614183 -0.1932503 0.051390693 0.22026204 0.16681911 -0.33768255
-0.3221819 0.34149027 -0.108796254 -0.12735587 -0.3089333 0.5600907 0.114782736 0.20920889
0.11950157 -0.44900572 -0.13557951 0.17129467 0.0014247543 0.17125231 0.38963622 0.035527963
0.70765394 -0.2642133 0.21285406 0.31335425 -0.11757049 0.15960482 0.063995056 -0.31083974
0.012542799 0.12574856 -0.27504367 -0.13005586 0.4989462 0.077026926 -0.1853789 -0.23862265
-0.077644855 0.09599953 -0.44473025 0.34435576 -0.11742668 -0.17292634 -0.123049766 0.018049188
0.113868505 0.21023822 -0.35897243 -0.062202692 0.43617865 -0.07901966 -0.21801169 -0.006517408
-0.2215314 0.10144159 -0.29478672 -0.03588693 0.10431476 -0.16851754 -0.34694073 0.5147622
0.8109164 0.106804006 -0.15827903 -0.08464602 -0.5743451 -0.17990662 -0.49673688 -0.97604895
-0.31118226 0.15492567 -0.11031898 -0.052938644 0.011168714 0.5206323 -0.17335477 -0.087548986
-0.34046865 0.09443905 0.24961802 -0.18591419 0.088481136 0.174619 0.15791106 0.09204207
-1.2816265 0.12131622 -0.19198112 0.5949269 -0.07548068 0.1983222 0.6688156 -0.21430792
0.4002588 0.10374207 0.028732346 -0.22673932 -0.25825796 -0.37789172 -0.28148687 0.38649002
0.37797055 0.1728203 -0.14517714 0.11860946 -0.32050413 -0.27349216 -0.07940033 -0.2782021
-0.16335998 -0.19233237 -0.6876654 -1.2363929 0.43408477 0.2692167 0.42230722 0.33462435
-0.14533184 -0.2371687 0.08592104 -0.14402181 -0.10673197 -0.19203047 0.40125632 0.13706978
0.02979184 0.45586646 0.35728452 -0.11699827 0.5182628 -0.07515125 -0.34508374 0.39442167
-0.08566809 -0.1293839 -0.10875709 -0.014381062 0.06575679 -0.067623936 0.09800762 -0.06622392
-0.25116542 -0.21982293 0.09458078 -0.051447738 -0.3015937 -0.059845865 -0.19201611 -0.1658949
0.019846473 -0.22144654 -0.56526124 -0.9471637 0.5709619 0.5110393 -0.09171546 0.35688773
0.26439342 0.21082512 -0.29010025 -0.0020234892 0.31432575 0.2663053 0.3416422 0.007763356
0.34665784 -0.21728691 0.14046025 -0.4066385 -0.22263359 0.30067208 -0.16096304 -0.32236403
0.0034440993 0.18423559 0.2562702 0.3289757 -0.028147126 0.013172074 0.50001574 0.36536545
0.006316035 -0.23106246 0.020802652 -0.12312651 0.08154138 -0.3019506 0.08693362 0.20560372
-0.76689816 0.03240239 -0.42280203 0.25947416 0.30190173 -0.30990472 -0.03229396 -0.08889357
0.20494522 -0.53923094 -0.040304426 0.19831601 0.11244495 0.12471154 1.037802 0.13270321
-0.13141337 0.21859312 -0.1342513 -0.15645789 0.017013872 -0.027370393 0.2577294 -0.38105023
-0.075765446 0.26224527 -0.029661598 -0.2666028 -0.57181746 0.62969655 0.3659371 0.5742538
-0.221003 0.10800424 -0.020073643 0.4640919 0.43569368 0.26302025 0.46820143 0.14350222
0.6299101 -0.51444346 0.33432192 0.089950025 -0.032811146 0.65338176 0.4589068 -0.062053535
0.20666434 0.30296016 -0.3493474 -0.22151904 0.12691091 0.05329692 0.06643574 -0.119369045
0.21166873 0.05236256 -0.32441336 -0.34663072 -0.054143436 -0.10708978 -0.26222485 0.22624543
00000000: 49e8 1ebe b3af dabd f0d5 3abd 68e3 45be
00000010: 0c7f 523d 5f8c 613e a1d2 2a3e bae4 acbe
00000020: 07f5 a4be d0d7 ae3e 92d0 debd 9469 02be
00000030: 812c 9ebe 1b62 0f3f 3613 eb3d db3a 563e
00000040: 3dbd f43d 14e4 e5be 5bd5 0abe df67 2f3e
00000050: d2be ba3a c45c 2f3e 667e c73e c585 113d
00000060: cf28 353f f746 87be 6af6 593e f86f a03e
00000070: ccc8 f0bd 726f 233e d70f 833d 6326 9fbe
00000080: 5080 4d3c 3bc4 003e 86d2 8cbe 5d2d 05be
00000090: e075 ff3e 4bc0 9d3d f7d3 3dbe 7f59 74be
000000a0: 4404 9fbd 679b c43d afb3 e3be 664f b03e
000000b0: 667d f0bd 9a13 31be 8401 fcbd e4db 933c
000000c0: e433 e93d b048 573e 3ccb b7be 40c8 7ebd
000000d0: cf52 df3e 0fd5 a1bd 753e 5fbe fb8f d5bb
000000e0: 21d9 62be 9cc0 cf3d 49ee 96be 2cfe 12bd
000000f0: faa2 d53d dd8f 2cbe 37a2 b1be 75c7 033f
00000100: 3898 4f3f 0fbc da3d e613 22be e45a adbd
00000110: 4808 13bf 7139 38be 4c54 febe 58de 79bf
00000120: 4853 9fbe d6a4 1e3e ebee e1bd 31d6 58bd
00000130: fbfc 363c 2948 053f ea83 31be e24c b3bd
00000140: e851 aebe 4369 c13d de9b 7f3e 4a60 3ebe
00000150: 9935 b53d 53cf 323e 70b3 213e 8e80 bc3d
00000160: 560c a4bf a374 f83d b396 44be 214d 183f
00000170: 9d95 9abd fa14 4b3e 8037 2b3f 8973 5bbe
00000180: b9ee cc3e b976 d43d 1960 eb3c 5a2e 68be
00000190: 633a 84be 067b c1be 0c1f 90be 05e2 c53e
000001a0: 5b85 c13e cef7 303e 51a9 14be 84e9 f23d
000001b0: 1e19 a4be 2a07 8cbe a49c a2bd 8170 8ebe
000001c0: d747 27be c7f2 44be d70a 30bf 1f42 9ebf
000001d0: 5c40 de3e c5d6 893e a738 d83e e253 ab3e
000001e0: dfd1 14be 5adc 72be 5ff7 af3d 747a 13be
000001f0: 4b96 dabd a3a3 44be 7871 cd3e 055c 0c3e
00000200: 040e f43c 5467 e93e ffed b63e ca9c efbd
00000210: dfac 043f e6e8 99bd d1ae b0be a3f1 c93e
00000220: c072 afbd 377d 04be 0abc debd 8c9e 6bbc
00000230: 7fab 863d 6b7e 8abd 38b8 c83d 68a0 87bd
00000240: c198 80be 4319 61be 91b3 c13d ddba 52bd
00000250: 7d6a 9abe f020 75bd df9f 44be 5ae0 29be
00000260: 1295 a23c e2c2 62be f6b4 10bf 5279 72bf
00000270: 8f2a 123f 79d3 023f 51d5 bbbd fdb9 b63e
00000280: 935e 873e 8ae2 573e 0588 94be 849c 04bb
00000290: 4eef a03e 2b59 883e baeb ae3e c063 fe3b
000002a0: 237d b13e 7680 5ebe d0d4 0f3e ec32 d0be
000002b0: 0ffa 63be b1f1 993e 7fd3 24be e60c a5be
000002c0: 66b6 613b 41a8 3c3e d935 833e 816f a83e
000002d0: cd94 e6bc afcf 573c 0801 003f 2e11 bb3e
000002e0: bef6 ce3b a39b 6cbe 536a aa3c c029 fcbd
000002f0: 2bff a63d 4599 9abe 410a b23d c889 523e
00000300: 7053 44bf 5eb8 043d 8279 d8be ccd9 843e
00000310: dd92 9a3e d5ab 9ebe ac46 04bd d50d b6bd
00000320: 29dd 513e 0a0b 0abf 4116 25bd 5a13 4b3e
00000330: 8a49 e63d c468 ff3d b2d6 843f 5ae3 073e
00000340: 3a91 06be e0d6 5f3e 2c79 09be 7f36 20be
00000350: ad60 8b3c e037 e0bc 1cf5 833e 0419 c3be
00000360: ea2a 9bbd 0345 863e e1fc f2bc 2a80 88be
00000370: a162 12bf cb33 213f 1c5c bb3e 4c02 133f
00000380: 9c4e 62be 5431 dd3d 7b71 a4bc 749d ed3e
00000390: 3e13 df3e 97aa 863e 19b8 ef3e 3ff2 123e
000003a0: ca41 213f 91b2 03bf 3e2c ab3e b837 b83d
000003b0: fb64 06bd 0744 273f d5f5 ea3e d92b 7ebd
000003c0: d19f 533e 981d 9b3e aadd b2be e3d5 62be
000003d0: eff4 013e df4d 5a3d 760f 883d c277 f4bd
000003e0: b0bf 583e 207a 563d 8219 a6be 9579 b1be
000003f0: 82c5 5dbd e351 dbbd 5642 86be e2ac 673e

convt1.bias f4 [16]
-0.10880095 0.8719095 0.30523503 0.08710628 0.47029698 -0.8162769 0.20915939 0.14457996
-0.10398827 -0.20684984 -0.57249093 -0.40405354 0.53280056 0.6804624 -0.108911514 0.037095945
00000000: 08d3 debd 7635 5f3f c447 9c3e c764 b23d
00000010: c4ca f03e 86f7 50bf e12d 563e c50c 143e
00000020: cdf7 d4bd 72d0 53be c48e 12bf 1be0 cebe
00000030: 9e65 083f c932 2e3f 000d dfbd ebf1 173d

convt2.weight f4 [16, 8, 13]
-0.19437478 -0.6645477 -0.27339906 -1.0456059 -0.2252684 -1.4755411 -0.9343973 -0.4261012
-2.309841 -1.479814 -0.23202188 -0.23386908 -0.34389126 -0.20147175 -0.057818435 -0.0994261
-0.06878476 -0.052213844 0.051499795 -0.16305457 -0.087352134 -0.17263821 -0.24178338 -0.3200352
-0.3861052 -0.2080843 0.032935448 -0.06554887 0.14397715 -0.1182959 0.030560888 -0.29023567
0.16032863 -0.16286808 0.3702935 -0.4732586 -0.0018153229 -0.15274578 -0.4630683 0.03956606
-0.047463488 0.014248974 0.14020254 -0.048563264 0.13974367 0.060047984 -0.22000554 -0.08778405
-0.4401252 -0.13084906 -0.15947768 -0.058587186 0.32740203 -0.41236976 -0.04792371 -0.3975479
-1.0976489 0.10342322 -0.29889253 -0.02603899 -0.74587595 -0.07965611 -0.00776426 -1.7024057
-1.874513 0.3044114 -0.123293966 0.21221432 0.2640808 0.09064256 -0.14909734 0.23873338
0.16131596 0.80992407 -0.0060112975 0.8253594 0.45677856 0.2962803 0.21671578 -0.040897243
-0.35452184 -0.0303376 -0.4882536 -1.1380928 -0.42286292 0.77619445 -1.2953758 0.08899255
0.29933795 -1.5185461 -0.52597487 -0.34717423 -0.0948448 -0.14989887 -0.16011404 -1.1450237
-0.2776444 -0.086621866 -0.18680505 -1.2470903 -0.018114302 -0.029415844 -0.08267044 0.1558538
-0.8891067 -0.446701 -1.1060777 -0.5000963 -1.8395227 -2.0332005 -1.220244 -2.5142596
-0.78955996 -0.52000785 -0.62989557 -0.6150011 -0.14782089 0.056302153 0.31228194 0.21894853
0.31418198 0.20768932 -0.0033165596 0.022194574 -0.19884227 -0.1210263 -0.12396286 -0.095225774
0.24961777 0.27600864 -0.7544116 0.112242475 -0.99950355 -0.15778536 0.07464891 -0.7435405
0.1600762 -0.2140744 -0.4689788 0.21561347 -0.62447304 0.164284 0.02959259 -0.0012886456
0.36258885 0.51182497 0.04193488 0.40900913 -0.16590406 0.081938595 -0.23345804 0.020378234
-0.20285872 0.117371336 0.06642157 -0.07559462 -0.42482156 0.0008960709 -0.06228407 -0.31556654
-1.1112832 -0.62603986 -0.031927127 -1.0541688 -0.41656128 0.068098865 -0.004767346 0.19407304
0.70791185 -0.0723667 -0.12128716 -0.8527341 -1.1563863 -0.6215964 -0.20437437 0.2868344
0.016017018 0.44038126 0.062230036 -0.4092566 -0.6872733 -0.40521452 0.3736349 0.32875934
-0.15030214 -0.6964338 -1.0608504 -1.154204 -0.78042585 -1.3186905 -1.5899334 0.41901815
0.18556966 0.60731494 -0.6596962 -0.7220246 -0.15148117 -0.37659535 -0.24991491 -1.3483568
-0.38670823 -0.24286932 -0.23029108 -0.42485535 -0.112228 -0.53425324 -0.49662137 -0.25344324
-0.74075615 -1.393877 -1.2512101 -1.5416319 -1.1697757 -0.22982346 0.24029142 0.27260566
-0.8996986 0.3007193 0.18949163 0.1556622 0.51788414 -0.06001188 0.073137045 -0.007465323
0.019908283 0.056545027 0.08378213 0.14198393 0.2859783 0.0728561 0.23247984 0.18528806
-0.11602312 0.059040207 -0.26571548 -0.035379283 -0.1190155 0.07558163 -0.08805517 0.0023989973
-0.34592405 0.18926574 -0.1778412 -0.094588414 0.16552953 -0.64431727 0.10542777 -0.004495536
0.094760574 -0.01747544 0.014844552 0.14065671 -0.028087828 0.32689333 -0.100474104 0.587473
00000000: 2f0a 47be cc1f 2abf f6fa 8bbe 6ad6 85bf
00000010: c2ac 66be 88de bcbf a934 6fbf f029 dabe
00000020: 6fd4 13c0 8c6a bdbf 2597 6dbe 607b 6fbe
00000030: 8412 b0be 9c4e 4ebe 06d3 6cbd e99f cbbd
00000040: 06df 8cbd 2fde 55bd 73f1 523d c7f7 26be
00000050: ade5 b2bd 12c8 30be 1096 77be a7db a3be
00000060: 95af c5be 0d14 55be 52e7 063d 7c3e 86bd
00000070: bf6e 133e 1f45 f2bd d45a fa3c c599 94be
00000080: 302d 243e e4c6 26be 1c97 bd3e f44e f2be
00000090: 21f0 edba 6469 1cbe 4a17 edbe 0510 223d
000000a0: 1369 42bd 8774 693c 4191 0f3e 46ea 46bd
000000b0: f718 0f3e e0f4 753d 2249 61be 20c8 b3bd
000000c0: 1758 e1be 4cfd 05be 1e4e 23be 1ef9 6fbd
000000d0: 3da1 a73e 2122 d3be a74b 44bd 668b cbbe
000000e0: c27f 8cbf 8ecf d33d 7108 99be b84f d5bc
000000f0: baf1 3ebf be22 a3bd 556b febb 6ee8 d9bf
00000100: 0bf0 efbf d0db 9b3e 8c81 fcbd b64e 593e
00000110: 9935 873e cea2 b93d f9ac 18be 8676 743e
00000120: 0330 253e 2f57 4f3f 6bfa c4bb c14a 533f
00000130: e1de e93e 0db2 973e beea 5d3e de83 27bd
00000140: e383 b5be 8f86 f8bc 60fc f9be 06ad 91bf
00000150: 7d81 d8be aeb4 463f e0ce a5bf ba41 b63d
00000160: d342 993e b85f c2bf 4aa6 06bf d2c0 b1be
00000170: fe3d c2bd 177f 19be eff4 23be 2390 92bf
00000180: 6827 8ebe ce66 b1bd d349 3fbe a8a0 9fbf
00000190: 7264 94bc 7ff9 f0bc 1f4f a9bd 2398 1f3e
000001a0: 7f9c 63bf feb5 e4be f493 8dbf 5006 00bf
000001b0: 7b75 ebbf f51f 02c0 f530 9cbf a1e9 20c0
000001c0: 9a20 4abf 3c1f 05bf d640 21bf b670 1dbf
000001d0: 5c5e 17be 169d 663d 6be3 9f3e 0b34 603e
000001e0: 76dc a03e 82ac 543e a35a 59bb 65d1 b53c
000001f0: 4f9d 4bbe a3dc f7bd 3de0 fdbd bb05 c3bd
00000200: cd9b 7f3e 0151 8d3e 1e21 41bf 62df e53d
00000210: 77df 7fbf 7c92 21be 87e1 983d ac58 3ebf
00000220: 04eb 233e 5236 5bbe fd1d f0be c7c9 5c3e
00000230: 77dd 1fbf 113a 283e 296c f23c c5e7 a8ba
00000240: 3fa5 b93e f606 033f e9c3 2b3d a569 d13e
00000250: c1e2 29be 6ccf a73d a00f 6fbe 41f0 a63c
00000260: 32ba 4fbe 6260 f03d 0808 883d 5ad1 9abd
00000270: 3682 d9be 4de6 6a3a 951d 7fbd f091 a1be
00000280: 873e 8ebf 2644 20bf 05c6 02bd 01ef 86bf
00000290: 8547 d5be 6b77 8b3d 6637 9cbb 15bb 463e
000002a0: b639 353f fe34 94bd 6765 f8bd c84c 5abf
000002b0: 7704 94bf f120 1fbf 8447 51be f5db 923e
000002c0: 1f36 833c a779 e13e ece4 7e3d 158a d1be
000002d0: 25f1 2fbf 4778 cfbe 134d bf3e 2553 a83e
000002e0: cee8 19be 7c49 32bf f2c9 87bf f5bc 93bf
000002f0: fdc9 47bf daca a8bf f082 cbbf 8c89 d63e
00000300: f905 3e3e fe78 1b3f dae1 28bf 9bd6 38bf
00000310: e11d 1bbe 1bd1 c0be b2e9 7fbe f596 acbf
00000320: 9ffe c5be bcb2 78be 6dd1 6bbe a486 d9be
00000330: cbd7 e5bd d2c4 08bf 2845 febe 50c3 81be
00000340: 32a2 3dbf 906a b2bf a727 a0bf 3254 c5bf
00000350: 36bb 95bf d756 6bbe f40e 763e f892 8b3e
00000360: a652 66bf e1f7 993e 180a 423e e965 1f3e
00000370: 0e94 043f 04cf 75bd e0c8 953d ab9f f4bb
00000380: b216 a33c c29b 673d f795 ab3d 3c64 113e
00000390: bf6b 923e 9435 953d 320f 6e3e 27bc 3d3e
000003a0: 889d edbd 25d4 713d dc0b 88be dee9 10bd
000003b0: 66be f3bd 8bca 9a3d 4556 b4bd 7f38 1d3b
000003c0: f51c b1be e1ce 413e 011c 36be 92b7 c1bd
000003d0: 9380 293e faf1 24bf 84ea d73d 4a4f 93bb
000003e0: d511 c23d a728 8fbc 9036 733c 5008 103e
000003f0: 7218 e6bc 905e a73e 5ec5 cdbd a164 163f

convt2.bias f4 [8]
0.297072 -0.16893198 -0.98524696 -0.13282524 1.1322273 -0.68799305 0.6078118 0.69502157
00000000: d219 983e 81fc 2cbe 2539 7cbf 5703 08be
00000010: d3ec 903f 5020 30bf 8e99 1b3f efec 313f
