vaes/trained_vaes/rapport/VAELow_25epochs_60000steps_NEW_ENVIRONMENT__batch64_Adam_lr7E-3.pt (torch_old, 76417 bytes, 19 tensors)

conv1.weight f4 [4, 1, 11]
0.06844343 -0.18203247 -0.03050484 -0.10106601 0.048883226 0.026093954 0.17930394 -0.038774624
-0.06679191 -0.03954255 -0.28072828 0.0575057 0.22967184 0.02733024 0.14046045 0.07242445
0.1157821 0.06615678 -0.037654314 0.045503527 -0.4597946 -0.5201322 -0.3968212 -0.3400589
0.051285885 0.03368197 -0.28917885 -0.27776414 -0.106977105 -0.5382996 -0.4903406 -0.351605
-0.6583394 0.102438465 -0.034840625 0.07309016 0.05872295 0.2576972 -0.10616453 0.1698713
-0.09399871 0.1180493 0.10549465 -0.11173851
00000000: 122c 8c3d b866 3abe 49e5 f9bc b2fb cebd
00000010: c739 483d fdc2 d53c 749b 373e 24d2 1ebd
00000020: 32ca 88bd 5ef7 21bd 9ebb 8fbe 198b 6b3d
00000030: 182f 6b3e abe3 df3c ddd4 0f3e 4553 943d
00000040: 2a1f ed3d 357d 873d 693b 1abd e861 3a3d
00000050: 336a ebbe 6227 05bf 262c cbbe 331c aebe
00000060: 2611 523d 1bf6 093d 400f 94be 1a37 8ebe
00000070: d016 dbbd 01ce 09bf ec0d fbbe 9205 b4be
00000080: ee88 28bf 42cb d13d 0bb5 0ebd 4bb0 953d
00000090: 7a87 703d e3f0 833e ca6c d9bd bef2 2d3e
000000a0: 6582 c0bd d5c3 f13d 940d d83d 29d7 e4bd

conv1.bias f4 [4]
0.42024755 0.06457596 0.15911813 -0.002051259
00000000: b02a d73e 6740 843d ddef 223e 6a6e 06bb

conv2.weight f4 [8, 4, 11]
0.012677997 0.07723336 -0.029641598 0.03094484 0.10793215 -0.117169335 -0.19444032 0.0056151412
0.029349266 0.031322137 0.08039254 0.1279774 -0.13741966 -0.14613068 -0.12778461 0.027946934
-0.09304172 0.13013801 0.07147593 -0.03489174 0.017820183 -0.029871574 -0.16653861 -0.07971172
-0.06142588 0.03315899 -0.16401024 -0.08945198 0.09990866 -0.07022691 -0.0079394 0.016922578
-0.0116983205 -0.13875437 -0.020437358 0.005746146 -0.098775595 -0.1766482 0.090787426 0.026587319
-0.1525092 -0.15382248 -0.13952202 -0.15726598 -0.1267514 -0.056047574 0.034318913 -0.030463029
-0.12868191 -0.15491991 -0.03182942 -0.058073856 0.002515003 -0.11371637 0.17475383 -0.04264494
-0.15599887 -0.09816927 0.05664234 -0.005313499 -0.005094643 -0.0037506039 0.0049604992 0.07147966
0.051700696 0.04469048 0.09277215 -0.1299231 0.091694646 0.06649309 0.048745196 0.045275092
0.054220404 0.045368247 -0.18828997 -0.09229404 -0.06622592 -0.2005321 -0.068106316 -0.18211095
-0.17569005 -0.18802121 0.022618093 -0.1609951 -0.05387071 -0.0013511524 0.08355191 -0.035794638
0.22062524 0.24071026 0.14964479 0.19402082 0.24842493 0.17098434 0.17143844 0.2888541
0.13126087 0.2300467 0.21623549 -0.040129855 -0.042123772 -0.06523273 -0.041385286 -0.07026103
-0.046154615 0.009776427 -0.060980532 0.0189728 -0.030177433 0.047033224 0.089847066 0.17793487
0.03961535 -0.023318313 -0.034680106 -0.18834838 -0.3075633 -0.01909749 -0.05023116 0.025825396
0.11416269 -0.27673662 -0.03958357 -0.05095013 -0.09678223 -0.00068556337 -0.056880645 -0.041793596
0.0717597 -0.019481122 -0.013384945 -0.023467176 0.060361825 -0.020507883 -0.09256517 -0.02900813
-0.12378856 0.075746804 0.07088321 -0.15965532 -0.18729362 0.059571043 -0.1856432 0.015595865
-0.13854061 0.039705466 0.056171805 0.094208166 -0.18075429 -0.19381627 -0.18393594 -0.15882108
-0.10312113 -0.05778825 -0.011545177 -0.12756169 -0.2041046 0.0533603 -0.07682287 0.09250784
0.07782761 -0.0029697062 0.043081757 -0.0007709915 -0.18860221 -0.07313452 -0.11580841 0.09265268
-0.02168648 -0.115641676 -0.14480956 -0.13920423 0.0735907 -0.14028555 -0.2013036 -0.2028108
-0.033158164 0.022125177 0.12313217 0.006777895 -0.0962958 -0.057233002 -0.06870082 0.1463998
0.20727421 0.30665642 0.6203059 -0.007418203 -0.187526 -0.01383546 -0.013228234 -0.18730827
-0.105611354 -0.11297739 0.052498106 -0.04377907 0.34450093 1.2855821 0.52959025 0.37444252
0.13285089 0.031398796 0.041249365 -0.23120755 -0.31846842 -0.04791358 0.03239358 0.32942873
0.7830071 0.004824852 0.08415032 -0.12917875 -0.4145918 -0.2956051 -0.35445654 -0.22589684
0.062424183 -0.16381414 -0.3413519 -0.78452104 -0.22537722 -0.08595241 -0.08502701 -0.11281624
-0.06040169 -0.006348854 -0.05618644 0.10302261 0.14481656 0.4666431 1.1582254 0.021940697
-0.005735295 0.1063402 0.10482356 0.18383428 0.034378994 0.18543227 0.023078512 0.16264924
0.18145263 0.7133499 0.018624064 -0.13620132 -0.21463135 -0.22777717 -0.2531574 -0.19292897
0.11700335 -0.066441 0.15123098 0.3245722 0.63100576 0.028621105 0.022335526 -0.12538986
00000000: 60b7 4f3c 862c 9e3d f0d2 f2bc 0880 fd3c
00000010: 880b dd3d 7af6 efbd 5d1b 47be 38ff b73b
00000020: df6d f03c a44b 003d d8a4 a43d 820c 033e
00000030: bdb7 0cbe 48a3 15be f8d9 02be f8f0 e43c
00000040: a88c bebd e642 053e f961 923d a4ea 0ebd
00000050: a2fb 913c 3bb5 f4bc 1989 2abe e63f a3bd
00000060: b499 7bbd b9d1 073d 4df2 27be 9a32 b7bd
00000070: e99c cc3d 20d3 8fbd 4214 02bc 38a1 8a3c
00000080: 50aa 3fbc a015 0ebe 3f6c a7bc 2b4a bc3b
00000090: dc4a cabd 44e3 34be c2ee b93d a6cd d93c
000000a0: 5f2b 1cbe a483 1dbe dcde 0ebe 550a 21be
000000b0: 1ecb 01be 2492 65bd fd91 0c3d 9a8d f9bc
000000c0: 31c5 03be 53a3 1ebe 915f 02bd dade 6dbd
000000d0: c0d2 243b 21e4 e8bd abf2 323e 76ac 2ebd
000000e0: 2bbe 1fbe f80c c9bd cc01 683d dc1c aebb
000000f0: f7f0 a6bb b1cc 75bb af8b a23b ee63 923d
00000100: 1cc4 533d 5d0d 373d 53ff bd3d 900a 05be
00000110: 67ca bb3d 872d 883d 0ba9 473d 6072 393d
00000120: 3716 5e3d 0ed4 393d 16cf 40be a804 bdbd
00000130: 75a1 87bd 4958 4dbe 537b 8bbd 4b7b 3abe
00000140: 18e8 33be a288 40be 9449 b93c e6db 24be
00000150: 89a7 5cbd 2719 b1ba 441d ab3d 669d 12bd
00000160: 95eb 613e c07c 763e 7c3c 193e 65ad 463e
00000170: 1b63 7e3e 8516 2f3e 8f8d 2f3e afe4 933e
00000180: 4069 063e 5d91 6b3e d66c 5d3e 345f 24bd
00000190: fa89 2cbd bd98 85bd 9e83 29bd 04e5 8fbd
000001a0: 9f0c 3dbd 4f2d 203c b9c6 79bd d86c 9b3c
000001b0: aa36 f7bc e9a5 403d bd01 b83d 8f34 363e
000001c0: b543 223d 0c06 bfbc ba0c 0ebd 66de 40be
000001d0: f078 9dbe 5772 9cbc 30bf 4dbd c88f d33c
000001e0: 21ce e93d 6cb0 8dbe 6222 22bd 15b1 50bd
000001f0: c335 c6bd 61b7 33ba aefb 68bd c32f 2bbd
00000200: c0f6 923d e096 9fbc 874c 5bbc 3c3e c0bc
00000210: f63d 773d 2600 a8bc cf92 bdbd 75a2 edbc
00000220: db84 fdbd 2421 9b3d 372b 913d af7c 23be
00000230: e6c9 3fbe c400 743d 4019 3ebe cd85 7f3c
00000240: 97dd 0dbe 33a2 223d 6814 663d 36f0 c03d
00000250: a717 39be c677 46be b459 3cbe fea1 22be
00000260: 2c31 d3bd 5fb3 6cbd fb27 3dbc 889f 02be
00000270: cc00 51be 5490 5a3d 4f55 9dbd c074 bd3d
00000280: 1564 9f3d 679f 42bb 7f76 303d 5d1c 4aba
00000290: f020 41be 8dc7 95bd f62c edbd b0c0 bd3d
000002a0: d8a7 b1bc 8bd5 ecbd f548 14be 8e8b 0ebe
000002b0: b9b6 963d 04a7 0fbe 8822 4ebe a2ad 4fbe
000002c0: dbd0 07bd dc3f b53c b82c fc3d 1b19 de3b
000002d0: bb36 c5bd 276d 6abd 04b3 8cbd d4e9 153e
000002e0: b13f 543e 1202 9d3e 5ecc 1e3f 6614 f3bb
000002f0: d106 40be 20ae 62bc 3cbb 58bc bdcd 3fbe
00000300: c44a d8bd b160 e7bd 4108 573d af51 33bd
00000310: 6d62 b03e f48d a43f 3a93 073f eeb6 bf3e
00000320: 100a 083e 069c 003d 18f5 283d acc1 6cbe
00000330: 4b0e a3be 0841 44bd 21af 043d e2aa a83e
00000340: 2773 483f cb19 9e3b 0157 ac3d 6f47 04be
00000350: 6045 d4be 8d59 97be 547b b5be 8051 67be
00000360: 80b0 7f3d e5be 27be adc5 aebe 5fd6 48bf
00000370: 49c9 66be d107 b0bd a422 aebd 330c e7bd
00000380: c367 77bd 0c0a d0bb c123 66bd 85fd d23d
00000390: cb4a 143e d8eb ee3e bb40 943f fabc b33c
000003a0: 24ef bbbb e4c8 d93d bcad d63d 0e3f 3c3e
000003b0: fdd0 0c3d f5e1 3d3e 260f bd3c 868d 263e
000003c0: b8ce 393e 199e 363f 7e91 983c 5c78 0bbe
000003d0: 52c8 5bbe 6b3e 69be d99d 81be 2c8f 45be
000003e0: 749f ef3d 3812 88bd 4bdc 1a3e 542e a63e
000003f0: 9889 213f cf76 ea3c fef8 b63c 3366 00be

conv2.bias f4 [8]
-0.07323002 -0.1898157 0.19253093 -0.012675693 -0.23063013 -0.215813 0.073304154 0.028314551
00000000: 9ff9 95bd 0c5f 42be d426 453e b6ad 4fbc
00000010: 4e2a 6cbe 15fe 5cbe 7d20 963d ebf3 e73c

conv3.weight f4 [16, 8, 11]
-0.0010761321 -0.13881218 -0.022388928 -0.061297335 0.08372903 0.06179593 0.00020679086 0.08237067
-0.09997098 -0.044358436 -0.021705404 -0.07159956 0.0705916 0.11766441 -0.029833147 -0.07478371
-0.040636916 0.004833 -0.0711896 -0.046907477 0.059276484 0.026100455 0.11241876 -0.014877358
0.05218003 0.09656496 0.07259385 0.012746139 0.045055218 0.09001883 0.050772723 0.22219232
0.2777472 0.11553286 0.049052857 0.015927907 0.060674343 0.06678454 0.015110245 0.072814725
-0.029635731 0.1712026 0.13462983 0.1781152 -0.04501536 -0.028956648 -0.112677716 -0.047489066
-0.025664227 0.100063264 0.02175862 0.10962332 0.07169742 0.043873012 0.20774458 -0.012119819
0.0058511277 0.007385508 0.05823156 0.09401889 0.12989905 -0.031306185 0.06515898 0.0077755875
-0.026759785 0.32778108 0.01352216 -0.021008201 0.012017709 0.006724347 0.028421456 0.018838622
0.13545486 0.17225896 0.15008532 0.17870885 0.17395677 -0.029077977 0.08091676 0.118695684
0.03500161 0.11271427 0.018636987 -0.077528365 0.13085875 -0.026143087 -0.01703079 -0.082228735
-0.09377379 -0.05010269 -0.029191822 0.028950408 -0.10068884 0.04137031 -0.09558942 -0.09646633
-0.037444398 0.009442511 0.08553767 0.018892987 -0.088738136 0.07623136 -0.008123551 0.10738703
-0.05051615 0.004826367 0.054776136 0.11633914 0.043628685 0.13048388 -0.09467051 0.0071368953
0.07427437 0.10294419 0.12902875 0.034565896 -0.0031018876 -0.011785152 -0.08298927 0.060162596
0.39630696 -0.0014227456 0.12915012 0.026359705 0.12543297 0.0015199124 0.06644062 -0.011100697
0.12874922 0.142586 0.009435401 0.045349304 0.020082427 -0.06853565 -0.14521311 -0.22398463
-0.021484453 -0.06941604 0.25670815 0.26200995 0.042699523 -0.2612579 0.33147576 -0.19693504
-0.0920355 0.046360247 -0.035795406 -0.069010876 -0.18748118 0.0901434 0.0435326 0.046448495
0.2702072 0.54734427 -0.102390535 -0.05319503 -0.056214463 0.03646733 -0.016996918 -0.04851045
-0.041130655 -0.31204307 -0.23921295 -0.25420606 0.3616176 -0.14011504 0.0928905 -0.0165715
0.09718921 -0.03492251 -0.096332066 0.1319516 -0.01725985 0.07086292 0.09157622 -0.02215711
-0.096096165 -0.030211069 -0.089670464 0.09936133 -0.037288703 -0.05167965 -0.047948956 -0.051399976
-0.013504349 -0.0943172 0.101969525 0.035228834 0.06796783 0.08021191 0.05605553 0.072528794
-0.032959796 0.044645518 -0.04310213 -0.10363391 0.04939437 -0.076115295 -0.037459794 0.24539544
0.42157298 0.4217126 0.11506232 -0.25888652 -0.5233808 -0.50173306 -0.45012462 -0.16488248
0.3451374 0.007969633 0.09449853 0.011899181 0.07629481 0.036999524 0.052928865 -0.01938869
-0.023801453 -0.09118909 -0.014793985 0.08483204 0.14842682 -0.16779283 -0.17365123 0.046979167
-0.08091657 0.018265666 -0.07944778 -0.58724976 -0.42439073 0.25875646 0.88750726 -0.45510626
-0.44021046 -0.15785341 0.33150405 0.48425582 0.590526 0.7121798 0.09688644 -0.33975652
-0.2573173 -0.30153906 0.2370682 0.3406892 0.14292867 0.12133747 -0.01061657 -0.17998303
-0.20753317 -0.7469549 -0.3560799 -0.003916505 0.49478462 0.018759117 -0.03860797 -0.017276607
00000000: 000d 8dba c824 0ebe fc68 b7bc ea12 7bbd
00000010: 207a ab3d bb1d 7d3d 00d6 5839 f4b1 a83d
00000020: 96bd ccbd 31b1 35bd 88cf b1bc caa2 92bd
00000030: 5492 903d 0afa f03d a564 f4bc 3428 99bd
00000040: e572 26bd 245e 9e3b dacb 91bd 0e22 40bd
00000050: e6cb 723d 9fd0 d53c cf3b e63d 2ac0 73bc
00000060: baba 553d dac3 c53d 16ac 943d 2fd5 503c
00000070: d28b 383d cb5b b83d 0ff7 4f3d 6286 633e
00000080: e234 8e3e 7e9c ec3d a6eb 483d 3e7b 823c
00000090: a985 783d 55c6 883d f690 773c e31f 953d
000000a0: a2c6 f2bc bc4f 2f3e 67dc 093e d563 363e
000000b0: 0762 38bd 7e36 edbc 93c3 e6bd e583 42bd
000000c0: c93d d2bc f8ed cc3d 223f b23c 3182 e03d
000000d0: 19d6 923d 30b4 333d ffba 543e 3592 46bc
000000e0: d1ba bf3b 2202 f23b 3784 6e3d fa8c c03d
000000f0: 4204 053e ea3a 00bd 1272 853d 5bca fe3b
00000100: 5637 dbbc ecd2 a73e 0d8c 5d3c 6419 acbc
00000110: ede5 443c e957 dc3b 1dd4 e83c 7453 9a3c
00000120: aeb4 0a3e a764 303e f7af 193e 74ff 363e
00000130: b921 323e f034 eebc b0b7 a53d b916 f33d
00000140: d95d 0f3d bdd6 e63d 98ac 983c 31c7 9ebd
00000150: d6ff 053e 072a d6bc 2884 8bbc 8a67 a8bd
00000160: 790c c0bd 7a38 4dbd b023 efbc 6829 ed3c
00000170: f335 cebd ea73 293d 63c4 c3bd 2490 c5bd
00000180: 4c5f 19bd c3b4 1a3c 602e af3d 77c5 9a3c
00000190: 57bc b5bd 301f 9c3d a418 05bc bbed db3d
000001a0: 06ea 4ebd 8026 9e3b f15c 603d 3743 ee3d
000001b0: feb3 323d 919d 053e 9de2 c1bd 9edc e93b
000001c0: 291d 983d 67d4 d23d 1d20 043e f894 0d3d
000001d0: 0a49 4bbb 8316 41bc 47f6 a9bd 0e6d 763d
000001e0: bfe8 ca3e 6c7b baba ee3f 043e 4ff0 d73c
000001f0: 8071 003e cc37 c73a 0512 883d b3df 35bc
00000200: d6d6 033e 1002 123e f196 1a3c 31c0 393d
00000210: e783 a43c 6b5c 8cbd bfb2 14be 3a5c 65be
00000220: 2a00 b0bc ff29 8ebd 406f 833e 2b26 863e
00000230: b2e5 2e3d 98c3 85be 31b7 a93e 57a9 49be
00000240: 1c7d bcbd 3ee4 3d3d 349e 12bd 9355 8dbd
00000250: 11fb 3fbe 1a9d b83d 3d4f 323d c740 3e3d
00000260: 9958 8a3e c11e 0c3f 21b2 d1bd 08e3 59bd
00000270: 2341 66bd c45e 153d 1f3d 8bbc e5b2 46bd
00000280: 9e78 28bd 1cc4 9fbe 3df4 74be 4c27 82be
00000290: f125 b93e 517a 0fbe 603d be3d f4c0 87bc
000002a0: 230b c73d e80a 0fbd bf49 c5bd 521e 073e
000002b0: 8764 8dbc 9420 913d 508c bb3d d482 b5bc
000002c0: 11ce c4bd 347d f7bc 26a5 b7bd f47d cb3d
000002d0: 0abc 18bd 0aae 53bd 2066 44bd c888 52bd
000002e0: 5841 5dbc 6029 c1bd 66d5 d03d 1c4c 103d
000002f0: b832 8b3d 2446 a43d 7c9a 653d fa89 943d
00000300: da00 07bd 38de 363d dc8b 30bd 043e d4bd
00000310: c051 4a3d 56e2 9bbd 716f 19bd f148 7b3e
00000320: 6ad8 d73e b7ea d73e cba5 eb3d c68c 84be
00000330: 49fc 05bf 9471 00bf bc76 e6be f4d6 28be
00000340: d9b5 b03e 1093 023c 7288 c13d c8f4 423c
00000350: 7440 9c3d d08c 173d f0cb 583d 08d5 9ebc
00000360: 44fb c2bc 58c1 babd 7862 72bc 6cbc ad3d
00000370: 33fd 173e e2d1 2bbe a1d1 31be 3a6d 403d
00000380: 96b7 a5bd e1a1 953c 85b5 a2bd 0056 16bf
00000390: be49 d9be ba7b 843e ad33 633f b003 e9be
000003a0: 4463 e1be 53a4 21be e6ba a93e 61f0 f73e
000003b0: b62c 173f 6a51 363f 666c c63d 91f4 adbe
000003c0: 18bf 83be 5463 9abe 02c2 723e d16e ae3e
000003d0: e55b 123e c87f f83d 1ff1 2dbc 794d 38be
000003e0: 9383 54be 7038 3fbf 1b50 b6be 0656 80bb
000003f0: 6954 fd3e b8ac 993c 6423 1ebd ac87 8dbc

conv3.bias f4 [16]
-0.30893221 -0.083084 0.26423064 0.07927729 -0.40550187 -0.18950811 0.041986197 0.01884554
0.38709497 0.010565931 0.17860226 -0.14133228 -0.17254762 0.36781618 0.23496222 -0.23958541
00000000: 5d2c 9ebe f227 aabd 3d49 873e 225c a23d
00000010: f19d cfbe 6a0e 42be b8f9 2b3d f661 9a3c
00000020: 5031 c63e ba1c 2d3c 83e3 363e 69b9 10be
00000030: 53b0 30be 6752 bc3e f099 703e e155 75be

conv4.weight f4 [32, 16, 11]
-0.02058772 -0.028233893 -0.19463809 -0.05081429 0.043728013 0.00642548 0.04906361 0.09894809
0.07328753 0.14901885 -0.20034501 -0.25463292 0.1386022 -0.29120916 0.23956478 -0.07924805
0.25620234 -0.038070478 0.263324 -0.07452044 0.32790393 -0.41870502 -0.08849481 0.8489411
1.0542101 1.065344 0.8324282 1.0121146 0.6946924 0.7292809 0.054990433 -0.21097375
-0.89328855 0.005557686 0.035939638 -0.32422507 0.3637364 -0.27499133 0.010779005 0.16806707
0.32390735 -0.13207226 -0.09897376 0.36637104 0.20050244 -0.14862894 0.100257345 -0.15632235
-0.319524 0.14355214 -0.21779142 -0.0500629 -0.15713567 0.40758944 0.55636 0.08035227
-0.013096919 -0.15460022 0.1122032 0.0015897732 0.21369995 0.015614748 0.13140811 -0.0046888203
0.16041003 -0.15180407 0.9978292 -0.57366604 0.25069258 -0.12099012 0.05916283 0.1413872
0.04274154 -0.042484347 0.043843694 -0.07336994 0.20037217 -0.004024087 0.23574294 -0.1979462
0.42560402 -0.5787355 0.20193371 -0.0651198 0.18419467 -0.04177162 0.03474601 -0.17596959
0.11699433 -0.1497537 0.25118956 -0.13735661 -0.100889996 0.20839228 -0.18592592 -0.105643615
-0.26349247 -0.13996094 0.97844386 0.8377289 -0.5841312 0.055366844 0.21008603 -0.5490333
0.35780755 0.031790398 0.06669868 -0.20296864 0.2524972 0.0037587204 -0.51297843 -0.40292573
0.38279477 -0.37088397 0.15712465 0.5551598 0.36592796 0.24418695 -0.22789553 -0.4971428
-0.73836005 -0.026089814 -0.041079354 -0.012411371 -0.036103833 0.014385611 0.003479287 0.07007307
0.01928182 -0.028979734 0.07452428 -0.050911754 0.04448867 0.01385884 -0.04147764 -0.043795213
-0.024765272 0.069797136 0.0018279403 0.068704665 0.016429432 -0.036002584 -0.050334357 0.15568484
0.16899468 0.2187415 -0.086319156 0.2189581 -0.9235723 -0.3229808 -0.74289215 -0.19844848
-0.09983842 0.82254314 1.0036176 0.2622805 -0.48538497 0.8575798 0.19005503 -0.48777235
0.011833504 0.07314432 -0.37644887 0.06762596 -0.69831127 0.20899974 -0.10742134 -0.20889002
0.09030007 -0.34141582 0.10378528 -0.07782746 0.012781605 -0.054508787 0.19263086 0.054446105
-0.024880199 -0.029621987 0.013374871 -0.085875146 -0.08390704 0.022395585 0.024793101 0.0031289593
-0.10561338 -0.024176117 -0.116729975 -0.1079126 -0.08271231 -0.0019252843 -0.044848002 -0.01803373
0.016859414 -0.0009973362 -0.08193369 -0.0697332 -0.11105 -0.05823002 0.019286998 0.07427141
0.026794203 0.06113851 0.07277392 0.013328657 -0.060317315 0.01447694 -0.009783052 -0.06432855
0.01288563 -0.0068306914 -0.015350332 -0.04943492 -0.092383415 0.00385095 -0.012419635 -0.13211681
0.002838643 -0.11076396 -0.014286073 -0.113213114 -0.050724197 -0.044686574 -0.09868744 -0.066728294
-0.062362164 -0.04730674 -0.04432855 -0.037144877 -0.08622849 -0.08827778 -0.11779555 -0.064227544
-0.05032153 -0.05538968 -0.09615937 -0.058652617 -0.12544934 -0.12091922 -0.069190614 -0.013421739
0.00085850514 -0.097234085 -0.08264341 -0.10172564 -0.014480375 -0.082798675 -0.050757166 -0.06436561
-0.114388816 0.012310513 -0.09118377 -0.090143 0.010899716 -0.068070434 0.0060649426 -0.052809387
00000000: 94a7 a8bc c44a e7bc 354f 47be a522 50bd
00000010: 251c 333d d58c d23b edf6 483d 4ca5 ca3d
00000020: c617 963d 6698 183e 3e27 4dbe 3f5f 82be
00000030: bced 0d3e 5e19 95be 7850 753e cd4c a2bd
00000040: f42c 833e caef 1bbd 67d2 863e 2c9e 98bd
00000050: 06e3 a73e 8160 d6be c43c b5bd 3454 593f
00000060: 5bf0 863f 315d 883f 041a 553f f98c 813f
00000070: 5cd7 313f 27b2 3a3f a63d 613d 8109 58be
00000080: 8fae 64bf 401d b63b 7135 133d d400 a6be
00000090: a83b ba3e aacb 8cbe 6c9a 303c c619 2c3e
000000a0: 2fd7 a53e f33d 07be c1b2 cabd fc94 bb3e
000000b0: 8350 4d3e 2f32 18be b953 cd3d f712 20be
000000c0: a698 a3be 55ff 123e b704 5fbe c10e 4dbd
000000d0: 2ce8 20be 90af d03e 9c6d 0e3f bb8f a43d
000000e0: 7694 56bc 854f 1ebe cbca e53d f05f d03a
000000f0: 29d4 5a3e 00d5 7f3c d98f 063e ada4 99bb
00000100: 8742 243e 8772 1bbe bc71 7f3f c7db 12bf
00000110: c75a 803e abc9 f7bd b954 723d cec7 103e
00000120: c111 2f3d 1104 2ebd 7295 333d fb42 96bd
00000130: 5d2e 4d3e 7ddc 83bb 9966 713e 69b2 4abe
00000140: c5e8 d93e 0228 14bf b6c7 4e3e 885d 85bd
00000150: 879d 3c3e b818 2bbd d551 0e3d 5f31 34be
00000160: b99a ef3d 0959 19be eb9b 803e 36a7 0cbe
00000170: 6a9f cebd c964 553e 5d63 3ebe ae5b d8bd
00000180: 7ce8 86be ec51 0fbe 4c7b 7a3f 6775 563f
00000190: 9f89 15bf 58c8 623d cb20 573e 728d 0cbf
000001a0: 8d32 b73e a636 023d 5199 883d 03d7 4fbe
000001b0: 5047 813e dd54 763b 8e52 03bf 484c cebe
000001c0: adfd c33e 81e4 bdbe 49e5 203e f41e 0e3f
000001d0: e95a bb3e 250c 7a3e 725d 69be 8089 febe
000001e0: 2a05 3dbf 4eba d5bc d342 28bd 1059 4bbc
000001f0: 9de1 13bd a0b1 6b3c c004 643b 7882 8f3d
00000200: e8f4 9d3c e866 edbc 30a0 983d d888 50bd
00000210: c039 363d 3010 633c 75e4 29bd 9c62 33bd
00000220: 8ae0 cabc cdf1 8e3d 8097 ef3a 08b5 8c3d
00000230: 0497 863c 7277 13bd 662b 4ebd d96b 1f3e
00000240: f10c 2d3e c6fd 5f3e 19c8 b0bd 8d36 603e
00000250: 3c6f 6cbf bd5d a5be 2e2e 3ebf 1436 4bbe
00000260: 1678 ccbd 3092 523f 8b76 803f a149 863e
00000270: 6184 f8be 5a8a 5b3f c99d 423e 4cbd f9be
00000280: 50e1 413c b0cc 953d e8bd c0be 7b7f 8a3d
00000290: 87c4 32bf 0704 563e b8ff dbbd 44e7 55be
000002a0: 3eef b83d 0ece aebe 608d d43d 0164 9fbd
000002b0: f069 513c 9b44 5fbd 0641 453e e102 5f3d
000002c0: 8fd1 cbbc cfa9 f2bc 4622 5b3c 4fdf afbd
000002d0: 74d7 abbd f276 b73c e71a cb3c 3a0f 4d3b
000002e0: d44b d8bd fe0c c6bc 2010 efbd 4801 ddbd
000002f0: 1265 a9bd d259 fcba 8ab2 37bd 79bb 93bc
00000300: c11c 8a3c 0db9 82ba dacc a7bd 48d0 8ebd
00000310: 2f6e e3bd 9a82 6ebd c4ff 9d3c 9c1b 983d
00000320: 847f db3c 606c 7a3d 7e0a 953d 7060 5a3c
00000330: 4a0f 77bd b030 6d3c 1849 20bc b0be 83bd
00000340: 401e 533c fed3 dfbb f57f 7bbc 457c 4abd
00000350: 8433 bdbd 3860 7c3b ba7b 4bbc a149 07be
00000360: 8708 3a3b 37d8 e2bd 2210 6abc 47dc e7bd
00000370: 2dc4 4fbd 4509 37bd a41c cabd d8a8 88bd
00000380: 786f 7fbd b6c4 41bd db91 35bd 3a25 18bd
00000390: 9098 b0bd fbca b4bd cb3e f1bd bb89 83bd
000003a0: f31d 4ebd 4ae0 62bd 34ef c4bd ba3d 70bd
000003b0: cb75 00be 7fa4 f7bd cfb3 8dbd dbe6 5bbc
000003c0: 4e0d 613a aa22 c7bd f340 a9bd 8855 d0bd
000003d0: 183f 6dbc 5a92 a9bd bfe6 4fbd 1ed2 83bd
000003e0: af44 eabd 09b2 493c 8ebe babd e59c b8bd
000003f0: b994 323c 8368 8bbd 6dbc c63b a84e 58bd

conv4.bias f4 [32]
0.8294726 -0.0060566403 -0.025064804 0.032346677 -0.030841852 -0.09402024 0.4427109 0.054913823
0.13076238 -0.05570201 -0.09264728 -0.07522132 0.022316948 0.0055517815 0.055678107 -0.045767833
0.14243747 0.17652173 0.27087203 -0.20536645 0.037889153 -0.07529851 0.0072868145 -0.041236427
-0.07266096 0.55051535 -0.029842276 -0.031861827 -0.092183754 -0.21082318 -0.07460929 0.0032968149
00000000: 5158 543f c876 c6bb b454 cdbc f37d 043d
00000010: 0da8 fcbc af8d c0bd 01ab e23e 51ed 603d
00000020: 93e6 053e ca27 64bd dbbd bdbd a30d 9abd
00000030: 08d2 b63c b8eb b53b ba0e 643d 0d77 3bbd
00000040: 21db 113e 1dc2 343e bdaf 8a3e 954b 52be
00000050: a831 1b3d 1b36 9abd 3bc6 ee3b 87e7 28bd
00000060: 45cf 94bd 93ee 0c3f ca77 f4bc 8c81 02bd
00000070: d6ca bcbd 08e2 57be c1cc 98bd 600f 583b

fc_moy.weight f4 [32, 32]
-0.21586268 0.11098781 0.5795629 0.06599535 0.050588306 0.3188399 -0.39663887 -0.06521437
-0.122553594 -0.019959018 0.17954578 -0.11174864 0.08435738 0.19540109 0.13480794 -0.054079745
-0.1612771 0.23902161 0.31824374 -0.15597664 0.07628305 -0.0333862 0.07115787 0.19145752
0.13307983 -0.2061782 0.1859146 -0.014096404 -0.1007876 -0.75610983 0.11927424 0.20697275
-0.16303949 0.102738805 0.21571824 -0.061422266 -0.068762526 -0.24809848 0.10797663 0.035950817
0.059585836 0.12225507 -0.033652965 0.016994378 -0.06011892 -0.18062143 0.14531812 -0.10898729
-0.1211581 -0.33258593 0.16455907 0.29674694 -0.09594859 0.035414323 -0.22111164 0.09077143
-0.17037047 -0.26755917 -0.30853277 0.29871017 -0.15717602 0.08503174 0.13935502 -0.15338525
-0.06883585 0.073865466 0.19288589 -0.16911711 -0.06537195 0.06281349 -0.3177313 0.30144042
-0.015010549 0.12137632 0.10663529 0.050771795 -0.074407786 -0.06481609 0.054167725 0.027828626
0.1657201 -0.34884992 0.32754865 0.17881912 0.014118799 -0.09841437 -0.057082456 0.12199134
0.19953439 0.04225673 0.0007535556 -0.24732399 -0.04052895 0.13946371 0.16772501 0.13286993
0.16398986 0.056512382 0.08652019 0.11302171 -0.010851868 -0.07842338 0.53224045 0.08774103
0.32267618 0.07661764 -0.00095587724 0.098872885 -0.303696 0.111517996 0.024924364 -0.0072472
-0.24552688 -0.15579095 -0.44066912 0.15672696 -0.13151874 -0.12363849 -0.0116003705 -0.1150999
0.117690735 -0.1761203 0.25543717 0.007427728 0.058448747 -0.58856124 -0.14479432 0.07123704
0.061714016 0.030316884 -0.06828775 0.025652854 -0.08785923 0.034314964 -0.05839088 -0.2383933
-0.10972228 -0.094898455 0.030093685 0.1449417 0.39309 -0.06776634 -0.11566032 -0.0018203745
0.02150845 -0.095878504 -0.09996377 -0.18109642 0.037414268 0.071655475 0.18846573 -0.097677894
-0.09618348 -0.14041527 -0.09615249 -0.07650101 -0.016582845 0.16707167 0.0561617 0.0822962
0.48062238 -0.06711716 -0.2623074 0.13117586 -0.040351827 -0.34314504 0.17554237 -0.038215213
-0.49701166 0.093020186 0.14237523 0.086017534 0.34041157 -0.0060689254 -0.04668083 -0.16841641
-0.5398397 0.48888743 0.18367913 0.26772216 0.08060472 0.06505158 -0.32245016 -0.039405532
0.009498626 -0.2747334 0.3639172 -0.1218462 0.0014818937 0.27385348 0.09208371 -0.12967281
-0.5129435 0.05512613 -0.031619318 0.087301806 0.077929325 -0.5310386 0.24777639 0.27249837
0.121726215 0.0033321977 0.062835366 -0.1213834 0.12539375 0.119072735 0.18071322 0.08749664
-0.33726126 0.096406855 0.21590263 -0.24542364 0.06902529 -0.048491072 0.6586844 0.08650222
-0.14777647 -0.3659324 0.117103055 -0.3032157 0.06289788 -0.28113127 -0.16813137 0.1841268
-0.27073222 -0.02571109 0.43799657 0.08748904 -0.077952385 -0.17706066 0.18066736 -0.093859956
0.1389385 -0.14619894 0.03875025 0.09250646 0.2835687 -0.060580987 -0.17639175 -0.112376645
-0.116341025 -0.43748537 -0.0825768 -0.31233507 -0.21299063 0.07732155 -0.057078756 -0.036752243
0.11791326 0.12470043 -0.2763962 -0.11573691 -0.103975184 0.66633475 0.032454953 0.10061896
00000000: 1b0b 5dbe 944d e33d 3c5e 143f 9228 873d
00000010: af35 4f3d fc3e a33e 4014 cbbe 1d8f 85bd
00000020: 61fd fabd 1881 a3bc d9da 373e 79dc e4bd
00000030: 90c3 ac3d 3917 483e 180b 0a3e b982 5dbd
00000040: d325 25be 15c2 743e d8f0 a23e 57b8 1fbe
00000050: 4a3a 9c3d f8bf 08bd 38bb 913d 710d 443e
00000060: 1446 083e 6120 53be 6660 3e3e 9bf4 66bc
00000070: bb69 cebd 6a90 41bf 0e46 f43d aaf0 533e
00000080: d3f3 26be b968 d23d 3ee5 5c3e ea95 7bbd
00000090: 5ed3 8cbd 870d 7ebe da22 dd3d 2a41 133d
000000a0: 4710 743d de60 fa3d b1d7 09bd cb37 8b3c
000000b0: 423f 76bd d3f4 38be 46ce 143e ba34 dfbd
000000c0: bd21 f8bd b448 aabe 2c82 283e 37ef 973e
000000d0: b280 c4bd 9c0e 113d 176b 62be 5fe6 b93d
000000e0: 9975 2ebe 84fd 88be 02f8 9dbe 8af0 983e
000000f0: c0f2 20be 1f25 ae3d 15b3 0e3e 0611 1dbe
00000100: cff9 8cbd c746 973d e183 453e 092d 2dbe
00000110: bbe1 85bd 5ca4 803d adad a2be 6656 9a3e
00000120: ceee 75bc 2694 f83d 9a63 da3d 16f6 4f3d
00000130: 1c63 98bd 4cbe 84bd fade 5d3d dcf8 e33c
00000140: 88b2 293e 759c b2be 75b4 a73e 5c1c 373e
00000150: 8952 673c 798d c9bd 4bcf 69bd 98d6 f93d
00000160: be52 4c3e 6515 2d3d 438a 453a 8042 7dbe
00000170: af01 26bd 93cf 0e3e 1bc0 2b3e 0e0f 083e
00000180: f5ec 273e 8779 673d 7f31 b13d ed77 e73d
00000190: 09cc 31bc 709c a0bd e940 083f 92b1 b33d
000001a0: d035 a53e b6e9 9c3d d693 7aba de7d ca3d
000001b0: 0b7e 9bbe 8c63 e43d 2e2e cc3c eb79 edbb
000001c0: 666b 7bbe aa87 1fbe 629f e1be 087d 203e
000001d0: d9ac 06be 2d36 fdbd 7b0f 3ebc 7fb9 ebbd
000001e0: d707 f13d e158 34be a9c8 823e 4c64 f33b
000001f0: f467 6f3d f3ab 16bf f644 14be bae4 913d
00000200: d6c7 7c3d 1d5b f83c 73da 8bbd ef25 d23c
00000210: 8aef b3bd d98d 0c3d 462b 6fbd 601d 74be
00000220: 13b6 e0bd 1f5a c2bd 0887 f63c 996b 143e
00000230: 1843 c93e 14c9 8abd 51df ecbd a299 eeba
00000240: 7d32 b03c f35b c4bd ceb9 ccbd 5771 39be
00000250: b43f 193d 1bc0 923d 29fd 403e 590b c8bd
00000260: d8fb c4bd 05c9 0fbe 99eb c4bd 90ac 9cbd
00000270: bfd8 87bc d614 2b3e d009 663d e98a a83d
00000280: 2314 f63e b974 89bd 284d 86be f752 063e
00000290: f547 25bd b5b0 afbe 61c1 333e 8e87 1cbd
000002a0: 5078 febe 5e81 be3d d0ca 113e f629 b03d
000002b0: 6d4a ae3e d6dd c6bb 6634 3fbd 5a75 2cbe
000002c0: ef32 0abf 744f fa3e 6216 3c3e e112 893e
000002d0: 1614 a53d c339 853d 3018 a5be b267 21bd
000002e0: 20a0 1b3c dba9 8cbe 5b53 ba3e 808a f9bd
000002f0: 1a3c c23a 8636 8c3e 6296 bc3d f3c8 04be
00000300: 4450 03bf f0cb 613d 4283 01bd 4acb b23d
00000310: 6999 9f3d 25f2 07bf 18b9 7d3e e884 8b3e
00000320: 984b f93d 0061 5a3b d4af 803d dc97 f8bd
00000330: 3867 003e 68dc f33d e30c 393e 7031 b33d
00000340: 82ad acbe f570 c53d 9415 5d3e 5650 7bbe
00000350: 225d 8d3d 939e 46bd 8a9f 283f 1328 b13d
00000360: b752 17be 7e5b bbbe bad3 ef3d 173f 9bbe
00000370: 9bd0 803d 70f0 8fbe a12a 2cbe bc8b 3c3e
00000380: 6a9d 8abe 10a0 d2bc 1641 e03e 742d b33d
00000390: 80a5 9fbd 644f 35be dd00 393e a639 c0bd
000003a0: e545 0e3e 2db5 15be 95b8 1e3d 0774 bd3d
000003b0: eb2f 913e c523 78bd 0aa0 34be ba25 e6bd
000003c0: 3444 eebd 15fe dfbe 061e a9bd 62ea 9fbe
000003d0: 371a 5abe c35a 9e3d 6acb 69bd 8589 16bd
000003e0: 827c f13d f062 ff3d cd83 8dbe 7907 edbd
000003f0: f1f0 d4bd ea94 2a3f 7cef 043d 5011 ce3d

fc_moy.bias f4 [32]
-0.3721429 0.88836765 0.16598539 0.82175475 0.57094836 0.8384922 0.47533837 -0.60322416
-1.3089134 -1.3678383 0.40037596 0.3717925 -0.8820579 -0.66106135 -0.4273372 1.566185
-0.26409167 -0.23912211 -0.9735363 -0.109164625 -1.1287186 -0.8498814 -1.4655563 0.33953494
0.1517318 0.031081436 0.83311677 -0.4099387 0.18834032 -0.75432765 -1.4792877 -0.5159516
00000000: 8489 bebe 106c 633f 13f8 293e 855e 523f
00000010: ac29 123f 6da7 563f 8d5f f33e e66c 1abf
00000020: 798a a7bf 5315 afbf 14fe cc3e 965b be3e
00000030: 8cce 61bf 513b 29bf f1cb dabe c078 c83f
00000040: 0637 87be 6ddc 74be ad39 79bf b491 dfbd
00000050: da79 90bf d491 59bf 5997 bbbf 86d7 ad3e
00000060: 955f 1b3e 7f9e fe3c 2447 553f 7ce3 d1be
00000070: 49dc 403e 9e1b 41bf 4d59 bdbf 6715 04bf

fc_var.weight f4 [32, 32]
-1.8020884 0.05684281 -0.14610822 0.013475955 -0.08075272 -0.36784062 -0.34774816 -0.29253486
-0.21774308 -0.048496306 0.020219143 -0.073572434 -0.38438663 -0.0091405865 0.100616775 0.09861718
-0.39886478 -0.12315068 -0.3265739 -0.07998459 0.16394271 -0.16978227 -0.5552667 0.08157462
0.19556339 -1.2468611 -0.27914152 -1.1918474 0.15947644 -0.2113217 0.01735586 0.12413969
-1.7561811 0.15508617 -0.13646962 0.08135149 0.16004379 -0.3910184 -0.48324057 -0.28543743
-0.501662 -0.11518122 -0.10372544 0.2114637 -0.16192667 -0.05151249 -0.052156895 -0.11688642
-0.22311246 -0.2533749 -0.45188397 -0.18003842 -0.039683945 0.15395536 -0.53886247 0.21692239
-0.0029346037 -0.66414016 -0.31428954 -0.71286917 0.20938466 -0.3095504 0.047159076 -0.08409189
-1.1992341 0.0695358 -0.2782855 -0.00709004 -0.042722154 -0.32918993 -0.30430537 -0.33601156
-0.22675344 -0.11399833 -0.054682877 -0.05779596 -0.3322206 0.037584554 0.12143923 -0.10742698
-0.5040591 -0.28536007 -0.6046645 -0.14959835 -0.12868376 -0.19144788 -0.3418945 0.20343506
-0.101543486 -0.8462344 -0.44079638 -0.59163237 0.038166974 -0.23218879 0.10501422 -0.041829467
-2.0391078 0.022957433 -0.14703539 0.111478545 0.17742331 -0.26471955 -0.23103091 -0.34062102
-0.20592168 -0.112994775 0.060160823 -0.10256522 -0.4561525 -0.0007102475 -0.025911314 -0.09939608
-0.13807802 -0.4587787 -0.5849251 -0.007125705 0.13848408 -0.16536908 -0.46685487 0.10701572
-0.043748815 -0.741261 -0.18450622 -1.0963346 0.13167264 -0.19482902 0.17008142 0.04960477
-1.6276071 -0.08937616 -0.25423717 0.07402743 -0.040643204 -0.48711324 -0.59847605 -0.43328568
-0.43754482 -0.15366247 0.14707844 0.010369276 -0.35863116 0.120974034 0.11011935 0.12025903
-0.31708047 -0.21405362 -0.5440149 0.23442045 -0.043328382 0.18792254 -0.49768654 0.1088213
-0.081638694 -0.8285376 -0.1750179 -0.8451278 -0.044878516 -0.2218932 0.11373933 0.008162959
-1.3184395 0.06443073 -0.5113672 -0.08499704 0.18746452 -0.55765224 -0.36400163 -0.6175521
-0.24629024 0.08427088 0.11482617 0.16658133 -0.30730495 -0.08878655 0.048128683 0.09176436
-0.41478378 -0.3108956 -0.51645285 0.001196031 -0.006253294 0.012043346 -0.29559478 -0.11596426
-0.0069193076 -0.8825321 -0.18850367 -0.76869935 -0.05257465 -0.1885636 -0.012091592 0.005825434
-1.5860422 0.13091938 -0.24673612 0.016534973 0.050785355 -0.41389325 -0.61566794 -0.701565
-0.24264555 0.011151388 0.14153948 0.09301113 -0.47202522 0.21374348 -0.055797838 -0.02809143
-0.5016869 -0.14486423 -0.56998026 -0.28584617 0.16752326 -0.21871482 -0.41318327 -0.01253851
-0.06811622 -0.4363495 -0.4814671 -0.5616599 -0.1246915 -0.21115643 -0.036134705 -0.09222083
-1.196443 0.17697477 -0.3506328 -0.096027754 -0.05271183 -0.46117914 -0.48885798 -0.2702182
-0.35034174 0.008751601 0.11083846 0.1535884 -0.40180206 -0.054630227 0.18651976 -0.057459578
-0.29662603 -0.08774816 -0.5666405 -0.02819075 -0.04769277 0.03349153 -0.514465 -0.12298378
0.15651166 -1.0509838 -0.45143262 -0.86683714 -0.02680716 -0.18117397 -0.1568733 -0.07405279
00000000: d5aa e6bf 02d4 683d 659d 15be 41ca 5c3c
00000010: af61 a5bd 9b55 bcbe 0c0c b2be 21c7 95be
00000020: 0bf8 5ebe 10a4 46bd 9ea2 a53c 25ad 96bd
00000030: 53ce c4be 66c2 15bc 2b10 ce3d cef7 c93d
00000040: 0138 ccbe 6c36 fcbd b234 a7be f6ce a3bd
00000050: 99e0 273e 67db 2dbe f525 0ebf 9810 a73d
00000060: c541 483e 2599 9fbf a3eb 8ebe 758e 98bf
00000070: cb4d 233e b764 58be e02d 8e3c f33c fe3d
00000080: 8bca e0bf e9ce 1e3e b1be 0bbe 9c9b a63d
00000090: 85e2 233e 9033 c8be 4f6b f7be db24 92be
000000a0: ec6c 00bf 22e4 ebbd 016e d4bd f189 583e
000000b0: 1bd0 25be c3fe 52bd 78a2 55bd 2662 efbd
000000c0: 9877 64be 5bba 81be 565d e7be fe5b 38be
000000d0: a28b 22bd 79a6 1d3e e4f2 09bf e720 5e3e
000000e0: 7b52 40bb 1705 2abf 8fea a0be 987e 36bf
000000f0: ef68 563e 647d 9ebe e029 413d 5e38 acbd
00000100: 8180 99bf c968 8e3d 707b 8ebe 9153 e8bb
00000110: 6dfd 2ebd 958b a8be eacd 9bbe b509 acbe
00000120: 0e32 68be f577 e9bd 27fb 5fbd 75bb 6cbd
00000130: d218 aabe 43f2 193d 22b5 f83d ad02 dcbd
00000140: 040a 01bf b71a 92be 4bcb 1abf 4f30 19be
00000150: adc5 03be ea0a 44be cc0c afbe 4851 503e
00000160: 08f6 cfbd d1a2 58bf 10b0 e1be 3875 17bf
00000170: f954 1c3d e6c2 6dbe b211 d73d 6055 2bbd
00000180: be80 02c0 3a11 bc3c 7290 16be dd4e e43d
00000190: 75ae 353e 5289 87be 5e93 6cbe e165 aebe
000001a0: 22dd 52be ce69 e7bd 326b 763d b70d d2bd
000001b0: d28c e9be e72f 3aba f743 d4bc 2c90 cbbd
000001c0: 5364 0dbe 0be5 eabe a7bd 15bf bf7e e9bb
000001d0: c5ce 0d3e 8356 29be 9a07 efbe 0f2b db3d
000001e0: f531 33bd 48c3 3dbf 33ef 3cbe b154 8cbf
000001f0: 31d5 063e 4281 47be d329 2e3e 5f2e 4b3d
00000200: 6e55 d0bf d90a b7bd 602b 82be b19b 973d
00000210: 7d79 26bd e866 f9be ba35 19bf 9fd7 ddbe
00000220: e005 e0be b259 1dbe bb9b 163e e5e3 293c
00000230: 819e b7be 3cc1 f73d 4186 e13d 5e4a f63d
00000240: 5f58 a2be df30 5bbe 8f44 0bbf ea0b 703e
00000250: 1a79 31bd c46e 403e c5d0 febe b4dd de3d
00000260: 3032 a7bd 0a1b 54bf e437 33be 4c5a 58bf
00000270: 89d2 37bd f937 63be 2af0 e83d eebd 053c
00000280: a0c2 a8bf 42f4 833d f6e8 02bf ee12 aebd
00000290: b3f6 3f3e 4cc2 0ebf 6c5e babe e517 1ebf
000002a0: 8233 7cbe 3696 ac3d fc29 eb3d 4c94 2a3e
000002b0: 1357 9dbe b9d5 b5bd 9522 453d f4ee bb3d
000002c0: 8a5e d4be b52d 9fbe 4136 04bf 24c4 9c3a
000002d0: 6fe8 ccbb 7451 453c 3358 97be ac7e edbd
000002e0: 5cbb e2bb a0ed 61bf 1b07 41be 7bc9 44bf
000002f0: 8458 57bd d116 41be d01b 46bc 48e3 be3b
00000300: 6e03 cbbf bb0f 063e 65a8 7cbe 5a74 873c
00000310: 4e04 503d d1e9 d3be 6a9c 1dbf c499 33bf
00000320: 1378 78be 50b4 363c baef 103e 9f7c be3d
00000330: 4aad f1be 92df 5a3e 468c 64bd 0020 e6bc
00000340: 8d6e 00bf 4a57 14be 3aea 11bf 6e5a 92be
00000350: 388b 2b3e c7f6 5fbe c28c d3be 536e 4dbc
00000360: 8480 8bbd 3469 dfbe db82 f6be f1c8 0fbf
00000370: 425e ffbd 6439 58be fc01 14bd 46de bcbd
00000380: 0b25 99bf e038 353e 2486 b3be 33aa c4bd
00000390: 5ce8 57bd ac1f ecbe 984b fabe 0a5a 8abe
000003a0: fe5f b3be e062 0f3c 46ff e23d 4746 1d3e
000003b0: 00b9 cdbe f2c3 5fbd 09ff 3e3e bc5a 6bbd
000003c0: 5edf 97be 4fb5 b3bd 5a0f 11bf 4af0 e6bc
000003d0: 7e59 43bd 6a2e 093d fab3 03bf ecde fbbd
000003e0: 9844 203e a386 86bf 2d22 e7be 0ae9 5dbf
000003f0: b09a dbbc ab85 39be 65a3 20be fda8 97bd

fc_var.bias f4 [32]
-0.44874665 -0.095619276 -0.20133105 -0.32843632 -0.256372 -0.39832556 -0.37830222 -0.3589228
-0.08745325 -0.4074266 -0.15288156 -0.15523638 -0.30668908 -0.26957428 -0.26309443 -0.6628337
-0.45918152 -0.2838906 -0.27284953 -0.14457807 -0.05849716 -0.4729329 -0.7047411 -0.40575215
-0.13690239 -0.40995488 -0.45862287 -0.25875813 -0.37447593 -0.16387425 -0.29073244 -0.09500073
00000000: 1fc2 e5be 0ad4 c3bd ba29 4ebe ce28 a8be
00000010: 3143 83be 54f1 cbbe d4b0 c1be bbc4 b7be
00000020: b11a b3bd 389a d0be fc8c 1cbe 49f6 1ebe
00000030: 5a06 9dbe a405 8abe 50b4 86be 78af 29bf
00000040: d719 ebbe 1c5a 91be efb2 8bbe 460c 14be
00000050: b89a 6fbd 4324 f2be ea69 34bf bfbe cfbe
00000060: 2430 0cbe 9be5 d1be 9ed0 eabe f27b 84be
00000070: 4fbb bfbe a7ce 27be e2da 94be be8f c2bd

convt1.weight f4 [32, 16, 13]
0.23206855 -0.18118839 0.30308694 -0.03936886 0.06461815 -0.22864932 0.028610557 0.055327523
-0.15636988 0.036014073 0.41897616 0.09000009 0.023265941 -0.70315814 0.77976763 -0.28222534
0.7711185 -0.8578464 0.33662066 0.25503486 0.049604774 0.5170024 -0.42684838 0.946475
-0.26474875 0.18433091 0.34336475 -0.2230553 0.58910227 -0.059790846 0.1876678 -0.34941104
-0.008973088 -0.15748096 0.009426318 0.07050751 -3.307963e-05 0.051815424 0.18275179 0.00027310784
-0.05735598 -0.12621227 -0.2542552 0.11844274 0.1125464 0.07524394 -0.3735013 0.3305273
0.4239716 0.02893628 0.31717983 -0.051791534 -0.059059486 -0.13264352 -0.101646096 -0.20346269
0.017098086 -0.080499664 0.17602919 0.27362126 -0.022936203 -0.18069251 -1.3242277 0.007850186
0.14927523 -0.073602 0.05184923 -0.05537331 -0.051734842 -0.5481243 0.24669527 -0.06233677
-0.29474807 0.14239237 -0.11042201 0.12096297 -0.17441122 -0.18753366 -0.13211304 0.3634738
0.089337304 0.05075647 -0.4243636 0.40905985 -0.40438202 -0.3588175 -0.12771206 0.031816278
0.33731502 0.12800792 -0.05813272 -0.34466183 0.07729809 -0.15522806 -0.033028696 -0.12246653
-0.14757083 0.12518503 -0.29155794 0.31977206 -0.3739537 0.17287806 -0.08607415 -0.055599667
-0.092124246 0.09593688 -0.26511368 -0.00040231665 0.402709 -0.2889414 -0.027511762 -0.23545125
0.154329 0.14054474 -0.038983732 0.26519004 0.10796467 0.24447314 0.51962686 -0.010343931
-0.0934315 0.14738905 -0.0041594272 -0.03290863 -0.04979014 -0.2571947 0.36383805 0.09110892
0.22706002 -0.40073782 0.09088318 -0.33719724 -0.5091376 -0.025494557 0.1890533 -0.11402131
-0.08074432 -0.19939722 -0.82033676 -0.0036077315 0.20625092 -0.43008557 -0.09940136 -0.044477645
1.3171008 -0.64357543 0.46284428 -0.49359715 -0.055378962 -0.019434763 0.13558535 0.24630862
-0.3821676 -0.7092383 -0.29943728 -0.22970194 -0.1585238 0.31083548 0.44573078 0.50036424
0.049791966 0.22723576 -0.044703707 -0.063655354 -0.17729555 -0.04509394 0.5014243 -0.035543468
0.16613288 -0.19770636 0.4553599 -0.08123546 0.21794009 -0.022174321 0.10004553 0.113798164
0.68002796 0.58679825 1.0765566 0.021415668 -0.02587438 0.41788828 -0.08352022 -0.3074514
-0.03347879 0.39513224 -0.2706188 -0.14233793 0.2993579 0.073704876 0.036629494 0.88664234
-0.18334356 -0.10698179 -0.24874376 -0.69249725 0.22259974 -0.205402 0.23090841 -0.01739425
-0.10405531 0.1148852 -0.51545745 0.6449651 -0.6594218 0.30409658 -0.09089158 -0.40759507
0.09400894 -0.06495204 -0.54192096 0.053108115 0.048498712 0.25862247 0.19420424 0.047409497
-0.01938543 0.03295153 -0.071581095 -0.018831015 0.034268774 -0.2272693 -0.31916353 0.24361214
-0.40691254 0.40618214 -0.25814247 0.1910237 -0.1798211 0.12801804 -0.2201595 -0.08873055
-0.04607007 -0.58511084 -0.052632414 0.06490443 0.07450132 -0.04283858 0.19764087 -0.11796758
0.14418747 -0.017501842 0.014746273 -0.19927536 -0.013660027 -0.31892788 -0.06546768 0.3385567
-0.12256486 -0.057863045 0.20038912 0.23000146 -0.0033235871 0.2358635 -0.080366306 0.10040322
00000000: 61a3 6d3e 7389 39be 362e 9b3e 3e41 21bd
00000010: 8556 843d 0c23 6abe b060 ea3c 1d9f 623d
00000020: 6d1f 20be 7e83 133d 0b84 d63e f851 b83d
00000030: 3798 be3c 2c02 34bf da9e 473f d77f 90be
00000040: 0668 453f d29b 5bbf 8b59 ac3e ee93 823e
00000050: 602e 4b3d 455a 043f df8b dabe 304c 723f
00000060: 268d 87be 3ec1 3c3e 81cd af3e 9c68 64be
00000070: 68cf 163f 3fe7 74bd fd2b 403e 01e6 b2be
00000080: dc03 13bc b042 21be d870 1a3c 3e66 903d
00000090: fbbe 0ab8 693c 543d 4923 3b3e ea2f 8f39
000000a0: 1bee 6abd ca3d 01be bd2d 82be 1b92 f23d
000000b0: ba7e e63d 7f19 9a3d 903b bfbe e03a a93e
000000c0: ce12 d93e c70b ed3c 6565 a23e 5c23 54bd
000000d0: 5ce8 71bd b4d3 07be d42b d0bd 8658 50be
000000e0: 4911 8c3c 02dd a4bd ff40 343e 1618 8c3e
000000f0: b4e4 bbbc 7507 39be 4b80 a9bf 119e 003c
00000100: 9bdb 183e a5bc 96bd dc5f 543d 20cf 62bd
00000110: eae7 53bd e051 0cbf af9d 7c3e d754 7fbd
00000120: 38e9 96be 4ecf 113e ef24 e2bd 6fbb f73d
00000130: db98 32be d308 40be a448 07be 3d19 ba3e
00000140: 7af6 b63d 04e6 4f3d 3046 d9be 4b70 d13e
00000150: 290b cfbe edb6 b7be f3c6 02be c951 023d
00000160: 8eb4 ac3e 8214 033e 931c 6ebd 8477 b0be
00000170: 764e 9e3d 1bf4 1ebe 1949 07bd bbcf fabd
00000180: cf1c 17be 8130 003e 1547 95be 2ab9 a33e
00000190: dc76 bfbe f206 313e a547 b0bd 7abc 63bd
000001a0: a3ab bcbd 8e7a c43d fbbc 87be 07ee d2b9
000001b0: e02f ce3e 21f0 93be 5960 e1bc 221a 71be
000001c0: 6c08 1e3e f6ea 0f3e 68ad 1fbd fdc6 873e
000001d0: 951c dd3d 2b57 7a3e 4406 053f 9779 29bc
000001e0: 0459 bfbd 28ed 163e ce4b 88bb 33cb 06bd
000001f0: bff0 4bbd 06af 83be fb48 ba3e 5097 ba3d
00000200: 6c82 683e 822d cdbe f620 ba3d 1ea5 acbe
00000210: d756 02bf f6d9 d0bc 3097 413e 0184 e9bd
00000220: 475d a5bd c92e 4cbe 9701 52bf b16f 6cbb
00000230: 7133 533e 2d34 dcbe f192 cbbd 312e 36bd
00000240: c296 a83f 5cc1 24bf edf9 ec3e c4b8 fcbe
00000250: 0dd5 62bd a735 9fbc e3d6 0a3e 5438 7c3e
00000260: 79ab c3be a490 35bf d84f 99be fc36 6bbe
00000270: 1054 22be d425 9f3e d336 e43e df17 003f
00000280: a9f2 4b3d 7eb0 683e 3c1b 37bd bd5d 82bd
00000290: f78c 35be 6cb4 38bd 585d 003f 0796 11bd
000002a0: bd1e 2a3e 8973 4abe ef24 e93e c75e a6bd
000002b0: b02b 5f3e eca6 b5bc ace4 cc3d 030f e93d
000002c0: 5016 2e3f 6938 163f 9bcc 893f e96f af3c
000002d0: 82f6 d3bc 74f5 d53e a60c abbd 456a 9dbe
000002e0: 0e21 09bd c64e ca3e 8c8e 8abe 09c1 11be
000002f0: 7045 993e 95f2 963d cf08 163d fefa 623f
00000300: 6abe 3bbe 4519 dbbd afb6 7ebe 8047 31bf
00000310: 30f1 633e e754 52be 4173 6c3e 637e 8ebc
00000320: f31a d5bd ef48 eb3d 05f5 03bf 6f1c 253f
00000330: decf 28bf 8cb2 9b3e 5d25 babd 4db0 d0be
00000340: c287 c03d 9305 85bd 55bb 0abf e587 593d
00000350: 96a6 463d 2a6a 843e 7add 463e 7630 423d
00000360: 31ce 9ebc 2ff8 063d 1c99 92bd 8043 9abc
00000370: 6a5d 0c3d 49b9 68be 6769 a3be 7675 793e
00000380: d756 d0be 1bf7 cf3e 402b 84be b89b 433e
00000390: 0623 38be 2917 033e 7e71 61be 5db8 b5bd
000003a0: f8b3 3cbd d3c9 15bf 1695 57bd 9dec 843d
000003b0: 2694 983d 8277 2fbd 5e62 4a3e fd98 f1bd
000003c0: e1a5 133e 0660 8fbc 5a9a 713c d70e 4cbe
000003d0: 4ece 5fbc 844a a3be eb13 86bd 4e57 ad3e
000003e0: 4903 fbbd cd01 6dbd ce32 4d3e 8185 6b3e
000003f0: 8ad0 59bb 3486 713e 1797 a4bd 34a0 cd3d

convt1.bias f4 [16]
-0.02684282 0.35413128 0.053399112 0.18575977 0.2938722 0.8823291 0.8538967 0.6680231
0.39882147 -0.50954205 -0.4051366 0.5923889 0.085209705 0.23666175 -0.02522655 0.6556217
00000000: 79e5 dbbc b250 b53e 07b9 5a3d cf37 3e3e
00000010: 6b76 963e 52e0 613f f998 5a3f 9003 2b3f
00000020: 5432 cc3e 5971 02bf 106e cfbe cda6 173f
00000030: 6d82 ae3d 7557 723e e9a7 cebc d3d6 273f

convt2.weight f4 [16, 8, 13]
0.16982123 0.24835296 0.15973361 0.472114 0.7122949 -0.72597575 0.009322923 0.08536419
0.4252215 -0.27623957 -0.14307663 -0.3510463 0.072456405 -0.05466391 0.23420551 -0.037900414
-0.3496169 -0.013386917 -0.17389195 -0.03029422 -0.5856771 -0.04422101 -0.2102968 -0.13351482
-0.09867407 -0.039819747 0.8146257 0.1015203 0.12652771 -0.18169707 -0.3834736 -0.025771432
-0.2851459 -0.06801022 0.07948231 -0.49283946 -0.7182278 -0.4118995 -0.61167246 0.13374807
0.17260394 0.45324606 0.14049135 0.03918924 0.11167606 0.09470198 0.060595132 -0.077968426
-0.10344781 -0.12383978 -0.10047435 -0.053310025 -0.04150293 0.33622444 -0.025802176 -0.54015684
0.2480656 0.15465991 0.34860456 -0.4778104 0.37655234 -0.093995236 -0.0009298259 0.24354352
-0.22276217 0.3703298 -0.12028681 -0.874974 -0.25230217 -0.06511056 -0.061587572 0.5758222
-0.5921126 -0.07931924 0.016720569 -0.34814268 -0.21155837 -0.17153542 -0.23956324 0.33824548
-0.12450773 -0.21774231 -0.119206585 -0.112091325 -0.083004326 -0.24998209 -0.23618403 -0.06588903
-0.065360494 0.0032584544 0.046514623 0.07924429 0.04399879 0.17121843 0.056824975 0.3604789
-0.10023524 -0.15959409 0.048798215 -0.035355143 -0.23800819 -0.29216805 -0.14349821 0.100227684
0.14329557 -0.09087094 0.02711859 -0.09649414 -0.7066127 0.8525185 -0.06167761 -0.14312185
0.8277344 -0.58437145 0.06484349 0.51781946 -0.042850085 -0.10326587 0.08028682 -0.12247703
0.026765577 0.01698025 -0.20136155 0.10333786 -0.53659695 -0.030562486 -0.15055037 0.051578894
-0.12325417 0.09055881 -0.14556612 0.062482726 -0.3179128 -0.25927484 -0.32948655 0.046904452
0.5337286 -0.27977958 -0.13308965 -0.52463686 -0.518363 -0.7297356 -0.9423975 -0.018086618
-0.0101451175 -0.068492144 -0.19691254 -0.1905521 -0.09591957 0.102595635 0.36044604 0.34163195
0.2094318 -0.04972132 -0.2021633 -0.0776992 0.23114222 0.055373523 0.07113512 0.4320202
-0.57385594 -0.508723 0.25336742 0.07596897 0.6073083 0.8240983 0.048746374 -0.18391173
-0.47262096 -0.09593775 -0.14899461 -0.3938966 0.08193374 -0.29369256 -0.09716402 -0.12714909
-0.4159755 -0.15004325 0.1470402 0.5618234 0.6413079 -0.2700287 0.017055912 -0.0020778126
0.08873543 0.2167471 0.180235 0.0755932 0.019654835 -0.09211869 0.083031096 0.02488779
-0.13672711 -0.08757132 -0.080170944 -0.40509173 -0.09260058 0.0061145234 0.0023165843 0.07109373
0.1366746 -0.31924292 0.15700641 -0.6357734 -0.06688099 -0.12298636 -0.11185145 -0.3263193
-0.014313736 0.15210031 -0.17449392 0.6294655 0.5885049 -0.054704256 -0.37481284 1.1803218
0.2745574 -0.823453 -0.04973103 0.28073028 -0.334261 -0.04924876 -1.8563004 0.012197007
-0.5543378 -0.14651679 -0.19522907 -0.43418548 -0.44362462 -0.11229515 0.010754421 -0.06364818
-0.4112216 -0.08678341 0.866029 -0.27851623 0.37262267 -0.090007395 -0.63074917 -0.5007976
-0.07939629 -0.79912716 -0.7856386 -0.3896303 -0.49166027 -0.14632766 -0.34598154 0.06498432
0.09996078 0.0627264 0.16475034 0.15695316 0.20776097 0.08782484 0.05614387 0.09675004
00000000: 9ee5 2d3e 3d50 7e3e 3591 233e edb8 f13e
00000010: f558 363f 8cd9 39bf 2cbf 183c 6cd3 ae3d
00000020: a2b6 d93e 466f 8dbe ae82 12be 57bc b3be
00000030: 0664 943d 44e7 5fbd 92d3 6f3e 773d 1bbd
00000040: fc00 b3be cd54 5bbc bb10 32be 962b f8bc
00000050: efee 15bf 1721 35bd 0b58 57be 1cb8 08be
00000060: a115 cabd 081a 23bd 4f8b 503f e0e9 cf3d
00000070: 7b90 013e cc0e 3abe a756 c4be 9c1e d3bc
00000080: a5fe 91be f148 8bbd 9fc7 a23d 7455 fcbe
00000090: c7dd 37bf 7ee4 d2be 9196 1cbf 41f5 083e
000000a0: 16bf 303e de0f e83e f7dc 0f3e e684 203d
000000b0: 6bb6 e43d 1df3 c13d 9a32 783d e9ad 9fbd
000000c0: 72dc d3bd b69f fdbd 7fc5 cdbd 9d5b 5abd
000000d0: fafe 29bd 9c25 ac3e 165f d3bc b847 0abf
000000e0: e904 7e3e 2b5f 1e3e 4c7c b23e 91a3 f4be
000000f0: 78cb c03e 9380 c0bd 8fbf 73ba 7963 793e
00000100: c41b 64be de9b bd3e ee58 f6bd 4cfe 5fbf
00000110: c02d 81be af58 85bd 4043 7cbd 1569 133f
00000120: b194 17bf 2072 a2bd 93f9 883c c23f b2be
00000130: c2a2 58be fba6 2fbe 1150 75be 832e ad3e
00000140: e9fd febd d7f7 5ebe 9522 f4bd 2390 e5bd
00000150: 2cfe a9bd 4efb 7fbe 3ada 71be d4f0 86bd
00000160: b9db 85bd cb8b 553b 1e86 3e3d d54a a23d
00000170: 1338 343d e253 2f3e 4ec1 683d b190 b83e
00000180: 2248 cdbd a26c 23be a3e0 473d 8ed0 10bd
00000190: 6bb8 73be 0d97 95be 32f1 12be 2c44 cd3d
000001a0: 13bc 123e 8b1a babd ce27 de3c b89e c5bd
000001b0: 92e4 34bf a73e 5a3f a9a1 7cbd 898e 12be
000001c0: 67e6 533f 5e99 15bf aacc 843d d18f 043f
000001d0: 9283 2fbd 0e7d d3bd 6b6d a43d 3dd5 fabd
000001e0: 7c43 db3c 2a1a 8b3c b931 4ebe cda2 d33d
000001f0: 6b5e 09bf 2e5e fabc e029 1abe 6444 533d
00000200: af6c fcbd e676 b93d 490f 15be e3ed 7f3d
00000210: 77c5 a2be acbf 84be 76b2 a8be e21e 403d
00000220: 70a2 083f 453f 8fbe a748 08be 9a4e 06bf
00000230: 70b3 04bf f4cf 3abf f640 71bf 632a 94bc
00000240: b537 26bc 9c45 8cbd 71a3 49be 1720 43be
00000250: 7b71 c4bd a91d d23d 628c b83e 62ea ae3e
00000260: 4a75 563e 95a8 4bbd e503 4fbe c220 9fbd
00000270: 8cb0 6c3e 59cf 623d 4aaf 913d c031 dd3e
00000280: 39e8 12bf ac3b 02bf 60b9 813e 9f95 9b3d
00000290: 8f78 1b3f 1bf8 523f 47aa 473d 5b53 3cbe
000002a0: 60fb f1be 037b c4bd 0b92 18be d1ac c9be
000002b0: e0cc a73d df5e 96be eefd c6bd 5f33 02be
000002c0: befa d4be f0a4 19be b591 163e a9d3 0f3f
000002d0: c12c 243f 3441 8abe d7b8 8b3c e92b 08bb
000002e0: ecba b53d f4f2 5d3e 868f 383e 9cd0 9a3d
000002f0: 2d03 a13c b9a8 bcbd 350c aa3d 7be1 cb3c
00000300: 3102 0cbe 9858 b3bd aa30 a4bd 2f68 cfbe
00000310: 5fa5 bdbd 575c c83b d6d1 173b 9799 913d
00000320: 6df4 0b3e cf73 a3be 4ac6 203e 0cc2 22bf
00000330: e7f8 88bd 46e0 fbbd 5f12 e5bd 5313 a7be
00000340: 2984 6abc 2fc0 1b3e 89ae 32be a724 213f
00000350: 42a8 163f 9211 60bd 78e7 bfbe c914 973f
00000360: ca92 8c3e d1cd 52bf c4b2 4bbd e1bb 8f3e
00000370: 4224 abbe 11b9 49bd 409b edbf f5d5 473c
00000380: 15e9 0dbf 7f08 16be 21ea 47be 8f4d debe
00000390: c422 e3be 00fb e5bd 5033 303c fa59 82bd
000003a0: a38b d2be 80bb b1bd 14b4 5d3f ae99 8ebe
000003b0: 66c8 be3e cc55 b8bd c778 21bf 4634 00bf
000003c0: 869a a2bd 9993 4cbf 9c1f 49bf 9f7d c7be
000003d0: e5ba fbbe ebd6 15be 7e24 b1be 8016 853d
000003e0: 3db8 cc3d b376 803d 50b4 283e 54b8 203e
000003f0: 4bbf 543e 82dd b33d 1df7 653d e324 c63d

convt2.bias f4 [8]
-0.3376616 1.1693273 0.55781895 0.21552777 -0.05620483 0.5440988 0.7704033 0.3296224
00000000: fbe1 acbe 84ac 953f 39cd 0e3f 50b3 5c3e
00000010: 0937 66bd 0f4a 0b3f 2739 453f 44c4 a83e
