vaes/trained_vaes/rapport/VAELow_20epochs_60000steps_batch64_Adam_lr=7E-3.pt (torch_old, 76367 bytes, 19 tensors)

conv1.weight f4 [4, 1, 11]
00000000: 643e 803d bd0d 7d3e cd51 05be 6450 d03e
00000010: 7361 9b3e 7f41 27bd 9068 c63e 6b0a 04be
00000020: 7106 0ebe c77d f23d ff21 cfbd 35c4 b5bd
00000030: ad89 2b3e 6c20 49be 1161 2b3e ca18 213e
00000040: a063 10bd 3c84 763c 447d 81be bd60 c43d
00000050: 8257 8fbe bdd6 87be e342 0b3e fab8 d43c
00000060: 43dd 85be 9860 803d faab 503e 0eec 073e
00000070: 92e6 cf3d d856 4b3e 2baf 9f3e 58d3 d23c
00000080: d235 a53e 1698 3a3e 2c43 b0be 7a1a b93d
00000090: 3fde f2bd 0043 2b3e df1d 383e 67e6 9dbd
000000a0: f019 4d3e 69b9 24be 2145 e93d 3050 44be
0.062619 0.24712272 -0.13019486 0.40686333 0.30347785 -0.040833946 0.3875165 -0.12894599
-0.13869645 0.118403964 -0.10113906 -0.08875314 0.16751738 -0.19641274 0.16736247 0.15732113
-0.03525126 0.015046176 -0.25290883 0.09588764 -0.2799645 -0.2653102 0.13599734 0.02596711
-0.26145372 0.06268424 0.20378104 0.13273641 0.101514 0.19857347 0.3118833 0.025735542
0.32267624 0.18222079 -0.34426248 0.09038253 -0.11858796 0.16724777 0.17980145 -0.077099614
0.20029426 -0.16086353 0.113901384 -0.19171214

conv1.bias f4 [4]
00000000: 9d43 a7be b30e c73e 3fd0 4abc 1404 9abe
-0.32668772 0.38878402 -0.012378751 -0.30081236

conv2.weight f4 [8, 4, 11]
00000000: 488b c73c 246c cfbd 7248 dbbd 900d fe3d
00000010: 9205 7fbd 78b5 f23c a564 10be 2896 84bc
00000020: 6149 fbbd fcb3 773d a8b3 6cbd afbf 18be
00000030: 8033 eb3c 6281 cabd befe 023e 0127 ecbd
00000040: 10e3 e7bc ad20 e9bd d849 adbc 1af6 56bd
00000050: 0ac6 b2bd 04a6 873d 02b6 0e3e 08d7 dabc
00000060: 257f b1bd 5096 ab3c 9665 45bd 0448 003e
00000070: 92b7 eebd 0e6a a03d 62ab e1bd 7067 b93d
00000080: 10c4 22bc 38db b3bc 52a5 c23d 2a41 c43d
00000090: 3c5a 673d c60d 173e f3a1 0ebe 7c1d b7bd
000000a0: a833 c5bd a6ff 11bd b844 12be 7c8c 93bd
000000b0: 1d8f 103f 7b88 2c3f 7b5c 393f 7af8 af3e
000000c0: e9a3 d93d 26d9 00be 3637 2cbf 488a d5bd
000000d0: 5e1f 05be 279a 0fbd 4ce3 a8bd 80e3 0a3e
000000e0: 096b 9bbd 3c7a 0e3e 3f40 2bbd 9de0 6ebd
000000f0: 22b5 553e e836 133b 69c3 8cbd 72a9 1e3e
00000100: 9334 223e 1bdc 273e c76b 22be c59c 83be
00000110: 2d55 9ebe 2d53 80be 9155 b6bc 25c3 4c3d
00000120: 0a43 b0bd ba00 edbd 4519 b2be e984 26bf
00000130: d798 a7bf 32fb 8fbd 8361 aa3d f8d9 18be
00000140: f69c 123b 82db 16bd 4de9 91bd caea 873d
00000150: 213f c5bd 7cc4 abbc 50d1 b93d 22eb 503c
00000160: 8a44 0a3d f33d 713e 6f43 5c3e 1a05 c3bd
00000170: f8b6 fd3d 71a7 b1be 8603 b6be 482a 21bd
00000180: 9744 c1be 2f7b 7fbe 7fcb 61be 7507 e73c
00000190: f5d6 613c 844a bcbd f397 183e 97dc fd3c
000001a0: 904c c03d fe24 613d 24d2 db3d b43e 233e
000001b0: 6e6d 283e d0a9 4d3e 1dd1 00bf 5b4f 13be
000001c0: b878 c63b 05b1 babd 2509 013e e597 a93d
000001d0: cca9 803d a659 adbb 8117 883c 5666 71be
000001e0: 2e2e 44bf 4f73 bc3d 7bd4 01be 57fc 18be
000001f0: 3bfc df3c fa0f c2bd ec7d c73c cc5a 283d
00000200: e227 f63b 12f3 8b3d 78a9 993d ad0a 41bd
00000210: b175 a1bd 3fd8 55be 0e63 833b e3e9 40be
00000220: a6fe 9bbc 5d28 adbd 4188 e83c 030e c6bd
00000230: 99bf 43be ccf4 09be e61c 2bbe 221f 23be
00000240: f11a 05bd fcbd 513c cf8f 19be 679b 71be
00000250: a763 3dbe 3cb4 a93c 7f15 06be 1c4e abbd
00000260: 54bd 07be 270e 41be 706e 56be 6d14 09be
00000270: f22b 0abe d7ae 66be b6d3 10be 605f 08be
00000280: c27d f7bc 8cf2 a5bc 4384 82bd fb27 cebb
00000290: 42e9 dfbd 0465 6abd 103b c0bd 5436 53bd
000002a0: 00ca d8b9 0cf7 aabd e8f7 803c 8755 01be
000002b0: b474 cabd ee99 e3bd a4f5 b8bd ee63 983d
000002c0: c6c7 ab3e 325a b63d e6c4 70bd 4e43 a8bd
000002d0: 2b2f b6bd ec4a 24be f109 063e bcb1 ad3d
000002e0: 010a 2e3e dd2b c73e da87 a23e 2011 28be
000002f0: 23f7 8abd 36c7 c0bd bf12 c5bd 3261 48bd
00000300: f160 873d dd74 393e a886 183e 73ec 293e
00000310: 0f12 0e3e 37f9 ae3d c5fc c93e e18e 443e
00000320: 80ad 4a3e b40f 863e e3ae 8e3d f7ab 143e
00000330: 9a98 b23d 3f19 0dbe 9aa8 2dbe 8e92 74be
00000340: 79eb 6abe 82ca 00be 805f 88bd 5f76 a4bc
00000350: b5ab 613d 7d05 9a3d 7d40 003d 7a04 8dbd
00000360: 9e96 be3b a274 053e a564 c03d 9243 04be
00000370: 07a0 99bd 24af 71bb 8391 a43c 07f0 0dbe
00000380: 9db2 32bd 11c2 f93d ef42 9fbd 0354 26be
00000390: 5517 c5bd 4e2e 66be 2e87 62be 4723 febd
000003a0: d1ef 6cbd a77d 77be 2d07 21be 19c9 c33c
000003b0: c2ed 9dbd 9c10 323c 364f fcba ff9e 6dbe
000003c0: e7f9 47be 7761 b8bb bb3b 11be cda2 36be
000003d0: 0234 25bd efd5 16be aeb6 e3bd c398 4bbe
000003e0: 5419 ae3c b897 50be e3f7 dcbd 635e 9abe
000003f0: c940 85be c09c e1bb fa5d cdbd b449 49bd
0.024358407 -0.10128048 -0.10707177 0.124049306 -0.06226117 0.029627547 -0.14100893 -0.016184881
-0.12269855 0.06047438 -0.05778852 -0.14916871 0.02871108 -0.09887959 0.12792489 -0.11530877
-0.028306514 -0.113831855 -0.021153376 -0.052480794 -0.08729179 0.06623462 0.13936618 -0.026713863
-0.08666829 0.020945698 -0.048192583 0.12527472 -0.11656107 0.07832728 -0.11019017 0.09052932
-0.00993444 -0.021955118 0.095041886 0.095827416 0.05648254 0.14751348 -0.13928966 -0.089411706
-0.09628993 -0.035644196 -0.14284027 -0.0720453 0.56468374 0.6739575 0.7240674 0.3436926
0.106269665 -0.12582836 -0.67271745 -0.10426766 -0.13000247 -0.03505912 -0.082464784 0.13563347
-0.07588775 0.13913816 -0.041809317 -0.058319677 0.20869878 0.0022463147 -0.06873209 0.15494326
0.15840368 0.16392557 -0.15861426 -0.25705543 -0.3092436 -0.25063458 -0.022257598 0.04999079
-0.08606537 -0.11572404 -0.34784904 -0.65046555 -1.3093518 -0.070303336 0.0831938 -0.14926898
0.0022371388 -0.036830433 -0.07124577 0.06636579 -0.096311815 -0.020967714 0.09073126 0.0127513725
0.03375677 0.23558788 0.21510099 -0.095224574 0.12388414 -0.3469806 -0.35549563 -0.039346963
-0.37747642 -0.24949335 -0.22050284 0.028201798 0.01378416 -0.091939 0.14901714 0.030988974
0.09389603 0.05496692 0.107334405 0.15941888 0.16447994 0.2008431 -0.5031908 -0.1438574
0.0060568713 -0.09115795 0.12601145 0.08280925 0.06282386 -0.005290228 0.01661277 -0.23574194
-0.76632965 0.09201681 -0.12678711 -0.1494001 0.027341953 -0.094757035 0.024352036 0.041102216
0.0075120786 0.06833471 0.07503027 -0.04712932 -0.07883776 -0.20883273 0.004009611 -0.1883922
-0.019042324 -0.08454964 0.028385283 -0.09670641 -0.19116057 -0.13472289 -0.16710243 -0.15929845
-0.032496396 0.012801643 -0.14996265 -0.23594438 -0.18495046 0.020715825 -0.13094138 -0.083645076
-0.13255817 -0.18853055 -0.20940566 -0.13386698 -0.13493326 -0.22527634 -0.14143261 -0.13317633
-0.030211333 -0.020257257 -0.06372883 -0.006291387 -0.10933162 -0.057225242 -0.09386265 -0.051565483
-0.00041349232 -0.08347902 0.01574321 -0.12630282 -0.098855406 -0.11113344 -0.09031227 0.07440935
0.33550853 0.08903922 -0.058781527 -0.08215962 -0.08895715 -0.16044205 0.1308973 0.08481166
0.16996004 0.38900653 0.31744272 -0.16412783 -0.06785419 -0.094129965 -0.09622716 -0.048920818
0.06610287 0.18110986 0.14895117 0.16594104 0.13874076 0.08543628 0.3945066 0.19195129
0.19792747 0.26183856 0.06966951 0.14518724 0.08720513 -0.13779162 -0.16958848 -0.23884031
-0.22941388 -0.1257725 -0.0665884 -0.020075975 0.055095393 0.07520578 0.0313115 -0.068856195
0.005816295 0.13032773 0.093941964 -0.12916401 -0.07501226 -0.0036878074 0.020088917 -0.13861094
-0.04362737 0.12195218 -0.077764384 -0.16242985 -0.09623591 -0.22478601 -0.2212188 -0.12409072
-0.057845894 -0.24169026 -0.15725394 0.023899602 -0.07711364 0.010868218 -0.0019249681 -0.23205183
-0.19528924 -0.005626853 -0.14182942 -0.17835541 -0.0403328 -0.14730047 -0.11118828 -0.19882493
0.021252312 -0.20370376 -0.10789468 -0.30150136 -0.2602599 -0.006885141 -0.1002769 -0.049142554

conv2.bias f4 [8]
00000000: bf02 1abe a9bc f13d e332 ba3d 9081 21be
00000010: 1e23 47be 1f28 8dbe fa37 0cbf 0db6 db3d
-0.1504011 0.11803562 0.09091737 -0.1577208 -0.1944699 -0.27569672 -0.54772913 0.10728083

conv3.weight f4 [16, 8, 11]
00000000: 4980 9cbd 8c88 2a3d 1594 76bd 0813 653c
00000010: cc85 443d ec5e 2b3d f4fa cd3d a09a 6d3d
00000020: 92c4 bfbd 34b0 a1bc 10e7 96bc 05e4 89be
00000030: 3721 4ebe e4e6 90bc 3d37 083d 989f 2cbe
00000040: 2689 d4bd cf4a 533d d38b ba3d ef43 54be
00000050: 03d4 72be 9475 d53e 9477 5a3e 214e ecbd
00000060: 5fe8 1cbe 9b0c b3be 0d3f 0fbf 82a0 c7be
00000070: 6077 10be c605 20be 0960 acbe 1dd8 06be
00000080: 2e35 ff3e 7d9d 5abe a107 2fbe 1689 eabd
00000090: 66ac b2bd 6efd 10be 3da0 e9bd 49e6 e8bd
000000a0: d14c 0abe 8f86 cebd 5fd7 e0bb e756 473e
000000b0: df12 65bf 6859 1ebf 24f0 25bf 0bfa 53bf
000000c0: 42fb 07bf 676d 82bf bddb 64bf fd66 57bf
000000d0: 0c5f 4abf fee8 48bf 9589 03bf 7087 033d
000000e0: 91f1 063d 81d9 9b3c a90d 2fbe 3dc0 2e3c
000000f0: eafd 66be 87f4 10be 6a58 cfbd ec3c 2bbd
00000100: 2dea 0d3e 5d6c 3abd 2471 173e f0d3 413e
00000110: 1a45 423e 1257 443c f5e1 223d d7d5 f1bc
00000120: fcc7 543c 3505 6d3d d43e d53d a2a2 333c
00000130: eb89 b5be c55a 383e a5f2 5a3e d355 703d
00000140: 4cf0 f03b 998f 183d 581c 6dbe d090 01be
00000150: 9664 7bbd 4fbb fdbb 4418 fb3d 75c9 4d3f
00000160: a8d9 adbc 7252 78bd 58fd 973d 4b76 d9bd
00000170: 1889 82bd ad39 68bd 3855 9c3c b6eb b5bd
00000180: dc58 313d 0842 a9bc e4c8 673d 5d61 a2be
00000190: 4cf0 5abd b911 943e 33f9 463e ffcc d53d
000001a0: 85c4 28bc 6631 21be 4389 8fbe 0a2e bcbd
000001b0: 9169 12bd 7215 5c3f 9ca6 c5be c3f8 1bbe
000001c0: f69f 2a3e 2e38 fe3d 4361 6a3e a06e a63d
000001d0: 001d 08be a697 7ebe 2cf2 9cbe 0866 babe
000001e0: 287f 253f 44a4 cbbd f4a4 bd3c e6e5 22be
000001f0: c653 b03d 1ae5 3abd b646 43be cd8a a3bd
00000200: 18b8 c1bc e013 a8bc 7cfe 9f3d cb6b 753c
00000210: 470e 0d3d a12c 143d 506f fbbb 8b57 98bd
00000220: 3c9d 9bbd aa6e 63bd 098e 98bd b847 273c
00000230: 9bef ecbc 14ac c7bd 731c 98bd c358 39be
00000240: 2d88 8bbd bbcb 68bd de4e 35be b9fe 91bd
00000250: d641 5cbe 51e7 1bbe 02e7 e9bd cb3a 573d
00000260: 27e8 d23d 4add b6bd 274d 5b3e bbe8 1c3d
00000270: e842 acbd 7e3d e2bd 5958 2b3c c39f 58be
00000280: a134 27be e64d 52be 85d9 eabd a1a0 36bd
00000290: 7c87 e4be 323b 3fbe 180c 37be 23e4 1fbe
000002a0: f064 31be 8fa3 c8bd 7a12 04be ae97 02be
000002b0: f80c 70be e021 fbbd bd4d d3bc 7f55 a83f
000002c0: 1092 cdbc a01b 2c3d 0074 603d 18f5 0a3d
000002d0: 00fc bc39 c5a1 bdbd f0af 49bd dc27 393d
000002e0: 5cfb 7f3d 64bf af3d 700c 03bd 7973 5b3c
000002f0: c95e abbc c679 b3bc 3b9e 793d c75e 353d
00000300: f99f 303d 633e 873d 92f0 883d 5f60 5b3e
00000310: 5b45 a53c 06ae 7d3d f02c e73d edfb d7bd
00000320: ad17 573d 56d6 9d3d 3aa0 2ebd da41 0fbe
00000330: ff23 0ebe 102e 0c3e d7c2 a73d 0754 ba3d
00000340: a0b3 953d b7cb b2bc dd30 09be 3f18 5cbe
00000350: 5dd8 53bc 2fb4 a7bd d01a aabd 36d2 2cbe
00000360: e7f2 ab3c 4068 13be 9dce 00be 6c76 5dbd
00000370: e861 023d a89f 0f3d 6ad9 143d 690c 5bbc
00000380: 5d29 0b3d 111f 9abb a0fd 30bb f9fe e2bd
00000390: 4dd8 04be 6f72 e6bd ec00 35be 932a 5b3e
000003a0: cb40 863e 8f1a 1c3e e7a3 563e fbbb 8c3e
000003b0: a30a 563e c8a9 3f3e fd8d d83a 6464 023e
000003c0: 417a 383e aa4c 213e cb15 38be d31c f1bd
000003d0: 2016 1dbe 1fc4 ed3c 211a 48bd 8480 45bd
000003e0: dc7c cfbc ce6c 54bc 70cf 433c ad8a bc3d
000003f0: 4635 ba3d f095 a13a cbf8 3bbd a135 da3d
-0.07641656 0.041634127 -0.060199816 0.013981588 0.04797916 0.04183857 0.10057631 0.05800879
-0.09363665 -0.01973734 -0.018420726 -0.26931778 -0.20129858 -0.017688222 0.033255804 -0.16857755
-0.103777215 0.051585015 0.091087006 -0.2072904 -0.23713689 0.41691267 0.21334678 -0.115383394
-0.15323018 -0.34970555 -0.5595558 -0.38989645 -0.14108038 -0.15627202 -0.3366702 -0.13168378
0.4984526 -0.2134914 -0.17092754 -0.11451928 -0.08724289 -0.14159176 -0.11407516 -0.113720484
-0.13505866 -0.10084259 -0.0068616117 0.19466744 -0.8948192 -0.61855173 -0.6481955 -0.8280341
-0.53117764 -1.0189637 -0.89397794 -0.8414152 -0.7905128 -0.7848052 -0.5138181 0.032111585
0.03294522 0.019024612 -0.17095055 0.01066595 -0.22557798 -0.1415578 -0.101242855 -0.041806147
0.13858862 -0.0455135 0.14789253 0.18928504 0.18971673 0.01198365 0.03976627 -0.029520912
0.012987133 0.057866294 0.10412374 0.010964068 -0.35456786 0.18003376 0.21381624 0.0586756
0.0073528644 0.03724632 -0.23155344 -0.12652898 -0.061375223 -0.007743276 0.12260488 0.80385524
-0.02122195 -0.0606255 0.07421368 -0.10618266 -0.06373805 -0.05669563 0.019083604 -0.08882849
0.043297634 -0.020661369 0.05658807 -0.31714907 -0.05345182 0.2891977 0.19431 0.104394905
-0.01030076 -0.157415 -0.2803441 -0.09188469 -0.035745207 0.8597022 -0.38603675 -0.15231614
0.16662583 0.12413059 0.22888665 0.08126569 -0.13292313 -0.24862537 -0.30653512 -0.3640597
0.6464715 -0.099434406 0.023149945 -0.15908012 0.086097285 -0.045628645 -0.19069943 -0.079854585
-0.023647353 -0.02051729 0.07812211 0.014979313 0.034437444 0.036175374 -0.0076731816 -0.074385725
-0.075983495 -0.05552546 -0.07448966 0.01020997 -0.028922847 -0.09749618 -0.07427301 -0.18100266
-0.06813083 -0.056834918 -0.17705867 -0.071286626 -0.2150949 -0.15224959 -0.11421014 0.052546304
0.10298186 -0.08928926 0.2141615 0.038307887 -0.08411199 -0.11046885 0.010458075 -0.21154694
-0.1632867 -0.20537528 -0.1146727 -0.04458678 -0.44634616 -0.18674925 -0.17875707 -0.15614371
-0.17323661 -0.09796821 -0.12897673 -0.12753174 -0.23442447 -0.122623205 -0.025793904 1.3151091
-0.025094062 0.042018533 0.054798126 0.033925146 0.0003604591 -0.09259371 -0.049240053 0.04520403
0.062495574 0.08581427 -0.031994283 0.01339423 -0.02091922 -0.021908652 0.060941916 0.04427984
0.04312131 0.06603696 0.0668651 0.21423481 0.020174673 0.06193354 0.11287868 -0.10546098
0.052512813 0.07706897 -0.042633273 -0.13989964 -0.13880919 0.13689446 0.081914596 0.09098058
0.073096514 -0.021825654 -0.13397546 -0.21493624 -0.012930003 -0.08188664 -0.08305895 -0.16877064
0.020989848 -0.14395237 -0.12578817 -0.054068014 0.031831652 0.03506437 0.036340155 -0.013369658
0.033974994 -0.0047034104 -0.002700664 -0.110837884 -0.12973137 -0.11252295 -0.17676133 0.2140296
0.26221308 0.15244506 0.20960961 0.27487168 0.20902495 0.1871711 0.0016521808 0.12733608
0.18015386 0.15751901 -0.17977063 -0.11773076 -0.15340471 0.029024182 -0.048853043 -0.048218265
-0.025328092 -0.012965394 0.011951312 0.09206138 0.09092192 0.001232801 -0.045891564 0.1065476

conv3.bias f4 [16]
00000000: 14fe b93e d64d 163f 2d42 803e 2f25 9f3d
00000010: cac1 933d fa6e d43d 9ad9 333d b990 2bbf
00000020: 3f5c 81bd 15f2 90bd ea40 f9bd fdcc 8ebe
00000030: adb8 cabd 1f2a 673e d55a 233e 2da0 883d
0.3632666 0.5871252 0.25050488 0.07770764 0.07214697 0.103727296 0.043908693 -0.67017704
-0.06316423 -0.070774235 -0.121705845 -0.2789077 -0.09898505 0.22574662 0.15952618 0.06671176

conv4.weight f4 [32, 16, 11]
00000000: 0ea6 383f d7c6 3c3f 078f 153f f936 afbc
00000010: 9ded d53d 662c ed3c d80e cdbe 298f 533d
00000020: dc58 92be 54bb 29bf 27a8 e0bf 5a22 8b3e
00000030: 3dde 2d3e 4b01 713c 77ac 60be cb29 a5be
00000040: 1db2 43be fada 70be 6db9 5b3e 775b f6bb
00000050: edf8 213e 550a b5bf 6968 9b3e 856b 793e
00000060: b99e 033e 0e3d f13d 0f1a 153e 06d8 d03d
00000070: 9a96 25bc efc2 36be 0889 c5bd 4fc9 00be
00000080: c2aa f4be 1582 a93c 5222 283e 361c a5be
00000090: a133 5abf 4ae9 5dbd 69c7 753e f951 52be
000000a0: d673 f1be e9a2 52bb c265 e23d 2b13 e03e
000000b0: 497c 093e f0b7 503e a513 083e 769f af3d
000000c0: ddd8 00bd 8ba0 073d 4c63 ae3d e584 053e
000000d0: de56 2cbe 0456 bbbd e5f8 afbe 64bc 093f
000000e0: 494c b03e 1783 e43d 3d7f b63d cf43 70be
000000f0: e745 d2bc 74ae c9be db14 babe 7000 5e3e
00000100: 5665 243e 96ee 0c3e 78b8 203e db3c f23d
00000110: b3a8 4b3e d825 5a3e ea20 3e3e 8c2f ff3d
00000120: b471 39bd d2f1 1fbe ce0a 55bd 78c0 093e
00000130: 6352 303c 23f6 2abe 2958 923e 00f2 27be
00000140: 5d64 32bf 1fbb d1be 1b66 d4bd 2ad5 8b3e
00000150: f7ac 873f 5e34 1140 3e66 cb3f 51fb e6be
00000160: c674 6f3d 2e33 9f3e a986 b0be 1342 a9be
00000170: 52ab 1cbe 4ebd dd3d a67d a43e 305c 7abd
00000180: 3839 d43e ee61 29be 275e 0bbf 8843 323e
00000190: 8153 81be f52f 6bbe fbec 59be 721a 24bd
000001a0: f114 713e e6be 543e 28a8 cfbd eadc 883e
000001b0: 9b49 893f 15f0 43bf c414 4dbd 0088 cb3c
000001c0: e291 383d f844 353c fac9 5cbd ec85 8fbd
000001d0: 54cf b53c f6fd 193d 02cb 2abd 8c49 843c
000001e0: 3009 823d 72b2 9d3e e1a9 dcbe 5926 9fbd
000001f0: 1322 bdbe 09fe 7c3e 4115 d9be 7fbe 4d3f
00000200: f6a1 403f 050f ed3e e801 1f3f 8d89 d63e
00000210: b40a 813d 485f 373c 3ea1 853d 5ed0 963d
00000220: 6eae 8e3d b8af 4abc 6607 993d 0ae4 293d
00000230: e0ed d23c 0004 6e3d 44db 3e3d e638 ecbc
00000240: 586c bb3e fb4b 643e d682 403e f11f a53d
00000250: 01bc 8cbc ae27 adbd 5f39 a23e 842e dabd
00000260: 9c60 56bd 9a5b d0be 812e 6cbe 2bf9 153f
00000270: ec02 b33e 9a4d ef3d ce58 4e3e 651d aebd
00000280: 0ac8 1ebf 9026 003f 35d6 533e 900d c1be
00000290: 44db 2e3f cd93 da3d c414 03bf ea2f 96bd
000002a0: 1bb9 433e 0f4d 0e3e 14b1 d33d 474b a13c
000002b0: bd4f a13e b73d b4be 8c95 85be 20c4 8ebe
000002c0: 6b63 193d 752e 77be 6d3d 793e ee73 b83d
000002d0: c716 063e 78d8 0dbd 4674 9ebd 5f59 d1be
000002e0: 9b6a 18bf 12a3 24be 9212 833f 970b 31bf
000002f0: 0ec1 333e 06a7 953d fc42 083e 53cc b53d
00000300: d6f5 be3d eee9 a93d 89fb 1cbe 2cd9 c93e
00000310: fff7 3f3e de2a 453f 29fa 5f3e 7525 183e
00000320: 426f 063e 6c7d 2f3d 956c 853c 57fb fb3d
00000330: 9304 f03c e3f3 cabc 1887 b83d 54fd 823e
00000340: 5de1 d73e d3eb 7fbf 2a5b ea3e 8a66 883c
00000350: aed5 ffbb c765 80be 96be 893e 8666 433e
00000360: 1a60 983c 14b4 833e 7ef3 9cbe 42d2 cebe
00000370: cc4a c03d 92f0 fbbd 5450 81bc 0d70 083e
00000380: 7d4e f3bd c5b4 c9bd 8980 efbd 30f8 0fbe
00000390: fd23 2dbe d7ed 7d3e 873e 953e 0f46 1c3f
000003a0: 8015 993d 7f7c 8b3e 0f28 52be e7f7 9bbd
000003b0: 06e6 c73e 0049 25be 7043 f83d 01bb 7cbe
000003c0: e9d5 063f b806 19bf 5cd2 0b3f a45f 0a3e
000003d0: 7ca6 1abd 0fb0 ef3d f90f b4bc f466 a7bd
000003e0: b14b 4ebd 78a9 33be 6c37 d6bd e73b 87bd
000003f0: d5f0 e93e 9823 a63e 9749 8a3e 81b0 1fbe
0.7212838 0.73740906 0.5842137 -0.021388518 0.10445712 0.028951835 -0.40050387 0.0516502
-0.2858342 -0.66301465 -1.7551316 0.27174646 0.16979308 0.014709781 -0.2194079 -0.32258448
-0.19110914 -0.23521033 0.21457453 -0.0075182277 0.15817614 -1.4143778 0.30353096 0.24357422
0.12853517 0.117792234 0.14560722 0.10197453 -0.010106707 -0.17847799 -0.09645277 -0.12576793
-0.47786528 0.02069191 0.16419342 -0.32248086 -0.8523503 -0.05417756 0.2400185 -0.20539083
-0.47158688 -0.003214056 0.11054565 0.43764624 0.13426317 0.20382667 0.13288744 0.08575337
-0.031456817 0.03311209 0.08515033 0.13038976 -0.16830012 -0.091472656 -0.3436958 0.53803086
0.344332 0.11157816 0.089109875 -0.23463367 -0.025668098 -0.3939091 -0.36344036 0.21679854
0.16054282 0.13762888 0.15695369 0.118280135 0.19888572 0.21303499 0.18567243 0.12460241
-0.04527445 -0.15619591 -0.052012257 0.13452327 0.01076183 -0.16695456 0.28582886 -0.1640091
-0.6968439 -0.40963075 -0.103710376 0.2731107 1.059966 2.2688212 1.5890577 -0.45113614
0.058460973 0.31093735 -0.34477738 -0.33058223 -0.15299729 0.10827123 0.32127112 -0.061123073
0.41449904 -0.16541263 -0.5444054 0.17408574 -0.2525902 -0.22967513 -0.21281807 -0.040064283
0.23543145 0.20775947 -0.10139495 0.26731044 1.0725588 -0.7653821 -0.05006863 0.024845123
0.045061 0.011063807 -0.053903557 -0.070079654 0.022193588 0.03759571 -0.04169751 0.016148351
0.063494086 0.30800205 -0.43098357 -0.07770986 -0.3694006 0.24706282 -0.42399028 0.803688
0.7524713 0.46300521 0.62112284 0.41901818 0.063008696 0.01119215 0.06524895 0.07363962
0.069668636 -0.012370996 0.07472114 0.04147724 0.025748193 0.058109283 0.046595827 -0.028835725
0.36606097 0.22294609 0.1879991 0.08062733 -0.017179491 -0.08454834 0.31684396 -0.106534034
-0.052338228 -0.40694886 -0.23064615 0.58583325 0.34963167 0.11684723 0.20151064 -0.085017
-0.62023985 0.5005884 0.20687182 -0.3770566 0.6830332 0.10672722 -0.5120356 -0.07333358
0.19113581 0.13896583 0.10336509 0.019689215 0.31506148 -0.35203335 -0.26090658 -0.27884007
0.037448328 -0.24138816 0.24339838 0.09006487 0.13094626 -0.03463027 -0.07737021 -0.40888497
-0.5953767 -0.16077831 1.0240042 -0.6915831 0.17554113 0.07307248 0.13306803 0.088768624
0.09324233 0.08296572 -0.15330328 0.39423501 0.18746947 0.77018535 0.21872772 0.14858039
0.13128379 0.04284422 0.016287128 0.12303799 0.029299056 -0.024774497 0.09010142 0.255839
0.42164126 -0.99969214 0.45772678 0.016650457 -0.007807455 -0.2507765 0.26903218 0.19082078
0.018600512 0.25723326 -0.3065452 -0.4039479 0.09389266 -0.123017445 -0.015785374 0.13323994
-0.11880205 -0.09848932 -0.11694438 -0.1405952 -0.1690826 0.2479776 0.29149267 0.610444
0.07474804 0.2724342 -0.20523094 -0.07615643 0.3904268 -0.16141129 0.12122238 -0.24680711
0.5267015 -0.59775877 0.5461786 0.13513047 -0.037756428 0.117035024 -0.021980273 -0.081739336
-0.050365154 -0.17545116 -0.1045979 -0.06603222 0.45691553 0.3244903 0.2700927 -0.15594675

conv4.bias f4 [32]
00000000: 491d 70be 1560 8a3e a0e2 c3bd eed5 133c
00000010: a43b b93e c12f 723e 63fd f5bb f7c1 503e
00000020: 6fe7 e23d d7e7 de3d ed66 fe3d 0d06 64bd
00000030: f954 cbbd ac57 9f3e e93a 29bd 05c3 e5bc
00000040: bfc3 ed3e 8fe4 4ebd 5010 b7bd ea73 37bd
00000050: e6b8 343e 7802 b23e 637b 713b c200 a8bd
00000060: 13a0 29bd 27dd ba3c bdb7 b0bc c397 203f
00000070: 0626 293e 98dc d1bd 62a4 0cbe 236c 943d
-0.23448671 0.2702643 -0.0956471 0.009023173 0.36178315 0.23651029 -0.0075070127 0.20386492
0.11079299 0.10884064 0.12421975 -0.055669833 -0.099283166 0.31121576 -0.041315947 -0.028047094
0.46438405 -0.05051094 -0.08938658 -0.04478828 0.17648658 0.34767509 0.0036847226 -0.082032695
-0.041412424 0.022810532 -0.021571988 0.6273157 0.16518411 -0.10247153 -0.13734582 0.07247188

fc_moy.weight f4 [32, 32]
00000000: cad3 62be bb68 c23e 0afb 24be afce 4e3e
00000010: e077 a1be 0aa2 773e f76f b13d 8fba 7e3d
00000020: 9f93 243e 802a 2b3e 37b4 8dbe ae67 a83e
00000030: 9b86 54bd b726 e53d f881 f2bc 6ba1 a4bd
00000040: 0c40 92be f1e9 93be 960f ee3c 5c5e a93d
00000050: 436d 193f c56e 7bbd 1af4 7bbe adf1 7f3e
00000060: d2c4 483d 46b1 6e3d 106c 533d 59fd 7abe
00000070: 7902 aabe a630 17bd 7171 263e 6b1c 133f
00000080: 7ebf 1d3c 85dc b9be 0e02 95bd d6e8 3d3d
00000090: 3ff9 14be 2444 513e 78a1 083e 2d5a 783d
000000a0: de61 50be cd69 8bbe 7e64 29bd 892e 17bf
000000b0: a325 b7bd 1c70 af3e 7c32 d4bd 6fc4 d13d
000000c0: 2b63 ebbd 1ff3 8a3e 3ac9 eebd 4bc7 fabc
000000d0: a26d 0d3e 7560 22be 7b7e 28be ed0b 843e
000000e0: ef29 c9bd 55cb fe3d 0698 acbd 8922 c43b
000000f0: e1de 2cbe 13a1 09be f320 503e c68c f4bd
00000100: 72d2 853e 90f5 edbe d22b 003e cd91 9d3d
00000110: c3c8 3bbd 856e 883e 4979 c43d 948e b63e
00000120: 4d25 9ebe 033b e6be 73da 233e ce1e c8be
00000130: 9099 b53d 438a 2dbe e7a1 42be a724 4ebe
00000140: d174 9ebe a45d 69be c0de 50be 2b62 ad3e
00000150: 5d78 3e3c f1e7 8a3e 82c4 863e 3a44 8abe
00000160: 41de cb3d 9a44 58bd 7a9d 10be 44ac 3abd
00000170: a3e8 5d3e 74f4 44be 5fc5 0c3f e433 afbe
00000180: 3413 73be 7ec4 323e dd26 e63d b353 9bbd
00000190: 2abe dcbe cb91 7f3d 3ae2 0c3e afc2 b83e
000001a0: f64a 99bd fd70 7f3e 88de b83e 18bf 4f3e
000001b0: af52 a3bd ddb7 85bd 07d3 84bd f1df 4fbe
000001c0: 24c7 9cbc b38b d7ba 285f 57bd 1ec5 f0be
000001d0: 1a47 3cbd 4837 64be 17d4 ef3d 8450 483e
000001e0: f325 c53d 8d51 acbd 81cb fc3d cd1a 903d
000001f0: 6f10 cbbd 5ec2 d6bd e4b7 8a3e 5b93 15bf
00000200: 9254 173d 2303 7ebe a24f 393d 6b44 083e
00000210: be21 12be dd79 173e e5a6 a73d 05cc 82be
00000220: deec 35be e79d 573e f2e5 adbe 23d6 233e
00000230: 4e6b 403e 5f8b 3b3e 27bb 03be e1a3 4ebd
00000240: 2f88 ca3d bca0 af3b 80e0 27bd ecfa 3ebe
00000250: 9827 b33d d62d 3d3e 9ced 87be 8b75 9bbe
00000260: b2f9 dbbc 5da4 3ebb f50e cc3c a66d e93d
00000270: 16d1 8fbe b2a3 243e 7d0e 403d 6f97 fb3d
00000280: 44f8 0bbf 1eba c33e 111f f73d 684b dd3d
00000290: cb9e c4be 9de9 293e 46c6 31be c727 9dbe
000002a0: 81d2 5e3e 12bc 45be c429 003e 712e 40be
000002b0: cb29 023e b466 0bbf 348d b8bd 5807 873d
000002c0: ee52 33be 9f95 fabd 7a8b a8bd ad76 923e
000002d0: 809b 503d 7860 a93e 4358 103e 442f e0be
000002e0: 4205 2abe 9ef6 303d f395 553d aff0 d43e
000002f0: 7500 b0be 8cb9 313d a730 5e3e 0564 cf3e
00000300: 1c5e d7be 109c 003e 9e06 173e cb79 55be
00000310: d33f 78be 2efd 91be 63d9 8ebd 4638 82be
00000320: 18aa b3bd c6db 91be 8c08 483d a75a 6f3f
00000330: 147d 05be 6698 d73e 9989 d93d 2d6e 383d
00000340: 5ab1 13be 531d 93be 707a 20be bfbb 543e
00000350: ed8a c8bd 3b01 f63e f86d f63e 50e2 a73c
00000360: 9fca f03d 4c62 7abd 61cf ef3d 4159 00be
00000370: b9c0 37bc a01e fa3b a257 9f3e e8e0 99be
00000380: 3fd1 6ebb d9e9 04be aa28 42be b30b cdbb
00000390: 1208 99be 8adc 66be 555b 133e 1391 dbbd
000003a0: e937 62be 5f8e 163e c846 703e e4ed 0abe
000003b0: 2521 51be 54f1 b63e 086e 5ebe b68d 17bd
000003c0: 8c34 043f f1f1 dcbd 3a87 673d 349d debc
000003d0: 873e a03e 7887 553e 5894 ebbd f6a9 2cbe
000003e0: 5543 d83d e9a9 1b3e 468d 61bc 1940 6fbe
000003f0: d93e 8cbe 3bef 3fbe 1a1b c1bd fa35 83bd
-0.22151104 0.37970528 -0.16111389 0.20196031 -0.3153677 0.24182907 0.08663934 0.062189635
0.16071938 0.16715431 -0.27676556 0.328916 -0.051886182 0.11189025 -0.02960299 -0.080386005
-0.2856449 -0.2888942 0.029060166 0.08269951 0.59932345 -0.061384935 -0.24604836 0.24994536
0.049015827 0.05827453 0.05161673 -0.24510707 -0.3320501 -0.03691163 0.16254212 0.5746524
0.009628175 -0.36301056 -0.072757825 0.046364628 -0.14548205 0.2043615 0.13342845 0.060632873
-0.20349833 -0.27229157 -0.041355602 -0.5905538 -0.089427255 0.3426522 -0.10361192 0.10242545
-0.11493524 0.27138612 -0.11659475 -0.030612608 0.13811353 -0.15857108 -0.16454498 0.2579035
-0.09822451 0.12441126 -0.08427434 0.005985562 -0.16881897 -0.13440351 0.20325069 -0.11940913
0.2613712 -0.46476412 0.12516716 0.07693825 -0.04584576 0.2664682 0.09593446 0.35655653
-0.30887833 -0.44966897 0.160013 -0.39086002 0.0886718 -0.16947274 -0.19007073 -0.2013117
-0.309485 -0.22789627 -0.20397472 0.3386396 0.0116253765 0.27130082 0.263218 -0.27005178
0.09954501 -0.0527998 -0.14122573 -0.04557444 0.21670775 -0.19233876 0.54988664 -0.34219277
-0.23737794 0.17457768 0.11237881 -0.07584324 -0.43113834 0.0623949 0.13758174 0.36086032
-0.07485001 0.24945445 0.36107278 0.2028774 -0.07974755 -0.0652921 -0.06485563 -0.2030027
-0.019137926 -0.0016444832 -0.052580982 -0.47025388 -0.045966245 -0.22286713 0.11710375 0.19561964
0.09626379 -0.08413992 0.12343503 0.07036362 -0.09915244 -0.10486291 0.27093422 -0.5842797
0.036945887 -0.24805884 0.04524196 0.1330735 -0.14270684 0.14792581 0.081861295 -0.2554628
-0.17766139 0.21056329 -0.33964497 0.15999655 0.18790933 0.18314885 -0.12864362 -0.050449256
0.09889256 0.005359737 -0.040985584 -0.18650407 0.08747786 0.18474516 -0.2654847 -0.30363116
-0.026852462 -0.0029089667 0.024909476 0.11397867 -0.28089207 0.1607807 0.046888817 0.12284743
-0.546757 0.38227934 0.12066472 0.10805398 -0.384024 0.16593023 -0.17360792 -0.3069441
0.21759988 -0.19310024 0.12515932 -0.18767716 0.12711255 -0.5445359 -0.09011307 0.065931976
-0.17512104 -0.12235569 -0.08229728 0.28606167 0.050929546 0.33081412 0.14096169 -0.4378606
-0.16603568 0.043203942 0.052144956 0.41589877 -0.3437535 0.043389842 0.21698247 0.40505996
-0.42063987 0.12559533 0.14748618 -0.20847242 -0.24243097 -0.28513473 -0.06975057 -0.25433558
-0.08772677 -0.28487986 0.048836276 0.934977 -0.13035995 0.42108458 0.10621948 0.045026947
-0.14423123 -0.2873331 -0.15671706 0.20774744 -0.09792123 0.48047814 0.48130774 0.020493656
0.11757397 -0.0611289 0.11709476 -0.12534048 -0.011215382 0.0076330453 0.31121546 -0.30054402
-0.0036440638 -0.12979831 -0.18960825 -0.006257498 -0.2988897 -0.22545066 0.14390309 -0.1072103
-0.2209164 0.14702748 0.23464501 -0.1356731 -0.204228 0.35730994 -0.21721661 -0.03700038
0.5164268 -0.10788334 0.056525446 -0.02717457 0.31297705 0.20852458 -0.11502904 -0.1686171
0.105597176 0.15201534 -0.013766592 -0.23364295 -0.273917 -0.18743603 -0.09428997 -0.064067796

fc_moy.bias f4 [32]
00000000: 1857 b6bd ac61 d2be a4ce 47bd 45f5 1b3f
00000010: 45f0 1bbf 76f4 06bf 2d1c e2be be06 2bbe
00000020: 3674 253f bc01 823e db35 b93e c114 b13e
00000030: 3adc 523e aa15 333f 9ff6 d53b f1cb 8e3e
00000040: 40e2 38bf c00d ef3e f872 e6be 6c5d ba3d
00000050: 5ec6 18bf cdb7 9abe 5fc3 86be d0d5 203f
00000060: 6dc2 753e ae77 9a3e 6cda 613f aa04 87be
00000070: a7fd da3e 0936 7b3f 14a8 c0be 4304 1d3e
-0.089033306 -0.41090143 -0.048781052 0.60921127 -0.609135 -0.5271677 -0.4416212 -0.1670179
0.6463045 0.25391948 0.361739 0.34586146 0.20591822 0.6995493 0.0065296437 0.2788997
-0.7222023 0.46690178 -0.4500959 0.0909985 -0.59677684 -0.30218354 -0.2632093 0.6282625
0.23999949 0.30169433 0.8822391 -0.26370746 0.42771646 0.98129326 -0.37628233 0.15333657

fc_var.weight f4 [32, 32]
00000000: 26d0 acbe 6eb5 02be d537 ea3d e896 0d3d
00000010: 4f9b 9ebd 4f50 1cbf 95fc 07be 1bb4 9dbe
00000020: 96a3 4dbf 3905 083d e845 c8bd f490 bebd
00000030: d94c 453e 40ab 6abe 8edd 3b3d 571a 80bd
00000040: 95fa a6be 17e7 36bf f3c9 e3bc e699 58bd
00000050: f229 9b3d de85 b4bc 5eb1 13be ccc1 e5bd
00000060: e47a bd3d 73a7 2cbd 83f3 643e 1eed 8ebf
00000070: afac a3be af85 b9bd 65fe b2bc 5ef3 6ebd
00000080: a633 e8be b33f 37be 20bf a23d da64 093e
00000090: 919d a5be ee4c 38bf 2fd7 1cbe 95aa 3ebf
000000a0: bfbb 77bf acd1 52be 25f4 a4be 7b37 533d
000000b0: 4efd 473c 9c60 28be 888a 113e 37fe 45bd
000000c0: 98b2 dfbe 41ee 4fbf ec60 223d a22a 2dbe
000000d0: 0ff8 fdbc f6ca 62be 3574 74be 263a 34be
000000e0: f0d3 96bd 0a10 153e dfa4 28bd 0a3c 94bf
000000f0: 00aa d4be 4e75 003e 9f81 f7bd ec56 b3be
00000100: 8751 27be ff04 393d b999 353e cfd7 bcbc
00000110: 665c 28be 9f23 8abf 4bb0 fb3d 7f66 51bf
00000120: 8689 dbbf 3df9 50bd 71ab ba3d 718c ce3d
00000130: 4604 5d3e 5393 cfbd 1ee3 163e caa4 54be
00000140: 6ffd a7be fbfc 49bf 11cb 063e 8567 da3d
00000150: 16b5 28bb 24d8 603d e6f2 2dbe 84cf e33d
00000160: fc00 fc3d 84c2 8dbd e9f7 163e c87f b6bf
00000170: 0247 4fbe ba70 57bd 0fd4 87be 646b 8e3d
00000180: b162 03be ea2e b5bd 93f9 663c f326 92bd
00000190: 15dd 5fbe eb59 27bf 07d9 b9bd 01af b1bd
000001a0: afb8 82bf cded 80be 0737 99be 6d48 d3bc
000001b0: ec76 10be e4f9 02be 90a0 dbbd 6f54 033e
000001c0: 6675 0bbf c791 94bf 611f b43c 4a50 45bd
000001d0: b979 aabe 8c3d 57be 1da6 6bbe 9c97 053b
000001e0: acdd 41bc 4a6c fdbd d3d6 9cbd c620 87bf
000001f0: 22b2 2ebe 8bcc ffbd eae4 b0be 66f9 27be
00000200: fb96 87be bea7 8abe 6a12 363e d6ca f53d
00000210: e8db 01bf 2be8 2bbf 110c 423e ddd7 00bf
00000220: d81d 9abf 468a 30bd 5506 53be dd19 2bbe
00000230: 84c0 d0bd 8ffa 25be 3400 8e3d 9160 90bd
00000240: 42f3 32bf d810 8dbf de5f 313e 54c9 14be
00000250: 956c 28be 4b37 c9bd 6042 9bbd 7ff1 74be
00000260: 62a4 abbd 05da 0e3e 3675 2ebd d953 84bf
00000270: b64b 5dbe 1cb6 873d 1f93 41be 5746 7fbe
00000280: 1e03 2fbe fd1c 96be a621 c23b b719 a43c
00000290: 59af b4be a55c 74bf f9d0 103e c44c 3fbf
000002a0: 71a9 37bf 7f69 aebd ac17 bbbb 1b9c d43c
000002b0: 624d 81bd e5cd acbe 47c4 47be 6e0d 1b3e
000002c0: d8d1 00bf c5b8 4fbf 50ac cb3d c033 a6bb
000002d0: c94a 39be 70cd 95be d322 35be 815c 8ebc
000002e0: 2a23 403e b8c1 e9bd 83cc e43d e83d b4bf
000002f0: b30e 95bd 2719 b73d 6c3d c2be b2b4 26be
00000300: f99d 28be 6785 9bbe 6c17 8bbd fc20 23bd
00000310: bd9b abbe ddab 0bbf deae 773c 5d15 28be
00000320: 46a0 11bf c905 afbd d69b bfbd 2548 16be
00000330: 6263 3f3e e0f3 bdbd 23e2 883d 2a60 a1bd
00000340: 9bde d6be 2051 46bf 01a0 0d3e 5093 2bbd
00000350: dd8f 23be 9655 2ebe c8c0 6abd e687 64be
00000360: c2ac d13d e958 473c 0e9d 363e d859 63bf
00000370: 91a4 92be afad 453e 90a2 a8be 9440 20bf
00000380: d09c a5be 9449 51be de1f a6bd e3ee fbbd
00000390: 0bd2 babe 8c43 1ebf 4b9b 403d 0ca8 3ebf
000003a0: 2286 73bf 82a1 21bd c516 bcbd 6a0b 16bc
000003b0: db5d 873d 8b39 97be 4d33 7b3d 2474 1f3d
000003c0: 4bb7 03bf 79e6 64bf 8126 e5bd 253a 45be
000003d0: b339 18be a905 adbe ac54 9dbd 9d61 00be
000003e0: 3718 10be c847 42bd b237 013e a7f6 8abf
000003f0: 1907 84be 2396 26b9 a958 19be d868 3fbe
-0.33752555 -0.12764522 0.1143643 0.034567744 -0.077444665 -0.6106004 -0.13279946 -0.30801472
-0.8032774 0.033208106 -0.097789586 -0.09304991 0.19267596 -0.22916889 0.045865588 -0.06255024
-0.32613054 -0.71446365 -0.027806258 -0.052881144 0.0757636 -0.02203649 -0.14423129 -0.112186044
0.09251955 -0.04215188 0.22358517 -1.1166112 -0.31967685 -0.09058701 -0.02184982 -0.05833756
-0.45351905 -0.17895393 0.079466105 0.13417378 -0.32346776 -0.71992385 -0.15316461 -0.7447904
-0.9677085 -0.20587796 -0.32217517 0.051566582 0.012206389 -0.16443104 0.14213002 -0.04833814
-0.43690944 -0.8122292 0.039643213 -0.16910794 -0.031002073 -0.22147736 -0.23872454 -0.17600307
-0.073646426 0.145569 -0.04117286 -1.1580822 -0.4153595 0.12544748 -0.1208527 -0.35027254
-0.16339694 0.04517078 0.17734422 -0.023052124 -0.16441497 -1.0792121 0.122894846 -0.8179702
-1.7151344 -0.051018942 0.09114731 0.10085381 0.21583661 -0.10135522 0.14735076 -0.20765987
-0.32810542 -0.7890164 0.13163401 0.10664276 -0.0025742701 0.054893628 -0.1698719 0.11123565
0.12304875 -0.069218665 0.14743008 -1.4257746 -0.20241931 -0.05259774 -0.26528975 0.06954077
-0.12830617 -0.08846839 0.014097589 -0.07136335 -0.2186168 -0.6537158 -0.09074598 -0.086759575
-1.0212611 -0.25181428 -0.29924795 -0.025791371 -0.14107865 -0.12790638 -0.10723984 0.12825178
-0.5447601 -1.1606988 0.021987619 -0.048172273 -0.33295992 -0.21019572 -0.23012586 0.0020384556
-0.011832636 -0.1237417 -0.07658162 -1.0556877 -0.1706014 -0.12490185 -0.34549648 -0.16403732
-0.26482376 -0.27081102 0.17780462 0.120015785 -0.50726175 -0.67151135 0.18949915 -0.5032938
-1.2040358 -0.043100618 -0.20607884 -0.16709085 -0.101929694 -0.16208862 0.069336325 -0.070496686
-0.6990243 -1.1020765 0.17321727 -0.14529926 -0.16447671 -0.098249994 -0.075810194 -0.23920248
-0.08380963 0.13950355 -0.04259225 -1.0338088 -0.21610913 0.066265315 -0.18903778 -0.24929176
-0.17091033 -0.2931899 0.0059244214 0.020031793 -0.3529003 -0.95453864 0.14142217 -0.7472651
-0.7174292 -0.085162155 -0.005709609 0.025953343 -0.06313588 -0.33750835 -0.19508468 0.15141842
-0.50320196 -0.8114131 0.099449754 -0.005072087 -0.18094935 -0.292583 -0.17689066 -0.017378094
0.18763414 -0.11413902 0.1117182 -1.4081392 -0.07278194 0.08940344 -0.37937486 -0.16279867
-0.16466512 -0.30375215 -0.06791577 -0.03982638 -0.33517256 -0.5455912 0.015117375 -0.164144
-0.5688518 -0.08546025 -0.09355895 -0.14675958 0.18690255 -0.09275031 0.06683757 -0.0787967
-0.4196671 -0.77467537 0.13830568 -0.041888535 -0.15972848 -0.17024836 -0.057312757 -0.22317466
0.10238029 0.012167194 0.17833349 -0.88808966 -0.2864118 0.19304536 -0.32936525 -0.6259854
-0.323462 -0.20438224 -0.08111547 -0.123014234 -0.36488375 -0.6182182 0.0470231 -0.7447517
-0.95126545 -0.039460666 -0.091840304 -0.009157995 0.066096984 -0.2953609 0.06132822 0.03892912
-0.5145156 -0.89414173 -0.11188985 -0.19260462 -0.1486576 -0.3379338 -0.076821655 -0.12537237
-0.14071737 -0.047431737 0.12618902 -1.0856522 -0.25786665 -0.00015886924 -0.14975227 -0.18692338

fc_var.bias f4 [32]
00000000: eab5 c3bd 079e a7be 6435 b5bc 44cb 4abd
00000010: a930 a2be d271 b3be cbe3 5fbe 4900 2ebe
00000020: 279d 4dbe 4d58 87bc 8102 edbb d3d6 7dbe
00000030: d482 b7be 5afa bebd 1e00 e0bd 5f79 0bbe
00000040: af1b 8fbd 940a d7bd 99e1 0fbe 3496 11be
00000050: d7c5 a6be ba57 8abe ed81 72be 5e12 21be
00000060: 7624 39be a7d4 a7be ae48 a0be 0bea b3be
00000070: 6938 a4be 5f13 efbd 5aa8 73be d164 22bc
-0.09556182 -0.32737753 -0.022120185 -0.049510255 -0.3167775 -0.35047776 -0.2186424 -0.16992296
-0.2007948 -0.016521597 -0.0072329645 -0.2478898 -0.35842 -0.093250945 -0.10937522 -0.13620518
-0.06987702 -0.105000645 -0.14050902 -0.14217454 -0.32572815 -0.27020055 -0.23682375 -0.15729663
-0.18080315 -0.32779428 -0.3130545 -0.35139498 -0.32074288 -0.116736166 -0.2379469 -0.009911732

convt1.weight f4 [32, 16, 13]
00000000: 7c54 e5bd 7f74 85bf 1bb9 07be f62d 663d
00000010: e132 b1be f717 9fbe 26c8 ffbe 0a0b 983e
00000020: 2c3b e1be 1822 403e a12c dfbe f5c4 0abf
00000030: f7e2 39bf 8388 ebbe 5a1a 03be c998 b0bd
00000040: a68a d73e 55bd 1c3e 4ae7 c9bd 5cf4 5f3e
00000050: 628c 07bf 0f4e 293e 33a5 0fbf 70c2 90bd
00000060: 2783 983e dd80 8e3d 1c5a 35be b67f 3d3d
00000070: 6515 d6bd f895 ca3d df2a f7bd 1b2f aa3d
00000080: 51b4 c03c 3dd9 c3bc 2236 9ebe ba78 aabe
00000090: c78e 733e 3596 9e3d a758 a93e fa24 853e
000000a0: e9d6 46bf 026d ba3b dc15 af3d 9654 3d3e
000000b0: 179a 903e e3fd 68bd e39e e3bd 7806 22bd
000000c0: d402 993e fef2 853e 0c72 2a3e 57d4 72be
000000d0: b888 a53d 7489 853c e725 08be 5909 993d
000000e0: 2803 ebbe 795e 883e 1e1c 1abe ed93 9ebc
000000f0: d8e7 d33e 921f 4fbd 2e1e 173d 5858 aabe
00000100: 05c0 1abe 0e47 e23e c822 92be c73a cdbe
00000110: 6288 ccbd 9325 50be 9302 b4bd 59e1 c63b
00000120: 551b 0fbc 088e 36be bc77 543e 73eb efbe
00000130: 961d 97bd 7088 7bbe 27b9 9bbe cb4f 2e3e
00000140: c683 02bf dd90 f23e afc1 f83c 56ba 9e3d
00000150: 6de9 4dbe df20 363c 594a d3be ab2f 8cbe
00000160: 3fb3 f5be 5bb5 b13e c3cd 313d 1c7b 483f
00000170: 1e16 50bc 2837 9bbe 676a 913d 4c12 22be
00000180: f7a3 0d3e a051 f03e 4d22 973e 4dcc 9abe
00000190: aed0 893c db89 01be 07f2 c3be 0aeb 093f
000001a0: 2028 c03e 3745 11be d6e6 bf3e 8c7e 043d
000001b0: 31a8 fe3d 19f7 503c 1a1f 38bf ebbd dc3d
000001c0: 72ac 05bf cb7d cebd 76aa 10bf 8405 35be
000001d0: f0a9 0dbd 4dbc 47bd d51e febd 5c2c b4be
000001e0: 9890 83be 6b13 31be d639 223e 94a3 ff3d
000001f0: e198 f6bd de71 413e 1bf6 40be 07cd d2bd
00000200: f3bc e3bd 8f1d 303e bb0b 69be df24 8ebc
00000210: b93e b2be a20b 20be 387a 2d3e 1235 09be
00000220: 7dd6 423e 2255 91bb 39a7 223e a1c5 7f3d
00000230: b413 7dbe 7871 a53e f69f 2a3f eb81 7dbe
00000240: 0ae4 a0bd 8eb4 763e e52c 723e c4fb d03d
00000250: 72c9 d33e 490e c23d 0517 6c3d 4a82 9d3d
00000260: d1b2 2f3e 46cd 1b3f 81d8 9cbd 2268 2b3e
00000270: 7a62 523e 19bc df3c f253 c2bd d7b6 8f3e
00000280: 3da7 1f3d 901a 933e 1cc1 37bd d067 263e
00000290: 3ff9 4fbe 9f25 943e d5df 86be 6e54 f23e
000002a0: ad71 a23e 52af 0f3f c7d9 7cbe a3d5 25be
000002b0: 7ead 133d 6786 10be e9dd 1f3e 172d f2bd
000002c0: cd79 d0bd 936b ccbc 8ebb 27be f795 b33d
000002d0: 936d 4fbe a37f 0a3f 77ab f63e b875 8d3e
000002e0: 7c3c b53e c2f6 b73e dd2c 193e 4384 5f3c
000002f0: 97ef 91bc 9739 de3e f71b 993d a7c9 0abd
00000300: 416c 2b3f 3a96 113e 9fc1 53bf c95f d7be
00000310: 713d 7fbe 83d2 46bf 8df8 5abe aa9c 803e
00000320: 4908 7b3e ca41 be3e 0d81 2a3e 3c5a 0c3e
00000330: d0fc 883d 0cc3 7cbe 3dd8 1abf eb52 4d3f
00000340: 968f f7bd 1313 19be 9a84 533e faa7 22be
00000350: fd46 3b3e b09c 23be b30c 6bbe fc76 123e
00000360: 7889 5b3e 70bd 08be 85ee 233e ae22 863e
00000370: 52b7 45be baf6 d4be 89da e63e 5caf f4bd
00000380: 7d67 f93d 13a2 00bf d071 c23e d730 e5bd
00000390: 0056 523e 7489 b8be 3f13 98be 3d36 68be
000003a0: 7a81 67bd f4de 533d f4c0 333e 31ac bb3d
000003b0: 0d91 363f d6c0 96be d9cc 983e 8772 983e
000003c0: ecc4 94be af6f d3bd 37d1 fbbd a0e9 19bb
000003d0: 2d18 293e d547 a7be 1131 b8bd 7ade 3abe
000003e0: 25fa d1be 3a73 b23d aecf 60be 6078 f33d
000003f0: 40fd c33d 83c4 4abe 230a dbbe 330d a93e
-0.11197755 -1.0426177 -0.13254206 0.056196176 -0.3460913 -0.3107297 -0.4995739 0.29695922
-0.43990457 0.18763006 -0.43588737 -0.5420678 -0.72611946 -0.46002588 -0.12803021 -0.086228915
0.42097968 0.153066 -0.09858568 0.2187056 -0.5294858 0.16533683 -0.5611145 -0.07068336
0.2978756 0.069581725 -0.17710155 0.046264373 -0.104532994 0.098918855 -0.12068724 0.08309766
0.023523482 -0.023907298 -0.30900675 -0.33295232 0.23784934 0.077434935 0.3307545 0.26004773
-0.77671677 0.0056892643 0.08549091 0.18489298 0.2824256 -0.05688275 -0.111142896 -0.03955695
0.2988497 0.2616195 0.16645068 -0.23713814 0.08082718 0.016300894 -0.13295709 0.07472486
-0.45900846 0.26634577 -0.15049788 -0.019357646 0.4138782 -0.050567217 0.036894016 -0.33270526
-0.15112312 0.44194835 -0.2854216 -0.40083906 -0.099869505 -0.20326833 -0.087895535 0.006069344
-0.008734544 -0.17827618 0.207488 -0.4685932 -0.0737869 -0.24563766 -0.30414698 0.17022626
-0.5098232 0.47376147 0.030365793 0.077503845 -0.20108576 0.0111162355 -0.4126766 -0.27380118
-0.47988316 0.34708676 0.04340912 0.7831285 -0.012700586 -0.30315518 0.07100373 -0.15827292
0.13832079 0.46937275 0.29518357 -0.30233994 0.016823139 -0.12650244 -0.3827059 0.53874266
0.37530613 -0.1418656 0.374808 0.032347247 0.12434424 0.012754225 -0.7192246 0.107784115
-0.52216256 -0.10082587 -0.565101 -0.17677885 -0.034585893 -0.048763562 -0.124082245 -0.35190094
-0.25696254 -0.17292564 0.15842375 0.12482372 -0.12040878 0.18891093 -0.18843882 -0.10293012
-0.111200236 0.17198776 -0.22758381 -0.017351566 -0.3481348 -0.15629438 0.16941154 -0.13399151
0.19027133 -0.0044351975 0.15884103 0.062444333 -0.24714547 0.32313132 0.6665033 -0.24756591
-0.07855995 0.24092314 0.23649938 0.102042705 0.41364628 0.09475381 0.05763914 0.07690866
0.17158057 0.608601 -0.07658482 0.16738942 0.20545378 0.027311372 -0.094886675 0.28069183
0.03897785 0.28731203 -0.044861898 0.16250539 -0.20309924 0.28934953 -0.26342645 0.4733004
0.31727353 0.5612689 -0.2469245 -0.16194777 0.036054127 -0.1411377 0.15611996 -0.118250065
-0.10179482 -0.02495364 -0.1638014 0.08768838 -0.20256643 0.5410101 0.48177692 0.27628875
0.35397708 0.3593045 0.1495852 0.0136423735 -0.01781444 0.43403313 0.07476037 -0.033883717
0.6696206 0.14217463 -0.8271732 -0.42065266 -0.24925782 -0.77664965 -0.21383877 0.25119525
0.2451488 0.37159568 0.16650791 0.13706297 0.06688845 -0.2468378 -0.60486203 0.8020465
-0.12087934 -0.14948682 0.20656052 -0.1588439 0.18288799 -0.1597774 -0.22954063 0.14303201
0.21439159 -0.13353515 0.16008957 0.26198334 -0.19308212 -0.41594487 0.45088604 -0.1194751
0.12177942 -0.50247306 0.37977457 -0.11190956 0.20540619 -0.36042368 -0.29702184 -0.2267694
-0.056519963 0.051726297 0.17554075 0.09163702 0.7131508 -0.29443997 0.29843786 0.29774877
-0.2905649 -0.10324036 -0.12295764 -0.0023485199 0.16513129 -0.3267199 -0.08993734 -0.1824893
-0.41011158 0.08713384 -0.21954224 0.11888194 0.09569788 -0.19801526 -0.4278117 0.33017883

convt1.bias f4 [16]
00000000: 19c5 a9bd 0d9e 4d3f 0abe 33bf 55d8 003e
00000010: 9f47 1bbf 34eb 1f3f 94aa 1bbe bfe2 babe
00000020: f781 c53e 7fa7 7c3f 69a8 f23e 6db4 b23e
00000030: 8f6c 213d c2b0 623f 4830 cabe ee18 253f
-0.082895465 0.8031929 -0.7021185 0.12582524 -0.6065616 0.62468266 -0.15201789 -0.3650112
0.38575718 0.9869308 0.47394112 0.3490328 0.03941017 0.8855096 -0.3948996 0.64491165

convt2.weight f4 [16, 8, 13]
00000000: 5c5c 10bc f95c 1a3e b5b7 003d ee27 133e
00000010: e0b8 0dbe e726 c5bd ab8d 9fbc 5f07 c93e
00000020: 31ac 3cbc f55e 34be 90e6 8bbd 8690 d33e
00000030: 8d5e 6ebd 39c4 09bf 9c36 093f 9bf1 863e
00000040: 4728 113c 65e7 4fbd 3c5f 98bd 97b6 2cbe
00000050: 24fb fa3d 7c9e 94be 9ba6 52bf e5ee 89bd
00000060: 5531 24be 49ce f13e 8449 783e 9588 773e
00000070: b517 233e 3b43 f4bc 45f9 2bbe a9e1 b0be
00000080: 4033 29be 5ea5 213e f9a4 e63e 93f3 0b3f
00000090: 078c 0f3f b9ae dd3e e958 9f3e 68e5 513f
000000a0: 5003 04c0 e2b3 95be f942 9bbe 352c 94be
000000b0: 09e3 91bd 9a5f 5cbf 9044 8a3e 4e1c 8fbe
000000c0: 388c e6bd 8173 e23e 62ff 473f 030c 4ebe
000000d0: bde4 d9bc de62 97bd b5f6 04be 21c3 fdbd
000000e0: 1e73 09bd c281 cfbd 1a3d fbbd b121 80bd
000000f0: d38e 9c3b d6b6 53bb c317 07be 73f3 b2bd
00000100: 75af 39be 7540 88bd b4ca ab3d 4d6d 5d3c
00000110: 9896 843d ef7c cdbc 3250 0e3d 3e92 723d
00000120: dcd9 a2bc 0e1b e93d 5f4e 203c b110 533c
00000130: fcf6 04be df32 49be d42f 743d abc0 593d
00000140: e80a 743c b76a d0bd 5ff2 00be 7932 17bd
00000150: 52ff 903d 5e0a a23d 7da5 ca3d 5361 44bd
00000160: 2a35 0b3d 701b c83d fe5d 63bd aeb0 963e
00000170: d668 c83e db3d bb3e 1146 313e 0272 093d
00000180: 2584 84be 5eee 81be cc2f 1cbe f72a 8d3d
00000190: 7678 4c3e 0cca ab3e 1920 b43e 77e9 ab3e
000001a0: 5221 60bc d60c be3c 0803 d4bd 0326 9ebd
000001b0: e4c6 aa3b b9b2 b6bd 8921 61bc 93af 9fbd
000001c0: 8717 c6bb 7230 92bd a81b 41be fbcf b2bd
000001d0: be96 c6bd 7d64 c03c f7ea f23d 4d14 07be
000001e0: 43b4 74bd 77e0 bdbd 39c8 273d fca8 08be
000001f0: 228d 17bd 77a3 eabe b87c 15bf ed9e 44be
00000200: d348 fbbd 5eab cf3e 991b 6cbc d71e e9bd
00000210: 41dc 83be c3ec b3be db90 99be 65f7 8dbe
00000220: bb90 72be 2d2f 31be b2cf 873a bcdf 563e
00000230: 8d64 f73e dcbf eb3e 48ba 8d3e cc95 783e
00000240: 1e53 01be 11b3 1cbf 2342 fdbd 509a 42bf
00000250: 16b0 59be 3d3e 8fbe 740f fdba c0f2 7ebe
00000260: b387 ebbd c047 8d3e 511b 43bf 0c5a 8dbd
00000270: 7d24 c03b e8cb 843c 5c9c 223d d397 38be
00000280: e3a5 29bd f6f2 1bbe 1f53 653a 5983 6cbd
00000290: d186 81bd f236 aabd c654 16be 9249 7fbd
000002a0: 331d ecbd 0832 2dbc fb48 91bd 8cc0 37bd
000002b0: f0dc 7f3d f7d9 883d dee8 133e 8895 ef3d
000002c0: dbfa e13c 0d95 8e3b d3e4 70bd b393 093e
000002d0: b070 433e c642 423d d3a0 8dbd af7e 7bbd
000002e0: bf18 093d cee6 223d 35f1 333d 04e3 a43c
000002f0: 423c 21bd 4f70 3fbd 2201 cc3b 5093 183d
00000300: 3702 203e c14f 343e e0d9 b13d fac5 583d
00000310: 1bf8 37bc ce41 cabd 109e 6ebe c000 95be
00000320: 82d6 dcbe df27 1cbf 04d3 3abf 2d66 26bf
00000330: 4f70 c3be c6c4 03bc 0c1a 483e f0f1 333e
00000340: 4e48 5dbd 15d8 fabc 66f0 e2bd ed77 7e3d
00000350: 628e 51be 9c6a 78be f504 c0bd 202e 8e3f
00000360: fe2e 3dbe 0613 bebd 6695 053e 7d1b 033f
00000370: 69c3 1ebe 5d66 afbe dcce 0cbf 4fe3 183e
00000380: 05d7 323d 35df 06bd 46d6 b83e 3d3d bb3e
00000390: 5162 f0bd cad6 803e 52b2 663e dd13 bf3e
000003a0: ee60 cdbc b00a 0f3f dcf1 0cbd a29d 443b
000003b0: 053d 043e 221f a53e 9d40 013f 6a3b 1e3f
000003c0: bba8 133f 33b2 ea3e a140 ce3e 08ad b33e
000003d0: e7a3 563e 390b 8a3d 435f 3c3e e327 0abe
000003e0: b519 d0bd c6e3 a0be a52c 81be 4a75 9bbe
000003f0: f8cb dfbd dd58 c23e 42fa c1bd 4ac9 cdbd
-0.008811083 0.15074529 0.031425197 0.143707 -0.13840055 -0.09626561 -0.019476732 0.39263436
-0.011515663 -0.17614348 -0.06831086 0.413212 -0.05819564 -0.53815037 0.5359895 0.26356205
0.0088597005 -0.050757784 -0.074400395 -0.16866527 0.122549325 -0.29027164 -0.8228547 -0.06735019
-0.16034444 0.47227696 0.24246794 0.24173196 0.15927012 -0.029817214 -0.16794308 -0.34547165
-0.16523457 0.15785739 0.4504774 0.5466854 0.5607304 0.43297365 0.3112252 0.8199067
-2.0627022 -0.29238802 -0.30324534 -0.28939977 -0.07123382 -0.86083376 0.27005434 -0.27951282
-0.11257213 0.44228747 0.7812406 -0.2012177 -0.026598329 -0.07391904 -0.12984736 -0.123907335
-0.03355705 -0.10132171 -0.122675136 -0.06256426 0.004777768 -0.0032305024 -0.13192658 -0.087378405
-0.18133338 -0.06652919 0.08388272 0.013514829 0.06474036 -0.025083987 0.03474445 0.0592215
-0.019879274 0.113821134 0.00978431 0.0128823975 -0.12984842 -0.19648312 0.059615925 0.053162258
0.014895178 -0.10176604 -0.12592457 -0.03691337 0.070799485 0.07912134 0.09894846 -0.047944378
0.033986248 0.09770858 -0.05550956 0.2943167 0.39142483 0.3657063 0.17311884 0.033555992
-0.25882068 -0.25377172 -0.15252608 0.068929605 0.19967827 0.33552587 0.3518074 0.33576557
-0.013679819 0.02319948 -0.10352141 -0.07722094 0.005211698 -0.089208074 -0.013740906 -0.0779716
-0.006045285 -0.071381465 -0.18858206 -0.087310754 -0.096967205 0.023485417 0.11861222 -0.13191338
-0.059742223 -0.09271329 0.04096243 -0.13345712 -0.03699983 -0.4582784 -0.5839343 -0.1920125
-0.122697495 0.4056043 -0.014410877 -0.11382835 -0.25753978 -0.35141572 -0.29993328 -0.2772781
-0.23688023 -0.17303152 0.0010361581 0.20983785 0.48318902 0.46044815 0.27681184 0.24275893
-0.12629363 -0.61210734 -0.1236613 -0.7601671 -0.21258578 -0.27977172 -0.0019306974 -0.2489729
-0.11500492 0.27593803 -0.76213557 -0.06901941 0.0058637247 0.016210511 0.039699897 -0.18026666
-0.041417968 -0.15229401 0.0008748043 -0.05774245 -0.06324542 -0.08311261 -0.14680776 -0.06232602
-0.11529007 -0.01057101 -0.07093998 -0.04486136 0.06246656 0.066821985 0.144443 0.11698443
0.027585438 0.0043512643 -0.058811974 0.13435249 0.19085956 0.04742696 -0.069154404 -0.06140011
0.033470865 0.039770894 0.043931205 0.02012778 -0.039364107 -0.046737965 0.006225721 0.037249863
0.15625845 0.17608549 0.086841345 0.05292318 -0.011228587 -0.098758325 -0.23302484 -0.29102135
-0.43132406 -0.6099834 -0.72978234 -0.6499966 -0.38171622 -0.00804252 0.19541186 0.1757276
-0.054024033 -0.030620614 -0.110810086 0.06212609 -0.20464471 -0.24259418 -0.093759455 1.1107826
-0.18474957 -0.09280972 0.13045272 0.5121382 -0.1550423 -0.34257784 -0.5500314 0.14930461
0.04366209 -0.03292771 0.36100978 0.3657016 -0.11737502 0.2516387 0.22528961 0.37319842
-0.025070634 0.5587568 -0.034410343 0.0030001183 0.12913902 0.32250315 0.5048922 0.6180941
0.5767934 0.4583908 0.40283683 0.3509295 0.20960961 0.06740422 0.18395714 -0.13491778
-0.10161153 -0.31423777 -0.25229374 -0.30362922 -0.10927576 0.37958422 -0.09471561 -0.100481585

convt2.bias f4 [8]
00000000: 9caa 3fbf 46f5 803d 9b7c a3be 1869 a8bf
00000010: 54d0 2dbd de7d bc3e 8cb9 143f f602 00bf
-0.74869704 0.06296782 -0.31931004 -1.3157072 -0.042435005 0.3681478 0.5809562 -0.5000452
