vaes/trained_vaes/rapport/VAELow_25epochs_60000steps_NEW_ENVIRONMENT_SCALE125E-2__batch64_Adam_lr7E-3.pt (torch_old, 76417 bytes, 19 tensors)

conv1.weight f4 [4, 1, 11]
0.20653866 0.005911274 -0.030511763 -0.10497535 -0.061392523 0.14824267 0.008627174 0.20620227
0.03955619 0.33915967 0.38806173 -0.056283575 -0.08389814 0.10678133 -0.24178286 0.016361048
0.28433368 0.0019101347 0.068503186 0.06422649 -0.21860427 -0.31167403 0.11666571 -0.30411065
-0.003686722 -0.03555796 0.16941164 0.060995903 -0.36674583 -0.13752168 -0.32859054 -0.0945827
-0.16562349 -0.16778581 0.00024782843 -0.039871678 -0.28738007 0.093214914 -0.16466083 -0.10810557
-0.043091424 -0.4292121 -0.5341715 -0.6524295
00000000: df7e 533e 5cb3 c13b cef3 f9bc 51fd d6bd
00000010: ba76 7bbd edcc 173e fe58 0d3c b026 533e
00000020: ac05 223d 56a6 ad3e 07b0 c63e 9b89 66bd
00000030: cad2 abbd 2cb0 da3d ed95 77be 9b07 863c
00000040: 2f94 913e 7c5d fa3a 664b 8c3d 2e89 833d
00000050: ccd9 5fbe bd93 9fbe 6fee ee3d 64b4 9bbe
00000060: ee9c 71bb 39a5 11bd 3f7a 2d3e d7d6 793d
00000070: 1cc6 bbbe 7cd2 0cbe 053d a8be 93b4 c1bd
00000080: 3499 29be 0bd0 2bbe f8ee 8139 7c50 23bd
00000090: 7b23 93be 76e7 be3d d99c 28be 7466 ddbd
000000a0: a280 30bd b0c1 dbbe 77bf 08bf 9f05 27bf

conv1.bias f4 [4]
-0.05216142 0.24386258 -0.12023049 0.22729169
00000000: 37a7 55bd 1db7 793e 673b f6bd 27bf 683e

conv2.weight f4 [8, 4, 11]
0.046540022 -0.03658343 0.046553615 -0.046816986 -0.17082831 -0.09709829 -0.11012475 -0.11194842
0.10308306 0.052041844 -0.05914997 -0.061699122 -0.07189214 -0.16708125 -0.056277744 0.022075845
-0.13256526 -0.03488681 0.028930347 -0.13466202 0.075712994 0.09968686 -0.090077296 -0.05154191
0.016027957 0.008584604 -0.14476709 0.031399265 0.06578143 0.03456226 -0.032033257 0.10364699
-0.019309536 -0.13972996 -0.07698814 -0.07793233 -0.07436615 0.06583915 -0.13044398 0.063397646
-0.060407046 -0.07814327 0.011677248 0.016677737 -0.49395284 -0.2435246 -0.38402244 -0.15139414
0.13063726 0.061780076 0.08629164 0.006577105 -0.2621706 -0.18100205 -0.45093024 0.09255325
0.23770295 0.033212677 0.19487274 0.0089052 0.15680122 0.090161666 0.003369686 0.084441714
0.24715804 0.3378491 0.11920623 0.04724346 0.08945664 0.08344589 -0.040188976 0.12411333
0.24443132 0.0035450908 0.025593266 -0.04610901 0.29776597 -0.04085181 0.0064944713 -0.016484005
-0.12874734 -0.122057565 -0.077445485 -0.14848725 -0.20822492 -0.2885971 -0.15864316 -0.39281088
-0.28565282 -0.09884746 -0.030102473 -0.09768731 0.056083728 0.044516418 0.24225959 0.032373052
0.046157338 0.0070872586 -0.17215116 0.0307458 0.29159492 0.21222523 -0.0719232 0.09867243
0.057391703 -0.24650006 0.051359467 0.026387408 0.052939184 0.33272713 -0.068359904 -0.044085734
-0.034697995 0.04863154 0.07530159 -0.013459542 0.21560095 0.16319244 -0.1603385 0.19963522
-0.039762203 0.21482301 0.2021567 0.25749967 0.105896726 -0.082725346 -0.10208935 -0.11981704
0.022325438 0.09933654 -0.013292883 0.2665825 -0.050600953 0.039013308 0.11369652 0.10112483
0.17448124 0.15197699 0.24732772 0.18502139 0.22206281 0.13594398 0.19199325 0.016712854
0.1112772 0.12689893 0.14261244 0.16176732 0.096880764 0.09429247 -0.05863052 -0.07418267
-0.15699121 -0.28675354 -0.080194585 -0.086239256 0.067131296 -0.043973017 0.048797213 -0.19454153
-0.01709892 0.02941682 -0.08580037 -0.04641313 0.11978372 0.30791578 0.23730697 -0.3104381
-0.056959085 0.21682084 0.037725367 0.47327292 0.06312448 -0.21500532 0.18639536 0.7718519
0.24203429 0.08185999 0.13013919 0.03951797 -0.15768744 0.10487563 0.0048935716 0.114663
0.31907675 0.041243766 -2.125971 0.042244308 -0.08598353 0.117666125 -0.000297549 0.007833672
-0.03995008 0.20531064 -0.10289203 0.112569086 0.16472171 0.61990595 0.06400238 -0.10502734
-0.11043342 0.11822827 0.1706314 0.06606933 0.03974355 0.057591856 -0.11280554 0.09668998
0.19145152 -0.2588322 -0.22625454 -0.15960932 -0.26967663 -0.17701206 -0.16604567 -0.10293125
0.055427603 0.2757936 0.41731042 1.1744812 -0.021769652 0.0023587206 -0.19363579 -0.12804942
0.0029954587 -0.15462092 -0.1371631 -0.16056266 -0.10340297 -0.2597932 -0.29279065 0.080613546
0.05445105 -0.004949657 0.16418432 0.12053776 0.027367033 0.14597435 0.13304564 0.25691244
0.20144744 0.4801622 -0.02338816 -0.04300931 0.023832269 0.0991995 -0.027641295 -0.046061028
0.01984048 0.19298334 0.1422648 -0.03642196 0.005915291 -0.033989742 -0.1440162 -0.16028628
00000000: c0a0 3e3d 82d8 15bd 01af 3e3d 2bc3 3fbd
00000010: 9eed 2ebe 78db c6bd 1689 e1bd 3745 e5bd
00000020: 361d d33d d429 553d 3d47 72bd 38b8 7cbd
00000030: 303c 93bd 5917 2bbe 7e83 66bd 67d8 b43c
00000040: 30bf 07be 79e5 0ebd 56ff ec3c d7e4 09be
00000050: 6a0f 9b3d a028 cc3d 727a b8bd 9c1d 53bd
00000060: 104d 833c 70a6 0c3c d33d 14be 849c 003d
00000070: 6ab8 863d 2891 0d3d 4e35 03bd e044 d43d
00000080: 082f 9ebc 5f15 0fbe f5ab 9dbd fc9a 9fbd
00000090: 484d 98bd add6 863d 1b93 05be a0d6 813d
000000a0: 616d 77bd 9409 a0bd ee51 3f3c c09f 883c
000000b0: 63e7 fcbe 835e 79be 979e c4be 1107 1bbe
000000c0: c6c5 053e 1b0d 7d3d acb9 b03d c184 d73b
000000d0: 3a3b 86be 9a58 39be 54e0 e6be 8f8c bd3d
000000e0: 6768 733e 040a 083d b88c 473e 1ee7 113c
000000f0: 8090 203e aea6 b83d f3d5 5c3b c7ef ac3d
00000100: ff16 7d3e 8ffa ac3e 6522 f43d 5c82 413d
00000110: 0b35 b73d aee5 aa3d 329d 24bd 212f fe3d
00000120: 344c 7a3e c154 683b f8a8 d13c cddc 3cbd
00000130: c874 983e 3a54 27bd 93cf d43b 7709 87bc
00000140: 58d6 03be 51f9 f9bd bd9b 9ebd 0b0d 18be
00000150: ea38 55be 00c3 93be 5a73 22be 821e c9be
00000160: 1641 92be 8970 cabd 7699 f6bc 4910 c8bd
00000170: 0db8 653d d956 363d e612 783e 9b99 043d
00000180: 7a0f 3d3d 3c3c e83b 6548 30be 9ede fb3c
00000190: ee4b 953e 9251 593e 784c 93bd c514 ca3d
000001a0: 9013 6b3d 836a 7cbe 4e5e 523d 682a d83c
000001b0: c2d6 583d 365b aa3e 4700 8cbd 3e93 34bd
000001c0: 7c1f 0ebd de31 473d b837 9a3d 6985 5cbc
000001d0: 7fc6 5c3e eb1b 273e c72f 24be 2d6d 4c3e
000001e0: b1dd 22bd 90fa 5b3e 2a02 4f3e ffd6 833e
000001f0: 62e0 d83d e86b a9bd 3914 d1bd a362 f5bd
00000200: d6e3 b63c f570 cb3d 64ca 59bc 807d 883e
00000210: f242 4fbd 6bcc 1f3d b9d9 e83d 891a cf3d
00000220: 36ab 323e db9f 1b3e 7a43 7d3e 3f76 3d3e
00000230: 6f64 633e e634 0b3e e199 443e 65e9 883c
00000240: 4de5 e33d cbf1 013e ff08 123e 55a6 253e
00000250: 6c69 c63d 691c c13d 8e26 70bd 15ed 97bd
00000260: 4ec2 20be 5cd1 92be 0f3d a4bd 359e b0bd
00000270: 227c 893d 0d1d 34bd 96df 473d e535 47be
00000280: 0913 8cbc 8bfb f03c 1bb8 afbd b21b 3ebd
00000290: 2b51 f53d 23a7 9d3e 9900 733e bef1 9ebe
000002a0: ee4d 69bd 4806 5e3e ea85 1a3d d450 f23e
000002b0: 6847 813d 5b2a 5cbe 6dde 3e3e 1698 453f
000002c0: d6d7 773e 36a6 a73d 3543 053e 98dd 213d
000002d0: d178 21be 09c9 d63d 415a a03b 6fd4 ea3d
000002e0: 075e a33e 39ef 283d e90f 08c0 5e08 2d3d
000002f0: 2218 b0bd f0fa f03d 5a00 9cb9 cd58 003c
00000300: b2a2 23bd f43c 523e 0eb9 d2bd 9f8a e63d
00000310: cfac 283e 28b2 1e3f ae13 833d 9318 d7bd
00000320: eb2a e2bd aa21 f23d ffb9 2e3e 5b4f 873d
00000330: 22ca 223d 70e5 6b3d 9706 e7bd 6505 c63d
00000340: de0b 443e a785 84be 45af 67be a070 23be
00000350: 0e13 8abe a642 35be e007 2abe 9fcd d2bd
00000360: 0e08 633d d234 8d3e b6a9 d53e 6655 963f
00000370: 4556 b2bc c494 1a3b 7648 46be 631f 03be
00000380: 754f 443b f254 1ebe 7c74 0cbe 8a6a 24be
00000390: f0c4 d3bd 9d03 85be a8e8 95be b718 a53d
000003a0: 1008 5f3d bb30 a2bb ef1f 283e 80dc f63d
000003b0: d430 e03c 4d7a 153e 1e3d 083e 078a 833e
000003c0: 3d48 4e3e d2d7 f53e 8798 bfbc 882a 30bd
000003d0: e43b c33c 1c29 cb3d ff6f e2bc 7daa 3cbd
000003e0: 8188 a23c 6d9d 453e ddad 113e 312f 15bd
000003f0: 0fd5 c13b d438 0bbd fc78 13be 1622 24be

conv2.bias f4 [8]
-0.14204368 0.13497886 0.25341022 -0.4438617 0.03517481 0.21186866 -0.14323086 0.059020862
00000000: e673 11be e637 0a3e fcbe 813e d741 e3be
00000010: 7613 103d 19f4 583e 1cab 12be dcbf 713d

conv3.weight f4 [16, 8, 11]
0.043442503 0.08684653 -0.031339504 0.011963867 -0.051186092 -0.07507008 0.09490703 -0.08648359
0.05414243 0.021688819 -0.055535868 -0.10876054 0.04203052 -0.06909508 0.060179442 -0.082539886
-0.024501037 -0.015408693 -0.06492521 -0.13007604 0.067346014 0.048754465 -0.25265408 -0.10172185
0.06481407 0.04625954 -0.043721966 0.013908197 -0.18681972 -0.07137974 -0.05505964 -0.1677678
-0.053166367 -0.2224044 -0.09996752 -0.13794799 -0.017270206 -0.093126915 -0.05353698 -0.16220623
-0.08840677 -0.0044360235 -0.03423339 -0.14260472 -0.089404166 0.036766518 -0.13103682 -0.017283939
-0.095153615 -0.06645689 0.03281505 -0.09695003 0.020523362 -0.014196702 -0.041201737 -0.07200007
0.06435652 -0.064751945 0.04105854 -0.04885701 -0.12902482 -0.05582694 -0.15850373 -0.17871231
-0.16305853 -0.096059695 -0.02372605 -0.05423739 -0.13409725 0.018493077 0.06522987 -0.090744615
-0.06657597 -0.0925276 -0.05904331 -0.035606146 -0.029541828 0.0131406 -0.20589732 -0.05205911
0.036272723 -0.118574865 -0.15758827 -0.18752697 -0.17453888 -0.19861959 -0.09969904 -0.058432166
0.02598695 -0.0029191896 0.10333212 -0.011427559 -0.055385068 -0.05761455 0.061854392 0.02349259
-0.062239505 0.103974044 0.013945274 0.7485509 0.36864698 0.19349629 0.020475402 -0.2285172
-0.13316685 -0.27366498 0.043122828 -0.011410211 -0.049300853 -0.37632415 0.74839634 0.3847193
-0.09506215 0.16724123 0.23383823 0.18840322 0.06958359 0.14096524 0.3078814 0.17864369
-0.598142 -0.6352411 0.19252783 0.18894683 0.058573943 0.08686326 -0.12709221 0.08626793
0.018908702 -0.28791437 -0.3607554 0.5955091 -0.24248204 -0.0812199 0.21363856 0.21727231
0.23304127 0.24090125 0.001967885 0.18845923 0.20420383 0.09571756 -0.7920122 0.21735485
0.019406436 -0.13820726 -0.11727145 -0.08218242 0.05127033 -0.00014200638 0.11468844 0.34013695
0.26402965 -0.35988775 0.41585997 0.3335535 0.1978156 0.06817256 -0.19110447 0.008424608
0.14322655 0.1661972 0.08229069 -0.037299093 -0.98926014 0.17323922 0.28734764 -0.016552582
-0.012888431 -0.12492822 -0.09536398 -0.2565113 0.1063778 0.13222978 -0.015987605 -0.38726202
0.056206957 -0.051819358 0.073873594 0.09258042 0.013080627 -0.020507604 0.10624197 0.012906782
-0.04721634 0.10595986 0.08048105 0.14563677 0.3058485 0.1600139 0.25961775 0.16898678
-0.05632323 0.021536285 0.046714827 -0.34998485 -1.071461 0.47983924 -0.049196362 0.105511546
0.114221856 0.2747622 0.06118201 0.14875254 -0.02793773 -0.3681304 -0.31431183 -0.48058578
-0.22764145 -0.2744913 -0.8607326 -0.51797235 -0.21459888 -0.037014198 0.18426864 0.53916436
0.67210066 0.6168581 0.40496102 0.2462302 -0.344886 -0.3539792 -0.3559234 -0.0923201
0.13478003 0.2824412 0.53128576 0.38212186 0.2721694 -0.040766373 0.47092563 0.0046398225
0.009248141 -0.029950064 0.12250415 0.36476207 0.37981987 0.38445956 -0.20045319 -0.18614766
-0.21757053 -0.030178089 0.20202866 0.30969176 -0.012886843 0.0856364 0.057738263 -0.06024565
0.14515695 0.23050985 -0.0489257 -0.7716828 -0.5378644 -0.16655643 0.10498153 -0.044608623
00000000: c4f0 313d 98dc b13d da5d 00bd 1804 443c
00000010: 82a8 51bd 58be 99bd 9e5e c23d 4f1e b1bd
00000020: 74c4 5d3d c0ac b13c 9479 63bd d9bd debd
00000030: 3228 2c3d b981 8dbd b87e 763d ac0a a9bd
00000040: 66b6 c8bc be74 7cbc 82f7 84bd a732 05be
00000050: b5ec 893d c3b2 473d e05b 81be 8c53 d0bd
00000060: 3dbd 843d a57a 3d3d ce15 33bd 35df 633c
00000070: ab4d 3fbe 8b2f 92bd 3886 61bd 52cb 2bbe
00000080: fac4 59bd fbbd 63be c5bb ccbd 3d42 0dbe
00000090: 3f7a 8dbc 53b9 bebd 9849 5bbd 6419 26be
000000a0: 9c0e b5bd 105c 91bb 5038 0cbd f906 12be
000000b0: 8819 b7bd 7d98 163d 842e 06be 0c97 8dbc
000000c0: e6df c2bd 8d1a 88bd 1369 063d bd8d c6bd
000000d0: 9c20 a83c 4999 68bc 27c3 28bd c674 93bd
000000e0: 5acd 833d ab9c 84bd 002d 283d 4a1e 48bd
000000f0: 151f 04be caaa 64bd cd4e 22be 5c00 37be
00000100: d1f8 26be f2ba c4bd 225d c2bc 0728 5ebd
00000110: ca50 09be cb7e 973c 3d97 853d 50d8 b9bd
00000120: fb58 88bd 1c7f bdbd 66d7 71bd c0d7 11bd
00000130: b401 f2bc ac4b 573c bfd6 52be ef3b 55bd
00000140: b592 143d 61d7 f2bd d25e 21be 1207 40be
00000150: 52ba 32be ef62 4bbe 032f ccbd 9156 6fbd
00000160: 96e2 d43c e04f 3fbb ca9f d33d a83a 3bbc
00000170: 74db 62bd 3cfd 6bbd 085b 7d3d 8873 c03c
00000180: daee 7ebd 58f0 d43d b87a 643c 08a1 3f3f
00000190: 4cbf bc3e e423 463e 08bc a73c 6a00 6abe
000001a0: e45c 08be d11d 8cbe 90a1 303d e5f1 3abc
000001b0: b1ef 49bd 8fad c0be e796 3f3f eef9 c43e
000001c0: f2af c2bd 4941 2b3e 4a73 6f3e c6ec 403e
000001d0: d781 8e3d 3159 103e a2a2 9d3e 5fee 363e
000001e0: d61f 19bf 299f 22bf 0426 453e 477b 413e
000001f0: 3beb 6f3d 5de5 b13d 7624 02be 3ead b03d
00000200: 6ce6 9a3c 8369 93be efb4 b8be 4973 183f
00000210: 364d 78be 9e56 a6bd 11c4 5a3e a27c 5e3e
00000220: 5fa2 6e3e d1ae 763e a2f7 003b 75fb 403e
00000230: cf1a 513e 9107 c43d 50c1 4abf 4592 5e3e
00000240: 3ffa 9e3c 3486 0dbe 042c f0bd 424f a8bd
00000250: d600 523d 8ce7 14b9 c6e1 ea3d 6e26 ae3e
00000260: e52e 873e 3543 b8be 99eb d43e 86c7 aa3e
00000270: 2c90 4a3e 0e9e 8b3d e4b0 43be 5e07 0a3c
00000280: fba9 123e 992f 2a3e 0588 a83d efc6 18bd
00000290: 2740 7dbf 9f65 313e 3b1f 933e 4899 87bc
000002a0: ff29 53bc 5eda ffbd 314e c3bd 7355 83be
000002b0: 9bdc d93d 3e67 073e 70f8 82bc 3547 c6be
000002c0: 4439 663d 8940 54bd 0a4b 973d ce9a bd3d
000002d0: 2050 563c 90ff a7bc 6495 d93d f876 533c
000002e0: ec65 41bd 7c01 d93d 40d3 a43d ce21 153e
000002f0: 2d98 9c3e afda 233e 9eec 843e df0a 2d3e
00000300: 30b3 66bd dd6c b03c 0c58 3f3d 3731 b3be
00000310: a225 89bf 7dad f53e 2082 49bd 7016 d83d
00000320: 26ed e93d a2ad 8c3e fd99 7a3d 9652 183e
00000330: abdd e4bc 967b bcbe 7bed a0be 570f f6be
00000340: d71a 69be 208a 8cbe f958 5cbf d699 04bf
00000350: cfbf 5bbe 339c 17bd ebb0 3c3e ad06 0a3f
00000360: ca0e 2c3f 6aea 1d3f 0d57 cf3e c523 7c3e
00000370: e694 b0be c33c b5be 983b b6be 5212 bdbd
00000380: c703 0a3e 229c 903e 5802 083f 7aa5 c33e
00000390: ca59 8b3e a4fa 26bd 2a1d f13e a709 983b
000003a0: 8485 173c d659 f5bc 75e3 fa3d 18c2 ba3e
000003b0: c077 c23e e2d7 c43e 9a43 4dbe 7e9d 3ebe
000003c0: cfca 5ebe 0a38 f7bc 9ae0 4e3e eb8f 9e3e
000003d0: 5623 53bc 2362 af3d f57e 6c3d 25c4 76bd
000003e0: 06a4 143e c60a 6c3e 5166 48bd 018d 45bf
000003f0: 7bb1 09bf c58d 2abe 8e00 d73d 88b7 36bd

conv3.bias f4 [16]
-0.25389153 0.36281377 -0.23810503 -0.22859871 -0.056117505 -0.30369693 -0.1344296 0.20031638
0.13259302 0.32724625 0.09848977 -0.06912691 0.02689001 -0.12142147 -0.16233411 -0.114031054
00000000: 12fe 81be bac2 b93e ced1 73be c815 6abe
00000010: 78db 65bd 2a7e 9bbe eaa7 09be bd1f 4d3e
00000020: 77c6 073e d28c a73e 01b5 c93d 6992 8dbd
00000030: 7048 dc3c d2ab f8bd ea3a 26be 1d89 e9bd

conv4.weight f4 [32, 16, 11]
0.09876228 -0.038770054 0.07160328 0.060517624 0.060703114 -0.015342202 -0.043351963 -0.008622594
0.05313027 -0.12939358 0.03186076 -0.45673963 0.27961898 -0.023504784 -0.026740387 -0.047075126
0.01162272 0.49509394 -0.041253574 0.2128821 -0.18902354 0.90197897 -0.09967556 -0.120202966
-0.15880057 0.023966674 -0.3699278 0.024271486 -0.21952745 0.30423102 -0.26487038 0.30388838
0.08299327 0.022978328 -0.03047901 -0.110852346 -0.10509784 0.009674275 0.013297931 -0.049470555
-0.03388705 0.054496273 0.017007478 0.0057552787 -0.07319492 0.03334581 -0.008290194 -0.011594905
-0.040288925 -0.038636204 -0.11510092 -0.116008684 -0.025275944 -0.062321045 0.025558777 0.0301202
0.10637286 -0.040616382 -0.29769713 -0.05298616 -0.084712066 0.13199058 -0.15873528 -0.030483922
-0.27780926 0.24794562 -0.033906963 -0.043561596 0.06297359 -0.06152372 -0.06778941 0.029344378
0.04400909 0.00014171633 0.053877056 -0.06999819 -0.0017755443 -0.46395913 0.38688025 0.010094738
0.037183 0.25025222 -0.020970041 0.23794907 0.23564346 0.14984863 0.044705726 -0.31712356
-0.29804984 0.41656688 -0.08940032 -0.019218005 0.07967763 0.12767547 0.42295554 0.091124795
0.054218013 -0.12743442 0.06710201 0.30287454 -0.036939405 0.15616876 0.10987721 0.4347939
0.49895626 0.16401832 -0.026153643 0.27549657 0.18407026 -0.1129553 0.25672635 -0.105656825
-0.075326756 0.2780359 -0.48681605 0.12621605 -0.55972564 0.05672195 -0.37062672 -0.023984611
0.13083485 0.007929628 -0.052545562 -0.018048227 -0.028043171 -0.11743426 -0.008914443 -0.086038314
-0.11170586 -0.10705972 -0.01765797 -0.101052225 0.062362954 0.036620818 -0.17331307 -0.074021816
-0.27232423 -0.1579041 0.06019485 -0.05558658 -0.28899541 0.02156865 -0.14804822 0.19372515
-0.09859607 0.17157452 -0.007413259 0.14832786 -0.0036986645 -0.030868297 -0.012784892 0.30943987
-0.21856296 0.19566892 0.00983192 -0.03793559 -0.048446264 -0.07314371 -0.06311698 0.020014845
-0.05769014 -0.014077098 -0.007325276 -0.11584251 -0.040031534 0.30557314 -0.38733473 -0.086116605
0.22033852 -0.08931795 0.555025 -0.19275409 0.55706674 -0.29316518 0.30676422 -0.06413327
0.026171409 0.016865559 0.03720414 -0.06993696 -0.06403408 -0.03160189 -0.02861264 0.016579315
0.018372633 0.17226854 -0.049562097 0.09777463 -0.17378847 0.1880045 0.14275034 0.12340471
-0.17338873 0.14992203 0.10306657 0.30616507 -0.038999196 -0.7910889 -0.051954746 0.33338013
0.1727333 0.81689394 0.2283003 0.32822883 0.08304562 0.07507575 -0.080081224 -0.17753367
-0.09960849 -0.04225619 0.069470316 -0.0504273 -0.00643263 -0.04856372 -0.046229288 -0.066531375
-0.038779553 -0.06566085 0.037971266 -0.070031986 -0.04909794 0.027579226 -0.025855968 -0.011528847
0.052321166 0.0024154866 -0.086578235 -0.010390023 -0.02828164 -0.06702012 0.032773398 -0.085103646
0.025136668 0.0016891111 -0.16892087 -0.050242633 -0.15077549 0.101683155 -0.09870395 0.31212762
0.071846716 0.12651362 -0.014179167 0.030050585 0.089579396 -0.007890163 -0.07256912 -0.033263378
0.0875343 0.10024133 0.007069097 0.082382165 -0.10793815 0.39327544 -0.19173656 0.26871765
00000000: e143 ca3d 59cd 1ebd bea4 923d 54e1 773d
00000010: d4a3 783d dc5d 7bbc d491 31bd c845 0dbc
00000020: 209f 593d c07f 04be 6e80 023d c7d9 e9be
00000030: 382a 8f3e 1b8d c0bc a80e dbbc d9d1 40bd
00000040: 396d 3e3c f47c fd3e 82f9 28bd c4fd 593e
00000050: 638f 41be 18e8 663f b322 ccbd f92c f6bd
00000060: 9e9c 22be c255 c43c 2d67 bdbe ffd4 c63c
00000070: cecb 60be 2bc4 9b3e 179d 87be 4297 9b3e
00000080: 60f8 a93d 0c3d bc3c 1eaf f9bc 8e06 e3bd
00000090: 893d d7bd da80 1e3c 91df 593c a3a1 4abd
000000a0: 26cd 0abd 7c37 5f3d 4453 8b3c c796 bc3b
000000b0: 38e7 95bd 9e95 083d 98d3 07bc 8ef8 3dbc
000000c0: 0006 25bd ff40 1ebd 08ba ebbd f695 edbd
000000d0: 7f0f cfbc 5a44 7fbd a460 d13c a3be f63c
000000e0: 04da d93d 5d5d 26bd c26b 98be 0408 59bd
000000f0: 857d adbd 8a28 073e 808b 22be 6bb9 f9bc
00000100: 043d 8ebe 75e5 7d3e 07e2 0abd a56d 32bd
00000110: 4cf8 803d 4c00 7cbd 2dd5 8abd 9f63 f03c
00000120: e042 343d b099 1439 30ae 5c3d 365b 8fbd
00000130: 61b9 e8ba 0d8c edbe 2b15 c63e 6664 253c
00000140: 344d 183d 0f21 803e 5dc9 abbc eca8 733e
00000150: 854c 713e eb71 193e 5a1d 373d 055e a2be
00000160: fd99 98be 4148 d53e 8417 b7bd 146f 9dbc
00000170: 062e a33d 5cbd 023e a18d d83e a39f ba3d
00000180: b513 5e3d 2b7e 02be c76c 893d 5f12 9b3e
00000190: c64d 17bd b4ea 1f3e 4d07 e13d 4e9d de3e
000001a0: 3277 ff3e 6bf4 273e 2a40 d6bc e30d 8d3e
000001b0: ea7c 3c3e 1c55 e7bd a371 833e 9b62 d8bd
000001c0: ea44 9abd b95a 8e3e f43f f9be c83e 013e
000001d0: 2e4a 0fbf 4755 683d c9c2 bdbe 607b c4bc
000001e0: 92f9 053e 45eb 013c 043a 57bd e0d9 93bc
000001f0: cbba e5bc 6081 f0bd e20d 12bc db34 b0bd
00000200: 0bc6 e4bd 2042 dbbd 72a7 90bc 78f4 cebd
00000210: 4c70 7f3d b6ff 153d fb78 31be c098 97bd
00000220: 156e 8bbe 9db1 21be e08e 763d c1ae 63bd
00000230: 35f7 93be bdb0 b03c f499 17be e35f 463e
00000240: bdec c9bd 3bb1 2f3e ecea f2bb 42e3 173e
00000250: 4b65 72bb 83df fcbc b977 51bc e76e 9e3e
00000260: f8ce 5fbe 6f5d 483e 1016 213c 5962 1bbd
00000270: 976f 46bd 5fcc 95bd 7a43 81bd 2cf6 a33c
00000280: 7f4c 6cbd a1a3 66bc de08 f0bb d63e edbd
00000290: 1bf8 23bd 1574 9c3e bd50 c6be e75d b0bd
000002a0: 6ca0 613e 54ec b6bd 1e16 0e3f 5461 45be
000002b0: ed9b 0e3f bf19 96be 3310 9d3e 4e58 83bd
000002c0: 6c65 d63c a429 8a3c 5e63 183d 1c3b 8fbd
000002d0: 4d24 83bd fc70 01bd 0e65 eabc 58d1 873c
000002e0: 3482 963c 2a67 303e a001 4bbd 113e c83d
000002f0: 9bf5 31be 4084 403e 252d 123e 9cbb fc3d
00000300: d18c 31be 2985 193e 9114 d33d abc1 9c3e
00000310: 9fbd 1fbd cd84 4abf 80ce 54bd cdb0 aa3e
00000320: 00e1 303e f61f 513f 8ec7 693e 9c0d a83e
00000330: d213 aa3d 51c1 993d a001 a4bd 63cb 35be
00000340: 89ff cbbd d414 2dbd 7446 8e3d db8c 4ebd
00000350: d0c8 d2bb c0ea 46bd ec5a 3dbd 9a41 88bd
00000360: 4fd7 1ebd 3279 86bd c287 1b3d ee6c 8fbd
00000370: ec1a 49bd d4ed e13c e5cf d3bc 7de3 3cbc
00000380: b84e 563d 244d 1e3b ee4f b1bd ea3a 2abc
00000390: e6ae e7bc d841 89bd 663d 063d d24a aebd
000003a0: 6aeb cd3c 2a65 dd3a 98f9 2cbe 38cb 4dbd
000003b0: e464 1abe 423f d03d 4c25 cabd 31cf 9f3e
000003c0: 5f24 933d c98c 013e bd4f 68bc a52c f63c
000003d0: 6775 b73d be45 01bc 1e9f 94bd 2e3f 08bd
000003e0: 2f45 b33d 544b cd3d e2a3 e73b fbb7 a83d
000003f0: ad0e ddbd 665b c93e 9756 44be 5c95 893e

conv4.bias f4 [32]
0.25467032 0.12565878 0.013756 -0.074165314 0.42574367 -0.04535961 -0.08457312 0.037138056
0.25587776 0.093070716 -0.11051586 0.539298 0.4997146 -0.2173893 -0.12080352 0.028449457
-0.019233903 -0.06099156 -0.033609547 -0.0028899175 0.44178158 0.19730048 0.35326847 0.33098125
0.17288883 0.2659748 -0.11483298 0.48475927 -0.052878752 0.04652497 -0.078228205 -0.066449665
00000000: 2664 823e b2ac 003e d960 613c fce3 97bd
00000010: 13fb d93e 00cb 39bd ac34 adbd 131e 183d
00000020: 6902 833e dc9b be3d 2456 e2bd 6f0f 0a3f
00000030: 98da ff3e 4d9b 5ebe d667 f7bd d60e e93c
00000040: 6b90 9dbc 49d2 79bd 2aaa 09bd c564 3dbb
00000050: 3231 e23e 2309 4a3e 9bdf b43e 6076 a93e
00000060: c509 313e d92d 883e 8e2d ebbd 5e32 f83e
00000070: 6497 58bd f890 3e3d 1c36 a0bd c316 88bd

fc_moy.weight f4 [32, 32]
0.22480522 -0.06268443 0.031975515 0.12696302 0.3162315 -0.07507238 -0.14351915 0.27850527
-0.3488781 0.2651351 0.06555112 0.11282312 0.26686957 -0.15435728 0.048771847 0.017125262
-0.016832538 0.039273944 0.047439445 0.1597782 -0.09682384 0.31609425 -0.40437287 0.29770592
-0.20628336 0.040003717 -0.12003229 -0.34976476 0.06129746 0.4334301 -0.038134694 0.015008146
-0.04929562 0.25407234 0.094580226 -0.019772137 0.0707507 0.13448569 -0.2755165 0.035327736
0.009745376 0.33449358 -0.08277009 0.49442276 -0.35425302 -0.07797241 -0.011069301 -0.56201714
-0.016788179 0.1448072 0.011462741 -0.040434122 0.17647976 -0.12797491 0.3615744 0.3697306
0.27291122 -0.45917633 0.07615017 0.18302093 -0.0045427056 -0.5549581 0.1626503 0.21895342
-0.24643509 0.20868142 -0.05877791 -0.11653952 -0.13670227 -0.0520608 -0.17963348 0.42074636
0.56607133 -0.17607269 -0.10710239 -0.032216493 -0.33383116 0.17930013 0.05960715 0.34362072
-0.08911118 -0.13617215 -0.052144665 0.07297029 0.052812662 -0.0059683644 0.11333723 0.18361
-0.16868842 0.29145816 -0.051619247 -0.14596511 -0.19251284 0.070876256 -0.1214538 0.19474983
-0.18527426 0.19827864 0.058846958 0.11997797 0.7198833 -0.027253857 0.06395971 -0.009254306
-0.71533173 0.02449034 0.07531233 0.00029036048 -0.23356616 -0.21782307 0.0065946113 -0.2446976
0.052470207 0.026735635 0.1533592 0.031079892 0.32183886 0.029267374 1.0871699 0.064539194
-0.20908569 -0.08609144 -0.17957416 0.25277254 0.123849146 -0.21178384 0.2008492 0.00619737
0.04848612 0.13703556 0.035064694 0.087913856 -0.04843501 0.1472907 -0.115606084 -0.06454582
-0.2163589 0.18078943 0.03276296 -0.22022092 0.14432532 -0.14478411 -0.14001891 0.21595915
0.13206552 -0.08306104 0.14048998 -0.59762675 -0.21748428 0.21928923 -0.3129874 0.39089102
0.09151006 0.08150577 0.14302331 -0.30455458 -0.00605 0.17681892 -0.08971659 0.07047895
0.18134023 0.25107136 0.15671319 -0.10521613 -0.15845011 0.09066824 -0.36867768 -0.33864114
-0.05627027 -0.25979444 0.12885563 0.17112452 0.38778326 -0.23970087 -0.19550322 0.130164
-0.20019048 0.18854263 0.12135579 -0.22128724 0.42760333 -0.2457819 0.5702439 -0.02471706
0.14754777 0.16062331 -0.012777221 0.115270056 0.09462458 -0.6512904 -0.05841563 -0.1570771
-0.47666708 0.16346599 -0.12853707 0.0137109915 -0.12708978 0.09008958 -0.13457164 -0.034015786
0.2686768 0.13467419 0.22271839 0.50582844 0.1589394 -0.22325873 0.059818428 -0.08344208
0.052632194 -0.081957266 0.19995187 0.122026086 0.37452617 -0.3486483 1.1102016 -0.17343831
0.19986866 0.21557866 0.07835738 0.010423731 -0.06556849 -0.8883327 -0.020165503 -0.012141048
0.38824272 -0.26359037 -0.0691611 -0.08763608 -0.22927585 -0.1448579 -0.71208835 0.30062222
0.19451629 0.12149939 -0.09092088 0.8159213 -0.28127193 -0.19361264 0.18513246 -0.24513659
-0.12960579 0.1315809 0.079269655 0.08145215 0.06248462 -0.32133916 -0.10008432 -0.20972787
0.1465956 -0.2564027 -0.05313609 0.3877973 0.0866404 0.32646155 -0.015893864 -0.07840408
00000000: 5733 663e b260 80bd c2f8 023d 9802 023e
00000010: 18e9 a13e 8cbf 99bd aff6 12be 3e98 8e3e
00000020: 26a0 b2be cabf 873e aa3f 863d cf0f e73d
00000030: 21a3 883e d60f 1ebe fdc4 473d 474a 8c3c
00000040: 64e4 89bc b7dd 203d dd4f 423d e59c 233e
00000050: 944b c6bd 1bd7 a13e f609 cfbe e96c 983e
00000060: f23b 53be f0da 233d 7dd3 f5bd 5e14 b3be
00000070: 0c13 7b3d 8dea dd3e 2033 1cbd bae4 753c
00000080: 34ea 49bd c515 823e 47b3 c13d 2df9 a1bc
00000090: bee5 903d 9eb6 093e 8010 8dbe d1b3 103d
000000a0: 12ab 1f3c be42 ab3e 5d83 a9bd fb24 fd3e
000000b0: a760 b5be 00b0 9fbd 035c 35bc 5be0 0fbf
000000c0: 5d87 89bc 5748 143e 38ce 3b3c 409e 25bd
000000d0: 1cb7 343e db0b 03be 4820 b93e 544d bd3e
000000e0: 05bb 8b3e 2919 ebbe 9ff4 9b3d d769 3b3e
000000f0: fada 94bb bc11 0ebf cd8d 263e 5335 603e
00000100: 7b59 7cbe 95b0 553e 1bc1 70bd 46ac eebd
00000110: aefb 0bbe b53d 55bd d7f1 37be 116c d73e
00000120: 0dea 103f 664c 34be 7f58 dbbd 71f5 03bd
00000130: ebeb aabe 749a 373e a026 743d 0eef af3e
00000140: ec7f b6bd b670 0bbe a595 55bd 7371 953d
00000150: 1752 583d 4592 c3bb 5a1d e83d 4304 3c3e
00000160: a8bc 2cbe 013a 953e b46e 53bd e177 15be
00000170: 1622 45be 9227 913d c5bc f8bd 806c 473e
00000180: 89b8 3dbe 8e09 4b3e 8209 713d 03b7 f53d
00000190: 464a 383f 7b43 dfbc 4ffd 823d 5f9f 17bc
000001a0: fb1f 37bf f79f c83c 5a3d 9a3d 863b 9839
000001b0: f82b 6fbe 030d 5fbe 9c17 d83b 0292 7abe
000001c0: 00eb 563d b104 db3c 320a 1d3e 429b fe3c
000001d0: 10c8 a43e 22c2 ef3c 6228 8b3f 202d 843d
000001e0: 8f1a 56be b550 b0bd 4ae2 37be 676b 813e
000001f0: 9fa4 fd3d dddd 58be 6aab 4d3e 4f13 cb3b
00000200: 6299 463d 0d53 0c3e ff9f 0f3d 2e0c b43d
00000210: ca63 46bd 60d3 163e e2c2 ecbd 9930 84bd
00000220: 308d 5dbe dd20 393e 7432 063d 9881 61be
00000230: 04ca 133e 4942 14be 1e61 0fbe 6524 5d3e
00000240: 2f3c 073e e81b aabd 9bdc 0f3e 11fe 18bf
00000250: 33b4 5ebe 5b8d 603e e23f a0be de22 c83e
00000260: a069 bb3d 7fec a63d b474 123e 94ee 9bbe
00000270: 143f c6bb 0510 353e 55bd b7bd 4557 903d
00000280: 41b1 393e 6d8c 803e 6c79 203e 8e7b d7bd
00000290: bf40 22be 45b0 b93d 52c3 bcbe 5f62 adbe
000002a0: a87b 66bd c703 85be bbf2 033e 443b 2f3e
000002b0: 878b c63e 2574 75be ff31 48be b649 053e
000002c0: bcfe 4cbe 5211 413e 6289 f83d 1f99 62be
000002d0: d3ee da3e 40ae 7bbe 81fb 113f 6f7b cabc
000002e0: c316 173e 707a 243e 8d57 51bc b512 ec3d
000002f0: 88ca c13d f8ba 26bf 3a45 6fbd d2d8 20be
00000300: b50d f4be a163 273e 399f 03be 11a4 603c
00000310: d323 02be e380 b83d 26cd 09be 2354 0bbd
00000320: 0190 893e 08e8 093e 4a10 643e f97d 013f
00000330: 03c1 223e f09d 64be 2b04 753d aee3 aabd
00000340: db94 573d 36d9 a7bd 2fc0 4c3e d0e8 f93d
00000350: e5c1 bf3e 0882 b2be 161b 8e3f d099 31be
00000360: 5faa 4c3e a7c0 5c3e d679 a03d 4cc8 2a3c
00000370: c648 86bd c669 63bf 2032 a5bc 3feb 46bc
00000380: c0c7 c63e 51f5 86be 56a4 8dbd 8c7a b3bd
00000390: 4ac7 6abe a155 14be 6c4b 36bf 28eb 993e
000003a0: 472f 473e acd4 f83d ba34 babd 38e0 503f
000003b0: e002 90be 6442 46be 5d93 3d3e 1605 7bbe
000003c0: 61b7 04be 25bd 063e 2158 a23d 63d0 a63d
000003d0: dfef 7f3d 9186 a4be 02f9 ccbd e7c2 56be
000003e0: 281d 163e 3747 83be 3ba5 59bd 5e8d c63e
000003f0: 8670 b13d f825 a73e d933 82bc 5192 a0bd

fc_moy.bias f4 [32]
0.17073616 -0.15578285 -1.4433441 -0.13624416 0.7580507 0.5340232 0.8041137 0.18598655
-0.44789514 -0.38628533 -0.028614664 1.2591162 0.1385996 0.9473336 -0.19634955 0.757544
-0.04921856 0.3613551 0.39175043 -0.69450164 -1.2281902 0.66012436 -0.97039014 0.9572633
0.04225893 -0.8753366 0.40586933 -0.090856604 0.85853547 -0.38190523 0.8042874 0.19321851
00000000: 76d5 2e3e 8a85 1fbe 80bf b8bf 9783 0bbe
00000010: 9c0f 423f bfb5 083f 65da 4d3f 4273 3e3e
00000020: 8352 e5be 31c7 c5be 4d69 eabc b82a a13f
00000030: 0eed 0d3e 7484 723f db0f 49be 67ee 413f
00000040: 6799 49bd 8903 b93e 8393 c83e dcca 31bf
00000050: 5635 9dbf e9fd 283f 7d6b 78bf 350f 753f
00000060: b317 2d3d 0f16 60bf 1bce cf3e 0713 babd
00000070: fbc8 5b3f 1589 c3be c7e5 4d3f 13db 453e

fc_var.weight f4 [32, 32]
-0.2260298 -0.09832473 8.127418e-05 -0.06607327 -0.3449338 0.053745534 -0.48642603 -0.08233393
-0.49447903 -0.055182844 -0.08612132 -1.0281646 -0.29481226 0.29964358 -0.11697003 -0.2958633
-0.07562602 -0.07047025 0.11943707 -0.6696756 -0.33142224 0.011185575 -0.2828133 -0.28837126
-1.0005164 -0.34202734 -0.08410779 -0.8503633 0.029487478 -0.030587846 0.049822755 0.012720514
-0.26906988 -0.48451078 0.10645576 0.17530307 -0.28160846 0.050225 -0.28056285 -0.16218895
-0.55901986 -0.28615925 -0.06833299 -0.5407141 -0.23397477 -0.05182833 -0.04378527 -0.5254332
-0.12989004 0.14599892 -0.094803095 -0.3989468 -0.5550527 -0.4168658 0.08014615 -0.1352711
-0.73014903 -0.21508263 0.07170603 -0.52039224 -0.15188706 -0.14922458 0.029658085 -0.009028228
-0.23035465 -0.11566072 -0.06432717 0.07629858 -0.42545873 -0.0988664 -0.30059475 -0.2628032
-0.6387469 -0.1778558 0.07036479 -0.83916634 -0.09387364 0.14406858 -0.12231141 -0.27482727
-0.028641295 -0.10210974 -0.08065581 -0.60102886 -0.34922707 -0.18500564 -0.31942642 -0.011684397
-0.74624544 0.0036876823 0.056122407 -0.73699856 -0.16598444 -0.19799149 -0.2048602 -0.17225604
-0.15713267 -0.22657531 -0.077726 -0.18374063 -0.21875137 -0.020738443 -0.32543 -0.33502233
-0.646877 -0.17318903 -0.106815785 -0.61526275 -0.24787445 -0.1318914 0.2023568 -0.5163055
0.033159576 -0.09920228 -0.035246957 -0.4843037 -0.3538991 -0.24922477 -0.2440248 -0.1987958
-0.5003646 -0.22190288 -0.0602078 -0.43163747 -0.09206464 0.029870663 0.015049796 0.08540908
-0.13791369 -0.128305 0.037270907 -0.110627875 -0.3687585 0.03913374 -0.30582806 -0.15370792
-0.45823005 -0.022110183 0.18185428 -0.67904264 -0.33021075 0.041799605 -0.0055455235 -0.41754988
0.046431817 0.15843348 0.013836915 -0.2817321 -0.29673496 -0.24895108 -0.43681034 -0.30626854
-0.71494305 -0.1843288 -0.09601141 -0.63784975 -0.112147644 -0.1253559 -0.017649483 0.050287213
-0.5305146 -0.37974662 0.04371266 -0.21879071 -0.7685796 -0.16155338 -0.30672905 -0.21438488
-0.5067069 -0.18403405 -0.10493034 -0.83860016 -0.35044864 -0.10402234 -0.08840344 -0.65200067
-0.13934 0.0779502 0.08610431 -0.40163323 -0.16646925 -0.282284 -0.057940762 -0.20369726
-0.65556747 -0.42953956 0.07774235 -0.45702788 0.08638857 -0.1737844 -0.055250064 -0.16771673
-0.414105 -0.26857185 -0.21120113 0.006591165 -0.57178193 0.050713584 -0.47031358 -0.29719868
-0.1485427 -0.49325788 0.12299535 -0.589376 -0.56782514 0.014804358 0.05479257 -0.37482646
-0.035636015 0.14866899 0.05988022 -0.52295583 -0.43017548 -0.41674218 -0.5183178 -0.5560425
-0.580479 -0.61627585 -0.09094795 -0.5978821 0.028425297 -0.12970446 -0.036655772 0.15825957
-0.09994163 -0.07287424 0.12575357 -0.026015807 -0.26527786 -0.094892055 -0.39515194 -0.32385674
-0.67893404 -0.21951093 -0.015582691 -0.8906221 -0.17235087 0.030589972 0.093583465 -0.40809458
0.07723754 0.053505514 0.0824664 -0.7176558 -0.20511264 0.0489759 -0.12311352 -0.18765216
-1.0046171 -0.12917028 0.05541453 -0.50251234 0.0059211543 0.103592396 -0.15161347 -0.14691703
00000000: 5b74 67be 7a5e c9bd be71 aa38 6c51 87bd
00000010: 2a9b b0be 4724 5c3d d50c f9be b19e a8bd
00000020: 5b2c fdbe 6807 62bd 6060 b0bd e69a 83bf
00000030: a2f1 96be e26a 993e fc8d efbd 657b 97be
00000040: d1e1 9abd b552 90bd 6c9b f43d dc6f 2bbf
00000050: 2db0 a9be b443 373c e8cc 90be 66a5 93be
00000060: ec10 80bf 351e afbe b440 acbd 69b1 59bf
00000070: b98f f13c 5d93 fabc f212 4c3d b469 503c
00000080: 87c3 89be cc11 f8be 7a05 da3d a682 333e
00000090: fc2e 90be bbb8 4d3d efa5 8fbe dc14 26be
000000a0: ed1b 0fbf 7783 92be 2bf2 8bbd 3d6c 0abf
000000b0: 1597 6fbe f149 54bd 2f58 33bd ca82 06bf
000000c0: e501 05be be80 153e 2028 c2bd c142 ccbe
000000d0: ef17 0ebf 6f6f d5be aa23 a43d 8284 0abe
000000e0: 0ceb 3abf 9f3e 5cbe 9cda 923d 6d38 05bf
000000f0: 4888 1bbe 54ce 18be 83f5 f23c 22eb 13bc
00000100: 17e2 6bbe 87df ecbd f7bd 83bd 6e42 9c3d
00000110: bad5 d9be 787a cabd 8ee7 99be 248e 86be
00000120: eb84 23bf d51f 36be 6a1b 903d 9bd3 56bf
00000130: d340 c0bd b786 133e 687e fabd 29b6 8cbe
00000140: 26a1 eabc e91e d1bd e02e a5bd 07dd 19bf
00000150: e4cd b2be 1e72 3dbe dc8b a3be ea6f 3fbc
00000160: f109 3fbf 0bad 713b 9ce0 653d f0ab 3cbf
00000170: d3f7 29be 48be 4abe dfc6 51be e363 30be
00000180: 63e7 20be 5c03 68be cf2e 9fbd 8126 3cbe
00000190: 5c00 60be abe3 a9bc c39e a6be 0c88 abbe
000001a0: bb99 25bf 7758 31be 3cc2 dabd dc81 1dbf
000001b0: cdd2 7dbe 8a0e 07be 9f36 4f3e 992c 04bf
000001c0: 56d2 073d 912a cbbd 1d5f 10bd a8f6 f7be
000001d0: 4332 b5be c734 7fbe a3e1 79be 2091 4bbe
000001e0: e517 00bf 823a 63be 749c 76bd 96ff dcbe
000001f0: 638c bcbd 52b3 f43c 6b93 763c f5ea ae3d
00000200: 3f39 0dbe 6362 03be 61a9 183d de90 e2bd
00000210: eacd bcbe b34a 203d 7f95 9cbe 9c65 1dbe
00000220: 219d eabe 6a20 b5bc 0238 3a3e bdd5 2dbf
00000230: 6211 a9be 1036 2b3d 39b7 b5bb 19c9 d5be
00000240: 4a2f 3e3d 633c 223e 3ab4 623c 313f 90be
00000250: a5ed 97be 08ed 7ebe 9ba5 dfbe 3bcf 9cbe
00000260: 8206 37bf b0c0 3cbe a1a1 c4bd 1f4a 23bf
00000270: aaad e5bd 4c5d 00be a695 90bc f7f9 4d3d
00000280: cecf 07bf 266e c2be 0c0c 333d ac0a 60be
00000290: a2c1 44bf 406e 25be 970b 9dbe b687 5bbe
000002a0: 8bb7 01bf 6c73 3cbe b8e5 d6bd 80ae 56bf
000002b0: 016e b3be aa09 d5bd dd0c b5bd 84e9 26bf
000002c0: 25af 0ebe 5ba4 9f3d 7557 b03d dfa2 cdbe
000002d0: ea76 2abe 8787 90be 4b53 6dbd 0496 50be
000002e0: 45d3 27bf 9cec dbbe 6237 9f3d 8fff e9be
000002f0: 7eec b03d 8af4 31be e44d 62bd efbd 2bbe
00000300: 9205 d4be 4082 89be 1c45 58be b3fa d73b
00000310: 4d60 12bf 0cb9 4f3d f1cc f0be 6d2a 98be
00000320: 941b 18be 4c8c fcbe fce4 fb3d 58e1 16bf
00000330: fd5c 11bf fa8d 723c 2d6e 603d 41e9 bfbe
00000340: 12f7 11bd af3c 183e f644 753d 6fe0 05bf
00000350: f63f dcbe 3b5f d5be 7ab0 04bf cd58 0ebf
00000360: 469a 14bf 41c4 1dbf eb42 babd cd0e 19bf
00000370: 2bdc e83c 3fd1 04be 5d24 16bd cc0e 223e
00000380: 33ae ccbd 173f 95bd 8bc5 003e 1a1f d5bc
00000390: 80d2 87be c456 c2bd 5b51 cabe 8dd0 a5be
000003a0: 9fce 2dbf 79c7 60be 8b4e 7fbc cfff 63bf
000003b0: bf7c 30be d297 fa3c b0a8 bf3d c6f1 d0be
000003c0: b72e 9e3d 9928 5b3d 25e4 a83d 4ab8 37bf
000003d0: 0c09 52be f49a 483d f122 fcbd e327 40be
000003e0: 4b97 80bf 3745 04be 59fa 623d a6a4 00bf
000003f0: 3e06 c23b 4028 d43d 9040 1bbe 6b71 16be

fc_var.bias f4 [32]
-0.08374491 -0.40465528 -0.29971904 -0.27515346 -0.3005578 -0.4983754 -0.27424404 -0.078825206
-0.13919121 -0.17774816 -0.3731988 -0.10845596 -0.25032517 -0.08983405 -0.040393207 -0.18297322
-0.23961534 -0.106310435 -0.3693066 -0.1719328 -0.27463576 -0.012868094 -0.15387394 -0.3377366
-0.0520814 -0.239078 -0.26199666 -0.33900517 -0.111028485 -0.4123288 -0.18879697 -0.047098193
00000000: 7482 abbd fa2e cfbe c674 99be eae0 8cbe
00000010: b6e2 99be 0f2b ffbe b769 8cbe 1c6f a1bd
00000020: 2488 0ebe 9d03 36be ea13 bfbe 291e debd
00000030: 9f2a 80be eafa b7bd 5973 25bd 555d 3bbe
00000040: b95d 75be 49b9 d9bd c115 bdbe 270f 30be
00000050: 0f9d 8cbe b3d4 52bc 2191 1dbe d0eb acbe
00000060: 4e53 55bd ddd0 74be 6d24 86be 1692 adbe
00000070: e762 e3bd c31c d3be fe53 41be 09ea 40bd

convt1.weight f4 [32, 16, 13]
0.20563264 0.29544973 -0.037241574 0.33843526 0.40005338 0.28656593 0.09358633 0.17907345
-0.2866323 -0.004924987 0.37940556 0.38498494 0.16002227 0.39444238 0.38609087 0.23951413
0.27915427 0.28991917 0.112478174 0.32523885 0.07938306 -0.075310156 0.23167804 0.350007
0.11573652 -0.07127854 0.45730942 -0.07351816 0.061258815 0.01678193 -0.16054507 0.20920846
0.017235586 0.083345786 0.05429709 -0.13735192 -0.081099056 0.16218287 0.588763 0.18504731
-0.02393338 0.60085756 0.480237 0.3359058 0.28775144 0.33508956 0.05606271 -0.055798844
0.3361234 0.2986244 -0.0024722961 0.1276047 0.13885584 -0.0083750505 -0.19346021 -0.1314678
0.09831861 -0.14660348 -0.013081358 -0.48951614 -0.0023978108 -0.056234885 0.23102714 -0.1932794
0.30937222 0.4214432 0.6334695 0.23661494 0.66868883 0.6464139 0.6427493 -0.018476048
0.3206685 0.4102899 0.29696152 -0.24827513 0.27662775 0.092691906 0.5586364 0.3876014
0.07732431 -0.10301814 0.2310366 0.34640267 -0.13152051 -0.014614313 -0.11810634 -0.104911335
0.22674125 0.20379229 -0.10677562 0.3519729 -0.12673116 -0.009059292 0.03197975 -0.18726946
-0.113725126 -0.080591366 -0.1542557 -0.17617287 -0.1186839 -0.10324625 0.36043075 0.26851058
0.033139348 0.44134322 -0.123508826 -0.0904877 0.38613024 -0.056778565 0.097037114 -0.3755742
-0.049121305 -0.12433567 -0.079035275 -0.018793724 0.19508205 0.19018969 -0.1410706 0.14964066
0.06896841 0.016801639 -0.21099351 0.23756403 -0.14471525 0.14030409 0.1318157 -0.051195007
0.08213962 -0.2995794 0.12362789 -0.12547012 0.0015693806 -0.074408874 0.043226063 -0.065804705
0.18822125 -0.10597611 -0.06954826 -0.17750143 0.041056924 -0.02401792 -0.76942164 0.38649556
0.016183358 -0.09373643 0.07372928 -0.43363178 0.23101246 -0.01131357 -0.06774005 -0.12961838
0.29321763 -0.10138046 -0.31126612 0.05100935 0.3294874 0.51094264 0.58028716 0.390687
0.6133954 0.3349797 0.62992054 0.3139926 0.31360343 0.1735358 0.25400424 0.14673916
0.32160294 0.04265768 -0.1121453 -0.063544795 0.3028666 0.026752466 0.10367541 0.094706215
-0.086421356 -0.21604067 0.18438078 -0.113162056 0.16777506 -0.18193127 -0.07901723 -0.26422194
-0.02898217 -0.29106364 -0.08354587 0.098795824 -0.121933825 -0.11059992 -0.07464269 -0.29162496
-0.007374975 0.14853746 0.10569374 -0.053242728 -0.09661005 0.054887045 0.11169198 -0.08682086
-0.09757213 0.2078482 -0.5929378 -0.070020184 -0.19543824 -0.20186292 -0.19924405 -0.1077146
0.07500322 0.57391477 -0.017240465 -0.04275895 -0.12542261 0.46632665 0.2037727 -0.022767697
-0.63641024 -0.31762177 0.013316559 0.20126675 0.30324242 0.88654137 0.22318447 -0.21094993
-0.16780642 0.47475782 0.07603861 0.22458819 -0.802951 -0.17027378 0.5620911 -0.33326676
-0.18352395 -0.007985218 0.16696817 0.24523212 0.38790494 -0.16774634 -0.10306477 0.059925526
0.4328839 0.19937733 -0.09132288 -0.25969407 0.34538144 0.12866448 -0.20157279 -0.0193348
-0.2197999 -0.037587613 -0.31627977 0.14089094 0.13462268 -0.14502762 -0.36420715 0.0058805505
00000000: 5d91 523e 3045 973e 9f8a 18bd 6347 ad3e
00000010: ccd3 cc3e c5b8 923e 31aa bf3d 085f 373e
00000020: 78c1 92be c961 a1bb 7241 c23e bf1c c53e
00000030: e1dc 233e 5af4 c93e b4ad c53e 3143 753e
00000040: 4fed 8e3e 4970 943e f55a e63d b585 a63e
00000050: 9693 a23d 363c 9abd 023d 6d3e 1e34 b33e
00000060: 4507 ed3d 7cfa 91bd 7624 ea3e b090 96bd
00000070: 86ea 7a3d 427a 893c ed65 24be be3a 563e
00000080: a531 8d3c 32b1 aa3d a066 5e3d fba5 0cbe
00000090: 4317 a6bd 4413 263e 2cb9 163f 0b7d 3d3e
000000a0: f00f c4bc cdd1 193f a0e1 f53e d8fb ab3e
000000b0: 2854 933e dc90 ab3e 03a2 653d 548d 64bd
000000c0: 5e18 ac3e 4ce5 983e 3f06 22bb ceaa 023e
000000d0: 3a30 0e3e 8237 09bc 6f1a 46be 7f9f 06be
000000e0: 445b c93d 391f 16be 3153 56bc dca1 fabe
000000f0: 9724 1dbb 8d56 66bd 6192 6c3e 09eb 45be
00000100: 0966 9e3e 67c7 d73e 0f2b 223f 304b 723e
00000110: 312f 2b3f 627b 253f 388b 243f 155b 97bc
00000120: a92e a43e 8511 d23e 570b 983e d63b 7ebe
00000130: 27a2 8d3e 41d5 bd3d cc02 0f3f b173 c63e
00000140: 355c 9e3d 2dfb d2bd dc94 6c3e b15b b13e
00000150: 50ad 06be df70 6fbc bde1 f1bd c1db d6bd
00000160: dc2e 683e edae 503e 2dad dabd cb35 b43e
00000170: d0c5 01be 6d6d 14bc 33fd 023d 91c3 3fbe
00000180: b8e8 e8bd 160d a5bd 35f5 1dbe a966 34be
00000190: 8b10 f3bd c572 d3bd 618a b83e 387a 893e
000001a0: 20bd 073d bdf7 e13e 32f2 fcbd 9e51 b9bd
000001b0: ddb2 c53e a490 68bd 65bb c63d 434b c0be
000001c0: 6c33 49bd b3a3 febd 3fdd a1bd 4cf5 99bc
000001d0: 97c3 473e 16c1 423e d074 10be 673b 193e
000001e0: 4f3f 8d3d 97a3 893c af0e 58be fc43 733e
000001f0: 3c30 14be e0ab 0f3e b2fa 063e dbb1 51bd
00000200: d138 a83d 7962 99be 9f30 fd3d 3d7b 00be
00000210: adb3 cd3a ae63 98bd d00d 313d 9ec4 86bd
00000220: 12bd 403e 010a d9bd 516f 8ebd efc2 35be
00000230: 4e2b 283d 3bc1 c4bc d1f8 44bf bfe2 c53e
00000240: f692 843c e3f8 bfbd 60ff 963d fc04 debe
00000250: 888e 6c3e 8d5c 39bc 4cbb 8abd aeba 04be
00000260: 9f20 963e 8fa0 cfbd 465e 9fbe 2eef 503d
00000270: 93b2 a83e 23cd 023f b38d 143f 2008 c83e
00000280: 7b07 1d3f 7682 ab3e 7942 213f a3c3 a03e
00000290: a190 a03e 5eb3 313e d80c 823e ca42 163e
000002a0: 24a9 a43e d2b9 2e3d 6fac e5bd c623 82bd
000002b0: 5511 9b3e fd27 db3c c653 d43d 55f5 c13d
000002c0: aefd b0bd c439 5dbe 51ce 3c3e 82c1 e7bd
000002d0: 3acd 2b3e 314c 3abe c9d3 a1bd 1948 87be
000002e0: 046c edbc 4b06 95be 191a abbd 7755 ca3d
000002f0: 71b8 f9bd 3682 e2bd 44de 98bd de4f 95be
00000300: c6a9 f1bb 341a 183e f675 d83d 0c15 5abd
00000310: 7ddb c5bd 3dd1 603d c4be e43d 23cf b1bd
00000320: e6d3 c7bd 29d6 543e c6ca 17bf be66 8fbd
00000330: f620 48be 27b5 4ebe a206 4cbe 7999 dcbd
00000340: 4a9b 993d 14ec 123f e03b 8dbc 0224 2fbd
00000350: c96e 00be 5ec2 ee3e caa9 503e 5283 babc
00000360: c8eb 22bf 529f a2be b22d 5a3c df18 4e3e
00000370: 9742 9b3e 60f4 623f 788a 643e 4203 58be
00000380: 72d5 2bbe 7513 f33e 21ba 9b3d 72fa 653e
00000390: 328e 4dbf 405c 2ebe 34e5 0f3f f1a1 aabe
000003a0: b4ed 3bbe 6fd4 02bc b4f9 2a3e 211e 7b3e
000003b0: 7a9b c63e b2c5 2bbe 9f13 d3bd 7874 753d
000003c0: f5a2 dd3e 9229 4c3e 7d07 bbbd 9ff6 84be
000003d0: d6d5 b03e 9fc0 033e 1969 4ebe 0464 9ebc
000003e0: 3a13 61be 78f5 19bd 6cef a1be b745 103e
000003f0: 87da 093e 1f82 14be 5c79 babe a2b1 c03b

convt1.bias f4 [16]
-0.08738494 -0.31399336 -0.06808164 1.8780681 1.2184504 1.1639602 0.3804805 0.1440277
-0.36338878 0.8698134 0.8841441 0.14583547 0.40853718 0.046322856 0.15561171 -0.7795603
00000000: e0f6 b2bd bdc3 a0be 636e 8bbd 8964 f03f
00000010: 2ff6 9b3f a6fc 943f 57ce c23e ff7b 133e
00000020: 180e babe 17ac 5e3f 4557 623f e555 153e
00000030: c92b d13e 09bd 3d3d ad58 1f3e 4491 47bf

convt2.weight f4 [16, 8, 13]
-0.109436065 0.10414174 -0.006696779 -0.62713 -1.0480392 -0.7051064 0.009621879 0.73499113
-0.16815554 -0.10447399 -0.05557004 -0.30648306 0.35914847 -0.07241329 0.35883036 -0.6564888
-0.44952077 -0.40925044 -0.92927414 -0.82707125 0.04543675 0.20273265 -0.49637374 -2.2444794
0.101291776 -0.1278573 0.107591644 0.14722613 0.5408015 0.014154043 -0.70663255 -0.53646755
-0.7396255 0.069393605 0.39972758 0.38172948 0.5810067 0.31774756 0.3242307 -0.18845412
0.07491978 -0.48234874 0.006252277 -1.617146 -0.06512968 -0.32167867 0.70734566 0.42708665
-0.47921008 0.42654797 -0.20353024 0.32825518 -0.1630325 -0.008411313 -0.16018555 -0.68253815
-0.11976114 -0.053406596 -0.034573536 0.17027238 -0.17637372 -0.06780341 -0.42643872 -0.21811637
-0.16469714 -0.05626499 -0.50295246 -0.3576414 -0.68390906 -0.20454112 -0.42631552 -0.6308592
-0.2368504 0.5971285 0.0809607 0.27334574 -0.001275861 0.16459021 0.06998011 0.08166508
0.15972428 0.33545154 0.3381594 -0.05385465 0.16713339 0.21593289 0.115846306 0.21182445
0.16180936 -0.057248287 -0.11333116 -0.37164772 -0.09484409 0.015558957 -0.108449824 -0.17311026
-0.292303 -0.043203846 -0.11543379 -0.059013642 -0.18312146 -0.1496218 -0.06396498 -0.10668078
-0.044860713 -0.093385026 0.012312537 0.32213676 -0.510077 0.011991936 -0.07114186 -1.0602247
-0.408377 0.18288969 -0.117209606 0.4345142 -0.57538795 0.4352541 0.04697736 0.09542624
-0.8375599 -0.81451255 0.90038234 0.120941676 -0.22213627 0.26653343 -0.33215326 -2.1755888
0.14499836 0.40981373 -0.22446458 0.16704763 0.27201018 0.44278142 0.55558485 0.693938
0.36359888 -0.4953574 -1.3077861 -1.6939195 -0.14689353 -0.2560754 0.15293092 -0.0800214
0.24206968 -0.13151619 0.4365671 -0.4448172 0.14950089 0.0640493 -1.3241607 -0.23916835
0.48732218 -0.40749297 -0.2852894 0.09440428 -0.10222545 -0.22796331 -0.081644766 -0.014925201
-0.11860924 -0.12472164 -0.120127626 0.26952544 -0.1574886 -0.12507354 -0.011201638 -0.17881332
-0.18012345 -0.06025492 -0.123917 0.45911893 -0.13389921 -0.24582204 0.4384622 -0.37852666
0.091965385 0.90458345 -0.34113646 -0.045843437 0.36783713 -0.36722773 0.037886277 0.08814533
-0.089730725 0.15729816 0.077755824 0.05080209 0.25978428 -0.008731995 0.13261916 0.26170814
0.21832706 0.31325552 0.15886942 -0.0414642 -0.18726532 -0.08957108 -0.062629156 -0.41153932
-0.11777896 -0.102395445 -0.008626982 -0.1745774 -0.16815226 -0.0008340346 -0.06906985 -0.19939551
0.5367206 0.21494368 -0.08174115 0.51101226 0.054518174 0.7402456 -0.021951219 -0.106841914
0.7395325 0.31843737 -0.07833706 -0.3729853 0.053683486 -0.14544049 -0.5762103 0.24469322
0.084147066 -0.17042775 0.05840086 -0.32626912 0.2479858 0.04464141 -0.626126 0.14854588
-0.20504707 -0.07720663 -0.56671536 -0.13477477 -0.7390929 0.072522186 0.008712584 0.4241161
0.26600075 0.39011362 -0.2548769 0.17503358 0.40248522 0.23245595 0.5753631 -0.80137265
-0.43322194 -0.3101503 -0.4856333 0.06628117 -0.029179195 0.29778892 -0.1487345 -0.22232199
00000000: 0420 e0bd 4448 d53d a770 dbbb 978b 20bf
00000010: 2626 86bf da81 34bf 16a5 1d3c 6128 3c3f
00000020: f730 2cbe 76f6 d5bd 699d 63bd 59eb 9cbe
00000030: 4fe2 b73e 6b4d 94bd 9db8 b73e a60f 28bf
00000040: 9627 e6be 4689 d1be e9e4 6dbf f1ba 53bf
00000050: e31b 3a3d 2699 4f3e b324 febe 8da5 0fc0
00000060: 1072 cf3d 06ed 02be 0259 dc3d 72c2 163e
00000070: f871 0a3f 5ce6 673c dfe5 34bf f055 09bf
00000080: 1958 3dbf 3c1e 8e3d 18a9 cc3e 0c72 c33e
00000090: dbbc 143f cfaf a23e 9101 a63e 1efa 40be
000000a0: 8b6f 993d 6af6 f6be e7df cc3b a4fe cebf
000000b0: b662 85bd 11b3 a4be 9b14 353f 1aab da3e
000000c0: 065b f5be 7f64 da3e 3b6a 50be 1011 a83e
000000d0: fef1 26be 9bcf 09bc ae07 24be d2ba 2ebf
000000e0: 5445 f5bd e0c0 5abd fb9c 0dbd e25b 2e3e
000000f0: 509b 34be 84dc 8abd 2d56 dabe e659 5fbe
00000100: 5ea6 28be 1e76 66bd 7ec1 00bf c61c b7be
00000110: aa14 2fbf 3a73 51be 0746 dabe fd7f 21bf
00000120: e988 72be 6add 183f b9ce a53d f9f3 8b3e
00000130: cb3a a7ba 568a 283e bb51 8f3d 0540 a73d
00000140: c38e 233e 4ec0 ab3e 3b23 ad3e b296 5cbd
00000150: 0425 2b3e 831d 5d3e d440 ed3d 82e8 583e
00000160: 5ab1 253e 2e7d 6abd 2b1a e8bd 9c48 bebe
00000170: 9e3d c2bd ffea 7e3c f11a debd d143 31be
00000180: bda8 95be 84f6 30bd 8d68 ecbd 4ab8 71bd
00000190: 3184 3bbe 7536 19be 1200 83bd 747b dabd
000001a0: debf 37bd a640 bfbd 86ba 493c 1cef a43e
000001b0: 6894 02bf d379 443c d3b2 91bd 71b5 87bf
000001c0: ca16 d1be 6f47 3b3e 970b f0bd a578 de3e
000001d0: a04c 13bf a0d9 de3e 556b 403d d56e c33d
000001e0: 536a 56bf e583 50bf 757f 663f 45b0 f73d
000001f0: b177 63be 1277 883e fe0f aabe d93c 0bc0
00000200: 737a 143e 1bd3 d13e 0bda 65be 890e 2b3e
00000210: eb44 8b3e 3fb4 e23e cf3a 0e3f eca5 313f
00000220: a229 ba3e 7c9f fdbe 8965 a7bf 5bd2 d8bf
00000230: 426b 16be 511c 83be ec99 1c3e 42e2 a3bd
00000240: 1de1 773e 2eac 06be b985 df3e 14bf e3be
00000250: c316 193e 482c 833d 197e a9bf 8ce8 74be
00000260: 4b82 f93e eba2 d0be 7411 92be 0857 c13d
00000270: 945b d1bd 376f 69be 5f35 a7bd d588 74bc
00000280: 67e9 f2bd 0f6e ffbd 7905 f6bd 3dff 893e
00000290: b144 21be 4713 00be 1387 37bc d71a 37be
000002a0: 4872 38be ddcd 76bd 32c8 fdbd a311 eb3e
000002b0: e01c 09be c6b8 7bbe 1e7e e03e 3fce c1be
000002c0: 5958 bc3d c892 673f 70a9 aebe 54c6 3bbd
000002d0: 2655 bc3e 4605 bcbe a42e 1b3d 8a85 b43d
000002e0: bec4 b7bd c512 213e 723e 9f3d da15 503d
000002f0: 7202 853e a410 0fbc 51cd 073e 9cfe 853e
00000300: 2191 5f3e 0763 a03e aaae 223e 5dd6 29bd
00000310: 7bc2 3fbe 0b71 b7bd b743 80bd 48b5 d2be
00000320: 1836 f1bd b4b4 d1bd 2f58 0dbc 6bc4 32be
00000330: 1b30 2cbe 1da3 5aba 7e74 8dbd 562e 4cbe
00000340: 8566 093f 321a 5c3e e767 a7bd b3d1 023f
00000350: 734e 5f3d bc80 3d3f 0bd3 b3bc efcf dabd
00000360: 0052 3d3f 390a a33e 2e6f a0bd eef7 bebe
00000370: 37e3 5b3d 5aee 14be 8582 13bf dc90 7a3e
00000380: 4c55 ac3d 9d84 2ebe bd35 6f3d bf0c a7be
00000390: fdef 7d3e e9d9 363d cb49 20bf 691c 183e
000003a0: dcf7 51be 821e 9ebd 4214 11bf 6602 0abe
000003b0: 3135 3dbf 8386 943d 3abf 0e3c bf25 d93e
000003c0: 4031 883e f9bc c73e 3a7f 82be 013c 333e
000003d0: 8b12 ce3e ef08 6e3e ff4a 133f c226 4dbf
000003e0: 44cf ddbe 05cc 9ebe eea4 f8be 6cbe 873d
000003f0: 3509 efbc ca77 983e db4d 18be 60a8 63be

convt2.bias f4 [8]
-0.6292367 1.2746949 -0.9277104 0.98315626 0.5361713 0.615132 0.9248887 -0.14750426
00000000: a815 21bf 3429 a33f 6e7e 6dbf 21b0 7b3f
00000010: 8642 093f 4a79 1d3f 81c5 6c3f 5b0b 17be
