rnns/trained_rnns/soutenance/GRU_seqin16_seqout3_1layer_45epochs_60000steps_MultiStep2_Soutenance_SCALE13E-1_batch128_Adam_lr5E-3VAL17.pt (torch, 450765 bytes, 10 tensors)

gru_in.weight_ih_l0 f4 [372, 35]
00000000: 85e7 153e 9e88 f1bd 797f ecbb 7dd3 bbbd
00000010: a9ba 4abe e3e7 663d 973c 053e a0d9 b63d
00000020: 428e cb3c 9a37 56bd eb23 f1bb 1ef7 c03d
00000030: a82d c23c 6c87 6dbc dd5b 2e3e 4a47 153d
00000040: 3056 ae3e 9b88 02bd 910e 8cbe 877e ab38
00000050: 7ae1 70bd dc09 8dbd 67f8 97be 4083 68be
00000060: 4a50 28be 74ae 913d 5dcb bcbd 2a0e 24be
00000070: 788e 973e 345b c4bd 7544 e7bc d895 1abd
00000080: 41b7 363e b989 ae3e 8b5c b7be cb89 90be
00000090: 44e8 c7be 8589 aabd 51e8 11bf f589 00be
000000a0: 827b 31be 4981 d03e b757 723e b075 d03e
000000b0: cb23 9ebd 298b 9c3e af28 7bbe 716d 703d
000000c0: 4aa6 9abd d2a8 e43d c806 d8bd bd97 743d
000000d0: 6362 dbbb 535e 313e b9f1 2e3e 04ca b03d
000000e0: d721 0cbe 362a 6c3c 95f3 113e fc56 febe
000000f0: 6864 823d 8377 b1be f866 8e3d 43c6 973e
00000100: f301 ba3e b139 96be 3fd8 4e3d 4945 da3e
00000110: 623b da3f b4b6 9bbe 58bf a43e 90d0 97be
00000120: 27d8 873e 6a6f 5ebe cb62 47be a16d 92bd
00000130: df4b cbbc d2e0 673e 360b 233e ade7 cabd
00000140: 0786 edbe 06da 1c3e b1f8 93be ef60 98be
00000150: 5276 f2bd 9d14 593c c3d4 1b3e 5560 a4be
00000160: 4ea0 d2bd 4c16 423e 3da0 d2be e5aa b53d
00000170: 42b0 c1bd 292a 96be f216 47bd b41e ba3e
00000180: 7d48 2bbe ec8d 2fbe 9aa3 d93d f131 90be
00000190: f257 b8be 4f74 a4bd 0f3b acbe 3a3d ad3f
000001a0: 18ae 813e dc82 90be b580 18be 5271 353d
000001b0: afc5 8bbd 04de 4bbe 0fa6 87bd 34d3 72be
000001c0: 9d01 d5bd 423c 2dbe a0d9 403e c766 463e
000001d0: 54fa 94bd db0c c8be b6d1 9d3e 6b82 9e3e
000001e0: bce7 313e c8a5 1e3c 135e d03e ca84 753d
000001f0: e219 723e 1e22 8bbe b682 1fbf d64c 7ebe
00000200: 27d5 b4bd 3be0 2ebf 42f8 06bf 4b1a 6d3d
00000210: 7ee7 4abe fb4f 5d3e 31c4 f13e e641 0a3e
00000220: 1f49 f7be 152f f93e 2443 c9be 3e42 49be
00000230: 6085 00bd 126e 06be c2fb b03e dc3e b53d
00000240: ab44 273c 20b1 da3c 53dd 07be bee6 35be
00000250: 7d4f e4be e1aa c83d 2377 f3be 2b8c da3c
00000260: 381c d53d be01 43bc 0089 153d 222f ccbd
00000270: f6bb 9f3d 6452 a23d a73d aabd 9050 d1bd
00000280: d588 133e 4a11 2bbe 7767 b43c edf7 1cbe
00000290: 4307 a0bd e6d4 aebe ed0f e53e d5c7 fcbe
000002a0: e38b 81be 6f6a efbe 8bbb 7e3e 4e59 e43d
000002b0: d37c 943e 1351 e4be 6dd2 5bbc b197 9cbd
000002c0: 911e 0cbe d5cf d5bc 1a10 b3be 751a 59be
000002d0: f3fb 163e af92 aabe 8bb6 31bd 960a 933e
000002e0: 35a7 9b3d 3f78 aabe 25af b23e 868a 2dbe
000002f0: 8469 26be 2031 d03e 6441 51bd 12ec 593e
00000300: 77aa 753e ad6f 84bd cdf4 0e3f 4878 f43d
00000310: 04d9 85bc 6782 b0be 4b94 31be 56c9 c1be
00000320: df43 0abe 0e4a aabe aad0 85be 14aa 233e
00000330: f387 bc3d 9902 46bc 14c5 87be 5ccf b33e
00000340: 0dd0 cd3f 0815 bc3d 151b c0be bd10 88bd
00000350: 3f8d db3d 35ba 4dbe a008 e63c f39c 42bf
00000360: 31ef 013b 5eae 873d 87fe 8dbd c44d bbbe
00000370: 52b1 9cbd ace4 743d 6dd4 b3be 8877 2f3e
00000380: 86a9 ed3d 86e8 ef3e 4329 e03d ec08 023e
00000390: a46a 0bbe 7dce f8be 768e ab3e 2c28 86be
000003a0: 8c6f bf3b cf42 b4bd 12b5 babd a1d7 103e
000003b0: 7ec5 0b3e c3f9 abbe 40fc 34be d7fe 193d
000003c0: 0b07 c7be 2823 0abe 8d78 3ebf a079 7dbf
000003d0: 2604 dabd 6401 9e3e eb6a a0bd b957 873e
000003e0: 92c5 a0ba c814 683c c650 03bd 5dce 4cbe
000003f0: da29 b6bb 49b5 e4bd 3f9b ce3d 4a4b 98be
0.14639099 -0.11793636 -0.0072173444 -0.091711976 -0.19797768 0.05637349 0.13011394 0.089282274
0.024848107 -0.05229912 -0.007359018 0.09422134 0.023703411 -0.014497619 0.1702723 0.03644494
0.3405013 -0.03186856 -0.27354863 8.177483e-05 -0.05880878 -0.06886646 -0.29681703 -0.22706318
-0.16436878 0.071133524 -0.09218476 -0.16021028 0.29600883 -0.09587708 -0.028230885 -0.03774056
0.17843343 0.3408945 -0.35812792 -0.28230128 -0.39044392 -0.08327011 -0.5699511 -0.12552626
-0.1733227 0.40723637 0.23666273 0.40714788 -0.07721671 0.3057492 -0.24527238 0.05869812
-0.07551248 0.111650124 -0.105481684 0.05971502 -0.006695078 0.17321138 0.17084397 0.086322814
-0.13684784 0.014414361 0.14253075 -0.4967574 0.06366807 -0.34661493 0.069532335 0.2964345
0.36329612 -0.2934089 0.050499197 0.42630985 1.7049372 -0.3041283 0.32177234 -0.29651308
0.265321 -0.21722189 -0.1947128 -0.07149816 -0.024816452 0.22644356 0.15922245 -0.0990747
-0.46391317 0.15317544 -0.28900674 -0.29761454 -0.11838974 0.0132495435 0.15217881 -0.32104746
-0.10284482 0.18953818 -0.41137877 0.08870486 -0.09457447 -0.2932904 -0.048605867 0.3635155
-0.16726871 -0.17143983 0.10626908 -0.28163102 -0.36004597 -0.080299966 -0.33638808 1.353431
0.25328135 -0.28224838 -0.14892848 0.044297524 -0.068248145 -0.19908911 -0.0662347 -0.2371338
-0.10400698 -0.16917518 0.18833017 0.19375144 -0.07274309 -0.39072308 0.3082406 0.30958876
0.17373556 0.00968308 0.40696773 0.05994109 0.23642686 -0.27174467 -0.62308824 -0.24833998
-0.08829718 -0.683109 -0.5272256 0.057886403 -0.1981487 0.21612541 0.47219995 0.13501701
-0.48297974 0.48668733 -0.39309037 -0.19654176 -0.031377196 -0.13127926 0.34567076 0.0884988
0.010209243 0.026695788 -0.13268022 -0.17763802 -0.44591895 0.097982176 -0.47551832 0.026678165
0.10405773 -0.011902271 0.036507607 -0.09969927 0.077995226 0.07925871 -0.083125405 -0.10220444
0.14407666 -0.16705814 0.022021992 -0.15328951 -0.07813885 -0.34146804 0.44738713 -0.4937121
-0.25302038 -0.4676089 0.2487623 0.11149846 0.29001483 -0.44593105 -0.013416869 -0.0764612
-0.13683535 -0.026100079 -0.34973222 -0.21201499 0.14744548 -0.33315036 -0.043386977 0.28719014
0.076002516 -0.33294865 0.3489925 -0.16947374 -0.16251189 0.4066248 -0.051087752 0.2128146
0.23990808 -0.06466613 0.55842286 0.11937004 -0.016338833 -0.3447449 -0.17341726 -0.3784892
-0.13502453 -0.33259624 -0.2613576 0.15982848 0.09205618 -0.01208558 -0.26517546 0.3511914
1.6079117 0.09183699 -0.37520662 -0.066438176 0.107203 -0.20090564 0.028080285 -0.76020736
0.0019826407 0.06625055 -0.06933313 -0.36582768 -0.07651009 0.05978839 -0.35123006 0.17135441
0.116046 0.4685709 0.1094537 0.12698716 -0.13614899 -0.48595038 0.33507127 -0.26202524
0.005842155 -0.08801805 -0.09116568 0.14144756 0.13649556 -0.3358899 -0.1767435 0.03759655
-0.3887256 -0.13489974 -0.74402696 -0.9901371 -0.106453225 0.30860436 -0.07832893 0.26434115
-0.0012265912 0.014165111 -0.032059453 -0.20000596 -0.0055591883 -0.1116739 0.100882046 -0.2974494

gru_in.weight_hh_l0 f4 [372, 124]
00000000: 9a00 1a3d a172 31bd 4581 203d ef07 3d3e
00000010: 2136 9fbd c9ba 133e 2463 0fbd b1e4 1d3e
00000020: aa5d 413e 3cb2 e3bd 32aa b83e 2a20 a7bd
00000030: f1c8 83be b1e1 51bb cc3f 5abe 7ec6 a6bc
00000040: 9b89 c6bc b65f 0b3e 4617 543e e4e9 073f
00000050: 06ee 80bc a424 33be fdce 6bbc 854b 143d
00000060: 64e1 373e 3328 853e fb0d 2f3e bc75 28be
00000070: b7bd 31be ce8d 41bd a3b6 843d 852e 2d3e
00000080: abca 70be 5e10 7ebe adb3 71be cf54 63be
00000090: 8b20 4c3e c531 953d 4d54 85be d45a 933e
000000a0: 3ba8 3a3e ed45 8bbe 24c8 8e3e 4909 cabd
000000b0: f1b8 bf3d 2ca1 1b3e ae3d 333d 41aa 80be
000000c0: 5aea cebd 3be4 81be 2e0f 2dbd add7 0ebe
000000d0: 7316 0a3e dd55 94be 6c81 8cbd 8754 713e
000000e0: d740 df3c 540a cbbc 4f4f a2be b010 453e
000000f0: 4b1c 92be 800a e1bd 92e9 b33e efe3 0e3e
00000100: e2a8 90be f9f2 bebe 5411 e4bd 5f4b 793e
00000110: 88f2 5ebe bf6b 9fbe 44cc 053e da72 edbe
00000120: 5d16 35be 89a0 3b3e c787 ba3d fa3b b9be
00000130: 55a9 debb 1bfe 9d3d 2224 febd 432e 813e
00000140: b4c7 253e f344 833d 62f5 74be 9813 51be
00000150: 0159 8e3e 7768 ea3d ccd3 d0bd 5c48 71be
00000160: 06db c33e 49da 3c3c ae6f 9f3e 2d57 bbbc
00000170: 7aef 1dbd c715 8d3b bbbe f43d 9b87 f73d
00000180: 863b e3bc 5597 663e eb29 273e 4f3c 6abe
00000190: 0ea6 a63e 960b 48bd e359 153d 256e 7b3e
000001a0: 2aa8 ad3d 2838 8fbe 5e48 6ebe b404 963e
000001b0: 1ffa 253e f757 a5be e28e 813e 56eb 143e
000001c0: e930 4dbe ad54 58bd 4fed 3bbd 5e58 83be
000001d0: 54da 9e3d f1e2 b9be 35c3 adbe ff6a d4bd
000001e0: d251 4b3a 001c a13d af09 853e 57ca abbd
000001f0: 0ab3 6f3e 3756 7bbe 2de7 cb3c 9dc1 963d
00000200: 440e 33bd 7984 f93d 81b7 713e b622 21be
00000210: 63fe 37bd 5c5e 4c3e 8f73 383e a552 abbd
00000220: e4ca 343e 1f68 d5bd 571f 23bd dffa 3dbe
00000230: 54c2 413e 3cc2 5a3d 4416 d63e 957e d1bd
00000240: 5b79 01be 2203 093f fa3a 883e 8c9b 033e
00000250: b447 d7bc 6eed 3a3e 56e2 6ebd a242 15be
00000260: bd9e 87be 562a cc3d 4579 783d 8e5f 5a3c
00000270: a9a9 95be f5e2 05be bc8a 53be 0720 b4bd
00000280: 673e 42bd 831a ddbd f887 f8bd 205e 8dbe
00000290: 2ecc ce3e 714c b7bd 0dd2 a13d 63ae 2b3d
000002a0: fb67 26bd eee2 7fbe 0d54 bbbe 2987 f93d
000002b0: 153e 5e3f f9ad ac3d 08b7 21be 5efc b7bc
000002c0: 17d7 edbe 32f8 34be 22cc 42be b8ba 003e
000002d0: c34a 76bd b850 143e c233 fcbe 74e2 dd3e
000002e0: 4a78 69bd 02a1 5b3e ea23 a33e 1840 6cbd
000002f0: 5597 543d 506f 3fbf 55d9 8a3e b87c 5d3d
00000300: 294d 3ebf 4f1a 74be d4ff 5bbd 4dc1 12be
00000310: a645 153b 7039 753e 9746 98be 6b48 8abd
00000320: 8a36 88bd aa18 b6bd 7b81 063d efa4 e23c
00000330: 23cb 92bd c2bc f23e 45ec 36be 05d1 0d3e
00000340: b505 573d 3985 0c3f dc78 76bd 1904 e6be
00000350: 228b 50be f1e7 80be 4def 3b3e 2f82 5abd
00000360: 4bf1 78bb fe63 2c3c 5ec4 443e 321a 113e
00000370: cb12 3b3d 31e5 a6bb 2fb5 41be a65c debd
00000380: a26d c13c 03f2 4a3e 2982 5d3c 6d83 e63e
00000390: 4a31 b33d f44f 5d3e 411f 873e a1f7 623e
000003a0: b161 a8be 5b6e 15be f407 a1bd ae9e bb3d
000003b0: 11c6 0cbe b1e1 1bbf bddf 31be d30e 8e3e
000003c0: f28c 05bc fd60 66be 6182 4ebd dac2 423e
000003d0: b368 c83e 8d0d 15be 2be0 563e 8c4e d2bd
000003e0: 8582 2a3e 839c 913e 4831 25be 803b 523e
000003f0: ee38 bb3e b2a4 bfbc 1db9 a9be d74a 9f3e
0.03759823 -0.04332221 0.03918578 0.18460058 -0.07773996 0.14426722 -0.035006657 0.1541927
0.18883386 -0.1111798 0.3606735 -0.08160432 -0.25739244 -0.0032025392 -0.21313399 -0.02035832
-0.024235537 0.1361073 0.20712003 0.53091264 -0.015738498 -0.17494446 -0.014392612 0.036204834
0.17957073 0.26007232 0.17095177 -0.16451162 -0.17357527 -0.047254376 0.06480148 0.16912277
-0.23514812 -0.24810931 -0.23603697 -0.2220032 0.19934289 0.072848834 -0.2604088 0.28780234
0.18228237 -0.27201787 0.2788707 -0.09865052 0.09361447 0.15198201 0.043759994 -0.25129893
-0.10103293 -0.2536944 -0.042250805 -0.13949461 0.13485126 -0.28971758 -0.06860623 0.23567401
0.027252598 -0.024785198 -0.31701133 0.19244647 -0.2853721 -0.10988331 0.35139138 0.13954137
-0.28253847 -0.37294748 -0.111361176 0.24345158 -0.21772206 -0.3113689 0.13066202 -0.46376687
-0.17684312 0.18322958 0.09107929 -0.3617857 -0.0067950883 0.077144824 -0.124092355 0.25230607
0.16189462 0.064096354 -0.23921731 -0.2041763 0.2780228 0.11445706 -0.10196647 -0.23562759
0.3825304 0.011526653 0.31139892 -0.022868717 -0.03855846 0.0043055746 0.119504414 0.120864116
-0.027738344 0.22518666 0.16324584 -0.22874568 0.32548565 -0.048839174 0.036462676 0.24553736
0.084793404 -0.2797253 -0.23269793 0.29300463 0.16208695 -0.32293674 0.25304323 0.14542899
-0.20038189 -0.052815128 -0.045880612 -0.25653356 0.077564865 -0.36305955 -0.33937994 -0.103719704
0.00077560276 0.07866669 0.2598395 -0.08388203 0.23408142 -0.24544607 0.024890507 0.073611476
-0.043714777 0.1218347 0.23605157 -0.15735897 -0.044920336 0.1995787 0.18012832 -0.083653726
0.17655522 -0.1042025 -0.03982481 -0.18552731 0.18921787 0.053407893 0.41813862 -0.10229222
-0.1264395 0.53520405 0.26607496 0.12852305 -0.026279308 0.18254635 -0.05832132 -0.145762
-0.26488295 0.099690124 0.060662527 0.013328446 -0.29231003 -0.13074858 -0.20658392 -0.08795171
-0.047422793 -0.10796072 -0.12135309 -0.27610874 0.40390152 -0.08950127 0.07901392 0.041914355
-0.040626507 -0.2498891 -0.36587563 0.12183983 0.8681348 0.0843162 -0.15792477 -0.022459205
-0.46453163 -0.17672804 -0.19023183 0.12571228 -0.060129892 0.14483917 -0.49258238 0.43336833
-0.056999482 0.21448138 0.31863338 -0.057678312 0.051902134 -0.74779224 0.27118936 0.05407402
-0.7433649 -0.23838161 -0.053710774 -0.14331551 0.002277711 0.23947692 -0.29741356 -0.06752094
-0.066510275 -0.08891423 0.032838326 0.027666537 -0.071676515 0.47409636 -0.17863567 0.13849266
0.052495677 0.5489078 -0.060173854 -0.44925 -0.20365575 -0.25176957 0.18353005 -0.05334681
-0.0037985619 0.010521887 0.19215533 0.14170149 0.04567222 -0.0050932397 -0.18916772 -0.10857515
0.023611847 0.19818883 0.013519802 0.45022145 0.087496355 0.21612531 0.26391032 0.22164775
-0.32887033 -0.14592879 -0.07862845 0.09161125 -0.13747431 -0.6089125 -0.17370506 0.27745685
-0.00815128 -0.22497936 -0.050417308 0.19019642 0.3914238 -0.1455595 0.20983951 -0.10268888
0.16651352 0.2843972 -0.1613208 0.2053051 0.3656687 -0.023393963 -0.33149043 0.31111786

gru_in.bias_ih_l0 f4 [372]
00000000: d093 76be 393e 2cbe f9ce 4cbe 438e 33be
00000010: 4c18 5abc a04a b1be 4c68 06be 049d 883e
00000020: 87c9 cabe 5377 98be ddd3 5cbd 13c9 31be
00000030: 1b76 7dbe 9bd8 93be 126b b1be c789 eebb
00000040: b179 cbbe 97fc 82be 8e7a 98be db43 913e
00000050: c1dc 07be f393 bfbe 1b6f 57bc 7cb9 adbe
00000060: 2867 6fbe 0639 693e 58ec 6bbc 9668 3fbe
00000070: 0a1c 14be 9c13 81be a883 0abe 9d7c 8b3d
00000080: d72e 22be d55d 41be 21e0 10be c406 9b3d
00000090: ca41 d7bd c257 86bd 1b8b 94be 18ff 33be
000000a0: 1df1 49bd db74 863e 1f78 b9bd 13d9 a8be
000000b0: 3fe6 8abe 679f 96be 7150 7ebe cef7 81be
000000c0: a108 9c3c eca3 d4bd ac0a c5bd 6625 abbd
000000d0: 8b7d 64be 2e2a 5c3d 6efd 76be 4e54 94be
000000e0: 79e1 f8bd 2c97 01be 06b0 e9bc 7eef 473d
000000f0: 8c62 7dbe 71c5 b8be 1375 9bbe 3663 8b3e
00000100: f033 4cbc 1263 b4be ecb8 9fbe aad8 b4bd
00000110: a21e a4bd 48cb 96be 729a b4be 6204 60bc
00000120: ab81 87be 5dd3 3e3b 8c3c 16be 3220 bcbd
00000130: 8b5e 50be a353 2d3e 301c 3abe eed1 c5bd
00000140: f25e 8ebe 3d0f f8bd da09 523d a5dc 49be
00000150: 856a 023e cacf 77bd 0ac0 6abd 83a7 29be
00000160: 7fef 7a3d 60d3 5abd ad2a 18be 3e42 f8bd
00000170: d12c 10be d622 73be a94e 52be 627d 38be
00000180: 3d8b 1cbe 5dd5 c1be 2549 aabd d287 ccbe
00000190: 1a2f 8cbe 1f0d 7ebe a549 1bbe fb21 a3be
000001a0: 453c 9fbe 636f 94be 33cd 86be f879 4cbc
000001b0: fa2a f1bd 914a 9fbd f26c 37be 67c7 71be
000001c0: 4698 0ebd 627a 53be f4a6 a1be d603 46bd
000001d0: bb8a 19be 6f13 c53b 639d 58be 44a9 64be
000001e0: 5ffa 7dbe 05a1 c7bd 074e 493e b145 7cbe
000001f0: 6de9 7abe ad7b 82be 4b67 e8bd fd89 97bc
00000200: fd40 1ebe 5ffe 89be f3bd d7ba 1f7a ee3b
00000210: 5283 cabe cd27 03be e1cb 7abe f72e 633c
00000220: 3a0d 92be b493 27bd d726 3abe 78e6 2dbe
00000230: f72a b13c ce87 56be 8b14 adbe 6a1f 56be
00000240: 6542 44be f721 6cbe e0e0 37ba ecdb 4ebe
00000250: d7aa afbc 07a3 783e b064 c0bd 9443 68be
00000260: 8b2c 8ebd 1e0e 73be 8c83 2cbd ebf0 19be
00000270: 8690 3abd fb77 8cbe 9676 9bbe ad35 34bd
00000280: e736 9ebe b19b 89bc 8fae 82be b4ad 89be
00000290: 6001 51be 4e51 babd e023 15be f916 8ebd
000002a0: 83da 0bbe a23f 63bd 2bb8 d5be 1f29 19be
000002b0: df4b e6bd 5bad 9cbe f76b 60be 382d 04bd
000002c0: c71a 7ebe ed07 39be 2806 55be 85aa a5be
000002d0: cba2 06be c0f1 7cbe 948e 6bbe eb7a 5cbe
000002e0: f1ad 4ebe ac45 83be 88b4 a3be 9c78 4ebe
000002f0: 4943 a2bd 77fc fcbd b2c2 74be f158 bbbe
00000300: 2acf 3bbe b38d 3ebe 54f8 a4be 4c39 89bb
00000310: 8bdd 88be 8a27 0fbe 5787 1dbe 5f98 9cbd
00000320: c493 b8be 2478 51be 58b1 01be 83e9 75be
00000330: 2da9 5dbe 3259 20be e74f 48be eb97 b4bd
00000340: 1e4b 8ebd 79e1 37bd 095f 54be 6b66 32be
00000350: 948e b4be 2cab bfbd 708a b0be 05ae a7bd
00000360: 141a 8bbe da22 b2be be1b 70bd c463 7fbe
00000370: b79f a4be 647d 9fbe c014 39be 59f9 8ebe
00000380: 93ab 55be 2c80 85be d7ec 6bbe b462 a8be
00000390: 573c 72be 9bd5 76be eb8a 82be 48f6 14bd
000003a0: d547 45bc df3b 9bbe f53b 93be 0c75 bdbe
000003b0: 5352 a2be 1cdc 41be 46bd 8ebe 6731 11be
000003c0: dcaa 8cbe 7f76 d8bd 137f 35be 039b 42be
000003d0: cab5 47be b435 6fbe a91f 7abe cde6 aebe
000003e0: 6290 293e 5615 773e a7bb 3e3e faa0 5dbe
000003f0: 636e 0f3d 7a16 643c a346 2cbe e65b 94be
-0.24079823 -0.16820611 -0.20000829 -0.17534737 -0.013311457 -0.34627247 -0.13125724 0.26682293
-0.39606878 -0.29778537 -0.053912986 -0.1736186 -0.24752085 -0.28876194 -0.34652 -0.007279608
-0.3974128 -0.25583336 -0.29781002 0.28372082 -0.13267805 -0.37417564 -0.013149048 -0.33930576
-0.23379195 0.22775659 -0.01439961 -0.1869224 -0.14463821 -0.25210273 -0.13526785 0.068108775
-0.1583818 -0.1888345 -0.14147998 0.0756965 -0.10510595 -0.06559707 -0.2901238 -0.1757778
-0.04930221 0.2626103 -0.090561144 -0.32978114 -0.2712879 -0.2941849 -0.24835373 -0.25384372
0.019047083 -0.10382828 -0.09621176 -0.083567426 -0.22313516 0.053751163 -0.24120113 -0.2897057
-0.121523805 -0.12655324 -0.028526317 0.048812382 -0.24744624 -0.36088136 -0.30362758 0.2722413
-0.012463555 -0.35231835 -0.31195772 -0.08830388 -0.08013655 -0.29451966 -0.35274082 -0.01367292
-0.26466116 0.0029117682 -0.14671534 -0.09185828 -0.20348565 0.16926436 -0.18174815 -0.096591815
-0.27806813 -0.121122815 0.051278926 -0.19713075 0.12735946 -0.060500897 -0.05731205 -0.16567807
0.061263558 -0.05342424 -0.1486003 -0.1212201 -0.14079596 -0.23743758 -0.20537819 -0.1801658
-0.1528749 -0.37858096 -0.083147325 -0.39947373 -0.27379686 -0.24809693 -0.15164812 -0.31861863
-0.3110067 -0.2899123 -0.2632843 -0.0124802515 -0.11775775 -0.07777894 -0.17912653 -0.23611222
-0.034813188 -0.20652154 -0.31572688 -0.048343502 -0.14994328 0.0060142796 -0.21153788 -0.22330195
-0.2480254 -0.09747509 0.19658671 -0.2463596 -0.24503107 -0.25484982 -0.113478266 -0.018498415
-0.15454479 -0.26951882 -0.0016459808 0.0072777416 -0.39553314 -0.12808152 -0.24491836 0.013866178
-0.28525716 -0.040912345 -0.18178879 -0.16982448 0.021626933 -0.20950243 -0.33804736 -0.20910421
-0.19165953 -0.23059832 -0.0007014405 -0.20201081 -0.021443767 0.2428094 -0.093942046 -0.22682029
-0.0694209 -0.23735854 -0.04211764 -0.15033309 -0.045547985 -0.27435288 -0.3036391 -0.0439965
-0.30901262 -0.016797872 -0.25523803 -0.26890337 -0.20410681 -0.09097539 -0.14564466 -0.069379754
-0.13657574 -0.055480607 -0.41742072 -0.14957093 -0.1124494 -0.3060101 -0.21916185 -0.032269686
-0.24814902 -0.1806943 -0.2080313 -0.3235666 -0.13148038 -0.24701595 -0.23003608 -0.21531264
-0.20183541 -0.25639093 -0.31973672 -0.20163196 -0.0792299 -0.12352841 -0.23902395 -0.36591294
-0.18340746 -0.18608741 -0.3222071 -0.0041877385 -0.26731524 -0.13979927 -0.1538366 -0.0764625
-0.36050236 -0.20455986 -0.12665308 -0.24014859 -0.21646567 -0.15659025 -0.1956173 -0.088180386
-0.06947921 -0.04489276 -0.20739378 -0.17421882 -0.35265028 -0.0935882 -0.3448062 -0.081874885
-0.27168334 -0.34792215 -0.058620207 -0.24940401 -0.32153103 -0.31150353 -0.18074322 -0.27924612
-0.20866232 -0.2607435 -0.23039566 -0.32887805 -0.2365583 -0.24104922 -0.2549661 -0.036367685
-0.012041052 -0.30319116 -0.2875668 -0.37003362 -0.31703433 -0.18931621 -0.2787878 -0.14179002
-0.27474105 -0.10569476 -0.17724256 -0.19004445 -0.19502941 -0.2336033 -0.2442614 -0.34160462
0.16558984 0.24129233 0.18626271 -0.21643439 0.035017382 0.013921374 -0.16823821 -0.28976363

gru_in.bias_hh_l0 f4 [372]
00000000: f8de b6be 311b 8fbd 1b75 8dbe 38c6 28be
00000010: 80f2 d1bd 5d13 64be e32a 18be 73ab 973e
00000020: 2c37 9dbe e0f8 78be ebfb a13b 25e0 85be
00000030: bad2 58be 6846 a7be dac6 8dbe 368b bdbc
00000040: d8a4 babe 352c b3be 37fa 52be bbd0 a93e
00000050: b786 8cbe 0957 a1be 3033 32be 1c4a 86be
00000060: 6ac1 54be 8b05 183e a64a 6f3d aa32 a9be
00000070: b1f2 4fbe 1cc4 c0be 2ecb 4dbe a597 90bb
00000080: 622e 30be 8c3d ebbd 8184 82be b351 eb3d
00000090: 916b 4dbe 5061 09be 33ec 41be 0089 5ebe
000000a0: 91f0 b13c 0f1f 763e 4d65 8fb9 4164 89be
000000b0: 768d 5fbe 4902 babe dab8 b7be d551 0ebe
000000c0: 1e35 833d 68de a7bc db58 a7bd e765 21be
000000d0: 73af ddbd e433 1bbc 5751 19be 863e 80be
000000e0: 0198 6bbd 7b1c 2bbe a5be 14bd 2060 223d
000000f0: a0e0 92be 68b4 81be 1774 b0be 773e 5f3e
00000100: f780 d33b 7f21 c3be cdea 82be 1966 bdbb
00000110: e16b 4abe bb1e 33be 593b adbe 82a8 f43c
00000120: 92b7 7cbe 4e5d 3fbb 9d1f d4bd f2d1 93bd
00000130: 2f5a 9ebe a860 4c3e 829d 7abe 2397 e6bd
00000140: 05d0 bcbe 4f0a 00be c89c cd3d e2f2 37be
00000150: f572 d33d 629a 19be b01f 39bd e089 84be
00000160: f2fc adbc dff2 e3bd 697a 23be e895 06be
00000170: 160a 3ebe c0a6 47be 7cde a5be b7cb 75be
00000180: 1d17 20be 964d a7be 0900 b7bd 718b 9cbe
00000190: a1bb f7bd 0feb 8dbe f79d 3fbe d456 a5be
000001a0: 58fd 8ebe 3516 8abe 7a60 a0be ffe2 543d
000001b0: 5ca9 8ebe c22e b1bd 6da8 33be 272a ffbd
000001c0: 33cb 013a a158 06be 7b03 8dbe 8ddc 9fbd
000001d0: 3bdd b8bd 0edc 813d 05d0 3dbe c34f 10be
000001e0: bd99 27be 324b 83bd df54 673e b3fe cdbe
000001f0: 970f 84be 66c7 b4be c7c1 44be f2d5 b43b
00000200: 424a 28be 3394 59be 6626 ddbc 3878 cf3a
00000210: dbc0 99be 4293 40be 8192 afbd f963 553d
00000220: 4cf3 62be 8f51 18be e9d5 bcbd 30b1 5fbd
00000230: 9806 38bd ba46 6cbd 3695 52be 0fbc 48be
00000240: 1e27 52be ff77 6ebe 5f29 8dbd e3a9 4dbe
00000250: 8b0e 28be 606d 5c3e ff29 65bd 6dba 9bbd
00000260: a359 913c a8ea 86be 7787 1fbe 152b 50be
00000270: 5ff8 1abb abf5 80be 5aca 48be 2f72 88bd
00000280: c81e 62be 0f69 a7bd 72c5 95be f26a 88be
00000290: dd03 11be e0c1 563c 6519 71be fb09 41be
000002a0: 7dc9 55be 4160 843d 8795 afbe 96c1 c1bd
000002b0: 85a1 fcbc 20db 9cbe ce4f f7bd 2b04 81bd
000002c0: 99e4 8ebe f76f 10be 0fd7 7ebe 5734 4abe
000002d0: 0069 3abe 224f 7fbe 6611 7ebe 1d39 86be
000002e0: 7dc1 8abe fc2d 72be 9b29 9bbe add0 60bd
000002f0: 5be0 16be 7351 4dbe 448d 9abe c086 77be
00000300: 68fb 4fbe 95ac 30be cac3 3abe 780c 50bd
00000310: 66aa 9fbe 6c9f 09be 52d5 47be 27cc 8bbd
00000320: 546f a2be 7f5d 68be b365 62be 4733 49be
00000330: 9ef3 8abe 30a2 7fbe 3870 37be e5fb 84be
00000340: 1efc d93b ab06 8abd 5a86 2cbe 2f24 8dbe
00000350: fb40 c3be 1863 86be 19c0 54be 2fe0 4fbd
00000360: 7aff 99be 6214 a5be a54d 43be 2b63 92be
00000370: 2372 babe 34b4 a1be a272 5bbe 9f32 76be
00000380: 7392 1abe 8225 4dbe 4888 56be fc77 c4be
00000390: 7731 58be a0aa 6cbe 3c80 21be 81a3 95bb
000003a0: 7e3f ecbd f073 2bbe b6f5 85be 49ae b3be
000003b0: c941 97be 6035 bdbd 4efe b6be ed4a f7bd
000003c0: 8cf9 a4be 0976 45be 813e dfbd 23bd 46be
000003d0: bb6a 2ebe 864d 22be d907 88be 742d c1be
000003e0: 17c7 5cbd ad1b c13d a3c4 3b3c 6c09 eabd
000003f0: 5b42 4cbe 0e46 f0bd 6f5f a93c dd3b 59be
-0.35716987 -0.06987608 -0.27628407 -0.16481864 -0.10251331 -0.22273012 -0.1486011 0.29622993
-0.30706155 -0.24313688 0.004943361 -0.2614757 -0.21174136 -0.32670903 -0.27690774 -0.02313767
-0.3645389 -0.34994665 -0.20603262 0.3316706 -0.2744653 -0.31511715 -0.17402339 -0.26228416
-0.20776907 0.14845864 0.0584208 -0.33046466 -0.20307423 -0.3764962 -0.20097038 -0.0044126087
-0.17205194 -0.114863485 -0.25491717 0.11490192 -0.20060565 -0.13416028 -0.18937759 -0.21731949
0.021721156 0.24035285 -0.0002735056 -0.268343 -0.21831307 -0.36329868 -0.35883218 -0.13898404
0.06406616 -0.020491794 -0.08171245 -0.15761529 -0.1082448 -0.009472821 -0.14972435 -0.25047702
-0.05751801 -0.16710083 -0.036314625 0.039642453 -0.28687 -0.25332952 -0.3446357 0.21801172
0.006454583 -0.38111493 -0.25569764 -0.0057799933 -0.19767715 -0.17492191 -0.3383434 0.029865507
-0.24679402 -0.00291999 -0.10357592 -0.07217778 -0.3092818 0.19958746 -0.24474147 -0.11259296
-0.36877456 -0.12503932 0.10039669 -0.17963746 0.10324661 -0.15000299 -0.045196235 -0.2588644
-0.021238778 -0.11130308 -0.15964665 -0.13143122 -0.18558535 -0.19497204 -0.32396305 -0.24003492
-0.15633817 -0.3267638 -0.089355536 -0.30575135 -0.12096334 -0.27718398 -0.18712603 -0.32292807
-0.2792766 -0.26970068 -0.31323606 0.051974293 -0.27863586 -0.086514965 -0.17544718 -0.12459212
0.00049512385 -0.13119747 -0.27541718 -0.078057386 -0.09026571 0.063408 -0.18536384 -0.14092927
-0.1636724 -0.06410827 0.2259097 -0.40233383 -0.25793144 -0.3530838 -0.19214545 0.0055186683
-0.16434577 -0.2124794 -0.026995849 0.0015828675 -0.3002995 -0.18806174 -0.08572865 0.052097294
-0.22163123 -0.14874862 -0.092204876 -0.05461234 -0.044928163 -0.057684638 -0.20564732 -0.19602989
-0.20522735 -0.23287962 -0.068926565 -0.20084338 -0.16411798 0.21526098 -0.055948254 -0.07603917
0.017742937 -0.26350904 -0.1557902 -0.20328934 -0.0023646576 -0.2518743 -0.19608441 -0.06662404
-0.22082055 -0.08174335 -0.292522 -0.26644093 -0.1416163 0.013107747 -0.23544843 -0.18851463
-0.20877643 0.064636715 -0.34293768 -0.09460752 -0.030838737 -0.3063593 -0.120757684 -0.06299623
-0.2790878 -0.14105211 -0.24886726 -0.19746529 -0.18204117 -0.2493253 -0.24811324 -0.2621545
-0.27100745 -0.23650354 -0.3030518 -0.05488651 -0.14734022 -0.20050602 -0.30185902 -0.24172497
-0.20310748 -0.17253335 -0.1823875 -0.05079314 -0.3118469 -0.13439721 -0.19514969 -0.06826048
-0.31725562 -0.22691916 -0.22109108 -0.19648467 -0.2713899 -0.24964213 -0.17913902 -0.2597343
0.006652369 -0.06739553 -0.16848126 -0.27566668 -0.38135514 -0.26247478 -0.20776404 -0.050750908
-0.30077726 -0.32242113 -0.19072588 -0.28591284 -0.36415204 -0.31582797 -0.21430448 -0.24042748
-0.15094928 -0.2003384 -0.20950425 -0.3837279 -0.2111262 -0.23111963 -0.15771574 -0.0045666103
-0.11535548 -0.16743445 -0.26164025 -0.35093907 -0.29542378 -0.09238696 -0.35740894 -0.12074838
-0.3222164 -0.19283308 -0.109005935 -0.19408087 -0.17032902 -0.15849885 -0.26568487 -0.3772999
-0.053900804 0.09429107 0.011460456 -0.11427578 -0.19947188 -0.11732112 0.02067539 -0.21214242

gru_out.weight_ih_l0 f4 [372, 3]
00000000: f36d 153e 7381 ecbe 8cf9 263c 517d 39bd
00000010: 9bcd fabd 96dc 2abe c352 1e3e e66a e03e
00000020: ad36 213d e312 0abd f98a 9fbe 3329 833d
00000030: 7118 05be 0f87 3fbd cc5c 893e 0919 f83c
00000040: e8a9 b3bc e551 8c3c 6fff 32bb 5101 6abf
00000050: 86a2 853e 240f 1b3e 7b6a 85bd 2d80 bc3b
00000060: 8638 9d3c dd3c fbbd 383f dcbb 248a 88bc
00000070: d88a 083d d557 7bbc fc66 9b3d 0cfc 9d3f
00000080: 4193 1dbe 96ee b2bc 03a9 313e 77d1 563b
00000090: 2402 e53c 0c49 203e 1f80 58bd 533b 02be
000000a0: 1f4e f03e adf2 a0bb 3176 1dbd 66db 46be
000000b0: 0e26 e53d 8723 d43e f0a3 e33e 6e3f df3e
000000c0: 8530 39bd a6f2 353e d4d0 333d cebf 0a3c
000000d0: 77a7 90bd 8f4d 143c 7701 d9bd 0d8c e0be
000000e0: ee88 d6bd 5848 2e3e 47ac 913f 2d34 6e3c
000000f0: 2aab febc 18f2 073e fdf4 23bd 80f8 513d
00000100: 7f04 c5be 0f98 473d 7bdd 933e ba64 35bc
00000110: 2a86 f13c 4013 8b3c 3016 a83d 254e 8bbc
00000120: 3584 34bc 8f14 34be bc6e 2e3d c3b0 453e
00000130: 0f92 ea3e 4259 12bd f80e f2be 6c54 fdbe
00000140: 7d12 08bf 21f0 8bbc 2e99 2240 9c3f 0d3d
00000150: 89c1 24bd 23db cf3d 1439 3f3b 5bcd 8b3d
00000160: 366e ebbe 7d72 5cbe 0b6e b3bd 5c13 5e3c
00000170: b743 b03d 1e1d f5bc 1947 473e c5f2 153c
00000180: c7ef 943e 55a8 733f 193c 4cbe 217d 85bc
00000190: 414f 7d3e 440c 2cbc 2af6 c13d 6f01 1ebe
000001a0: e74a 9cbc e08c 93bd 5429 0bbe aeff 5e3d
000001b0: 67be b63e 57ff a8be e0b8 bb3c 4cd3 d0bd
000001c0: 05a5 8540 3172 aa3c 26a6 363d fd3d d9bd
000001d0: 718c 333c aef1 ae3e 8a3b 593f 58fa 80be
000001e0: 372d a5bd f22b 663d 53e5 04bc c717 6ebd
000001f0: ff52 663e 2527 283b a75f 13bf 70a5 213f
00000200: f5d6 febc 737b f2be 487e 75bf 8cef 0fbf
00000210: 254a 3d3c 6bc4 233e 2480 a03c 0f5a bb3d
00000220: dc42 81bf afec da3d 0afd 58bc e87a a13e
00000230: 6253 f7bc ea47 66be 8d4a 853e 91c4 93be
00000240: f09c 89be 8e90 92be ba79 41bc 34bf 4e3e
00000250: bce2 7dbe eb31 dd3c 47f4 3bba 2995 4bbd
00000260: ba17 b0bb 1b66 1dbe dd11 93be 500b 1d3c
00000270: 7313 eabc 4fd1 2cbe 41d1 d9bd 375d 50bb
00000280: 3fd8 3dbe 3dab 433d 9fd2 873e b241 3e3e
00000290: 46b3 3abe 30d4 20bd 818b 31bd fb5c 24bd
000002a0: 306d 45be 9ae9 13be 1385 a8ba 1f42 eb3c
000002b0: 4ea7 05be e8c2 183d ec80 b53e a1c1 bbbe
000002c0: 85cd e7bd 9a85 233e 73ac 80be 1dea d93d
000002d0: c0a4 26be efec a6be 9d42 fe3d db04 09bb
000002e0: 7240 84be 2620 203d d080 4dbc 98a7 3140
000002f0: 93be 2b3d 3f7e a7bd fafa b03d 8255 823d
00000300: e6af a2be ad6a 8a3d c792 3c3e 1385 b5bd
00000310: 4c87 c0be f2cc 983e f86c 923c fe88 18bc
00000320: 5ab9 2cbd d03f 84bd ddf5 c03c d276 4b3b
00000330: 6a3c 81bb 0568 31bd 31fb fcbc 04b5 3dbd
00000340: baae e3be 75d4 1b3d 6d42 b43d c6ad 52be
00000350: 47d1 e0bc 0071 593d 063d 113e 4f65 7abd
00000360: adc4 0fbe 025a 2140 fd11 193d 3c56 48bd
00000370: 585e ae3d d159 b03c 33f4 f9bc 55e0 60be
00000380: 88c6 63ba af99 0abe f995 093e 3217 38be
00000390: 67c7 0f3d 6b9f c83d 964f 73ba 4e47 e73c
000003a0: 52ba 59be 6adc 3cbd f1dc 17bc c1b5 773e
000003b0: f157 053d e112 d43c 0171 9cbd c486 bd3c
000003c0: 7f57 71be 9a63 4ebf 5dac 08be c4ee 5a3e
000003d0: 3e71 35be 1558 2e3d 7ec2 1a3e 3571 8c3c
000003e0: 4251 913d 3391 9b3d 7a8f 26bf ab6e b9bd
000003f0: a3b8 9e3e b68f 92bb 01fe 2f3a b26a 98bc
0.14592724 -0.46192512 0.010191333 -0.045285527 -0.122462474 -0.1668571 0.15461259 0.43831557
0.039358784 -0.033709418 -0.31160715 0.064043425 -0.12997605 -0.04675966 0.2682861 0.030285375
-0.021931604 0.017128894 -0.0027312895 -0.9140826 0.26100558 0.15142494 -0.0651445 0.0057525844
0.019191992 -0.12267468 -0.0067214034 -0.016667433 0.033335537 -0.015340765 0.07588002 1.2342544
-0.15388204 -0.021842282 0.17349629 0.003277866 0.027955122 0.15652865 -0.05285656 -0.12717943
0.46934602 -0.0049117417 -0.038442794 -0.19419631 0.11188899 0.41433355 0.44461012 0.4360308
-0.045212287 0.17768344 0.043900326 0.008468581 -0.070631914 0.009051695 -0.105959825 -0.4385685
-0.10475336 0.17019784 1.13807 0.014538807 -0.031087477 0.13275945 -0.04002856 0.05126238
-0.38479993 0.048729 0.28879914 -0.011071378 0.02948292 0.016976953 0.08207357 -0.017005036
-0.011017849 -0.17585967 0.042586073 0.1930571 0.4581456 -0.035729654 -0.47277045 -0.4947847
-0.5315321 -0.017082276 2.5405993 0.03448449 -0.040223632 0.10149219 0.0029178308 0.06826278
-0.45982522 -0.21528049 -0.087612234 0.01355442 0.086066656 -0.02992111 0.19460715 0.009152119
0.29089186 0.9517873 -0.199448 -0.016295018 0.24737264 -0.010500971 0.0947078 -0.15430234
-0.019078685 -0.07204604 -0.13589984 0.054443054 0.3569214 -0.3300731 0.022915304 -0.10196552
4.176394 0.020806404 0.044592045 -0.106075265 0.010958777 0.34168762 0.84856474 -0.25190997
-0.08065265 0.056194253 -0.008111316 -0.058128145 0.22492598 0.0025658098 -0.5756783 0.6314306
-0.031108359 -0.4735981 -0.95895815 -0.56224895 0.011553322 0.15992896 0.019592352 0.09148037
-1.0098529 0.10689675 -0.013243923 0.31539083 -0.030191127 -0.2248837 0.2603344 -0.28860906
-0.26877546 -0.2862591 -0.011808807 0.20190126 -0.24793524 0.027001342 -0.0007169884 -0.049702797
-0.005373922 -0.15370981 -0.28724566 0.009585217 -0.028573727 -0.1687672 -0.10635615 -0.0031793842
-0.18539523 0.047770727 0.2652788 0.18579748 -0.1823245 -0.039264858 -0.043345932 -0.040127736
-0.19279933 -0.1444458 -0.0012857042 0.028718052 -0.13052103 0.037295252 0.35449922 -0.36671165
-0.113184966 0.15968934 -0.25131568 0.10640357 -0.16273785 -0.3260264 0.12415049 -0.0020907435
-0.25830418 0.03909316 -0.012542918 2.775854 0.041929793 -0.081783764 0.0864162 0.063639656
-0.31774825 0.06758628 0.18415366 -0.088632725 -0.37603223 0.2984386 0.017874226 -0.009310005
-0.042168953 -0.06457484 0.023554737 0.0031046164 -0.0039439695 -0.04331209 -0.030881496 -0.046315208
-0.44469243 0.03804441 0.08801732 -0.20574102 -0.027443541 0.05308628 0.14183435 -0.06113177
-0.1403987 2.5211186 0.03737067 -0.048910365 0.085140884 0.021527203 -0.030511951 -0.21960576
-0.0008688946 -0.13535188 0.13436116 -0.17977598 0.035102274 0.097960316 -0.00092815736 0.028232243
-0.21262482 -0.04610864 -0.009268985 0.24190427 0.03255457 0.025887908 -0.07638741 0.02313555
-0.23568533 -0.8062073 -0.13347001 0.21380144 -0.1771898 0.04256447 0.15113255 0.017143825
0.07095577 0.07596054 -0.6506268 -0.09054311 0.31000242 -0.004472698 0.000671357 -0.018605564

gru_out.weight_hh_l0 f4 [372, 124]
00000000: 8eec 943e 116c 99be 8e5b 20bd f28b 8e3e
00000010: a08d f5bc 6b47 6b39 25aa d53d 88fb b03e
00000020: 518d 2dbe 87c0 46be a209 7a3c 00d4 42be
00000030: aad7 ac3e 27eb 02be 3fcd ab3e c73e c7bd
00000040: 56fb 2b3f 6191 ce3d 1ac8 463e a2f6 5fbe
00000050: e2a0 393c 12a4 93be 68e0 35be 5bd6 88bd
00000060: 2041 17be dc9b ec3e 3032 683c a5e2 4f3f
00000070: cfd3 333e 610d e23d 57f5 22bf 4233 9abb
00000080: af08 8fbe 5967 273d 171e cc3d b955 503d
00000090: 11c8 babe c8cc 8b3f d656 143e 0af9 bf3e
000000a0: d8e7 273e 9ed4 54be c139 74bd c6b6 303e
000000b0: 2b14 a23d b26b 32bf 2baa ea3c ae76 6d3d
000000c0: b379 e3bb 94be e7be 9419 433e 6304 483e
000000d0: 7023 87bd d16a 78bd 53f6 2d3c 8fcb c23e
000000e0: 3a46 4bbe 7ea4 80be 864f f7bd 291f 93bd
000000f0: a014 4e3d a0cb 0ebf ee7d 153f 0f6b b1bd
00000100: 3921 02bd 136e c83d d03e 533d 91ef 983b
00000110: fab8 d03d e548 cebe ead0 64be af46 043e
00000120: 2c58 70bd 4c9c ea3d 543e 813e 8d0c 3bbd
00000130: 550e c7be a5ff e3bd 9756 8d3e 3bb6 a7be
00000140: cc72 4a3f e82f e2bd 8984 56bd 0501 103f
00000150: 818f 75be 1581 f43d 7526 093f ea87 b9bb
00000160: b5c5 8dbe 01e2 f6be 4961 ad3d cd20 52be
00000170: e65c 1e3e 9ab9 05be 0ec2 e63e ede7 963d
00000180: 67db 483e 04bf 263e 4d2c f3be a233 dc3d
00000190: 952d 1c3f a3d3 833f 9aa9 f43d 3f9e a6be
000001a0: 7096 ae3d 60c0 a2be 53d3 9fbd 5247 333e
000001b0: 7a64 2fbe 4756 9a3e 335b c9be c82f 703e
000001c0: c506 0abd 6407 5ebe 64f5 1d3f 2f00 52bd
000001d0: c662 d03e a409 c43d dc26 583d bbb9 a2be
000001e0: 2c25 0c3d be10 e0bc 02bb f9bd 5891 003e
000001f0: b9c9 d4bd 6a14 13bf e211 febd 4eaf cebe
00000200: 6ff5 b93d ad40 f4be 3f29 5dbe 747c a33d
00000210: 90f9 3bbd f954 273e d892 fa3d 4b72 9e3d
00000220: 4749 13bd 065b a23e e989 00be c303 69be
00000230: fa00 2fbd 6336 a5bd 4a54 89bd 05d4 a6bc
00000240: 89b1 37bd 61bd 853e 3683 223e 6316 323e
00000250: 5179 9dbd 1228 37be 045f 55bd ee2c 113e
00000260: 663c 52be f4f7 f3bd 12c8 8fbe 21b9 2dbe
00000270: 6944 a7be cb12 6f3e 0636 6bbe 008f 223e
00000280: 523f 1c3e 760a e83d cf36 2ebe 3055 5dbe
00000290: 7f41 343d ca48 99be 1528 4f3d 5680 e8be
000002a0: 82c3 a9bd 39ab cb3d 1762 85be b0e2 303e
000002b0: 321c 95be 8e60 35bf e41a a43d e873 0d3d
000002c0: f556 1bbe af19 85be 5932 3abe f607 44bd
000002d0: d001 5bbe 6669 e63d 2378 04bf 8966 1dbe
000002e0: 0f5a 08bf 9f17 1fbb ea50 343e c0d7 0b3e
000002f0: 3c88 3fbf c101 1bbe 8731 89bd 73d9 1c3e
00000300: 7613 5d3e 4b64 0f3e c9bd 283d c531 913e
00000310: f2ad 90be 23bf 85be 90b3 6fbd f677 723d
00000320: d746 6ebe 9f4f d03d 63dc 89bd f605 9f3e
00000330: 1b78 da3e 7967 d2be c6fc b8bc 2952 763e
00000340: 6967 87be 2ad5 18be 2bcf f03d b160 62bd
00000350: 629b b13d a67c 3c3e 91ae 4a3e e649 22bd
00000360: e569 99bc d4cb 053d 1d85 eb3c 4a60 423e
00000370: b6ad 36be 5a01 6fbe 3883 33be 7b41 423e
00000380: b3b1 be3e 49db 4d3e 0b25 3b3d f8cb 0bbd
00000390: e3dc b9be f465 9d3d 7aaf a5bd f36a 2b3d
000003a0: 19c0 3e3d 9cac c13e 5dfc dd3e df71 71bb
000003b0: d85f a1be e0c1 9fbe 9081 2f3d b331 83bd
000003c0: df80 753e 04ca 6fbd 894c 553e f8aa d33d
000003d0: 26f5 eebc 47a4 113e bded 86bd 1f52 5cbe
000003e0: 732e 73be 57d5 ccbe 7dd2 ec3d 158a 52be
000003f0: 6b5d 11bf 7f23 96be b9a5 29bf dc33 933e
0.29086727 -0.2996526 -0.039149813 0.27841145 -0.029974759 0.00022437952 0.10432843 0.34566903
-0.16948439 -0.19409381 0.015261086 -0.19026184 0.3375829 -0.12785016 0.33555028 -0.09728771
0.67180383 0.100863226 0.1941227 -0.21871427 0.011329861 -0.28836113 -0.17761385 -0.0668151
-0.14770937 0.4621266 0.014172122 0.8120521 0.17561267 0.11037708 -0.6365561 -0.0047058174
-0.27936313 0.040870044 0.09966677 0.050863 -0.36480764 1.0921869 0.1448625 0.3749469
0.16397035 -0.20784232 -0.05962539 0.17257223 0.07914003 -0.6969558 0.028645596 0.05797451
-0.006941998 -0.45262587 0.19052726 0.19532923 -0.06598556 -0.060648743 0.01061781 0.38045928
-0.19851008 -0.25125498 -0.12075715 -0.07183678 0.05031264 -0.5577946 0.5839528 -0.08662998
-0.031769965 0.0978662 0.051573575 0.0046672304 0.101915315 -0.4028999 -0.2234532 0.12917589
-0.058677837 0.114555925 0.25242865 -0.045666266 -0.38878122 -0.11132745 0.27605125 -0.32756218
0.79081416 -0.11044294 -0.05237249 0.56251556 -0.23980524 0.11938683 0.53574306 -0.005661954
-0.276899 -0.48219302 0.08465821 -0.20520325 0.15465125 -0.13059083 0.45069927 0.07368455
0.19614945 0.16283804 -0.47494736 0.10752036 0.6100705 1.0298961 0.119464114 -0.32542607
0.085247874 -0.31787395 -0.07803979 0.17507675 -0.17128173 0.3014395 -0.39327392 0.23455727
-0.033697862 -0.21682507 0.6170256 -0.051269706 0.40700358 0.09572151 0.052771434 -0.31782326
0.034215137 -0.027351733 -0.12193872 0.12555444 -0.10390038 -0.57453024 -0.124057546 -0.40368122
0.09080016 -0.47705594 -0.21597765 0.07982722 -0.0458923 0.16341008 0.122350395 0.077366434
-0.035958555 0.3171007 -0.12552609 -0.22755341 -0.04272554 -0.08067014 -0.0670553 -0.02036477
-0.044847045 0.26121047 0.15870366 0.17391352 -0.07689155 -0.1788638 -0.052092567 0.14177296
-0.20530853 -0.11912528 -0.2808233 -0.16965152 -0.3266938 0.23347013 -0.22969827 0.15874863
0.1525853 0.1133012 -0.17013095 -0.21614528 0.044007774 -0.29938346 0.050575335 -0.45410413
-0.08289243 0.099447675 -0.260514 0.17273974 -0.29123074 -0.70850456 0.080129415 0.034534365
-0.1516989 -0.25996158 -0.18183269 -0.047859155 -0.2138741 0.11250572 -0.51745814 -0.15371145
-0.5326242 -0.0024275554 0.17608991 0.13656521 -0.7481725 -0.15137388 -0.066989 0.15317325
0.21589455 0.14003102 0.04119662 0.28358284 -0.2825771 -0.26122388 -0.058520854 0.059196435
-0.23269211 0.101714365 -0.067314886 0.31059235 0.42669758 -0.41094568 -0.02258147 0.24054779
-0.26446083 -0.14925066 0.11758264 -0.055267993 0.08672215 0.18406925 0.19793154 -0.039621256
-0.018727252 0.03266509 0.028749997 0.18982044 -0.17839703 -0.2334036 -0.17530525 0.18970291
0.3724495 0.20103182 0.045689624 -0.034130067 -0.36301336 0.07685462 -0.0809011 0.04185004
0.046569917 0.37827003 0.433566 -0.0036841554 -0.31518435 -0.31202602 0.04284817 -0.06405964
0.23974942 -0.058542266 0.20829977 0.10335344 -0.02916963 0.14222823 -0.06588314 -0.21515702
-0.23748188 -0.40006515 0.11563585 -0.20560487 -0.5678317 -0.29323956 -0.662685 0.28750503

gru_out.bias_ih_l0 f4 [372]
00000000: 0ec5 243d 3eb3 5cbb 2959 d03e 1981 9fbe
00000010: 7ee8 f53b fcc8 613b 5074 013c 4e49 b8bd
00000020: 31a1 aa3e c263 8bbd 8f19 683d f4bd df3c
00000030: 34d6 df3d 6f8f ddbd 60f0 143e efdb 993e
00000040: 83c8 e43d 17a4 96bd af5a 65bc 20d2 a3bd
00000050: 5cae c1bd 8953 503e b659 2b3e 767b 033e
00000060: 0b7f 133e 2162 ccbe e5da 233e 65d9 c2be
00000070: 223a 1bbe 0421 8dbb c59e 4abd baa2 a2bc
00000080: a90c 7b3e 6846 e43d dfa1 1d3d cfe4 b03d
00000090: c75e 8ebe a8c5 cbbe 3a62 2f3d 8f3b 753e
000000a0: b879 3b3e 8282 343e 3ea7 3a3e ff9f 1d3d
000000b0: a2f6 9fbe fc84 513e 2d44 6ebe a7d6 9b3d
000000c0: 0c8e 873e 6831 fa3d 2894 fcbc 7b98 3c3e
000000d0: 41ba 4b3e 0356 85be dbaf 1d3e cf57 363e
000000e0: d498 103e 44d5 a3bb 64c4 533e d2f8 9b3c
000000f0: 47a4 36be 964b 873d 177a 25be 9fa0 8c3e
00000100: e5f0 583e 5389 263e 3e6f f1bc 9ffe ab3d
00000110: 0942 5f3e 9de6 753e 9b86 76be 41b3 693d
00000120: 3315 333d 43a0 6d3e df99 ac3d 9027 623e
00000130: 730d 00bd 7534 13bd 4f09 b03c d31a 083c
00000140: 9886 dabe 4452 873e db23 1d3e 5ebe 43bc
00000150: 64a8 193c 97e3 8abd 71da 6ebe dd02 683e
00000160: de53 0ebd f20e 2e3e 1538 1d3e 779f 1e3e
00000170: a1ba f5bd 8a6d b03e f09b 17be e907 133e
00000180: 3f76 ae3d 8908 b9bc 05a1 afbc 9882 81bc
00000190: b5dd a9be 9939 edbe 7e50 c6bd d489 693e
000001a0: efff db3d 2f7a 7abe f0c7 b7bd 901a 7cbe
000001b0: 51db 8e3d 19aa cb3e 90ae 46be 75d4 2d3d
000001c0: 003e 693b a1cf a3be db99 04be 7ac7 653e
000001d0: 2247 00be d8fa 153e 777b 9d3d 9d00 123e
000001e0: c352 05bd 89f3 773e d424 823e 2791 a13d
000001f0: 5b8f 10be 6052 133e 9b75 0ebe 0e5f 0bbf
00000200: f62c 543e 0d6e 3fbe b7a2 173e ce91 c23c
00000210: 2021 c2be 49d6 94bd c432 cfbc cdb6 d5be
00000220: 5f2d ecbc d60e 4a3d 191c 233d 9a6c c43d
00000230: 7be4 85be 4391 cfbe 4088 803e 6f22 26bc
00000240: a5e9 8bbe 28e7 383e 7ffd 52be ef10 08bf
00000250: 2024 66be 50e1 54be 4486 4f3e a52c 56be
00000260: e486 ffbe c45e 65be 1054 8c3e 3649 c7be
00000270: be4d 093e 7583 4cbd c32f 583e ca6c 033d
00000280: 56d7 b6bc 600a e8bd 988a fdbd 099b 923d
00000290: 0495 5bbe 92f4 d6bc 3c51 093e c8b9 423e
000002a0: 8250 e2be 7a14 243e 13c6 e0be 6d93 55bc
000002b0: 78d3 51bd dc3f 803d c02c a2be df74 cdbc
000002c0: 9ee7 dfbb 6d31 763d b8bf 11be 6b41 00be
000002d0: b7c6 6e3e 09df 653d 60c5 0d3e 1d5e f53d
000002e0: 9a65 0cbe 75dd e7be 34fc 90be 3238 e93d
000002f0: 2e58 9fbd 0b2e 8d3e abd2 febc 0720 a6be
00000300: 6ded e8bd 44cf 603d dc4f 3dbd 5c2f 2cbe
00000310: 0f43 b3be f213 39bf be41 cdbe 0b4b 803e
00000320: d1b8 a6bd c162 91bd 0d0d 11bf 8302 15be
00000330: 8959 91be 6d66 e0bd e324 323e f9ac 823d
00000340: 258d 423d 0a7f 2ebe 1ff7 0ebd cfdc 523d
00000350: dcff a4be 5e40 543e 4445 6dbe ebe4 853d
00000360: 7fb8 0ebe ea1a 883b e85b 8cbe 4029 0ebf
00000370: 7601 573e 94e0 7ebe 9c34 30be 2410 08bf
00000380: 1dfd bdbe 03e0 f5be 2d82 c13d 330b 823e
00000390: b508 dc3d 998f 97be f8a0 a3be 9c04 65be
000003a0: 53ae 94bd 83d0 0d3e 96d9 61be fea0 ccbe
000003b0: fcdf 40be b5af bb3d 0f90 44be 0120 22be
000003c0: 7d7f 86be 672e f4bc f5b1 333d db0e b6be
000003d0: 2a4c 9ebe d137 253e 8251 da3c 44c4 223e
000003e0: 85ca fdbe 5c20 6f3e bf70 dfbe 1def 8a3f
000003f0: 14d3 b93c c42b aebe d5b6 0c3f 2caa 7f3d
0.04022699 -0.0033676173 0.40693024 -0.3115318 0.007504522 0.0034452071 0.007901266 -0.08998357
0.33326104 -0.06806137 0.056665 0.027312256 0.10929528 -0.108183734 0.14544821 0.3005061
0.11171057 -0.073555164 -0.013998671 -0.079990625 -0.094570845 0.20344366 0.16733441 0.12840065
0.14403932 -0.39918616 0.1600147 -0.38056484 -0.15158895 -0.0043069143 -0.04946782 -0.019852985
0.24516548 0.111462414 0.03848445 0.08637392 -0.27806684 -0.39799237 0.042818286 0.23948501
0.18308151 0.1762791 0.1822786 0.038482662 -0.31242853 0.20460886 -0.23268194 0.07609301
0.2647556 0.12216455 -0.030832365 0.18417542 0.19895269 -0.26042184 0.15399115 0.17806934
0.141208 -0.0049997885 0.20680386 0.019039545 -0.17836104 0.06606214 -0.16159855 0.27466294
0.21185644 0.16263323 -0.02947199 0.083981745 0.21802534 0.24013753 -0.24074785 0.057055715
0.04372139 0.23205666 0.08427786 0.22085404 -0.031262826 -0.0359387 0.021488814 0.008307177
-0.42680812 0.2642995 0.15345709 -0.011947243 0.009378526 -0.067816906 -0.23325516 0.22657342
-0.03474795 0.16997889 0.15353425 0.15490519 -0.11998487 0.34458572 -0.14805579 0.14358486
0.085186474 -0.022587078 -0.021439085 -0.015809342 -0.33176962 -0.46333006 -0.096833214 0.22806484
0.10742175 -0.24460672 -0.08973682 -0.24619508 0.06975425 0.39778212 -0.19402528 0.042438943
0.0035589933 -0.31994346 -0.12949316 0.22439376 -0.12527135 0.1464647 0.07689565 0.14258046
-0.03254963 0.24213995 0.25418723 0.07889014 -0.14117186 0.14386892 -0.1391205 -0.54441917
0.20720276 -0.18694325 0.14808165 0.023751166 -0.37915897 -0.07267434 -0.025292762 -0.41741028
-0.028830228 0.049330555 0.039821718 0.095910266 -0.2615088 -0.40540513 0.2510395 -0.010140046
-0.27326694 0.18056929 -0.20604514 -0.5315084 -0.22474718 -0.20789075 0.20266062 -0.20915468
-0.499076 -0.22399431 0.27407885 -0.38923043 0.13408563 -0.049930055 0.2111197 0.03208617
-0.022319477 -0.11330104 -0.1237995 0.07158477 -0.21443564 -0.026239667 0.13409895 0.19016182
-0.44202048 0.16023436 -0.4390112 -0.013035637 -0.051227063 0.0626218 -0.31674767 -0.025080143
-0.006833031 0.06010573 -0.14233291 -0.12524955 0.23317991 0.056120906 0.13844824 0.11980841
-0.13710633 -0.45286146 -0.28317416 0.113876715 -0.07780491 0.2757419 -0.031106314 -0.3244631
-0.113734104 0.054885164 -0.046218738 -0.16814941 -0.350121 -0.7229606 -0.4008922 0.25057253
-0.0814072 -0.07098914 -0.5666054 -0.1455174 -0.28388622 -0.10957036 0.17396884 0.06380648
0.047497887 -0.17040649 -0.03490364 0.05148011 -0.32226455 0.20727679 -0.23170954 0.06537803
-0.13937567 0.004153599 -0.2741387 -0.5553169 0.20996651 -0.24890357 -0.17207569 -0.5314963
-0.37107173 -0.4802247 0.09448657 0.2539917 0.10743848 -0.29601744 -0.31958747 -0.2236504
-0.07259812 0.13849072 -0.22055659 -0.39966577 -0.18835443 0.09164373 -0.19195579 -0.15832521
-0.2626914 -0.029807283 0.043870885 -0.3555821 -0.30917484 0.16134574 0.026650194 0.15895182
-0.49568573 0.23352188 -0.43640706 1.0854222 0.022683658 -0.34017766 0.5496648 0.062418148

gru_out.bias_hh_l0 f4 [372]
00000000: b745 003e 89c3 15bd b11b c23e 3973 a2be
00000010: 64ab b23c 7eef 5b3d 0894 a0bd 56a5 80be
00000020: 4011 783e 0e3b e53b eb5a ce3d 7afe bb3c
00000030: 9c01 773e 66be 25bd d0ec 363e 878e 3f3e
00000040: c4a9 8e3d 9e60 1abd bc49 4dbd a0d9 dbbd
00000050: c187 2cbc 5135 313e 383b 2a3e 3a41 8c3d
00000060: 208c 2f3e 9fb7 04bf 5e24 393e d694 c3be
00000070: 7d8f 52be f9e4 bd3d 3f2b 84b9 9fb3 8fbd
00000080: 9bc5 8d3e ce83 293d 81de 66bc d5a4 063e
00000090: f7cd e4bd 4b44 d0be 3cfb ac3c 50c3 753e
000000a0: e6f0 7f3e 3450 9b3e 7158 6d3e c691 333e
000000b0: 1c41 26be 2616 483e e5b7 8dbe 179a af3d
000000c0: f601 883e 9358 3d3e 671f 93bd e2f9 913e
000000d0: c8e8 273e 0d0a c4bd 5898 423e 144a d53d
000000e0: 746d f53d ca67 e93c 8c9e 0e3e b496 adbc
000000f0: 4ecc 2cbe 240c 113e f554 0abe 8f3a 9c3e
00000100: 5be1 aa3e 9723 723d d560 0ebd f700 f23d
00000110: cf1e 683e 0db6 293e 6b6d 89be fb89 e23d
00000120: 2762 c93d f66a 783e 1f63 153d 0b1b 343e
00000130: 9688 19bc 8108 4fbd ec22 7f3c eba6 d0bb
00000140: 7d32 dbbe d333 8d3e 285c 0b3e a115 a5bc
00000150: 6cb5 6fbc 2b5e c8bb 6f79 50be 29f7 3f3e
00000160: f2fe 95bd 5772 8e3e f7f8 763e d7b9 473e
00000170: 28cc 21be 5e9e 7f3e f3f7 babd 088d 523e
00000180: d71a 143e f75c 18be d3f6 b7bb cb6c 503d
00000190: 9fd4 97be 16bd 9fbe b09c d1bd 5237 8a3e
000001a0: d655 d2bc 5225 07be 0161 0e3d 6b75 bbbe
000001b0: 50ad 93bb 5913 7e3e 1574 20be ee6a 973d
000001c0: a9c7 09bd 3421 b0be a03b 05be 6394 773e
000001d0: d0a2 23be 6b71 273e 683b a8bc ab1c 443e
000001e0: 8de7 f63d c76c 933e 19d5 083e de9d 17bd
000001f0: 8149 84bd d963 9a3e 154e f5bd 0fa0 10bf
00000200: 89f5 d33d 0a88 15be 4ed1 493e b34d d23d
00000210: 5153 abbe b65b f1bc 38c6 88bc be6b cbbe
00000220: 20d1 08bd 6994 2abd 1c8e 443e e5e9 613e
00000230: 7754 b4be 1774 f0be 1410 8a3e 4f08 0dbd
00000240: 8923 ccbe 822f 2e3e 1ee0 b0be 8dc0 e0be
00000250: 0656 93be 75fb 8cbe bb8b 923e e2ae 8bbe
00000260: 0a54 dcbe ee9e 69be 5316 503e 7428 cbbe
00000270: 6de7 4f3e 36cc bfbd ed14 2c3e 0235 ba3d
00000280: 6a57 1abd 1b44 69be 0b71 64bd 317e 133e
00000290: 8390 8cbe ffc4 52bc 9130 e13d 498d a03e
000002a0: 304d bfbe eaa4 273e 7181 f5be b5ab d2bd
000002b0: de0e 02bb f73d 4c3e de5d 91be 8c08 3ebe
000002c0: 0ae7 a03c 8e50 8a3d f90f 91be 41c3 19be
000002d0: e0a5 7b3e 33f7 de3d fa96 263e d5ca 383e
000002e0: eb9e 01be 814e a9be 3bf5 e2be dfd4 193d
000002f0: 6cbe f73c 716e 863e 26b2 17be 4f61 5bbe
00000300: 23b1 b2bd 57d3 cd3c 46f1 673c f575 bebd
00000310: ade1 babe 299f 3fbf 38aa 0bbf 5772 3e3e
00000320: a435 05be fa84 a3bd 27ad dabe 14f1 6fbd
00000330: deae d6be e800 84be 1de1 bb3d 3243 1d3e
00000340: 5135 6b3d ca9a 03be dc92 fbbd fb2e ac3d
00000350: 9d9f 87be 4ccd 583e 92ad 9ebe 17da b3bd
00000360: acbf 61bd 630d 033e 1ce1 8bbe e171 e0be
00000370: 1a87 873e 56c4 77be adf5 10be 0fb7 edbe
00000380: ba85 8abe 3f9e ecbe cd2d 00bd 94b5 8d3e
00000390: 6382 eb3d 8a6c 79be 2edf 94be 46e7 37be
000003a0: 3cc8 90bd 9975 073e e65c babe 8b5a 87be
000003b0: 31ba 33be 4186 143b 987c 98be 1e43 6bbe
000003c0: 7b9b 89be 37bd e0bd ee04 5abd ce6d babe
000003d0: 089f cdbe a101 263e 0e96 d03d 91a0 853e
000003e0: 49bf bd3e c811 053e 65d6 9a3e f9ce 9a3c
000003f0: 3368 6fbd f4e7 873e deb5 853e 666f 43bd
0.12526594 -0.03656343 0.37911752 -0.31728533 0.021810241 0.053695194 -0.07840735 -0.2512614
0.2422533 0.0069955653 0.10075935 0.022948492 0.24121708 -0.04046478 0.17863774 0.18706714
0.06965974 -0.037689798 -0.050119147 -0.10734868 -0.010530413 0.17305495 0.16624153 0.068483785
0.17143297 -0.51842684 0.18080279 -0.3819949 -0.20562549 0.09272189 -0.00025209223 -0.07016682
0.27689824 0.041385464 -0.014091135 0.13148816 -0.11172097 -0.40677103 0.021115892 0.24000287
0.24994239 0.30334628 0.23178269 0.17536077 -0.16235775 0.19539699 -0.27679363 0.08574312
0.26563996 0.1849082 -0.07183724 0.28510958 0.16397393 -0.095722295 0.19003427 0.1041452
0.11983767 0.028491873 0.13927668 -0.021190025 -0.16874811 0.14164788 -0.13508971 0.30513427
0.33375058 0.059115972 -0.034760315 0.1181659 0.22668003 0.16573353 -0.26841292 0.11061474
0.09833174 0.24259552 0.036471482 0.17588441 -0.0093709435 -0.05054522 0.015572291 -0.0063675544
-0.42811957 0.275786 0.13609374 -0.020151915 -0.014630657 -0.0061147413 -0.20358823 0.18746628
-0.073240176 0.2782161 0.2411841 0.19504486 -0.15800536 0.24962756 -0.09129324 0.20561612
0.14463364 -0.14879213 -0.0056141405 0.050885003 -0.29654405 -0.3119895 -0.10234964 0.2699533
-0.025675695 -0.1319783 0.03476048 -0.3661302 -0.0045067444 0.24812068 -0.15669282 0.07393442
-0.033637676 -0.34400332 -0.13011026 0.24177699 -0.15980077 0.1635186 -0.02053614 0.19151561
0.120558836 0.28793928 0.1336254 -0.03701579 -0.06459332 0.30154303 -0.119777836 -0.5649423
0.103495665 -0.14602676 0.1970875 0.10268726 -0.33462003 -0.029462676 -0.01669608 -0.39730638
-0.033402562 -0.04164544 0.19194835 0.2206188 -0.35220692 -0.4696357 0.26965392 -0.03443175
-0.3987086 0.1701031 -0.34545988 -0.43896905 -0.28776568 -0.27535596 0.2862223 -0.27281862
-0.43032867 -0.22814533 0.20321016 -0.396793 0.20303126 -0.09365122 0.16804858 0.09092142
-0.03768102 -0.22779886 -0.05577187 0.14403607 -0.27454004 -0.01286435 0.109955914 0.31357792
-0.37363577 0.16371503 -0.47950318 -0.10286657 -0.0019845287 0.19945513 -0.28391927 -0.18557948
0.019641418 0.06753646 -0.283325 -0.1501589 0.24574995 0.10886993 0.1626853 0.18046124
-0.12658279 -0.33067706 -0.4432772 0.037556525 0.030242167 0.26256135 -0.14814052 -0.21423839
-0.087251924 0.025125189 0.014156645 -0.09299842 -0.36500302 -0.74852234 -0.5455661 0.18598305
-0.13008744 -0.07984348 -0.4271023 -0.05857952 -0.41930288 -0.2578194 0.09173796 0.15357664
0.057423893 -0.12852016 -0.122838706 0.08407398 -0.26488963 0.21172065 -0.309918 -0.08781832
-0.055114433 0.12798075 -0.27320182 -0.43836883 0.26470262 -0.2419599 -0.14156218 -0.46428725
-0.2705515 -0.46214482 -0.03129368 0.27677596 0.11499479 -0.2435781 -0.29076523 -0.17959318
-0.07069442 0.13228454 -0.36399 -0.26436266 -0.17551495 0.002266303 -0.29782557 -0.22974822
-0.26876435 -0.1097359 -0.053227358 -0.364119 -0.40160394 0.16211559 0.10184871 0.26099065
0.37060001 0.12995064 0.30241695 0.01889752 -0.05844898 0.26544154 0.26115316 -0.04771366
