rnns/trained_rnns/soutenance/GRU_seqin16_seqout5_1layer_45epochs_60000steps_MultiStep2_Soutenance_SCALE13E-1_batch128_Adam_lr5E-3VAL17.pt (torch, 450839 bytes, 10 tensors)

gru_in.weight_ih_l0 f4 [372, 35]
0	0xbe5d788d	-0.21628018
1	0xbdeef4d8	-0.11667794
2	0xbe07806f	-0.13232587
3	0xbd400f7c	-0.046889767
4	0x3dd5b96e	0.104357585
5	0x3e6a17ad	0.22860594
6	0xbdab7855	-0.08372561
7	0xbe8383e2	-0.25686556
8	0xbbeec0e5	-0.0072861784
9	0x3e00822b	0.12549655
10	0x3ee3b565	0.4447433
11	0x3d4beef4	0.04978843
12	0xbe2b2ce7	-0.16716348
13	0x3c94f98e	0.018185403
14	0xbd803505	-0.06260113
15	0xbda19e32	-0.078915015
16	0xbd89ff07	-0.06738096
17	0x3e4d478c	0.20046824
18	0x3dabd76d	0.083906986
19	0x3d2e824f	0.04260474
20	0xbdcecc1e	-0.10097526
21	0xbe811a5b	-0.2521542
22	0xbc59ac74	-0.013285745
23	0x3dbf1089	0.09329326
24	0xbe479e91	-0.19494082
25	0xbe9c27c8	-0.304991
26	0xbe5bbf46	-0.21459684
27	0xbddbee86	-0.10738854
28	0x3e8a14e9	0.26969078
29	0x3e1d9af0	0.15391135
30	0xbcde8f29	-0.027167873
31	0xbe21dc10	-0.15806603
32	0xbcdf8943	-0.027287131
33	0x3e0dec4a	0.13859668
34	0x3e8fddd7	0.28098938
35	0x3e068007	0.13134776
36	0x3eb99c27	0.36251947
37	0xbf492a1c	-0.7857988
38	0xbd670019	-0.056396578
39	0x3e8918ba	0.26776677
40	0x3e90f0be	0.28308672
41	0xbf0bf217	-0.54666275
42	0x3e884f79	0.26623133
43	0x3dc26e1f	0.0949366
44	0x3ebf07f3	0.37310752
45	0x3d23367c	0.039846882
46	0x3eb47be6	0.35250777
47	0x3dc11d6d	0.09429441
48	0x3d6228d3	0.055214714
49	0xbeb110fe	-0.34583277
50	0xbda611a4	-0.081088334
51	0xbe94a593	-0.29032573
52	0xbe15d17e	-0.14630696
53	0x3e41f43d	0.18940826
54	0x3f0ba183	0.5454332
55	0xbeb7870f	-0.3584523
56	0x3db6841a	0.08911915
57	0x3dd5a7ba	0.10432382
58	0x3e74fa1e	0.23923537
59	0xbd92b28a	-0.0716296
60	0xbefe1cf8	-0.49631476
61	0xbec69f5d	-0.3879346
62	0x3cb22e75	0.021750668
63	0x3ea5d3a0	0.3238802
64	0x3f17be5e	0.5927485
65	0x3d456d23	0.048199784
66	0xbe8aff4f	-0.2714791
67	0xbe20af89	-0.15691961
68	0x3f6a83ef	0.91607565
69	0x3d332adb	0.043742042
70	0xbe10f2bb	-0.14155094
71	0xbd8d3631	-0.06895102
72	0x3e40ea42	0.18839362
73	0xbe149e87	-0.14513598
74	0x3c7263cd	0.014794302
75	0xbd69123e	-0.056902163
76	0x3d00f350	0.03148204
77	0xbd8a8505	-0.06763653
78	0xbea42f73	-0.3206745
79	0xbe88acb2	-0.26694256
80	0xbdc8b970	-0.098009944
81	0xbe03ae4c	-0.12859458
82	0xbe9ec305	-0.31008163
83	0x3e4f1e27	0.20226346
84	0xbdacffd4	-0.08447233
85	0x3e32dbab	0.17466609
86	0xbdb6831d	-0.089117266
87	0x3dadf339	0.08493657
88	0x3dab30f0	0.083589435
89	0xbdd3c789	-0.10340793
90	0xbeb109cf	-0.34577796
91	0x3d7dde79	0.061979745
92	0x3e65b114	0.22430831
93	0x3df7dfb2	0.12103213
94	0xbe3f6cbb	-0.18693821
95	0x3dab85d6	0.083751366
96	0xbd9e3564	-0.07725027
97	0xbdc5337d	-0.09628961
98	0xba4f14b6	-0.00078995095
99	0xbe1ccc50	-0.15312314
100	0xbef9c71e	-0.48784727
101	0xbe67ae34	-0.22625047
102	0x3e6a76c0	0.22896862
103	0xbcb966f1	-0.022632094
104	0xba111ef6	-0.00055359246
105	0x3dd8afd5	0.10580412
106	0x3e8e2db4	0.27769244
107	0xbd9ae0f2	-0.07562436
108	0x3ea36ff1	0.31921342
109	0x3d235d2d	0.03988378
110	0xbbe2478e	-0.0069055026
111	0x3e1697c4	0.14706331
112	0xbeff00d0	-0.49805307
113	0xbf10f238	-0.56619596
114	0x3e2e5365	0.17024
115	0xbeb9a9c7	-0.36262342
116	0x3dc8b39f	0.09799885
117	0x3e7c5aa2	0.24643949
118	0x3e12d63e	0.1433954
119	0xbc4f2521	-0.01264313
120	0xbece41c4	-0.4028455
121	0xbdbb0726	-0.09132223
122	0x3e551bcc	0.20811385
123	0xbd73b47e	-0.059498303
124	0xbe8b00d5	-0.27149072
125	0x3df7fbc3	0.121085666
126	0xbea2ed1f	-0.31821534
127	0xbd84ad8e	-0.064784154
128	0x3d23087e	0.03980302
129	0x3ec34228	0.3813641
130	0xbe57095f	-0.20999669
131	0x3ef84997	0.48493645
132	0xbd1147ca	-0.035468854
133	0x3c797e05	0.015227799
134	0x3ea7dcc2	0.32785612
135	0x3e91b6c3	0.2845975
136	0x3e165a62	0.14682916
137	0xbe2134a3	-0.15742736
138	0xbef2ceb9	-0.47423342
139	0x3e473d47	0.19456969
140	0xbd1b9e5c	-0.03799282
141	0xbd922f9f	-0.07137989
142	0xbdd860c3	-0.10565331
143	0x3defe779	0.11714072
144	0xbd89c65e	-0.06727289
145	0x3e828f17	0.25499794
146	0x3d9494cf	0.072549455
147	0xbbe8db37	-0.0071062106
148	0xbdd0d81f	-0.10197472
149	0x3e03d1f7	0.12873064
150	0x3e9b3f69	0.30321816
151	0x3d9ae2b0	0.075627685
152	0xbe903619	-0.28166273
153	0xbe9da5fd	-0.30790702
154	0xbea68224	-0.32521164
155	0x3e36b69c	0.17843097
156	0x3d30413c	0.043030962
157	0xbdacd3fb	-0.084388696
158	0xbe1bf175	-0.15228827
159	0xbd5f31f5	-0.054491002
160	0x3cca6c10	0.024709731
161	0x3c57fb9e	0.013182549
162	0xbdd4c463	-0.1038902
163	0x3d8ba4f0	0.06818569
164	0xbd7c6665	-0.06162109
165	0x3e2de091	0.16980197
166	0x3e3f07a5	0.1865526
167	0xbdfcce74	-0.12344065
168	0x3e5fdd31	0.21861722
169	0xbe26d47f	-0.16291998
170	0x3cd2d80b	0.025737783
171	0x3e15e3f0	0.14637733
172	0xbe79955e	-0.24373385
173	0xbf169901	-0.58827215
174	0x3e8e0d6c	0.27744615
175	0x3cc25674	0.023722865
176	0x3db9664f	0.09052717
177	0x3f0141d9	0.504911
178	0x3e7dd8f9	0.247898
179	0xbe6548d0	-0.22391057
180	0xbeb3e8e5	-0.35138622
181	0xbdf6f38a	-0.1205817
182	0xbe0e32f4	-0.13886625
183	0xbe57229b	-0.21009295
184	0xbe4c0cad	-0.1992671
185	0xbedd0b34	-0.4317261
186	0x3d9f75a4	0.0778611
187	0xbdbad345	-0.09122328
188	0x3dbbed3c	0.09176108
189	0x3e5709a0	0.20999765
190	0x3e246506	0.16054162
191	0x3e8f5ba8	0.27999616
192	0x3e86fd60	0.26365185
193	0xbebecd23	-0.37265882
194	0xbe9c9302	-0.30580908
195	0x3ea93c9c	0.33054054
196	0x3d7d654d	0.061864186
197	0xbe90ffd6	-0.28320187
198	0xbf12f0d9	-0.57398754
199	0x3ec48f88	0.38390756
200	0x3d3dfc1c	0.04638301
201	0x3e8258b1	0.2545829
202	0xbd2f04de	-0.04272925
203	0xbeb6f5b1	-0.35734323
204	0xbe973237	-0.29530498
205	0xbdba1eb3	-0.09087887
206	0x3d0185b8	0.031621665
207	0x3ea9f227	0.3319256
208	0xbfeeea3a	-1.866523
209	0xbf5ddde0	-0.8666668
210	0xbe206a40	-0.15665531
211	0xbf1fcf0d	-0.6242531
212	0x3e6de8bb	0.23233311
213	0xbec677c8	-0.3876326
214	0xbe966013	-0.29370174
215	0x3e41801b	0.18896525
216	0x3dd0e4c3	0.10199883
217	0x3ecd4fcd	0.40099946
218	0x3e24ec35	0.16105731
219	0x3aedd80c	0.0018146052
220	0xbd07ef45	-0.03318717
221	0x3e350790	0.17678666
222	0xbead0429	-0.33792236
223	0xbe52f4d3	-0.20601206
224	0xbcc5533e	-0.024087545
225	0xbe172a3a	-0.14762202
226	0x3e3346d6	0.1750749
227	0x3da46e56	0.080288574
228	0xbd15b228	-0.036546856
229	0xbe0ebc41	-0.13939
230	0x3e1e1b94	0.15440208
231	0xbe895e0d	-0.26829568
232	0xbea074a3	-0.31338987
233	0xbdea5c58	-0.114433944
234	0xbe9e56b3	-0.3092552
235	0x3dcba57d	0.09943674
236	0xbceeaf94	-0.029136457
237	0xbd623bec	-0.055232927
238	0x3e282a17	0.16422306
239	0xbf13e9e9	-0.57778794
240	0xbb873187	-0.004125777
241	0xbbfc06da	-0.0076912465
242	0x3e55d06b	0.20880286
243	0xbf9425a0	-1.1573982
244	0xbe1fa941	-0.15591909
245	0x3d8551e6	0.065097615
246	0xbde40cc7	-0.111352496
247	0xbe65cee7	-0.22442208
248	0xbe1ab19a	-0.15106812
249	0xbd9e8b05	-0.077413596
250	0x3e021270	0.12702346
251	0x3e1dfde3	0.15428881
252	0xbdc400e1	-0.0957048
253	0x3e478952	0.19485977
254	0xbda935fa	-0.08262248
255	0x3e936e73	0.28795204

gru_in.weight_hh_l0 f4 [372, 124]
0	0xbce24ed3	-0.027625477
1	0xbef8353b	-0.48478112
2	0x3de595cb	0.11210211
3	0x3e784ad1	0.2424729
4	0x3ce03ba5	0.02737219
5	0xbe559030	-0.20855784
6	0x3d8f800c	0.07006845
7	0x3d9e4fcc	0.07730064
8	0xbe45f7f6	-0.19332871
9	0x3dcd1c59	0.100151725
10	0x3eac5efc	0.33666217
11	0x3e161fb3	0.1466053
12	0xbce761cf	-0.028244881
13	0xbda9754c	-0.08274326
14	0xbcf9ceeb	-0.030494174
15	0xbdd0a99b	-0.101886
16	0xbe8e435c	-0.27785766
17	0xbddeddef	-0.10882174
18	0xbd67c8a5	-0.056587834
19	0xbd87e522	-0.066355005
20	0x3e475201	0.19464876
21	0x3c92ff91	0.01794413
22	0x3e5a63b3	0.21327095
23	0x3e8f8f61	0.28039077
24	0x3d7e66d8	0.0621098
25	0x3e25ae4d	0.16179772
26	0x3dac3b8c	0.08409795
27	0x3d97b228	0.074070275
28	0x3dbca2c5	0.09210733
29	0x3e89df32	0.26928097
30	0x3c008e65	0.0078464495
31	0xbd4a2eda	-0.049361087
32	0x3dc2db53	0.09514489
33	0x3c59b010	0.0132866055
34	0x3dd8db92	0.10588755
35	0xbcf53ae6	-0.029935312
36	0xbd0ce266	-0.034395598
37	0xbead0d76	-0.33799332
38	0x3c2c995e	0.010534612
39	0x3ea9fbd0	0.3319993
40	0x3e230fd3	0.15924005
41	0x3bd8a2c9	0.0066112024
42	0xbe2f472a	-0.1711699
43	0xbe2add71	-0.16686036
44	0x3e2056cd	0.15658112
45	0xbe775705	-0.24154289
46	0xbcd6f146	-0.026238095
47	0xbe7254d8	-0.23665178
48	0xbcf25bea	-0.029584844
49	0x3cbe1593	0.023203647
50	0x3ed98beb	0.4248956
51	0xbe05cf14	-0.13067275
52	0xbe027314	-0.12739211
53	0x3db3cffc	0.08779904
54	0xbe0a0e4b	-0.13482015
55	0x3e904be8	0.28182912
56	0x3c536085	0.01290143
57	0xbd8e17d9	-0.06938142
58	0xbdfe394a	-0.12413271
59	0xbdceb2e5	-0.10092715
60	0x3d3c5af1	0.045985166
61	0x3e0bd7f4	0.13656598
62	0x3dec21f4	0.115299135
63	0xbe8328b3	-0.2561699
64	0x3edab208	0.42713952
65	0x3d026f3d	0.031844366
66	0x3cab6b11	0.020925077
67	0x3da54fbe	0.0807185
68	0x3ea91482	0.3302346
69	0x3d869108	0.06570631
70	0x3c34ac42	0.011027398
71	0x3cf843d9	0.03030579
72	0xbe6f8eea	-0.23394361
73	0x3d9ee41a	0.07758351
74	0x3ecd36cc	0.4008087
75	0x3e4b48c0	0.1985197
76	0xbd8c564b	-0.068523966
77	0xbd9da020	-0.07696557
78	0xbe8b60b6	-0.27222222
79	0xbc4a7616	-0.012357255
80	0x3ca8811a	0.020569373
81	0xbd1070d9	-0.03526387
82	0xbd979d04	-0.07402995
83	0xbcb78506	-0.022402298
84	0xbd849ea5	-0.064755715
85	0x3e485181	0.19562341
86	0x3c2f6c9e	0.010707049
87	0xbdfd4ceb	-0.123681866
88	0x3e409426	0.18806514
89	0x3d3112e4	0.043230906
90	0x3b0694ee	0.0020535546
91	0xbcd37c8d	-0.025816226
92	0xbdbe5d42	-0.09295131
93	0x3ea45703	0.32097635
94	0xbe0c1f94	-0.13683921
95	0xbe425fe4	-0.18981892
96	0x3ea58caa	0.3233388
97	0xbdcc71b1	-0.099826224
98	0x3e969e26	0.29417533
99	0x3c1bacc1	0.009501637
100	0x3c6160f3	0.013756025
101	0x3e63505e	0.22198626
102	0x3dcacb91	0.099021085
103	0xbc972eb2	-0.018454883
104	0xbe1e7046	-0.15472516
105	0xbd975c8b	-0.07390698
106	0xbc8c810f	-0.017151384
107	0xbe61bc56	-0.220445
108	0x3dcbccac	0.099511474
109	0xbda33d9c	-0.079707354
110	0x3e3c59a8	0.18393576
111	0xbc1c4c3b	-0.009539659
112	0xbdd68572	-0.104746714
113	0x3c8628fd	0.016376967
114	0x3e1604a9	0.14650215
115	0xbcdcb3d4	-0.026941217
116	0x3e1eb4ee	0.15498707
117	0x3d7b2935	0.061318595
118	0xbd1b6e36	-0.037946902
119	0x3d493dab	0.049131077
120	0x3be978dc	0.0071250033
121	0xbc597171	-0.013271675
122	0xbde9c2a7	-0.1141408
123	0xbce54d94	-0.027991094
124	0xbe612190	-0.2198546
125	0x3da579f0	0.08079898
126	0x3e52290c	0.2052347
127	0xbdf24a02	-0.11830522
128	0xbdeab1ad	-0.1145967
129	0x3de30ad7	0.11086052
130	0x3f0b6275	0.5444711
131	0xbe9ce472	-0.3064304
132	0x3e6b8174	0.22998601
133	0x3e82e688	0.25566506
134	0xbe65a218	-0.22425115
135	0xbe63539e	-0.22199866
136	0x3e786055	0.24255498
137	0xbf03e56a	-0.51521933
138	0x3e04d967	0.12973557
139	0xbe9906ab	-0.298879
140	0xbf35e1ee	-0.71047866
141	0xbc8576ad	-0.01629194
142	0xbf025823	-0.50915736
143	0xbe8b0783	-0.27154168
144	0x3e0ea1b1	0.13928868
145	0xbd865d33	-0.06560745
146	0x3f4044b0	0.7510481
147	0x3e8fe759	0.28106192
148	0x3eb1c5bc	0.34721172
149	0xbee9dc31	-0.45675805
150	0x3f43debb	0.76511735
151	0xbf09faa9	-0.538981
152	0x3e1b989b	0.15194933
153	0x3ea5228b	0.32252917
154	0x3e9483b5	0.29006734
155	0xbd70fa88	-0.058832675
156	0x3d6d6991	0.057962004
157	0xbe4d7255	-0.20063145
158	0x3e6ccec5	0.23125751
159	0x3e89b6c5	0.26897255
160	0x3d292f7b	0.041305047
161	0xbec9da00	-0.39424133
162	0x3e761a35	0.24033435
163	0x3f0df1d5	0.5544713
164	0x3f1219d6	0.5707067
165	0x3e8c8de9	0.2745202
166	0xbed8ffde	-0.4238271
167	0x3edb6925	0.42853656
168	0x3ee74257	0.451678
169	0xbd685915	-0.05672558
170	0xbe48d0cf	-0.19610904
171	0xbf1b9df7	-0.6078791
172	0x3e427b45	0.18992336
173	0x3ef93211	0.4867101
174	0x3eb16c62	0.34653002
175	0xbef983b8	-0.48733306
176	0xbed34dbe	-0.4127025
177	0xbededd93	-0.43528423
178	0x3d4846d3	0.04889567
179	0x3e24cbe3	0.16093402
180	0xbe05600b	-0.13024919
181	0x3f14357a	0.578941
182	0x3dfdf02a	0.12399323
183	0xbe8728b1	-0.26398233
184	0xbe27b803	-0.16378789
185	0xbe2c140b	-0.16804521
186	0x3e774efd	0.24151225
187	0xbe6da2a2	-0.2320657
188	0x3ea56d3b	0.323099
189	0xbdc8fe85	-0.09814171
190	0x3e8a448f	0.2700543
191	0x3ee474cd	0.44620362
192	0x3f98a0e8	1.1924105
193	0xbf115fb6	-0.5678667
194	0xbee15c3d	-0.44015685
195	0x3d151811	0.036399905
196	0x3c81cd07	0.015844835
197	0x3e24df27	0.16100751
198	0xbee34c9a	-0.4439438
199	0xbe94d7cb	-0.29070887
200	0xbe4d80ac	-0.20068616
201	0xbe8ba90f	-0.2727742
202	0x3ee16b18	0.4402702
203	0xbdedf569	-0.11619074
204	0x3f6b31a1	0.918726
205	0xbe349cee	-0.17637989
206	0xbe60722d	-0.21918555
207	0x3f0d0ec6	0.5510067
208	0x3ee2e30c	0.44313848
209	0x3deccc02	0.11562349
210	0xbf05c1c6	-0.522488
211	0x3f185429	0.5950342
212	0xbe98d42b	-0.2984937
213	0xbd82f0ec	-0.063936085
214	0xbf04b2a8	-0.5183511
215	0x3e575480	0.21028328
216	0xbee2f2fa	-0.44326
217	0x3dbeb037	0.09310954
218	0xbe6ad216	-0.22931704
219	0x3e784cb6	0.24248013
220	0xbe94218b	-0.2893184
221	0xbdf618b3	-0.1201643
222	0x3f1957b2	0.5989944
223	0xbf442ef7	-0.7663416
224	0xbd8b93a5	-0.0681527
225	0x3ede19fe	0.43379205
226	0xbf83f317	-1.030856
227	0x3f0e2c19	0.5553604
228	0xbdea55dd	-0.11442158
229	0xbe424411	-0.18971278
230	0xbee2b139	-0.44275835
231	0x3f1686e9	0.58799607
232	0x3e8ab413	0.2709051
233	0xbe1c0f1a	-0.15240136
234	0xbf12350b	-0.5711219
235	0x3e4ed982	0.2020016
236	0xbe3a3a29	-0.18186249
237	0xbe3fb944	-0.18723017
238	0xbe4499cb	-0.19199292
239	0x3dd451c8	0.10367161
240	0xbd440b22	-0.04786218
241	0x3e3fdca5	0.18736513
242	0x3f01167a	0.5042492
243	0x3cf798d7	0.030224247
244	0xbcc53186	-0.024071466
245	0x3e36ca98	0.17850721
246	0x3c858033	0.016296482
247	0x3e43d28c	0.19123286
248	0xbe13a7f5	-0.1441954
249	0x3e12ba26	0.14328822
250	0x3d8271c6	0.06369357
251	0xbd248f87	-0.04017594
252	0xbda3195f	-0.079638235
253	0xbee5fb0e	-0.44918102
254	0xbe2da045	-0.16955669
255	0xbe3bc8ec	-0.18338364

gru_in.bias_ih_l0 f4 [372]
0	0x3dea9e3a	0.114559606
1	0x3e50fbc4	0.20408541
2	0x3da6ba4e	0.081410035
3	0x3e8f7fec	0.28027284
4	0xbdc3638e	-0.09540473
5	0xbe6197c7	-0.22030555
6	0xbe1b4074	-0.15161306
7	0xbe3f71b6	-0.18695721
8	0xbe8f0f06	-0.2794115
9	0xbd5428a8	-0.051796585
10	0xbe7d2330	-0.24720454
11	0xbe2c2c46	-0.16813764
12	0x3e0d813a	0.13818827
13	0xbe864f58	-0.2623241
14	0xbe869b96	-0.26290578
15	0xbe4fff8e	-0.2031233
16	0xbe39fc8c	-0.18162745
17	0xbe62ce6c	-0.22149056
18	0xbc8b48ee	-0.017002549
19	0xbc0fce9e	-0.008777289
20	0xbecd82db	-0.40138897
21	0x3d00d87e	0.031456463
22	0xbe9693c3	-0.29409608
23	0xbe026d0f	-0.12736915
24	0xbeacc93c	-0.3374728
25	0x3de30859	0.110855766
26	0x3cf1a742	0.0294987
27	0x3dd1bcb3	0.1024107
28	0x3e4c657d	0.1996059
29	0xbc5e3c82	-0.013564231
30	0xbe6ff7a2	-0.23434308
31	0xbe905bcd	-0.28195038
32	0xbea66443	-0.3249837
33	0xbe372c80	-0.17888069
34	0xbd90012b	-0.07031473
35	0x3de306cd	0.110852815
36	0xbe93b53f	-0.28849217
37	0xbe8e0029	-0.27734497
38	0x3dafbd9f	0.08581089
39	0xbd4dd511	-0.050252024
40	0xbdf4e8e0	-0.1195848
41	0x3e554d2c	0.2083022
42	0x3e9ebd64	0.3100387
43	0xbe62c385	-0.22144897
44	0xbe03948c	-0.12849635
45	0x3de124cf	0.10993349
46	0x3e8f2e4e	0.27965015
47	0xbe1f7f0c	-0.15575808
48	0x3ceb2040	0.028701901
49	0xbe95296d	-0.29133168
50	0xbe83e9fd	-0.25764456
51	0xbe31cfd8	-0.17364442
52	0x3c8a616c	0.016892157
53	0xbdddd42c	-0.10831484
54	0xbe64dd4e	-0.22350046
55	0xbe3941ee	-0.18091556
56	0xbc65ac21	-0.0140180895
57	0xbe280367	-0.16407548
58	0xbe79e47e	-0.24403569
59	0xbe77aa62	-0.2418609
60	0x3e89fb4f	0.26949546
61	0xbe341461	-0.17585899
62	0xbd334cd7	-0.043774452
63	0xbdd0d4ea	-0.1019686
64	0xbdef4b75	-0.11684314
65	0x3e6259a5	0.22104509
66	0xbd10518b	-0.035234015
67	0x3df0bd0b	0.11754807
68	0xbe1945da	-0.14968053
69	0xbe1c9e27	-0.15294705
70	0xbe013218	-0.12616765
71	0xbb1a335a	-0.0023529143
72	0xbe57f780	-0.21090508
73	0xbaa2d719	-0.0012423723
74	0xbd79a708	-0.06095031
75	0xbe42f0d9	-0.19037189
76	0x3cec27e8	0.028827623
77	0x3e51b753	0.20480089
78	0xbe0cd60b	-0.13753526
79	0xbea5dff3	-0.32397422
80	0x3e191a72	0.14951494
81	0x3e7c61f9	0.24646749
82	0xbdaa1065	-0.08303908
83	0xbe832900	-0.25617218
84	0xbe543b9d	-0.20725866
85	0xbd436730	-0.04770583
86	0xbdf76cf7	-0.1208133
87	0xbd682792	-0.056678362
88	0x3e3db5bc	0.18526357
89	0xbd118cdb	-0.03553472
90	0xbea1525d	-0.3150815
91	0xbdd87d5b	-0.10570785
92	0xbe8a72c5	-0.27040687
93	0xbe391372	-0.18073824
94	0x3e251e2b	0.1612479
95	0xbe451b9f	-0.19248818
96	0xbdbef500	-0.09324074
97	0xbecf6bc6	-0.40511912
98	0xbe9344f0	-0.28763533
99	0xbe906cb4	-0.28207934
100	0x3d1a7456	0.037708603
101	0xbe095c6b	-0.13414161
102	0x3e37125c	0.17878097
103	0xbde83073	-0.11337366
104	0x3e768dd7	0.24077545
105	0x3e59f616	0.2128528
106	0xbcd1b73c	-0.025600068
107	0xbe0535ad	-0.13008757
108	0xbe0cdbf0	-0.13755774
109	0xbe84a642	-0.25908095
110	0xbd8d621e	-0.0690348
111	0x3ddba72b	0.10725244
112	0x3e321c8e	0.17393705
113	0x3e871417	0.26382515
114	0xbe3f62c8	-0.18690026
115	0xbdb08444	-0.08618978
116	0xbdc62a5a	-0.09676047
117	0xbe0e117f	-0.13873862
118	0xbe9c16b3	-0.30486068
119	0xbe8510b8	-0.25989318
120	0xbea3754e	-0.31925434
121	0x3e38b1d9	0.18036593
122	0xbea98896	-0.3311202
123	0xbe1aa27c	-0.15101045
124	0xbc580890	-0.013185635
125	0xbbe4efef	-0.00698661
126	0xbe78fc05	-0.24314888
127	0xbe3116e6	-0.17293891
128	0xbe18b009	-0.14910902
129	0xbe8e8691	-0.2783704
130	0xbdfacd49	-0.12246186
131	0xbdc80f4c	-0.09768543
132	0xbe983363	-0.29726705
133	0xbda2528f	-0.07925903
134	0xbe528bbe	-0.2056112
135	0xbe83daf4	-0.25752985
136	0x3cc323cd	0.023820782
137	0xbe4761fa	-0.19470969
138	0xbe2efbd3	-0.17088251
139	0xbe9901fb	-0.29884323
140	0xbe7f2f77	-0.2492045
141	0xbe9065c2	-0.28202635
142	0xbc0aa7c2	-0.008462848
143	0xbd260e9d	-0.04054128
144	0xbe1f5171	-0.15558411
145	0x3e1335fa	0.14376059
146	0xbe123b9f	-0.14280556
147	0xbe14adfb	-0.14519493
148	0xbea3451e	-0.3188867
149	0xbd93eaf0	-0.07222545
150	0xbd4084d6	-0.047001682
151	0xbd4f9f8b	-0.05068926
152	0xbe84f4f2	-0.25968128
153	0xba3150f7	-0.0006764079
154	0xbd969f58	-0.07354611
155	0xbe36a4c2	-0.17836288
156	0xbda0cda4	-0.07851723
157	0xbe3c59cf	-0.18393634
158	0xbe3487f6	-0.1762999
159	0xbde8ff95	-0.113768734
160	0xbe83e5b7	-0.25761196
161	0xbeb1098f	-0.34577605
162	0x3cbc3ef4	0.022979237
163	0xbe618c3a	-0.22026148
164	0xbe51494d	-0.20438118
165	0xbde04d01	-0.10952187
166	0x3dec0e86	0.115262076
167	0xbea14805	-0.3150026
168	0xbe1f5054	-0.15557986
169	0xbe7f386b	-0.24923865
170	0xbe7a7091	-0.24457003
171	0xbea107ef	-0.31451365
172	0xbea0080b	-0.31256136
173	0xbe6ecd63	-0.23320536
174	0xbe77cc00	-0.24198914
175	0xbe18ff85	-0.14941223
176	0xbe0015e8	-0.12508357
177	0xbe969466	-0.29410094
178	0xbe98e416	-0.29861516
179	0xbe644791	-0.22292925
180	0xbd4b3c70	-0.049618185
181	0xbd0af683	-0.0339265
182	0xbea4aad9	-0.32161596
183	0xbe1043f4	-0.14088422
184	0xbe0ae9de	-0.13565776
185	0xbe49002f	-0.19628976
186	0x3e95f108	0.29285455
187	0xbe6c08cd	-0.23050232
188	0x3c817a52	0.015805397
189	0xbdb3800a	-0.08764656
190	0xbe24d6f7	-0.16097628
191	0xbca216a9	-0.019786196
192	0xbc8a65aa	-0.01689418
193	0xbe3205da	-0.17385045
194	0xbe2cfe3a	-0.16893855
195	0x3ccac3ed	0.024751628
196	0xbe575b25	-0.21030863
197	0xbe1986f0	-0.14992881
198	0xbc84261f	-0.016131459
199	0xbe2cd1e4	-0.16876942
200	0xbe2b58d1	-0.167331
201	0xbe72c96a	-0.23709646
202	0xbe32d199	-0.17462768
203	0xbecc37a8	-0.39886212
204	0xbe1b092a	-0.15140215
205	0x3d61399f	0.054986592
206	0x3b62d2c7	0.0034610496
207	0xbd5c618d	-0.05380397
208	0xbd9979c8	-0.07493931
209	0xbe961e7e	-0.2932014
210	0xbe8cf7c4	-0.2753278
211	0xbe0e5008	-0.13897717
212	0xbc49c25c	-0.012314405
213	0xbe4aa474	-0.19789296
214	0xbe871bc1	-0.26388362
215	0xbe00d49f	-0.12581109
216	0xbdb12066	-0.08648758
217	0xbe5362d2	-0.20643166
218	0xbe1e3150	-0.15448499
219	0xbe68a8c7	-0.22720633
220	0xbe12d9e4	-0.14340931
221	0xbe5f7406	-0.21821603
222	0x3ce906c5	0.02844561
223	0xbe623183	-0.220892
224	0xbc0f5ad8	-0.008749686
225	0xbdcd1716	-0.10014169
226	0xbdf8f9ab	-0.121569954
227	0xbe7f39fc	-0.24924463
228	0xbdfc8e99	-0.12331886
229	0x3e5b17cf	0.21395801
230	0xbddf4a2a	-0.109028175
231	0xbe4435fa	-0.19161215
232	0xbe42ecf9	-0.1903571
233	0xbddbbbaa	-0.107291535
234	0x3c78ca41	0.01518494
235	0xbe18a852	-0.14907959
236	0x3bfb561d	0.0076701776
237	0x3d4d4e1d	0.050123323
238	0xbec168a3	-0.37775144
239	0xbe6a5d28	-0.22887099
240	0xbe8b0437	-0.27151653
241	0xbe8857c2	-0.26629454
242	0xbe81504d	-0.25256577
243	0xbe9724c8	-0.2952025
244	0xbe94c0f0	-0.2905345
245	0xbe4f6f7d	-0.20257373
246	0xbe55ce64	-0.20879513
247	0xbe5263e8	-0.20545924
248	0xbdbf0dbb	-0.09328791
249	0x3e184c65	0.14872892
250	0x3e815896	0.25262898
251	0xbe3a3020	-0.1818242
252	0xbdfcade4	-0.123378545
253	0xbde049d3	-0.10951581
254	0x3ceb417c	0.028717749
255	0xbed218c2	-0.41034514

gru_in.bias_hh_l0 f4 [372]
0	0xbcef8e7c	-0.029242747
1	0x3e6573c2	0.2240744
2	0x3d84a77a	0.06477256
3	0x3e34e1b3	0.17664222
4	0xbc1cc94e	-0.009569479
5	0xbe4ab5b3	-0.19795875
6	0xbe677edc	-0.22606987
7	0xbe5b842b	-0.21437137
8	0xbe2367db	-0.15957586
9	0xbc622e56	-0.013804993
10	0xbe807d2a	-0.25095493
11	0xbe5b9a67	-0.21445619
12	0x3d0e0fc3	0.034683
13	0xbe2547a7	-0.16140614
14	0xbe6a66b0	-0.22890735
15	0xbe79f644	-0.24410349
16	0xbe212a77	-0.15738855
17	0xbe8a6857	-0.2703273
18	0xbe0869be	-0.13321587
19	0xbc8efebe	-0.017455455
20	0xbec745b4	-0.38920367
21	0xbd24c6c4	-0.04022862
22	0xbe6d0870	-0.2314775
23	0xbdb3fc0a	-0.08788307
24	0xbe518ef1	-0.20464684
25	0x3db57227	0.088596635
26	0xbcacacd6	-0.021078508
27	0x3d92c75c	0.07166931
28	0x3e87a99f	0.26496598
29	0xbc51e354	-0.012810547
30	0xbe6d448c	-0.2317068
31	0xbe4026eb	-0.18764846
32	0xbe8a15a0	-0.26969624
33	0xbe98bfe0	-0.2983389
34	0x3c112a56	0.008860191
35	0x3c7d8097	0.015472553
36	0xbdf116d1	-0.1177193
37	0xbe83b6d3	-0.2572542
38	0x3db0363e	0.08604096
39	0xbe07d38e	-0.13264295
40	0xbe76ba73	-0.24094562
41	0x3e381d5e	0.17979953
42	0x3e9cd8eb	0.30634245
43	0xbe9d02fb	-0.30666336
44	0xbe863a57	-0.26216385
45	0x3daf3ae9	0.08556158
46	0x3ec0af2f	0.37633654
47	0xbe4f334b	-0.2023441
48	0x3db90ce6	0.09035663
49	0xbe1c4ea4	-0.15264374
50	0xbea3315a	-0.3187359
51	0xbda2bb2e	-0.07945858
52	0xbd932814	-0.07185379
53	0xbdd7921a	-0.105259135
54	0xbea32710	-0.3186574
55	0xbe9fbffb	-0.31201157
56	0x3b945e4a	0.0045278417
57	0xbe7f5de4	-0.2493816
58	0xbe8fecd1	-0.28110364
59	0xbe3dd004	-0.18536383
60	0x3dfe886b	0.124283634
61	0xbe2e2fc3	-0.17010407
62	0xbd2cef9d	-0.0422207
63	0xbda28457	-0.07935398
64	0xbe5b2f9e	-0.21404883
65	0x3e832a66	0.25618285
66	0xbdfa474d	-0.12220631
67	0x3e245879	0.16049375
68	0xbe4c897b	-0.1997432
69	0xbe2c3a82	-0.16819194
70	0xbe08a814	-0.13345367
71	0xbd0c4d61	-0.03425348
72	0xbe12e14c	-0.14343756
73	0xbda22d8b	-0.07918843
74	0xbe4054dd	-0.18782373
75	0xbde6cf97	-0.11270063
76	0x3da2cae5	0.07948855
77	0x3e357286	0.17719468
78	0xbd8f03d3	-0.06983151
79	0xbea02fc0	-0.3128643
80	0x3e274d18	0.16338003
81	0x3dc0d885	0.09416298
82	0xbda65d48	-0.08123261
83	0xbebc5eeb	-0.36791167
84	0xbe88ace4	-0.26694405
85	0xbd830361	-0.06397129
86	0xbe3205ee	-0.17385074
87	0xbe2a793e	-0.16647813
88	0x3de1b329	0.110205
89	0xbce7891a	-0.028263617
90	0xbec48b69	-0.38387612
91	0x3d830fd8	0.06399506
92	0xbe932677	-0.28740284
93	0xbe46befa	-0.1940879
94	0x3cf22e89	0.029563205
95	0xbd3dcfe2	-0.04634083
96	0xbe5d91cd	-0.2163765
97	0xbec7dd11	-0.39035848
98	0xbe890b9c	-0.2676667
99	0xbe838e85	-0.2569467
100	0x389b9910	7.419486e-05
101	0xbe57e8c3	-0.21084885
102	0x3df619f3	0.12016668
103	0xbe07ce28	-0.13262236
104	0x3eaae6be	0.33379167
105	0x3e88631c	0.26638114
106	0xbc811166	-0.015755367
107	0xbe3e1ead	-0.1856639
108	0xbe2a1111	-0.16608073
109	0xbe5d1072	-0.21588305
110	0xbe510bfc	-0.20414728
111	0x3e06942d	0.13142462
112	0x3e170848	0.14749253
113	0x3e82ec24	0.25570786
114	0xbe3cc5b5	-0.18434794
115	0xbe6e9873	-0.23300342
116	0xbda0dd6e	-0.07854734
117	0xbd6f6c88	-0.058453113
118	0xbe81853d	-0.25296965
119	0xbe885150	-0.26624537
120	0xbe66746e	-0.22505352
121	0x3ceb539e	0.028726395
122	0xbea142b7	-0.31496212
123	0xbe99d3aa	-0.300443
124	0xbdd5cb4f	-0.10439169
125	0x3d9d0669	0.07667238
126	0xbe6879b5	-0.22702678
127	0xbdecf6d3	-0.115705155
128	0xbe5c0d13	-0.21489362
129	0xbe99d4e9	-0.3004525
130	0xbce9d698	-0.02854471
131	0xbe80cd74	-0.25156748
132	0xbe4a7f78	-0.19775188
133	0xbde9b609	-0.114116736
134	0xbea2a8cb	-0.31769404
135	0xbe5653e0	-0.20930433
136	0x3d4c0deb	0.04981796
137	0xbe4ae7e1	-0.19815017
138	0xbdfd642f	-0.12372624
139	0xbea05f1e	-0.3132257
140	0xbe5c297f	-0.21500205
141	0xbea05cff	-0.3132095
142	0x3cfc65ca	0.030810256
143	0xbd9ca7e4	-0.0764921
144	0xbe40c499	-0.18824996
145	0x3e08c9dc	0.13358253
146	0xbe89a8f5	-0.26886716
147	0xbe6ed4a0	-0.23323298
148	0xbe9ea924	-0.3098842
149	0xba85be6e	-0.0010203847
150	0x3c0eb37d	0.0087097855
151	0x3c37a358	0.011208378
152	0xbe87e0b2	-0.26538616
153	0xbdd79064	-0.10525587
154	0xbd6bcf35	-0.057570655
155	0xbe7fe7fd	-0.2499084
156	0xbe2d4765	-0.16921766
157	0xbe9ca204	-0.30592358
158	0xbe72f376	-0.23725685
159	0xbdb6b3b3	-0.08920994
160	0xbe9932b2	-0.2992149
161	0xbe76c007	-0.2409669
162	0x3cd225a7	0.02565272
163	0xbeb2331b	-0.34804615
164	0xbe5d2680	-0.21596718
165	0xbda3b1a8	-0.079928696
166	0x3d8f7abb	0.07005831
167	0xbe3bd9cb	-0.183448
168	0xbe4b07de	-0.1982722
169	0xbe613ace	-0.21995088
170	0xbe244b97	-0.1604446
171	0xbe261a6f	-0.16221021
172	0xbe711e95	-0.23546822
173	0xbe535c16	-0.20640597
174	0xbe80cae0	-0.2515478
175	0xbce62ad9	-0.028096603
176	0xbe58c2e3	-0.21168093
177	0xbe85bd89	-0.26121166
178	0xbe03119e	-0.12799689
179	0xbe8f0da3	-0.27940091
180	0xbd9e3481	-0.07724858
181	0xbd4e200b	-0.050323527
182	0xbe6d5643	-0.23177437
183	0xbe7b122e	-0.24518654
184	0xbe7eef1c	-0.248959
185	0xbe52a7f4	-0.20571882
186	0x3eb2e541	0.34940532
187	0xbe3a14e1	-0.18172027
188	0x3d10a97e	0.03531789
189	0x398f6489	0.0002734999
190	0xbe379c4e	-0.1793072
191	0xbe0eb0a8	-0.13934577
192	0xbbe70ddd	-0.007051213
193	0xbe5e34f2	-0.21699885
194	0xbe62440e	-0.22096273
195	0x3cff1560	0.031138122
196	0xbe2f0bcf	-0.17094348
197	0xbe33ff78	-0.17577922
198	0xbddb0f30	-0.10696256
199	0xbe9bf55a	-0.30460626
200	0xbe09e21c	-0.1346516
201	0xbe3797fd	-0.17929073
202	0xbdce46bc	-0.10072085
203	0xbed4093a	-0.4141329
204	0xbe315c21	-0.173203
205	0xbda31f33	-0.07964935
206	0x3d6c61f0	0.057710588
207	0xbe5b4211	-0.21411921
208	0xbe65539a	-0.22395173
209	0xbe0296b2	-0.12752798
210	0xbe951e32	-0.291246
211	0xbcaf7533	-0.02141819
212	0xbdd9e03f	-0.10638475
213	0xbe54697c	-0.20743364
214	0xbed1ee65	-0.41002193
215	0xbd22e72e	-0.03977125
216	0xbdb69116	-0.08914392
217	0xbe195f02	-0.14977649
218	0xbe219a37	-0.15781485
219	0xbe70f2a5	-0.23530062
220	0xbe5bf0ab	-0.21478526
221	0xbe3a5d3b	-0.18199627
222	0x3d02c779	0.031928513
223	0xbdb4e7c5	-0.08833269
224	0x3d424440	0.04742837
225	0xbe16cf2d	-0.14727469
226	0xbd60d4ac	-0.05489032
227	0xbe62da00	-0.22153473
228	0xbd91608b	-0.07098492
229	0x3dc3f0b6	0.09567396
230	0xbd115b09	-0.03548721
231	0xbe7e99ac	-0.24863309
232	0xbe42b85f	-0.19015644
233	0xbe043560	-0.12910986
234	0x3cb7ea10	0.022450477
235	0xbe0e2749	-0.13882174
236	0x3cd96e82	0.026541952
237	0x3e12fa5d	0.14353319
238	0xbeb8f57f	-0.361248
239	0xbda831d1	-0.08212627
240	0xbe68f854	-0.2275098
241	0xbe704711	-0.2346461
242	0xbe536fe4	-0.20648152
243	0xbe2a3d3e	-0.16624925
244	0xbe8e0fd4	-0.2774645
245	0xbe92ee15	-0.28697267
246	0xbe5f0bb9	-0.21781816
247	0xbd492053	-0.049103092
248	0xbe2f98d0	-0.17148137
249	0x3d021968	0.03176251
250	0x3d5a9501	0.053364757
251	0xbd673f2d	-0.056456733
252	0xbdd35749	-0.10319383
253	0x3dc926fc	0.09821889
254	0x3d9d1015	0.07669083
255	0x3dd86b1d	0.10567305

gru_out.weight_ih_l0 f4 [372, 3]
0	0x3c7b2d4d	0.015330625
1	0xbd58028c	-0.052736804
2	0x3bd93aff	0.0066293473
3	0x3b8395a6	0.004015642
4	0x3b373c09	0.0027959368
5	0xbd16f49e	-0.03685438
6	0x3d2023f0	0.039096773
7	0x3db6b0b7	0.089204244
8	0xbdf54750	-0.119764924
9	0xbdca4062	-0.09875561
10	0xbe28315a	-0.16425076
11	0x3dc95ab7	0.098317556
12	0x3c6e8273	0.014557469
13	0x3e012fe7	0.1261593
14	0xbbe1a923	-0.0068866177
15	0x3d2f9a0a	0.042871512
16	0x3eaee963	0.34162435
17	0x3ec8416a	0.39112407
18	0x3b03e700	0.00201267
19	0x3dfbe265	0.12299041
20	0xbc8fe1b4	-0.017563678
21	0x3eb84394	0.35989058
22	0x3eced86e	0.40399498
23	0x3df9972d	0.121870376
24	0x3ead5ef0	0.33861494
25	0x3f1178ef	0.56825155
26	0xbe28c0cd	-0.16479798
27	0x3ea17d8d	0.315411
28	0xbe97ebeb	-0.2967218
29	0xbf267146	-0.6501659
30	0xbd0d9332	-0.034564205
31	0x3d47d6c2	0.048788793
32	0x3cc825dc	0.024432115
33	0xbd839d7f	-0.06426524
34	0x3ec02925	0.3753139
35	0xbd8b58bb	-0.06804033
36	0xbcf41a8d	-0.029797817
37	0xbd4f5625	-0.050619263
38	0x3eb30bae	0.34969848
39	0x3d98bae0	0.074575186
40	0x3f42dea4	0.7612097
41	0x3d600646	0.054693483
42	0xbf237aa1	-0.6385899
43	0x3e181cc6	0.14854726
44	0xbeee9f68	-0.46605992
45	0x3d7288a1	0.05921233
46	0x3e21acc9	0.15788569
47	0x3cd474c6	0.025934588
48	0x3bba1028	0.0056781955
49	0x3e4a52a1	0.19758083
50	0x3cebc776	0.028781634
51	0xbe1f5de1	-0.15563156
52	0x3f3aa2cc	0.7290466
53	0x3d6ab805	0.0573044
54	0x3e1a2beb	0.15055816
55	0xbec64175	-0.38721815
56	0xbe67251b	-0.22572748
57	0x3d2391aa	0.039933838
58	0x3e65fa27	0.22458707
59	0xbd07e517	-0.03317746
60	0xbac90c02	-0.0015338662
61	0x3d89ad74	0.06722537
62	0x3c404c49	0.011736938
63	0x3d830c84	0.063988715
64	0x3d59fa09	0.053216968
65	0x3cf13688	0.029444948
66	0x3dac4cd2	0.0841309
67	0xbed433ea	-0.41445857
68	0xbe2b18ae	-0.16708633
69	0xbe07239b	-0.13197176
70	0xbd5d7110	-0.054062903
71	0x3e79c191	0.24390246
72	0x3d24ed15	0.04026516
73	0xbbd42500	-0.0064741373
74	0xbc9dcfc9	-0.019264119
75	0xbe390e45	-0.1807185
76	0x3ee58604	0.44828808
77	0xbdeba772	-0.11506547
78	0xbcdfdf5c	-0.027328186
79	0xbe1146eb	-0.1418721
80	0x3b0d1fdf	0.002153389
81	0xbdc00cb6	-0.093774244
82	0x3e2f342c	0.17109746
83	0x3e133668	0.14376223
84	0xbd3beced	-0.045880247
85	0x3ebf8ebd	0.37413588
86	0x3e1cb5f3	0.15303783
87	0x3a69c0d7	0.000891698
88	0xbe06e28a	-0.13172355
89	0x3d47a30f	0.04873949
90	0x3e07c23f	0.13257693
91	0x3e142c90	0.14470124
92	0xbdbd305c	-0.092377394
93	0x3d029d50	0.031888306
94	0x3f405b73	0.7513954
95	0x3c240495	0.010010858
96	0xbdb14e8f	-0.08657562
97	0x3d84d77b	0.06486412
98	0x3d5947d1	0.053047005
99	0x3d26f32e	0.040759258
100	0xbd9fc6de	-0.07801603
101	0x3cb5f70d	0.02221253
102	0xb9ac2ec1	-0.0003284123
103	0xbf92dbd0	-1.1473331
104	0x3d6589ec	0.056039736
105	0x3f00f46d	0.50372964
106	0xbec8fa34	-0.3925339
107	0xbea29359	-0.31753042
108	0x3d52df43	0.05148245
109	0xbee71abb	-0.4513758
110	0xbcd24a6e	-0.025670256
111	0xbcdc303a	-0.026878465
112	0xbdcc123b	-0.09964415
113	0xbd053341	-0.032519583
114	0x3deb421c	0.11487219
115	0xbf2fe305	-0.6870578
116	0xbd4f308d	-0.05058341
117	0x3ced42c7	0.028962506
118	0xbe4eecd9	-0.20207538
119	0x3e0ce04a	0.13757434
120	0xbde0b819	-0.10972614
121	0xbea1b8df	-0.31586358
122	0x3bbe29e7	0.005803335
123	0xbd4c7fd1	-0.049926583
124	0xbd36d9db	-0.044641357
125	0xbb192c52	-0.0023372364
126	0x3ce62d76	0.02809785
127	0xbdb767fd	-0.08955381
128	0x3c90f2c0	0.017693877
129	0x3dbb49aa	0.0914491
130	0xbdbd25eb	-0.09235748
131	0xbb1c6f58	-0.0023870077
132	0x3ebcadca	0.3685134
133	0x3e8cfd8c	0.2753719
134	0x3da4a37e	0.08038996
135	0x3dbaabf7	0.09114831
136	0xbda77254	-0.08176103
137	0xbd772f38	-0.060347766
138	0x3da4beb0	0.08044183
139	0x3f968a6e	1.1760995
140	0xbd4e4fae	-0.050368957
141	0xbe1c5115	-0.15265305
142	0xc035f333	-2.8429687
143	0xbebe91ac	-0.37220514
144	0xbde781df	-0.11304068
145	0x3ebbb66d	0.36662617
146	0xbe0288fd	-0.1274757
147	0x3ebf16f1	0.3732219
148	0xbf585a49	-0.84512764
149	0x3e4215c6	0.18953618
150	0x3d944312	0.07239355
151	0xbc3c30ba	-0.011486227
152	0x3d284b2b	0.04108731
153	0x3e98f2cb	0.29872736
154	0xbf0132f4	-0.50468373
155	0xbd2146ac	-0.03937404
156	0x3ca16be8	0.019704774
157	0xbcfe9daa	-0.03108104
158	0x3c4371d2	0.011928992
159	0x3c24e307	0.010063893
160	0x3eb757a8	0.35809064
161	0xbb4a77c9	-0.0030894151
162	0xbc99ae11	-0.01875976
163	0xbe333624	-0.17501122
164	0xbbd86c47	-0.0066047045
165	0xbda9f59d	-0.082988
166	0x3d68e675	0.056860406
167	0xbdd42530	-0.103586555
168	0x3d55a787	0.05216172
169	0xbe4c0812	-0.19924954
170	0x3c1a00ce	0.009399606
171	0xbdbd4f78	-0.09243673
172	0xbe6d2e64	-0.23162228
173	0xbe07c145	-0.1325732
174	0xbcc3ab6b	-0.02388545
175	0x3cce487b	0.025181046
176	0x3d5c502c	0.053787395
177	0xbd4a44dc	-0.049382076
178	0x3f16d62e	0.5892056
179	0xbb005db5	-0.0019587104
180	0xbd82ea94	-0.063923985
181	0xbf452e3d	-0.7702368
182	0xbde340b4	-0.110963255
183	0x3c87bf32	0.016570661
184	0xbe364522	-0.1779981
185	0xbd780d64	-0.060559645
186	0xbdebe321	-0.11517931
187	0xbe7e38c4	-0.24826342
188	0xbd443319	-0.047900293
189	0xbca86496	-0.020555776
190	0x3d3405ab	0.043950718
191	0xbd9c0f01	-0.07620049
192	0x3d0988e2	0.033577807
193	0x3f42d3b3	0.7610428
194	0xbe8becb9	-0.27329043
195	0x3ed8df17	0.42357704
196	0xbf87d5a1	-1.0612069
197	0xbdad3226	-0.08456831
198	0x3eec6444	0.46170247
199	0xbf455de6	-0.770964
200	0x3f14a1cd	0.5805939
201	0x3ba06119	0.0048943874
202	0xbe1b566c	-0.15169686
203	0x3ee0d55f	0.4391279
204	0xbb9c94a4	-0.0047784615
205	0x3e032be3	0.1280971
206	0xbd5f6b9d	-0.054545987
207	0x3d061669	0.032736216
208	0xbe0e03da	-0.13868657
209	0x3a8824e5	0.0010386972
210	0x3e9c1ca8	0.30490613
211	0x3ef8792c	0.48529947
212	0x3ec00524	0.37503922
213	0xbcca1c08	-0.02467157
214	0x3e97727b	0.2957953
215	0xbd213855	-0.039360363
216	0x3cdd5f0c	0.027022861
217	0xbba4c830	-0.005028747
218	0x3ce38165	0.027771661
219	0x3d770b82	0.06031371
220	0x3e9f4e11	0.31114247
221	0x3d99afbb	0.07504221
222	0x3cf76b40	0.030202508
223	0x3df9819d	0.12182925
224	0x3dc867ba	0.09785409
225	0x3b82474c	0.0039757844
226	0x3f86a078	1.0517721
227	0xbd61c377	-0.05511805
228	0xbc793dde	-0.015212504
229	0xbdf7f069	-0.121064015
230	0x3c3ba469	0.011452773
231	0x3b9e6baf	0.004834614
232	0xbd778541	-0.060429815
233	0xbc07bb2f	-0.008284374
234	0x3ea46f98	0.3211639
235	0x3df22c41	0.11824847
236	0xbd97aa29	-0.07405502
237	0x3dc45be6	0.09587841
238	0x3e913b02	0.28365332
239	0x3c0065e3	0.007836792
240	0x3bce93f3	0.006304258
241	0x3f4b4176	0.7939676
242	0x3cdc94b8	0.026926383
243	0xbd5005a4	-0.05078663
244	0xbefba76d	-0.49151173
245	0x3d4063eb	0.04697029
246	0x3d9332d3	0.07187428
247	0xbd40dfff	-0.04708862
248	0x3d666d3b	0.056256514
249	0x3cbd5f9f	0.023116885
250	0x3bdf41ba	0.006813255
251	0xbe025323	-0.12727027
252	0xbd111109	-0.035416637
253	0x3d2ad3f4	0.04170604
254	0xbcca8c18	-0.024725005
255	0x3d8dbf39	0.069212385

gru_out.weight_hh_l0 f4 [372, 124]
0	0x3f9e46df	1.2365378
1	0xbe966d46	-0.29380244
2	0x3db154f0	0.08658779
3	0x3c609018	0.01370623
4	0xbe64888b	-0.22317712
5	0xbd936ffc	-0.07199094
6	0x3bf5bfe6	0.0074996827
7	0xbdde77f6	-0.108627245
8	0xbcf7bdd9	-0.030241894
9	0x3e6091d9	0.21930636
10	0xbe2ebb90	-0.17063737
11	0x3e190a44	0.14945322
12	0xbe26bc7d	-0.1628284
13	0xbe4e601a	-0.20153847
14	0xbdcc56d4	-0.09977499
15	0x3eb276fe	0.3485641
16	0x3a5cf20f	0.00084284035
17	0xbef2448d	-0.47317925
18	0xbd6dcf01	-0.058058742
19	0xbd8c6ac9	-0.06856305
20	0xbf300636	-0.6875948
21	0x3e310842	0.17288306
22	0xbe3b017c	-0.18262285
23	0x3e037d0f	0.12840675
24	0x3d9e6fcb	0.077361666
25	0xbd8784cd	-0.066171266
26	0xbc1a334c	-0.009411644
27	0x3d4d302f	0.05009478
28	0x39cf48d0	0.00039536366
29	0xbd47540c	-0.048664138
30	0x3d13c646	0.03607776
31	0xbdda3a14	-0.10655609
32	0xbc484856	-0.0122242775
33	0x3e14913b	0.14508526
34	0x3ea7da30	0.3278365
35	0xbe5ad55d	-0.21370454
36	0xbf2ef293	-0.6833889
37	0x3d71abee	0.059001856
38	0xbe372366	-0.17884597
39	0xbd837430	-0.064186454
40	0xbeadd16d	-0.33948842
41	0xbe6814ad	-0.22664137
42	0x3c7a3680	0.015271783
43	0xbf0c53e9	-0.54815537
44	0x3d3ea169	0.04654065
45	0xbe05910b	-0.13043611
46	0x3d871cc4	0.065972835
47	0xbd39eb55	-0.045390446
48	0xbe34cc0a	-0.1765596
49	0x3dc2f3fa	0.09519191
50	0xbe8d811b	-0.27637562
51	0xbe37f9fe	-0.17966458
52	0x3b1ff919	0.0024409948
53	0x3d5082a6	0.050905846
54	0xbece8fe8	-0.40344167
55	0xbe62ec1e	-0.22160384
56	0x3da13b87	0.07872682
57	0xbcb7637b	-0.022386303
58	0xbc3acfcd	-0.011402083
59	0xbcbf6531	-0.023363682
60	0x3e57e9c5	0.2108527
61	0x3d87b1d0	0.06625712
62	0xbe065d14	-0.13121444
63	0x3d49ff38	0.04931566
64	0xbcbc516f	-0.02298805
65	0x3e569daa	0.20958582
66	0xbe391f0d	-0.18078251
67	0xbd384390	-0.044986308
68	0xbcfc4785	-0.030795822
69	0x3ed9e073	0.42554054
70	0xbd99181b	-0.07475301
71	0x3f07be66	0.530249
72	0xbd92f1df	-0.071750395
73	0xbd9f53d0	-0.07779658
74	0x3d9a3a15	0.075306095
75	0xbe98ac88	-0.2981913
76	0xbf2bf3f2	-0.67169106
77	0x3da07abe	0.07835911
78	0xbd9a4a17	-0.07533663
79	0xbba215b5	-0.0049464353
80	0xbda3cff6	-0.0799865
81	0xbef6747d	-0.48135749
82	0x3f6de5a7	0.92928547
83	0xbdda88b2	-0.10670604
84	0xbcd77cbc	-0.026304595
85	0xbe87d4d5	-0.26529565
86	0x3cc9f728	0.024653986
87	0x3c40ba12	0.011763113
88	0x3ca47b73	0.020078396
89	0x3d8b284f	0.06794798
90	0xbef0792c	-0.46967447
91	0xbdc78c5f	-0.097435705
92	0xbcc27550	-0.02373758
93	0x3dd190cf	0.10232698
94	0x3e4cbd7b	0.19994156
95	0xbcf7b7d8	-0.03023903
96	0xbdf1c697	-0.11805456
97	0x3d50ef07	0.051009204
98	0x3d86caa4	0.065816194
99	0x3d894953	0.067034386
100	0xbe33b47d	-0.1754932
101	0xbce90dac	-0.028448902
102	0x3d84a080	0.064759254
103	0x3bcfac33	0.0063376664
104	0xbe5f79d1	-0.21823813
105	0xbe88e585	-0.2673761
106	0x3ee6304f	0.44958732
107	0x3de82bb4	0.11336461
108	0x3e47fa75	0.19529136
109	0xbe75cc09	-0.24003614
110	0xbe8c3b59	-0.2738903
111	0xbdae474c	-0.085096925
112	0xbe125f28	-0.14294112
113	0x3e11d362	0.14240792
114	0xbf377c3c	-0.7167394
115	0xbf0227b5	-0.5084184
116	0xbfdbcb70	-1.7171459
117	0xbd84263b	-0.064526044
118	0xbe8b9895	-0.27264848
119	0xbe90ab7e	-0.28255838
120	0x3e075e01	0.13219453
121	0xbeb0a010	-0.34497118
122	0xbb3210c8	-0.0027170647
123	0xbd223933	-0.03960533
124	0xbe6bc259	-0.23023356
125	0xbc3254d4	-0.010884482
126	0x3deb6cf1	0.11495388
127	0xbd7161b3	-0.058931064
128	0x3e9553df	0.2916555
129	0x3dc45f94	0.095885426
130	0x3d3a06a9	0.045416508
131	0xbd8ef7ae	-0.06980835
132	0xbdb0ffac	-0.086425155
133	0xbd1f6bb1	-0.038921062
134	0xbedfa2d3	-0.43678913
135	0x3d9d1da3	0.076716684
136	0x3d87bb47	0.06627517
137	0xbd507c7a	-0.05089996
138	0xbc9d9374	-0.01923535
139	0x3e0f3154	0.13983661
140	0x3dac4b6e	0.084128246
141	0xbeb4d5a7	-0.35319254
142	0xbbd891d9	-0.0066091833
143	0xbcf1dd65	-0.029524514
144	0xbd19f464	-0.037586585
145	0xbd59da78	-0.053186864
146	0x3d9f562b	0.07780107
147	0x3d4a7954	0.049432114
148	0x3d6b3546	0.057423852
149	0x3d2fba25	0.04290213
150	0x3ca36a23	0.01994807
151	0xbbd9fcc7	-0.006652448
152	0x3e694689	0.22780813
153	0xbdbf4360	-0.09339023
154	0x3cbe998f	0.023266582
155	0xbd29a19e	-0.041413896
156	0x3e65f9ec	0.22458619
157	0xbedf431b	-0.43605885
158	0x3e97c26e	0.29640526
159	0xbd5684df	-0.05237281
160	0xbe573b49	-0.21018709
161	0x3fb14fe6	1.3852508
162	0x3db5aba3	0.08870628
163	0x3dd90676	0.105969355
164	0xbf027760	-0.509634
165	0x3de38948	0.11110169
166	0xbdaae529	-0.0834449
167	0xbf074625	-0.5284141
168	0x3df4be9d	0.11950419
169	0x3da78e55	0.081814446
170	0x3dc7db80	0.09758663
171	0xbcda0336	-0.02661286
172	0x3ccbb259	0.024865316
173	0x3d39510a	0.0452433
174	0xbcdf432d	-0.027253712
175	0x3d6b590a	0.05745796
176	0x3d5250a4	0.051346436
177	0x3da1b406	0.07895665
178	0xbec3157d	-0.38102332
179	0xbe17e5b1	-0.14833714
180	0x3c3bbd43	0.011458698
181	0xbd87377f	-0.06602382
182	0xbeb69089	-0.35657147
183	0x3c3c12f7	0.011479131
184	0xbe001aa5	-0.12510164
185	0xbd5adaa0	-0.053431153
186	0xbcb23c48	-0.02175726
187	0xbcf53c1a	-0.029935885
188	0x3c7ac9e0	0.01530692
189	0xbc8a8016	-0.01690678
190	0x3d68ae9f	0.056807157
191	0xbd303bdb	-0.043025833
192	0x3cd096e6	0.025462579
193	0xbd3452d8	-0.04402432
194	0xba9e1689	-0.0012061159
195	0x3e4132f9	0.18867101
196	0xbe72e991	-0.23721911
197	0x3d78a1ee	0.060701303
198	0x3e476ed5	0.19475873
199	0xbe381e98	-0.1798042
200	0xbef8a4fe	-0.4856338
201	0x3e633cb8	0.22191131
202	0xbd1c709d	-0.038193334
203	0xbd074f9f	-0.033034917
204	0x3daba6c5	0.08381418
205	0x3d5a8fe9	0.0533599
206	0x3f41349e	0.7547091
207	0x3ad2b24c	0.0016074865
208	0xbe4f427c	-0.20240206
209	0xbe744663	-0.23854975
210	0xbf94d070	-1.162611
211	0x3c23dbdd	0.01000115
212	0xbcd7af28	-0.026328638
213	0xbe01f660	-0.12691641
214	0x3e721fe1	0.23644973
215	0xbc6faceb	-0.014628629
216	0x3d723c9a	0.059139825
217	0xbdad49db	-0.084613524
218	0x3ea86ded	0.32896367
219	0x3c639435	0.013890316
220	0xbe1c56b9	-0.15267457
221	0x3e3abdb4	0.18236428
222	0xbdd033e9	-0.10166151
223	0xbdec4df3	-0.11538305
224	0xbeff4110	-0.49854326
225	0x3e003a48	0.12522233
226	0x3dc117ba	0.094283536
227	0xbd39e7c1	-0.045387033
228	0x3d948ffd	0.07254026
229	0xbda92da1	-0.08260656
230	0xbe40f3d3	-0.18843012
231	0xb9afef10	-0.00033556717
232	0xbe32f030	-0.17474437
233	0xbc8d64de	-0.017260011
234	0xbdc6b9bd	-0.097033955
235	0xbdc38b40	-0.09548044
236	0x3d3d00e2	0.04614342
237	0x3d363a13	0.044488978
238	0xbe7d7594	-0.24751884
239	0xbeb32be2	-0.34994417
240	0xbf3f9053	-0.74829596
241	0xbd7b5112	-0.06135661
242	0x3e81d900	0.2536087
243	0xbde5e09e	-0.11224483
244	0x3e2e879a	0.17043915
245	0xbdc24af1	-0.0948695
246	0x3f12e8d2	0.57386506
247	0x3d6b3ae2	0.057429202
248	0x3d98402f	0.07434117
249	0xbf022e7e	-0.5085219
250	0x3d85dd46	0.06536345
251	0x3cfe2768	0.03102465
252	0x3ebb07ef	0.3652949
253	0xbec194d1	-0.3780885
254	0x3e62859a	0.22121277
255	0x3e4a1a7e	0.19736668

gru_out.bias_ih_l0 f4 [372]
0	0xbe238378	-0.1596812
1	0x3da9583e	0.08268784
2	0x3dccd996	0.10002439
3	0x3e19505e	0.14972064
4	0xbe34e01c	-0.17663616
5	0xbd331a25	-0.043726105
6	0xbd8fb96a	-0.07017787
7	0xbe31bb8b	-0.17356698
8	0x3ea9e1b2	0.33180004
9	0x3e89be15	0.26902834
10	0xbbb145fe	-0.005409955
11	0x3e7282fc	0.23682779
12	0x3df7f65e	0.12107538
13	0x3cf8db1c	0.030377917
14	0x3e87215e	0.26392645
15	0x3d674876	0.05646559
16	0xbe1b9608	-0.15193951
17	0xbe2303df	-0.15919445
18	0x3c483788	0.012220271
19	0x3dc82ec0	0.09774542
20	0xbdacfbb7	-0.08446448
21	0xb92fe7de	-0.00016775678
22	0x3e382ab6	0.17985043
23	0x3e23678e	0.15957472
24	0xbd1fc3d0	-0.0390051
25	0xbe4dfbdf	-0.20115612
26	0xbe448aac	-0.19193524
27	0x3d490c84	0.0490842
28	0x3e48d6da	0.1961321
29	0x3d266b73	0.040629815
30	0x3ac4575f	0.0014979652
31	0x3d4d11b9	0.05006573
32	0xbdc83f9f	-0.0977776
33	0x3d669544	0.056294695
34	0xbe234fe6	-0.15948448
35	0x3ee665f3	0.44999656
36	0xbe9955d3	-0.2994829
37	0xbdd5b571	-0.10434998
38	0xbde04006	-0.109497115
39	0xbd8d7658	-0.06907338
40	0x3d538f5a	0.051650383
41	0x3ea06116	0.3132407
42	0xbe60b1af	-0.21942781
43	0xbe3dc9c3	-0.18533997
44	0x3e4c870d	0.19973393
45	0xbd85f36b	-0.06540569
46	0x3d4b7de0	0.04968059
47	0x3df1908c	0.11795148
48	0x3e63c6ba	0.22243777
49	0x3e665596	0.22493586
50	0x3d29c031	0.041443054
51	0x3e189af7	0.14902864
52	0xbe329365	-0.17439039
53	0x3e2b9eae	0.1675975
54	0xbebf0402	-0.37307745
55	0x3ebe4f1d	0.37169734
56	0xbe6f9ab1	-0.23398854
57	0x3d062bba	0.032756545
58	0x3e00653b	0.12538616
59	0xbd68c922	-0.05683244
60	0xbaa97054	-0.0012927153
61	0x3d236a17	0.039896097
62	0x3e87d97d	0.26533118
63	0x3de01e6e	0.10943304
64	0x3dc3fbab	0.09569486
65	0x3e61fe2f	0.2206962
66	0x3e3cdd74	0.18443853
67	0xbcc3788f	-0.023861198
68	0xbd0a535e	-0.03377091
69	0x3e8b5e54	0.27220404
70	0xbda66c53	-0.0812613
71	0xbe8c7abd	-0.27437392
72	0x3e16549a	0.1468071
73	0x3e274858	0.1633619
74	0x3c2d6eed	0.010585529
75	0x3d3cfd72	0.04614014
76	0xbe1a732a	-0.15082994
77	0xbdf3d0ff	-0.11905097
78	0x3d8194bb	0.06327196
79	0xbe2a79fd	-0.16648097
80	0xbdb8ea05	-0.09029011
81	0xbdaadc18	-0.08342761
82	0xbe1480df	-0.14502285
83	0x3e1ba9d9	0.1520151
84	0xbd09e941	-0.033669714
85	0xbbd861f0	-0.006603472
86	0xbc87a2bc	-0.01655709
87	0x3e4b8c03	0.19877629
88	0x3e294685	0.16530807
89	0x3e6c1041	0.23053075
90	0x3e60c8d5	0.21951611
91	0x3db2d9de	0.08732961
92	0x3d1a8a6f	0.037729677
93	0x3dcedfd9	0.10101289
94	0xbdfab1ee	-0.12240969
95	0xbc85ab85	-0.016317138
96	0xbcc36e2d	-0.023856247
97	0xbd319b2c	-0.043360874
98	0xbe3a6233	-0.18201523
99	0x3e0c2fe8	0.1369015
100	0xbe0f19fb	-0.13974755
101	0x3dff9b49	0.1248079
102	0xbe3f9351	-0.1870854
103	0x3d6af960	0.05736673
104	0xbd4a4365	-0.04938068
105	0x3e647ffc	0.22314447
106	0xbcebd850	-0.02878967
107	0x3d1a5eea	0.037688173
108	0x3dac5e9f	0.08416485
109	0xbd2deb18	-0.04246053
110	0xbded94e8	-0.11600667
111	0x3e3ac78a	0.1824018
112	0xbbad90d3	-0.0052968054
113	0x3e5ef45b	0.21772902
114	0x3da85d17	0.082208805
115	0xbead090a	-0.3379596
116	0xbe62d53b	-0.22151653
117	0x3e19d211	0.1502154
118	0xbde7f7f3	-0.113265894
119	0x3e153f05	0.14574821
120	0x3d8ef54d	0.06980381
121	0x3e994492	0.29935127
122	0x3e1cc1ea	0.15308347
123	0x3e23e15b	0.16003935
124	0xbe81d9de	-0.25361532
125	0xbe567edb	-0.20946829
126	0xbe090ace	-0.13383028
127	0xbd618e24	-0.055067196
128	0xbe4b4a23	-0.198525
129	0x3df405f2	0.119151965
130	0xbe52f536	-0.20601353
131	0xbc2bb556	-0.010480246
132	0xbe5e8910	-0.21731973
133	0x3e3f3661	0.18673088
134	0xbe1c9021	-0.15289356
135	0xbe492f1c	-0.19646877
136	0x3d9348fc	0.07191655
137	0x3e048cbd	0.12944312
138	0x3c2c4638	0.010514788
139	0x3e81d7e6	0.2536003
140	0xbbdcb497	-0.006735395
141	0xbe42decf	-0.19030307
142	0x3e201886	0.15634355
143	0xbe6ddb06	-0.23228082
144	0xbeb92d99	-0.361676
145	0xbe4ffbc1	-0.2031088
146	0x3e54580e	0.20736715
147	0x3e337ff6	0.17529282
148	0xbeb31b41	-0.3498173
149	0x3cc364c4	0.02385176
150	0xbd5165a3	-0.05112232
151	0xbccd804b	-0.025085589
152	0xbd96eb98	-0.07369155
153	0xbe5f4f98	-0.21807706
154	0xbe3d82c7	-0.18506919
155	0xbda864c6	-0.08222346
156	0xbe4fbaa2	-0.20286039
157	0x3db68234	0.08911553
158	0xbe1019b5	-0.14072306
159	0x3e8e9291	0.27846196
160	0xbe8c0804	-0.27349865
161	0xbd99f4f1	-0.07517422
162	0x3e579839	0.21054162
163	0xbc1f19b1	-0.009710715
164	0xbe7544b0	-0.23951983
165	0xbd24eafd	-0.040263165
166	0xbe51e146	-0.20496091
167	0xbc9c2ceb	-0.019064387
168	0x3e5ac9b5	0.21366008
169	0xbea24b38	-0.31698012
170	0xbcd2d52b	-0.025736412
171	0xbc2e3490	-0.010632649
172	0x3dff7603	0.12473681
173	0xbe6e7764	-0.23287731
174	0x3d5d4459	0.05402026
175	0x3d9ec3df	0.07752203
176	0xbe8db197	-0.27674553
177	0xbea02507	-0.3127825
178	0xbe44e725	-0.192288
179	0x3df44150	0.1192652
180	0xbe2b9d73	-0.16759281
181	0xbe21035e	-0.1572394
182	0xbda378d9	-0.07982034
183	0xbe15836c	-0.14600915
184	0x3e34c6fc	0.17654032
185	0xbd96fd52	-0.07372536
186	0xbeaf48c4	-0.34235203
187	0xbe3091d6	-0.17243132
188	0x3de2fe97	0.110837154
189	0xbbc6f26c	-0.0060713794
190	0xbd9e6934	-0.0773491
191	0xbda19eaf	-0.078915946
192	0xbdfe30f3	-0.1241168
193	0xbeb4f9e1	-0.35346892
194	0x3df29653	0.11845078
195	0xbda5c211	-0.08093656
196	0xbe7edd84	-0.24889189
197	0x3bef7c04	0.007308485
198	0x3d158ba7	0.036510136
199	0x3e133aef	0.1437795
200	0xbf08b126	-0.5339531
201	0xbe321a79	-0.17392911
202	0x3e284289	0.16431631
203	0xbe97e28e	-0.29665035
204	0xbd3977b7	-0.045280185
205	0xbc23e08c	-0.010002267
206	0xbe979233	-0.2960373
207	0xbe4b6fe3	-0.198669
208	0x3e65468d	0.22390194
209	0x3e0a16c6	0.1348525
210	0x3e4714d0	0.19441533
211	0x3e3d90da	0.18512288
212	0x3d09256c	0.033482954
213	0xbd995d48	-0.07488495
214	0xbee05af8	-0.43819404
215	0x3e8267cd	0.2546982
216	0xbe127422	-0.14302114
217	0x3e656656	0.2240232
218	0xbf00bf14	-0.5029156
219	0xbe8f6aa2	-0.28011042
220	0xbc8a976e	-0.01691791
221	0x3da91971	0.08256806
222	0xbe23768d	-0.15963192
223	0x3d47d03f	0.048782583
224	0xbdc2e6e0	-0.09516692
225	0xbd8b31a0	-0.067965746
226	0xbce4cbf6	-0.027929287
227	0xbdc99a1d	-0.09843848
228	0x3d97e295	0.07416264
229	0xbdf1c5df	-0.11805319
230	0xbe902c93	-0.28159007
231	0xbe652ae7	-0.22379647
232	0xbebece6d	-0.37266865
233	0x3e20549a	0.15657273
234	0xbd7f5987	-0.06234124
235	0xbe289850	-0.16464353
236	0xbde6659a	-0.11249848
237	0xbe8d91a4	-0.27650177
238	0xbedc4aa9	-0.4302571
239	0xbdf4548d	-0.11930189
240	0xbeaf7b74	-0.34273875
241	0xbdb0e610	-0.08637631
242	0x3e3bed49	0.18352236
243	0x3d8d37ec	0.06895432
244	0xbdcf3c0f	-0.10118877
245	0xbd2896cb	-0.041159432
246	0xbefbcf98	-0.4918182
247	0xbe958ea2	-0.29210383
248	0xbd14f0ca	-0.036362447
249	0xbe27d52c	-0.16389912
250	0xbdf2b5fc	-0.11851117
251	0x3e441978	0.1915034
252	0x3df9c6d4	0.121961266
253	0x3ac8d957	0.0015323561
254	0xbd847925	-0.06468419
255	0xbd95c213	-0.07312407
