rnns/trained_rnns/soutenance/GRU_seqin16_seqout1_1layer_45epochs_60000steps_MultiStep2_Soutenance_SCALE13E-1_batch128_Adam_lr5E-3VAL17.pt (torch, 450765 bytes, 10 tensors)

gru_in.weight_ih_l0 f4 [372, 35]
000000 85 55 e4 bd 47 43 b8 bc 5e 4b 13 be 14 c9 04 be
       -0.11149124 -0.022493018 -0.14384219 -0.1296733
000010 2d b4 18 be 88 56 00 bf aa c3 ac bd 67 61 f3 3d
       -0.14912482 -0.50132036 -0.084357575 0.118838124
000020 ff f5 85 3e ab 3b 40 be e7 32 34 bd 28 55 da 3d
       0.26164243 -0.18772762 -0.043993857 0.106607735
000030 bb 51 a5 bd 26 69 c5 bd 16 0e ac 3d e2 2d b7 3d
       -0.080722295 -0.09639196 0.08401124 0.08944298
000040 4c 2c 1b 3e 1e 63 b1 3d 34 91 98 bd 87 11 a2 bd
       0.15153617 0.08661483 -0.0744957 -0.07913499
000050 67 4f cc 3c f0 ac 9e bd fe 7f c6 bd 73 bf 86 be
       0.024940206 -0.07747829 -0.09692381 -0.2631794
000060 04 fe 79 3d 25 53 b8 b9 1f 57 d1 bd 01 87 04 be
       0.061033264 -0.00035157162 -0.10221695 -0.12942125
000070 a7 c6 40 3e fe b3 44 3e 7f 19 77 bd 67 33 88 bc
       0.1882578 0.19209287 -0.06032705 -0.016626073
000080 36 64 22 3e d5 db 96 bf 36 e0 8d bc 28 d2 86 be
       0.1585854 -1.1785837 -0.017318826 -0.26332211
000090 1a 05 dc bb d1 47 82 bc 91 ba e7 3d aa 5c c9 bc
       -0.0067144753 -0.015903385 0.113148816 -0.024580318
0000a0 d8 0d 7b be 57 70 d9 bd 12 11 7e bd 39 f5 d7 bd
       -0.24517 -0.1061713 -0.062028 -0.105448194
0000b0 42 91 be 3d 57 2a 35 bd 0f 04 d1 bd 52 ef 9a be
       0.093050495 -0.04422983 -0.10205852 -0.30260712
0000c0 76 94 fd 3c ac 9d 89 3b f8 46 1b bd 29 74 42 3c
       0.03095458 0.004199704 -0.037909478 0.011868515
0000d0 a1 1f f8 3c c4 1f 5a 3c 43 27 81 be bf 63 5f be
       0.03028852 0.013313238 -0.25225267 -0.21815394
0000e0 b9 4d a1 be d6 9f f9 3d 61 b6 c6 bc 4b 41 10 be
       -0.3150461 0.121886894 -0.024256887 -0.14087407
0000f0 fc 10 00 be bf e5 60 3d 96 c3 78 be 4a 40 9d 3d
       -0.12506479 0.054906603 -0.2429336 0.07678278
000100 d8 61 61 3d cb a6 d2 3b 33 88 d5 bd 3c e3 8e 3d
       0.05502495 0.0064285747 -0.104263686 0.06976935
000110 d9 35 03 be cb d7 7d bd 36 3e 22 be bf 90 57 3e
       -0.1281351 -0.061973374 -0.15844044 0.2105131
000120 c1 4e b0 be b2 f7 9f be 7e 33 89 be fd 00 b7 be
       -0.34435084 -0.31243664 -0.26797098 -0.35742941
000130 49 ac 0f 3c 0d 7c 92 bd 27 4b e2 3e 3b ca ea be
       0.008769103 -0.07152567 0.44197962 -0.45857415
000140 e6 02 60 bd a4 8f 86 3e 1a da 1d be d8 52 0f bd
       -0.054690264 0.26281464 -0.1541523 -0.034991115
000150 fd 02 77 3e 38 17 9f 3e 37 49 6c 3e 6e b4 0d 3e
       0.24122234 0.31072402 0.23074804 0.1383836
000160 62 13 b4 be 33 ce c3 3c ae 78 9a 3d ec 0c 9d bc
       -0.35171038 0.023902034 0.07542549 -0.0191712
000170 24 bb c9 bd ab 35 62 be 92 42 14 be d1 1f 35 3e
       -0.09850147 -0.22090785 -0.1447852 0.17687918
000180 f1 2a 09 be 24 41 d8 bc a3 64 11 bc db cc 6f 3e
       -0.13395287 -0.026398249 -0.008874091 0.2341799
000190 87 8a b4 be 3d 82 0a be 49 b9 84 be 13 b5 1f be
       -0.35261938 -0.13526244 -0.2592261 -0.15596418
0001a0 3b c0 70 be 3f 10 5f 3e 5a 74 ef 3c 83 e3 79 3e
       -0.2351083 0.21783541 0.029230285 0.24403195
0001b0 68 bb 16 bd c9 a5 81 be ec a0 04 3e da 1b 4a be
       -0.03679982 -0.25321797 0.12952012 -0.19737187
0001c0 f1 df 17 be ed a2 5e be 67 16 92 be 7a 2f 8b be
       -0.1483152 -0.21741839 -0.28532717 -0.2718466
0001d0 fb 22 2b be ce e3 f1 bd 2b e2 98 3e 34 2b ed 3b
       -0.16712563 -0.118110284 0.29860052 0.007237816
0001e0 7c 33 78 be b5 86 5c 3e ea fd eb 3d 8c 2e 95 be
       -0.2423839 0.21535762 0.1152304 -0.29137075
0001f0 40 bd 92 3e 2d 7e 89 be da 2c 6a bd 3f 26 a6 bd
       0.2866001 -0.26854077 -0.05717168 -0.081127636
000200 89 8e 8e be 37 a7 92 3c 9d 02 b8 be c8 c1 4d be
       -0.2784312 0.017902 -0.35939494 -0.20093453
000210 83 11 10 bd 38 05 23 be 63 51 bc be b6 1c 9e bd
       -0.03517295 -0.1591996 -0.36780843 -0.0772032
000220 90 68 38 be 73 1a 7b 3e b3 5f 9c bf 85 a5 94 3d
       -0.18008637 0.24521808 -1.2216705 0.07258133
000230 45 0e 3c 3c fd 97 04 be e0 de 0e 3e 7b 2b 9d 3d
       0.0114780115 -0.12948604 0.13952208 0.07674309
000240 28 a9 10 be 5b b3 a8 3e bc bb e2 3d f0 66 c0 3d
       -0.14127028 0.32949337 0.11070964 0.09394634
000250 38 ed 15 bd 1d 53 bf 3c 83 fd 10 3b da 77 5c be
       -0.036603183 0.023355061 0.002212376 -0.21530095
000260 94 be 24 3d b5 ee e5 bd 76 e8 a3 3d b3 47 b2 3c
       0.040220812 -0.112271704 0.08003323 0.021762704
000270 ed 82 52 3e 1b a0 36 bd 59 87 13 be f5 3a 26 be
       0.20557757 -0.044586282 -0.144071 -0.16233428
000280 25 7b 36 be a4 e8 a9 3e db 95 29 be 40 34 2e be
       -0.17820413 0.33185303 -0.16561072 -0.1701212
000290 1d 42 cf be 64 cd 63 3e c1 d9 13 3e cf 07 9e bd
       -0.40480128 0.22246319 0.14438535 -0.07716333
0002a0 ac f6 72 3e 80 54 61 be 99 26 94 3d 53 e4 d8 bd
       0.2372691 -0.2200489 0.072339244 -0.105904244
0002b0 03 a2 97 3e a8 7e 52 be ea fe c7 3e 2a 8f 9e 3c
       0.29615793 -0.20556128 0.39061671 0.019355375
0002c0 92 2b d3 3d f7 ce f7 bd f7 42 33 3d 8f d1 5f be
       0.10311045 -0.12100022 0.043765035 -0.21857284
0002d0 9d 28 9b 3e 9c 1f 02 3e 18 63 e4 3d fc 82 2a 3e
       0.30304423 0.1270737 0.11151713 0.16651529
0002e0 1a a3 f0 3d 88 35 8d 3e 4b 2f 91 bd 5e d3 50 3e
       0.11749859 0.27579904 -0.070890985 0.2039313
0002f0 3e 68 2b be f5 1a 62 be 0d 93 97 be 75 08 6e 3e
       -0.16738984 -0.22080596 -0.29604378 0.23245414
000300 e4 9e b2 bd fc 5f b6 bd 51 42 35 bd e5 57 4f 3e
       -0.08721712 -0.08905026 -0.044252697 0.20248373
000310 38 5c 77 3d de 90 ab be 49 6e 03 be 96 10 8e bd
       0.06039068 -0.33508962 -0.12835039 -0.06936757
000320 d9 2a 18 3c 51 ad 02 bd 44 24 02 3e dd db 59 3e
       0.009287559 -0.03190357 0.12709147 0.21275277
000330 8d 13 40 be 26 4e 7d 3e 00 51 6e 3d 91 0c 06 bd
       -0.18757458 0.24736843 0.058182716 -0.032726828
000340 ce b2 3e bd b8 ef 21 3e 99 7c a7 3c bf c2 6d 3c
       -0.04655724 0.15814102 0.020445155 0.014511763
000350 3f 25 ed bd d4 62 27 be 29 80 b6 bd 00 1a 16 bd
       -0.1157937 -0.16346294 -0.08911163 -0.03664589
000360 7a ad 6e 3e ab e6 24 3e 92 5f 82 3d 95 be 08 bd
       0.23308364 0.16103618 0.06365885 -0.03338488
000370 9b 1c 3c 3d 62 e9 28 bd c8 6e e0 bd 85 d4 73 be
       0.045925718 -0.041238196 -0.1095863 -0.23811539
000380 ec a6 00 be 5b d3 ce 3e 71 4a a2 3b b6 71 9d bd
       -0.12563676 0.40395626 0.0049527218 -0.07687704
000390 25 67 0c be 47 52 fd bd b8 19 2f bc 87 bc f3 bc
       -0.13711222 -0.12369209 -0.010687284 -0.029752983
0003a0 2d 12 6c 3d b3 d8 f3 bd a3 92 11 be bf 65 91 3e
       0.05763452 -0.119065665 -0.14216094 0.2839794
0003b0 4c 85 11 be 18 7f 9c be b0 39 a4 3e 88 e1 ca 3d
       -0.14211005 -0.30565715 0.32075262 0.09906298
0003c0 da bd 8f be 78 8a b5 bd b7 75 4d 3c 53 8c 36 40
       -0.28074533 -0.088643014 0.012540272 2.8523147
0003d0 60 50 37 bd c6 a9 08 be f7 80 9b bd 6a 1d df bd
       -0.044754386 -0.13346013 -0.075929575 -0.10894282
0003e0 5f e6 43 be ab ae 03 bd ef 92 c4 b9 a3 fd f1 bd
       -0.19130848 -0.032149 -0.00037493507 -0.118159555
0003f0 13 90 47 3e f5 1d 24 3e b8 71 f9 bd de 5f d1 be
       0.19488554 0.16027053 -0.12179893 -0.40893453

gru_in.weight_hh_l0 f4 [372, 124]
000000 d0 20 24 3e 72 37 6f 3e 99 c0 53 bd 6f 0e ad bd
       0.16028142 0.23360994 -0.051697347 -0.084500186
000010 b8 54 ec bd 58 f8 8c be d2 c9 f1 3d 51 39 8e 3e
       -0.11539596 -0.2753322 0.11806072 0.27778104
000020 14 80 f6 bd 6e 8b 34 be a3 e8 24 be 56 6b 71 be
       -0.12036148 -0.17631313 -0.16104369 -0.23576102
000030 81 5f 91 be 80 9c 1a be 7b 5c 67 be f0 a7 9a 3e
       -0.28393176 -0.15098763 -0.22593872 0.3020625
000040 76 f6 93 3e ed 17 9a be 96 4e 9b 3e 37 a8 e9 bd
       0.28898972 -0.3009638 0.30333394 -0.114090376
000050 e5 56 8d be d7 f6 a1 be cf 83 f4 3d 28 6d 94 be
       -0.27605358 -0.31633636 0.11939203 -0.2898953
000060 82 8e cc bd f7 54 28 bd a0 93 a1 bd 97 ae da 3d
       -0.09988119 -0.041096654 -0.07889485 0.106778316
000070 3a 5f 89 be d6 76 48 3e 95 42 71 bd 6c 4f 85 3c
       -0.26830465 0.19576582 -0.05890139 0.016273223
000080 6f 6e a4 be 9c ad 93 be f9 d3 39 3e 12 73 a2 be
       -0.32115504 -0.2884339 0.18147267 -0.31728417
000090 e9 cf 61 be 4d b9 dc bd 9f 77 65 3e 02 4a 5b 3c
       -0.22051968 -0.10777531 0.22408913 0.013384344
0000a0 60 16 2a be c8 e5 73 be 5c 57 95 be 2d ad 35 be
       -0.16610098 -0.23818123 -0.29168212 -0.17741843
0000b0 2c 5f d8 3c 8c 8f c3 3c 3b 96 f5 3d 46 5e 3e 3e
       0.026412569 0.02387216 0.11991545 0.1859065
0000c0 28 07 93 be 7c e0 6c be 09 93 da 3a 41 9c bf bd
       -0.28716397 -0.23132509 0.00166759 -0.09355975
0000d0 ed 0e 76 3e 6c e3 35 3b 6a dc 46 be 8a 14 60 3e
       0.24029131 0.0027753962 -0.19420019 0.21882835
0000e0 e4 45 71 be 67 56 d8 3d a6 e8 69 bd 28 b0 08 3f
       -0.23561817 0.10563355 -0.057106636 0.53393793
0000f0 49 fe 9e 3e 08 c3 55 be 1e 4e 51 bc af a0 62 3d
       0.3105338 -0.2087518 -0.012774972 0.05532902
000100 79 6c 42 bc a8 cd 03 be cc 10 ac 3d a8 79 70 3e
       -0.011866682 -0.1287142 0.08401641 0.23483908
000110 f5 2c d7 bd 7c ce 4d bd 56 d6 33 bd 62 30 87 be
       -0.10506622 -0.050245747 -0.04390558 -0.264041
000120 c4 53 19 be 6a 4a 46 be 6d 74 ad bb cf 0d c0 bc
       -0.1497336 -0.19364324 -0.00529342 -0.023444084
000130 3b a3 03 be 9d a2 3d 3e 24 0b 17 be b5 95 14 be
       -0.12855236 0.18519063 -0.14750344 -0.14510234
000140 39 ab 89 be ac 66 5b be 9d 43 79 bd da 77 62 be
       -0.26888445 -0.21425885 -0.060855497 -0.22116032
000150 23 2e b1 bd ba 39 f5 3d f1 29 ad 3e 56 a2 3d bd
       -0.08651378 0.11973901 0.3382106 -0.046297394
000160 a7 92 88 3e 36 f5 d3 3d cf 35 96 bd 86 22 f5 bd
       0.26674387 0.10349505 -0.07334482 -0.119694754
000170 2e f3 38 be 75 16 1b 3b ed 99 83 3e 15 8f 39 3e
       -0.18061516 0.0023664508 0.25703374 0.18120988
000180 29 f5 f1 bc e4 73 09 3e ee 4d 41 3e f6 06 bd bc
       -0.029535847 0.13423115 0.18877384 -0.023074608
000190 7d ee c6 bd b5 1a 5c be 71 8f 88 3c 0b 3d f6 bc
       -0.09713457 -0.21494563 0.01666996 -0.030058404
0001a0 f1 ff dc bd a6 19 da bd 40 63 7b 3e 90 d0 20 3d
       -0.107910044 -0.10649423 0.2454958 0.0392614
0001b0 4d 54 7d 3d 71 b6 0c 3e 81 0f 72 be ab 1d fe bc
       0.061847974 0.13741471 -0.23638727 -0.031020006
0001c0 3f b7 2d 3e e2 14 49 bc 02 b5 61 be f5 32 53 be
       0.16964434 -0.012273045 -0.22041705 -0.20624907
0001d0 aa 2b e8 3c e9 95 c9 bd 6f d4 90 bd 80 1a e8 3d
       0.028341133 -0.09843046 -0.070717685 0.113331795
0001e0 15 de 8f be b6 a9 83 bd 7b 1f 93 3e 8f 61 b3 3c
       -0.28099123 -0.06428854 0.28734955 0.021897106
0001f0 f9 43 0b 3e 84 a9 02 be 96 90 a8 bd 00 13 52 3c
       0.13600148 -0.12759978 -0.082307026 0.012821913
000200 08 c0 b9 bd 2f bd 13 3e ca fe 04 3d ff b4 57 bd
       -0.0906983 0.14427637 0.03246955 -0.052662846
000210 e3 a3 48 be 10 3c 3f 3d 0e 57 bb bd 48 fc 36 be
       -0.19593768 0.04668814 -0.09147464 -0.17869675
000220 3a 01 54 3d 26 9e 20 be 9a 83 70 3d e2 48 ef bd
       0.051758982 -0.15685329 0.058719255 -0.11683823
000230 97 f7 4a 3d 80 ce e0 bc 95 bc 8e bd bc 50 16 be
       0.049552526 -0.027442217 -0.06969563 -0.14679235
000240 af 51 62 bd 60 b7 69 bd 4d 3e c0 3d e2 c8 31 3e
       -0.05525368 -0.057059646 0.09386883 0.17361787
000250 c4 dc 79 3d 6b 07 db bc a7 b5 4d bd 48 a9 f3 3d
       0.061001554 -0.026736936 -0.050222065 0.11897522
000260 3e ce 8e bd 65 13 36 3e 35 bf 40 bd 56 36 aa bc
       -0.06972931 0.17780836 -0.04705735 -0.020777863
000270 61 fa a6 bd a4 a1 07 3c d2 30 56 3e 39 4a 7c bd
       -0.08153225 0.008278284 0.20917061 -0.06159422
000280 2a ae 94 3d 38 72 49 3d a0 2d bb bc 52 bb c8 bd
       0.07259782 0.049181193 -0.022848904 -0.098013535
000290 20 cc 93 bd a1 28 de bc f9 09 1b 3d 85 32 18 be
       -0.07216668 -0.027118983 0.037851308 -0.14863022
0002a0 b9 0c 26 3d d9 4e 56 bd 9d 97 64 bd 0f 7b 5b bd
       0.040539477 -0.05232129 -0.055808652 -0.053584155
0002b0 bd 87 8b 3d 7c 25 e7 3d fd c7 9a 3d f5 e9 ca 3b
       0.068129994 0.112864465 0.07557676 0.0061924406
0002c0 6a 16 f8 3c bf 3f 5e bd 37 8d 13 bd 6a eb b2 3c
       0.030284125 -0.05426001 -0.036023345 0.02184077
0002d0 78 eb d0 3d 07 21 4c 3d 55 3e 9f bd 01 c5 93 3d
       0.10201162 0.049836185 -0.07775561 0.0721531
0002e0 8f 32 85 bd 98 45 5a 3d 5b 7e 2c 3d 9d 3c 2e bb
       -0.06503784 0.053289026 0.04211269 -0.0026586421
0002f0 07 31 2f bd cc 6f ee 3d e6 f2 96 3d eb e4 aa bd
       -0.042771365 0.11642417 0.07370548 -0.08344444
000300 88 b3 cb bc 56 fe e5 3d 67 ed bb bd f5 67 72 bd
       -0.02486588 0.11230151 -0.0917614 -0.059181172
000310 8a 71 19 3d 68 a0 9c 3d 42 03 26 3b 95 8a 15 3d
       0.037461795 0.076477826 0.0025331532 0.036509115
000320 d0 96 68 3d 0a 5f d8 bd aa 59 f3 3c c8 6c 78 3d
       0.05678445 -0.10565002 0.029705841 0.060650617
000330 85 64 5e 3e c3 57 b8 3d e5 55 ce bd 62 b9 21 3d
       0.21718033 0.09001114 -0.10074977 0.039483435
000340 f7 25 fb 3d 0c 05 01 bd 74 58 1b 3c eb 55 ed 3c
       0.122631006 -0.031498954 0.009481538 0.028971633
000350 5f 6e 88 3c 1e 4b 13 bd 2d 45 17 be 48 a8 9d 3d
       0.016654192 -0.03596031 -0.14772482 0.07698113
000360 c2 b5 2a bd 35 b8 98 3c 62 88 c4 bd b8 81 91 bc
       -0.041677244 0.018642524 -0.095963255 -0.01776205
000370 5b 4b 5b 3c d9 7e 24 3d 6d 7b df 3d 68 d1 16 be
       0.013384665 0.040160034 0.109122135 -0.1472832
000380 8f 37 cf bd be e7 a9 bd e6 02 9c 3c 8e e1 76 3d
       -0.10118019 -0.082961544 0.01904435 0.0602737
000390 83 eb 90 bc 4d 94 eb 3d 7a 79 ff bd 3e fa de 3d
       -0.017690426 0.115028955 -0.12474342 0.10887574
0003a0 ea 2a 0d 3e f8 e8 1f 3d 0c a1 02 3d ad 5b 86 bd
       0.13785902 0.039040536 0.031891868 -0.065604545
0003b0 20 01 fb 3d 48 02 a7 bc 8f c7 07 3c 5e 49 a2 bd
       0.12256074 -0.02038683 0.008287325 -0.0792415
0003c0 a9 86 6b 3d 9e af 4a 3e 44 d2 37 bd 14 b3 9b bd
       0.05750147 0.19793555 -0.04487826 -0.07602516
0003d0 18 67 5a 3c 99 a6 8b bc 67 25 b9 3c 05 35 e9 bd
       0.0133302435 -0.017047213 0.022600843 -0.11387066
0003e0 ce 96 04 be c9 ac 90 3e 8e 5c 06 be 73 5f 0c be
       -0.12948152 0.28256825 -0.13121244 -0.13708286
0003f0 ec 81 42 bb 12 7d 09 be 7d 3d 6d 3d e8 8a f1 3c
       -0.002967949 -0.13426617 0.057919968 0.029485181

gru_in.bias_ih_l0 f4 [372]
000000 98 58 95 be 1b f6 39 3b 6b 54 ae be 8f 8b 30 be
       -0.29169154 0.002837545 -0.3404878 -0.17240737
000010 ef be 39 be 3b 4c 45 be 97 e1 59 be c0 a1 1b bd
       -0.18139242 -0.19267361 -0.21277462 -0.037996054
000020 1c 58 5d 3e c1 76 33 3e 7f 52 4a be 15 4a 0f be
       0.21615642 0.1752577 -0.19758032 -0.13993104
000030 2b 56 c9 bb bc b8 21 be c1 84 26 be 6e 23 6a be
       -0.006144305 -0.15793127 -0.16261579 -0.22865078
000040 45 bb 36 be ed 8f 91 be 71 76 1b be cd e3 6e be
       -0.17844875 -0.2843012 -0.151819 -0.23329087
000050 91 de b6 bd 55 d8 1b be dc dd 3a be f7 c6 01 bd
       -0.0892917 -0.15219243 -0.18248695 -0.03168389
000060 45 97 4f be e4 1e 91 bd fa ab 88 be 88 8c a5 bd
       -0.20272548 -0.0708597 -0.26693708 -0.08083445
000070 88 c5 bc bc 6b 33 fa bd b5 35 63 be 3f 6d 9d bd
       -0.023043409 -0.122168384 -0.22188456 -0.07686853
000080 57 a6 87 bd e7 00 61 be 16 0c 0f be 8e d3 69 3c
       -0.06623524 -0.21973 -0.13969454 0.01427163
000090 94 ad 00 be 2c 25 6d be 0a 2d f9 3c 71 25 2a be
       -0.12566215 -0.23158711 0.030416984 -0.16615845
0000a0 8e 31 bd bd bd 1a 2a bd b6 d1 78 bd 1f 12 10 be
       -0.092379674 -0.041529406 -0.06074687 -0.14069413
0000b0 08 26 99 be 20 d0 41 be 39 a9 a7 bd 66 87 86 bd
       -0.29911828 -0.1892705 -0.081865735 -0.06568794
0000c0 f8 60 6a 3e de 07 3a be 65 1d fb 3d bc a3 a6 be
       0.22888553 -0.18167064 0.12261466 -0.32546794
0000d0 12 d6 3f be 16 52 58 be 4d e9 4d be 3d 5d 60 3d
       -0.18734005 -0.21125063 -0.20108528 0.05477642
0000e0 76 bb 28 be 4b 53 53 be fc 77 ec bb d8 70 ed bd
       -0.1647776 -0.20637242 -0.0072164517 -0.11593789
0000f0 7c a7 8a bd 11 f6 00 be bd ab 87 be 65 69 f3 bd
       -0.06770226 -0.12593867 -0.26498213 -0.11885337
000100 cf 5e 17 be a1 ee 09 be e3 57 92 be 83 ac 4b 3d
       -0.1478226 -0.13469936 -0.28582677 0.049725067
000110 7d c6 35 3e fe 6f 01 bd 6d cb 2d 3d 1a 2d bf ba
       0.17751499 -0.031600945 0.04243033 -0.0014585585
000120 f5 4a 26 be fa 3c 24 be 38 17 5c be 6c 68 f5 bc
       -0.16239531 -0.16038886 -0.21493232 -0.029957019
000130 fb 13 90 be 0c 9e fd bd c1 eb 02 3e 85 20 13 be
       -0.28140244 -0.12383661 0.12785245 -0.14367874
000140 aa 09 24 be e3 a5 30 be 75 06 36 be ee 44 cb bd
       -0.16019312 -0.17250781 -0.177759 -0.09925257
000150 3f 37 4d bd 2a 9f 32 be c2 a7 25 b9 b4 55 35 be
       -0.050101515 -0.17443529 -0.00015798121 -0.17708474
000160 50 ab aa be 96 6f 62 be a4 8e 8b be 4f b8 d0 bb
       -0.33333826 -0.22112879 -0.27257264 -0.0063696275
000170 05 df 02 be 6a 27 3f be 89 71 8b bd ee 98 74 be
       -0.12780388 -0.18667379 -0.068087645 -0.23886463
000180 93 66 39 be 19 cd 5f be 25 b8 22 bc c0 07 31 be
       -0.18105535 -0.21855582 -0.009931599 -0.17288113
000190 da 9f 8c be 32 ec 7b be f5 74 fc 3d 89 13 15 be
       -0.27465707 -0.2460182 0.12326995 -0.14558233
0001a0 73 ed a4 be 42 78 4b be 15 11 7f bd 30 4e 5f bd
       -0.3221241 -0.19870093 -0.06227215 -0.054517925
0001b0 e6 65 2b be cb 0f 79 be f7 ce cf bd 38 8e 42 be
       -0.1673809 -0.24322431 -0.10146897 -0.18999565
0001c0 85 10 34 3d 91 22 80 be 72 9e c8 bd 9a aa 30 be
       0.043961067 -0.25026372 -0.09795846 -0.1725258
0001d0 dc 76 e3 be 27 f8 2b be 2d f1 93 3c e4 c3 ac bc
       -0.4442662 -0.16793881 0.018059338 -0.021089502
0001e0 14 50 69 be 3b ee 38 bc 18 0a ed bd d7 a7 03 bb
       -0.22784454 -0.011287267 -0.11574191 -0.0020089054
0001f0 5a 1b 6b be 4b 06 0d 3e 99 ea f2 bd a7 63 fd bd
       -0.22959653 0.13771932 -0.11861152 -0.12372523
000200 4d 4c 94 bd ca 82 95 be 1f 91 6d be 63 5c c4 3d
       -0.07241116 -0.29201347 -0.2319989 0.09587934
000210 4e 56 a5 be 3e ea fe bd 9e bf a2 be 3a 4d 5f be
       -0.32292408 -0.12447022 -0.31786817 -0.21806803
000220 d5 1c f4 3c 3d aa 40 be eb 9c 88 be d8 be 16 be
       0.029798904 -0.18814941 -0.2668222 -0.14721239
000230 ad 7a 89 be db 51 21 be b8 49 16 be bb 27 b2 be
       -0.26851407 -0.15753882 -0.14676559 -0.34795937
000240 31 57 28 be f7 c6 08 be 46 9f 19 be 4c c1 8c be
       -0.16439511 -0.13357149 -0.15002164 -0.27491224
000250 bf f6 ad bd d5 b4 fa bd 1f 8d 7c be 22 dc 9c bd
       -0.08494329 -0.12241522 -0.24663208 -0.076591745
000260 5c bb 32 be 8c 47 85 be 40 97 4a be 65 74 79 be
       -0.17454284 -0.26031148 -0.1978426 -0.24360807
000270 a5 69 e3 3c 25 d3 b1 be 70 d0 25 be a2 83 37 be
       0.027760336 -0.34731403 -0.16192794 -0.17921308
000280 65 95 4f be 8b 0e 5b be 8a 0c 14 be 8c 7d 53 be
       -0.20271833 -0.21392266 -0.14457908 -0.20653361
000290 30 ce c9 bd fe 97 57 be bc 4a 33 be 40 fc 58 be
       -0.0985378 -0.21054074 -0.17508978 -0.21189976
0002a0 29 bc 72 be cb 16 6e bc 3b 5f 19 be 14 cc 85 be
       -0.2370459 -0.014531801 -0.14977734 -0.26132262
0002b0 00 e7 32 be d9 e3 8b be 25 f3 fb bd d4 08 a4 be
       -0.17470932 -0.2732227 -0.123022355 -0.32037985
0002c0 33 b2 44 be 55 af a1 be 77 c2 82 be bc 6f 4e be
       -0.19208603 -0.3157908 -0.2553899 -0.20159811
0002d0 ee 04 a7 be 85 4c 71 be b6 99 2b be 5c 16 72 be
       -0.3262095 -0.23564346 -0.16757855 -0.23641342
0002e0 8e c2 1a 3c 78 32 85 be 5b 7d 22 be 2b 82 94 be
       0.0094457995 -0.26015067 -0.15868132 -0.2900556
0002f0 34 37 9c bd be 72 fe bd 3e 6c e2 bd 2c d4 33 3e
       -0.07627717 -0.12424229 -0.11055802 0.17561406
000300 eb 71 33 3e 4c 03 a6 be 14 f3 59 3c 88 32 4e be
       0.17523925 -0.3242439 0.013302583 -0.20136464
000310 77 93 43 bd 6e 6e 98 be e0 f5 66 be 18 0a 38 be
       -0.047748055 -0.2977175 -0.22554731 -0.179726
000320 e3 9e 51 be 4e 7f 98 be 2e 67 70 be 38 4b 5a be
       -0.20470767 -0.29784626 -0.2347686 -0.21317756
000330 05 26 32 be 0c fd 87 be 76 0b 23 be df 94 25 be
       -0.17397316 -0.26560247 -0.15922341 -0.16170071
000340 37 15 1d bd 45 d6 59 be aa 34 70 be 2c 49 5d be
       -0.03835031 -0.21273144 -0.2345759 -0.21609944
000350 57 d2 22 be 22 33 0b be 71 65 3b be f0 39 d2 bd
       -0.15900551 -0.13593724 -0.18300416 -0.10264957
000360 40 ca 10 be 1f cb 60 be 4e 55 47 be ce c6 23 be
       -0.14139652 -0.21952485 -0.19466135 -0.15993807
000370 4c a2 4d be 79 a2 e1 bd 4a 9d 50 be fb d7 9c be
       -0.20081443 -0.11017317 -0.20372501 -0.3063353
000380 28 5b 68 be 1f 55 ab be fb 34 1c be 15 bb 2e be
       -0.22691023 -0.3346338 -0.15254585 -0.17063554
000390 80 c5 46 be 91 a1 52 be 92 18 93 be f9 9a 08 be
       -0.19411278 -0.20569445 -0.28729683 -0.13340367
0003a0 28 8e 57 be 43 64 84 be 49 4f 65 be a0 55 8d be
       -0.21050322 -0.25857744 -0.22393526 -0.2760439
0003b0 e3 3f cc bd 03 32 9f be 86 3f 1e be fa 3f b8 bc
       -0.09973123 -0.31092843 -0.1545392 -0.022491444
0003c0 8e 72 3f be ae b7 16 be a0 21 77 be f6 a0 82 be
       -0.18696043 -0.14718506 -0.2413392 -0.25513428
0003d0 2c 3b 50 be fa 64 45 be 5a f6 60 be ac 71 a6 be
       -0.20335072 -0.19276801 -0.21968976 -0.325086
0003e0 a3 cf d3 3c 55 8f 5f bd b5 8d bb 3d 10 bf c7 3d
       0.025855845 -0.05458005 0.09157888 0.09753239
0003f0 cb 8e 2a 3d 4b 79 31 bc ab b3 e4 bd fe 14 c2 3c
       0.041640084 -0.010832141 -0.111670814 0.02369165

gru_in.bias_hh_l0 f4 [372]
000000 d8 a4 0b be c9 6b ea 3d 54 7a 7a be d5 f6 ae bd
       -0.13637102 0.1144634 -0.24460727 -0.08543173
000010 fc e1 92 be c0 84 6b be f0 a1 51 be aa d4 04 be
       -0.28688037 -0.22999859 -0.2047193 -0.1297175
000020 15 f1 23 3e 07 6d cc 3d 80 98 4a be 04 e4 32 be
       0.16009934 0.09981733 -0.19784737 -0.17469794
000030 fb e6 c6 bd 5b b3 07 bd b4 86 69 be 37 ba 4a be
       -0.09712025 -0.03313003 -0.22805291 -0.19797598
000040 5a 85 86 bd 92 dc 8a be 59 82 16 be cd 73 8c be
       -0.065684035 -0.27121407 -0.14698161 -0.274321
000050 1e f2 4e be e6 e5 c0 bd 87 85 8b be 32 c8 12 bd
       -0.20209548 -0.0941885 -0.2725031 -0.035835452
000060 b5 79 7a be 8e 13 10 be 83 2f 47 be 92 de d5 3b
       -0.2446049 -0.1406996 -0.19451718 0.0065267766
000070 1a 06 fb bd 4b 81 18 be 9e 8a 75 be a1 1c 1e be
       -0.12257023 -0.14893071 -0.2397866 -0.15440609
000080 6e df a1 bd 5d 26 3a be cf b4 75 be 30 18 10 3d
       -0.07903944 -0.18178697 -0.23994754 0.035179317
000090 aa be 47 be 3a b9 3c be c6 2e 8a bd fa 7c 7d be
       -0.19506326 -0.18430033 -0.067472026 -0.24754706
0000a0 fa 83 0f bd 0d f9 2e be a3 03 ad bd c4 26 d7 bd
       -0.035037972 -0.17087193 -0.08447959 -0.10505441
0000b0 bf 61 e1 be d0 d3 59 be b1 ed 57 be 8a 39 13 be
       -0.44019887 -0.21272206 -0.21086766 -0.14377418
0000c0 66 68 b0 3d 9f 8b 68 be ac 7b d9 3d de 42 80 be
       0.086136624 -0.22709511 0.10619292 -0.25051016
0000d0 bd 2e 31 be 15 f9 1d be 88 bf 67 be f3 db ca 3d
       -0.17302985 -0.15427049 -0.22631657 0.09905233
0000e0 ba 29 53 be 99 48 a2 be 9e 72 bf bd 2b d4 35 be
       -0.20621386 -0.31696013 -0.09348033 -0.17756717
0000f0 e6 b6 aa 3d 0b 78 50 be db ae 03 be 0c bf 22 be
       0.08335666 -0.20358293 -0.12859671 -0.15893191
000100 b0 fc 60 be 93 19 59 be e6 35 45 be e5 44 80 bd
       -0.21971393 -0.21201162 -0.19258842 -0.062631406
000110 40 a7 bb 3d 91 36 b0 bd 0a 57 fe 3d 23 34 b0 3c
       0.0916276 -0.08604158 0.12418945 0.021509236
000120 da 1f 51 be 11 3e 2d be 31 c6 10 be 76 54 93 bb
       -0.20422307 -0.16918208 -0.14138104 -0.0044961525
000130 ec 50 45 be c2 3f b2 bd 54 2f eb 3c 2b 57 2c be
       -0.1926915 -0.08703567 0.028709091 -0.16830127
000140 11 85 98 be 95 f0 0d be 4b c7 f1 bc 5d 6b 14 be
       -0.29789022 -0.13861306 -0.029513976 -0.14494081
000150 4f e2 a1 3c 32 4a f5 bd 5d 9c 4b 3d 35 3c 02 be
       0.019761233 -0.11977042 0.049709667 -0.1271828
000160 4e 2b aa be c5 ac 36 be 1c 01 44 be 48 6f 70 3c
       -0.33236164 -0.17839344 -0.19141048 0.014674969
000170 c5 5b 58 bd cf 78 ac bd c1 10 2a be 10 bd 94 be
       -0.052821893 -0.0842148 -0.16607954 -0.29050493
000180 2f eb 27 be 5b e6 71 be 02 35 74 bd b3 e2 b4 bd
       -0.16398309 -0.2362303 -0.059620865 -0.08832302
000190 16 4e 93 be e8 ba 5a be 33 5f fa 3d 18 a7 79 be
       -0.28770512 -0.21360362 0.12225189 -0.24380147
0001a0 3a ac 8b be b9 f1 13 be 54 25 35 3d 2a c1 1d be
       -0.27279836 -0.14447679 0.044225052 -0.15405717
0001b0 bc 09 2c be fb 29 59 be 6f c0 b2 bd c8 dc 2d be
       -0.16800588 -0.2120742 -0.0872811 -0.16978753
0001c0 74 95 01 bd 1b aa 7f be a0 69 d2 bd 34 3b 4c be
       -0.03163667 -0.24967234 -0.102740526 -0.19944459
0001d0 66 1e 8a be ba 12 49 bd f0 a4 2e 3d e9 6c b2 bd
       -0.26976317 -0.049090125 0.042637765 -0.08712179
0001e0 81 b7 08 be 58 e6 f7 3d 93 0d a2 3c 7b a2 82 bc
       -0.13351251 0.121044815 0.019781863 -0.015946617
0001f0 0e a4 85 be 3c 5c 35 3c 10 14 7b be 54 68 69 be
       -0.26101726 0.011069354 -0.24519372 -0.22793704
000200 2f bd 66 bd a0 3f 4d be 1f c6 9a be 1c 87 88 3c
       -0.056332763 -0.20043802 -0.3022928 0.016665988
000210 e7 60 a3 be ac ed c6 bd 3b 12 66 be 98 d3 45 be
       -0.31909868 -0.09713301 -0.22467892 -0.19318998
000220 43 b2 0c 3d 2e 8f 69 be 8e a9 d0 be 8e a5 27 be
       0.03434969 -0.22808525 -0.4075436 -0.16371748
000230 9c 96 86 be f3 c9 9f be d4 ab ae bc 5d 8e 6e be
       -0.2628678 -0.31208763 -0.021322168 -0.23296495
000240 8b d4 14 be 27 6a 3b be 23 94 90 be 14 59 2b be
       -0.14534204 -0.18302213 -0.2823802 -0.167332
000250 8b 31 f1 bd 70 67 d0 bd 46 ff 78 be dd df 06 bd
       -0.11777028 -0.10175979 -0.24316129 -0.032928336
000260 72 3e 7f be 5d 60 18 be 5f ee 05 be 39 a8 ba bd
       -0.24926165 -0.1488051 -0.13079213 -0.09114117
000270 6e 1c af bc 03 31 8a be 7f 6e 35 be 24 9b 46 be
       -0.021375861 -0.26990518 -0.17717932 -0.19395119
000280 f1 ff 3b be aa bc 12 be 65 b5 1a be 60 7a 78 be
       -0.18359353 -0.14329782 -0.15108259 -0.24265432
000290 ec 1f c2 bd f9 f0 28 be f7 52 76 be 01 2f 8a be
       -0.09478745 -0.16498174 -0.24055086 -0.26988986
0002a0 c2 ad 23 be 9b 19 9a bd eb 91 7c be 37 81 83 be
       -0.15984252 -0.07524415 -0.24665038 -0.2568452
0002b0 60 3a ee bd 0c 6a 78 be 2d ee 28 3a 97 71 7f be
       -0.11632228 -0.24259204 0.00064441824 -0.24945675
0002c0 56 a4 59 be be a0 a1 be a1 d6 91 be fc 91 5f be
       -0.21254095 -0.3156795 -0.2848406 -0.21833032
0002d0 b0 93 45 be e9 d3 87 be 24 34 17 be 50 24 39 be
       -0.1929462 -0.26528862 -0.14765984 -0.18080258
0002e0 e0 a3 18 3e fe 99 83 be 59 5a fb bd 80 eb 68 be
       0.14906263 -0.25703424 -0.12273092 -0.22746086
0002f0 fe 8a db bd 81 59 94 bd 15 14 ee bd 50 5a 29 3e
       -0.1071987 -0.07243634 -0.11624924 0.16538358
000300 63 9c 14 3e 2e d9 84 be 20 94 0a bd 66 98 4e be
       0.14512782 -0.25946945 -0.03383267 -0.20175323
000310 c6 43 0e be 1a 98 b4 be 11 82 b0 be c9 b8 df bd
       -0.13893041 -0.35272294 -0.34474233 -0.10923917
000320 53 8d 80 be ce 15 6e be 69 9f 86 be 21 6e 0e be
       -0.25107822 -0.23250505 -0.26293495 -0.13909198
000330 4f 33 7f be 9e e7 56 be e9 88 1d be cc 2f 3f be
       -0.24921916 -0.20986792 -0.15384258 -0.18670577
000340 dc d2 96 3d ea 9a 77 be d6 f1 21 be dc d2 5d be
       0.07364437 -0.24180189 -0.1581491 -0.21662468
000350 0f bf 0b be 5f 50 e6 bd 9e 5c 08 be 6d 78 01 be
       -0.13647102 -0.11245798 -0.1331658 -0.12643595
000360 5e 13 22 be ee f4 55 be 61 a1 1d be ad 78 40 be
       -0.158277 -0.20894215 -0.15393592 -0.18796034
000370 d0 fb 33 be eb 30 c8 bd 84 73 0f be ac 99 8c be
       -0.17576528 -0.09774955 -0.1400891 -0.27460992
000380 86 1c 53 be 52 98 6f be b9 b2 0b be 9a fb 02 be
       -0.2061635 -0.2339795 -0.13642396 -0.12791291
000390 09 1d 62 be e0 f5 6a be 90 10 8b be 1f e5 97 bd
       -0.22081389 -0.22945356 -0.27161074 -0.07416748
0003a0 e7 54 1f be 8b 7a d8 be f1 40 59 be 79 ba 90 be
       -0.15559731 -0.42280993 -0.2121618 -0.28267267
0003b0 45 69 77 be 3d 01 94 be 22 67 6a be 1b 64 f9 bd
       -0.24161251 -0.28907195 -0.22890905 -0.12177297
0003c0 16 30 96 bd 78 88 1c be 7b a2 3a be b9 a1 43 be
       -0.073333904 -0.15286434 -0.18226044 -0.19104661
0003d0 97 68 85 be 37 e3 70 be 8e bf 5f be ac a3 9d be
       -0.26056358 -0.23524176 -0.21850416 -0.30788934
0003e0 4b c3 62 3d 62 78 91 bd 34 8c 96 bc 1d 5f 80 bd
       0.055362027 -0.07103039 -0.018377401 -0.062681414
0003f0 50 94 3f bd 07 c4 b9 3b 75 6f 06 bb e7 71 a8 3c
       -0.0467723 0.0056691202 -0.002051321 0.020562125

gru_out.weight_ih_l0 f4 [372, 3]
000000 71 49 27 be 27 d7 02 3d 9f 37 02 3d 6b aa 0d be
       -0.1633661 0.031943467 0.031791326 -0.1383454
000010 49 b3 b8 3d 48 ef 88 3c 2a 86 4a 3e df 1a eb bc
       0.09018571 0.01671566 0.19777742 -0.028699337
000020 14 39 5e 3d 6a 6b a5 3e 26 18 0d 3e 1b b7 d6 3c
       0.054253653 0.32308513 0.13778743 0.026210358
000030 86 a9 23 3d 26 e1 9e bb a2 7e 2e 3d e3 08 6a 3c
       0.039956592 -0.004848617 0.042601235 0.014284345
000040 35 17 0b bd 2c 80 fc 3c a0 6f d0 bd 42 af 21 3d
       -0.03395768 0.030822836 -0.10177541 0.03947378
000050 71 d1 26 bc 86 40 2a 3e 79 7e c1 3d d3 ae 74 3d
       -0.010181771 0.16626176 0.09447951 0.059737038
000060 0c 5f ab bd c8 fa b5 bd 67 18 3b 3d 5c ce 35 3a
       -0.08367738 -0.08885723 0.04567757 0.0006935352
000070 75 3b f0 bc b3 4c db 3a 69 50 bf bd 06 13 82 bd
       -0.029325226 0.0016731232 -0.09341509 -0.06351285
000080 98 f0 92 39 49 51 90 bd 91 fc 0a bd e9 d9 d7 ba
       0.00028026546 -0.07046754 -0.033932272 -0.001646814
000090 5c 8f a3 3c 97 3b 7b be 7b 15 1a be c5 8b 8a 3d
       0.01996582 -0.2453445 -0.15047257 0.0676494
0000a0 e2 6a c2 bc 95 90 97 bd 3b 97 4e bc 1f f5 5a 3d
       -0.023732606 -0.07400624 -0.012609298 0.053456422
0000b0 e9 20 d2 3d 72 60 e1 bc 93 31 85 3c 18 5a 91 bc
       0.10260183 -0.027511809 0.01625899 -0.017743155
0000c0 61 9e 88 bd 96 e7 ed bc ca 2f a2 bb 61 8a 23 bd
       -0.066708334 -0.029041093 -0.0049495446 -0.03992689
0000d0 85 09 de bc af ce 16 bd 1d d0 ed 3d bf cd ea bd
       -0.027104149 -0.036818203 0.1161196 -0.11465024
0000e0 0f 90 be bd 71 8f 40 3d 3f 69 f1 3d b0 13 cc bd
       -0.09304821 0.047011796 0.11787652 -0.099646926
0000f0 d5 ed 30 3d e5 28 ad 3c 3c f8 9b bd 02 5e 10 3d
       0.043195564 0.021137664 -0.07615706 0.035245903
000100 70 48 e4 bd 2b 1d f7 bd c7 7a 67 3c 2d 0d 50 bc
       -0.11146629 -0.1206611 0.0141283935 -0.012698454
000110 38 b9 ac b9 f7 ee 99 3d 0a 87 27 bd 7e 58 69 bd
       -0.00032944395 0.07516282 -0.040900268 -0.05696916
000120 df a4 16 3d 5a ac 6a be f5 89 a0 3e 3c c0 14 bd
       0.036778327 -0.2291731 0.31355253 -0.03631614
000130 fd d7 f1 3c 93 98 4f 3b cb 53 0d bd 57 fd 0a bd
       0.029521937 0.0031676635 -0.03450374 -0.03393301
000140 37 27 d3 3c fb 5f dc 3d 8b d4 15 be 8b c0 23 3f
       0.025775535 0.10760494 -0.1463186 0.6396567
000150 4b da cf 3d 30 9d ac bc 70 7a 79 bb 6a 5b e7 3c
       0.10149058 -0.021071047 -0.0038067363 0.028241832
000160 7d 87 6c bc b9 30 8b bd 40 5d d3 3d 23 5f 2a bd
       -0.0144366 -0.067964025 0.103205204 -0.041594636
000170 b2 39 14 bd 4e 93 25 bd 79 ac b2 bc 4b 32 4d 3c
       -0.036187835 -0.040423684 -0.021810757 0.012524198
000180 8d bb 3a 3d 5f dc 20 be 1b 94 59 3e 0b 04 5f bc
       0.04558902 -0.15709065 0.21247904 -0.013611804
000190 96 50 65 3c 66 f5 e0 3c 40 43 71 3d 8d 63 82 3c
       0.013996264 0.027460765 0.058902025 0.01591661
0001a0 b9 f7 0a 3c c6 19 23 bd a5 ef 16 be fe f4 9b 3d
       0.008481913 -0.0398195 -0.14739855 0.07615088
0001b0 e4 5c bd 3d 24 49 5e 3d 1a 5a 34 3c dc 8c cf bd
       0.09246233 0.05426897 0.01100781 -0.10134289
0001c0 65 23 c2 3d 24 35 2d be 6e da 83 bb 44 9a 18 3d
       0.09479407 -0.16914803 -0.0040238416 0.037256494
0001d0 ea 35 83 3c eb 6e 88 3d 85 c5 50 bd f9 2f 1d bd
       0.01601692 0.06661781 -0.05096962 -0.03837583
0001e0 b2 b1 61 be 86 cd af 3d 79 9a 9f be f6 80 11 3e
       -0.22040442 0.08584122 -0.3117254 0.14209351
0001f0 ea 31 de bc 2a d9 9f 3e 8a c2 39 3c 02 de 90 bd
       -0.02712341 0.3122037 0.011337886 -0.07073595
000200 53 9d 1c ba b5 a1 05 3f 73 18 0e be 4c e1 b5 3e
       -0.0005974371 0.5219987 -0.13876514 0.3552345
000210 0e c4 e3 bd 02 83 c0 3d 31 9f 96 bd 0f 51 9c bc
       -0.11121379 0.09399988 -0.07354582 -0.01908162
000220 69 76 bb 3b 04 ac 4e 3c 5b 48 5b bc cf fd a9 3d
       0.0057209027 0.012614254 -0.01338395 0.08300363
000230 44 3d 76 3d 97 f8 31 3e f6 f4 77 be ef 4a 55 3e
       0.06011702 0.17379986 -0.24214539 0.20829366
000240 bf ad 52 3e 80 4b d6 bb 27 bf 35 be 4d 9c 91 bd
       0.20574091 -0.006539762 -0.177487 -0.0710989
000250 57 ff 7f 3b c8 5c 55 3c 85 c7 1d be 25 10 15 3e
       0.0039062107 0.013022609 -0.15408142 0.1455694
000260 a8 d0 ae be 88 20 12 3e db 73 0f 3d a5 3b a8 bd
       -0.34143567 0.14270222 0.035022598 -0.08214501
000270 3b 20 dc 3d 6f 60 88 bd 74 04 ea 3d 0a f6 0e bd
       0.10748335 -0.06659018 0.114266306 -0.03490261
000280 7c 6b ef 3d a6 6d 9a 3d e2 80 a5 bd 2e 31 ea 3d
       0.11690423 0.07540445 -0.08081223 0.114351615
000290 11 58 11 be 39 60 b1 3e 60 f4 b8 3d 58 4c e5 3b
       -0.14193751 0.34643725 0.09030986 0.0069976263
0002a0 92 61 f2 3d e0 48 ea bc 1d 2b 5a 3e bf d9 00 bd
       0.11835016 -0.028599203 0.21305509 -0.03145766
0002b0 9a 53 67 3e 2f 64 82 3d d9 9a 93 3d 5d e4 49 be
       0.22590485 0.06366765 0.07207269 -0.1971602
0002c0 68 34 1c 3d eb a6 32 3d 53 13 b3 3d 94 c6 b2 3d
       0.038135916 0.043616217 0.0874392 0.08729282
0002d0 21 82 39 3d 34 7a 14 3e d1 b3 b4 3d 74 09 d6 3e
       0.045290116 0.14499742 0.0882336 0.41804087
0002e0 d7 f3 cf bd 28 9c 94 bd fa 1a 76 be e9 c3 99 bd
       -0.10153931 -0.07256347 -0.24033728 -0.0750807
0002f0 52 c2 e0 be e9 13 50 3d 0e 6c 46 3e 94 27 70 be
       -0.43898255 0.050800238 0.19377157 -0.23452598
000300 63 a5 b6 be 11 99 2f 3e 3c d2 5b 3e 16 ca 31 3d
       -0.35673055 0.17148234 0.21466917 0.043405615
000310 c3 78 c4 3d 81 f3 82 be ef b2 35 bd e9 e0 f3 bb
       0.09593346 -0.25576404 -0.044360097 -0.007442583
000320 28 59 9c 3d 18 61 79 be b0 94 b1 be 8f ad c6 3c
       0.07634193 -0.24353445 -0.34683752 0.024252681
000330 80 6c ca 3c 5b 49 43 3c 3e 87 25 3d 63 d5 2b 3e
       0.02470994 0.011919345 0.04041218 0.1678062
000340 6e 6f 72 3d 73 a3 2a be 43 bb 93 3e 92 06 b9 3e
       0.0591883 -0.16663913 0.28853807 0.36137825
000350 f0 e9 0d 3e 5d 6f 82 3c e3 bb 57 bd 7e 1e 3d bd
       0.13858771 0.015922243 -0.052669417 -0.046171658
000360 44 21 a0 bd ef f0 65 bd d4 6b 36 bd b7 54 0c 3b
       -0.07818845 -0.056137975 -0.044536427 0.0021412799
000370 12 28 3a 3d 1f 6c 60 3d cf f0 05 bd f0 86 03 3e
       0.04544837 0.054790612 -0.032700356 0.12844443
000380 1e 88 28 3d 5c 8a 07 3d ca 45 63 3c 27 28 8b 3d
       0.041145436 0.033090934 0.0138716195 0.06794768
000390 fe 1a d8 bd fb ca d1 3d 0f a3 a7 bd 6e 22 36 3d
       -0.10552023 0.102437936 -0.08185398 0.04446643
0003a0 78 c2 32 3d 12 d6 f7 3c ae 0d b7 3c 9c c3 14 3c
       0.04364249 0.030253444 0.02234539 0.00907984
0003b0 3d 17 81 3c 6f 7b 44 bd a1 9b 0f bd 45 81 ee 3c
       0.015758151 -0.047969278 -0.03506053 0.029114375
0003c0 64 2a 61 3d e9 1c b6 bd b0 d2 cc bd 5e e3 21 bc
       0.054972067 -0.08892233 -0.10001123 -0.009880869
0003d0 2e 8a 0b 3c 84 61 cd bc 28 66 c4 bd a7 91 f7 bd
       0.008516831 -0.025070913 -0.09589797 -0.12088328
0003e0 4d f3 eb bc 3b 62 3f bd 93 8a 1a bd 2c 3a 94 bd
       -0.028802538 -0.04672454 -0.03772981 -0.07237658
0003f0 7f 65 af bd ab 88 41 3c 44 1b 7c bc a3 f1 52 3d
       -0.08564281 0.011812369 -0.01538736 0.051499974

gru_out.weight_hh_l0 f4 [372, 124]
000000 77 2d 5c 3f c5 cd b9 3d ba e0 4c 3e 49 f3 4a 3e
       0.86006874 0.090724505 0.20007601 0.19819368
000010 84 b8 13 be 1f 3f da 3c a5 1a 04 3e 01 ff 75 3e
       -0.14425856 0.026641427 0.12900789 0.24023058
000020 f5 99 b1 3d 56 23 5d bd a6 1f 1f 3f 3b b2 51 bc
       0.08671943 -0.053988777 0.62157667 -0.012798841
000030 14 8d ea bd da 4f 43 bd b6 ed d9 be 88 dc 3f bb
       -0.1145269 -0.047683574 -0.42564172 -0.0029275734
000040 16 3c f6 bd 9b 97 b0 be 81 74 1c 3e d4 28 f3 be
       -0.12023179 -0.34490666 0.15278818 -0.47492087
000050 ec a4 c3 bd f8 85 bf bd e1 cf 04 3f 16 32 93 3d
       -0.09552941 -0.093517244 0.518797 0.071872875
000060 69 3e 12 3e c4 d4 16 bd 6d 95 56 3e 22 80 1b bd
       0.1428162 -0.036824003 0.20955439 -0.037963994
000070 b3 f3 e8 bd 2b 68 cc 3d 26 59 98 bd cc 0e 81 bc
       -0.11374607 0.09980806 -0.07438879 -0.015754126
000080 6c cf c8 3c f9 1e f3 be cc 28 46 3e 0b 7f 5e 3d
       0.024512969 -0.47484568 0.193515 0.054320376
000090 6f 09 bf bc be 06 0b be 8a d5 02 3e 81 39 25 bd
       -0.023319928 -0.1357679 0.12776771 -0.040338043
0000a0 49 6b 98 be 8c 75 a3 bd 18 8d 3b 3d f5 61 39 3e
       -0.29769352 -0.07981405 0.045788854 0.18103774
0000b0 bb 35 85 be 8f 13 3a be f6 b1 aa 3d 00 52 11 3e
       -0.26017556 -0.18171524 0.083347246 0.14191437
0000c0 9c d2 ff bd 78 de 9d be 74 c7 80 be b4 a9 6d 3e
       -0.124913424 -0.30833793 -0.2515217 0.23209268
0000d0 25 86 39 bd a5 22 97 3d 20 2b 88 3d 22 d3 89 bd
       -0.045293946 0.07379655 0.066488504 -0.067297235
0000e0 da 86 8f bb 4b e3 f4 3e fb 1e 64 3d db eb 47 3e
       -0.004380089 0.4782966 0.055693608 0.19523565
0000f0 26 8b 93 bc e0 c8 9f 3d f4 34 6b be 0a 78 2d bd
       -0.018010687 0.07801986 -0.22969419 -0.042350806
000100 41 7d 1e 3d a7 2f 1d 3c b4 18 14 3e 9f 5f 81 be
       0.03869367 0.009593881 0.14462548 -0.25268266
000110 f1 86 26 3d 3d 0f 81 3e f9 0d c8 3d 2b c4 ae bc
       0.040656034 0.25206938 0.0976829 -0.021333775
000120 0b 4a c9 bb ce 95 9f bd 1b 5b b0 3d ec dd 1d 3e
       -0.00614286 -0.07792245 0.08611127 0.15416688
000130 1b 31 13 3e 49 1b 9f bd cd 42 83 3c d5 be 0e bf
       0.14374201 -0.07768876 0.016023064 -0.55759937
000140 84 23 84 3e 61 8d 76 be 54 d7 c3 bd 74 0f 1e 3d
       0.25808346 -0.2407737 -0.09562555 0.038588956
000150 04 71 31 be 89 82 4e bd ee c4 ce 3d ca e4 e8 3d
       -0.17328268 -0.050417457 0.10096155 0.11371763
000160 57 30 a7 be e4 63 a7 be 61 9c c6 3d 5c a8 69 bd
       -0.32654068 -0.32693398 0.09697796 -0.057045326
000170 24 24 0e 3e 43 fb 30 be 07 bc 3d 3e 7c 5b 1e be
       0.13880974 -0.17283349 0.18528758 -0.15464586
000180 14 5b 91 3d d6 b9 de be 28 e9 c2 3e 07 b6 f1 3e
       0.0709745 -0.43501157 0.3806851 0.47209188
000190 d4 2b 6f 3e bc 98 e8 3d 78 1e cb 3d ce 8f 52 bc
       0.23356563 0.11357257 0.09917921 -0.0128516685
0001a0 7d f8 b9 3d af 79 c5 3d 21 bb 4e be 6e 9c b0 3d
       0.090805985 0.0964235 -0.20188572 0.086235866
0001b0 eb 05 a7 3d 47 01 f5 bd 87 a0 bd be 2e 6c 83 be
       0.08155426 -0.11963134 -0.37036535 -0.25668472
0001c0 00 af e2 bc 99 c4 b5 be 0c 54 4c be 7f f6 86 3e
       -0.027671337 -0.35501555 -0.19953936 0.26359937
0001d0 20 27 ca 3e 4d dc 8f bd 2f 34 eb bd 88 6e f0 be
       0.39482975 -0.07024441 -0.114845626 -0.4695933
0001e0 93 71 3b 3e bd ba c4 3d 09 6e 1e 3e 85 8d 0a bf
       0.18305044 0.0960593 0.15471663 -0.5412219
0001f0 e5 e5 01 3e 6b 49 13 3d 20 bc bf bd 06 e2 9b 3d
       0.12685354 0.03595869 -0.09362054 0.0761147
000200 2d 1c 50 bd ad 4d 1b 3e c4 36 d1 3b b8 2b f8 3d
       -0.05080812 0.1516635 0.0063847024 0.12117714
000210 46 9c d6 bc af f2 55 3d 57 0a 78 3d 41 4a b4 3d
       -0.026197564 0.052233394 0.060556736 0.08803225
000220 90 e6 cf 3d 9c a6 7f 3d 3f 32 92 3d 47 50 21 be
       0.10151398 0.06241475 0.0713849 -0.1575328
000230 a9 5b 0a 3d 7c 19 7a 3d c3 bb 81 bc f4 82 9f bd
       0.03377882 0.06105946 -0.015836602 -0.07788649
000240 75 32 08 3d c4 32 05 bd 74 b7 ef bd 97 34 1a bb
       0.033251245 -0.032519117 -0.11704913 -0.002352988
000250 83 f8 1e 3e 9e 75 62 3d b7 98 bd bc ea 06 66 bd
       0.15524487 0.05528795 -0.02314411 -0.056158938
000260 2b c2 b4 3d 3f 82 2b 3e 60 40 c4 bd 31 c5 04 3d
       0.08826097 0.16748904 -0.09582591 0.03241462
000270 3c 84 77 bb 17 f6 06 3e 2b c6 64 bd fc 1d 00 3d
       -0.0037768027 0.13179813 -0.05585305 0.031278595
000280 52 38 a1 bd 2e 7c 34 bd 47 dc 1f be 6f f2 8d 3c
       -0.0787207 -0.04406374 -0.15611373 0.017327515
000290 00 70 69 3d 7b 3b 65 bc 4e 5a 57 3b ce 73 16 3d
       0.056991577 -0.013991232 0.0032860222 0.036731534
0002a0 b9 0d ad 3d b0 ce 11 bd 16 e9 d5 3d a6 a8 47 bd
       0.08449883 -0.035597503 0.10444848 -0.04874482
0002b0 88 9b d9 3b 1a dd 05 bc 9c 22 3f bd c8 61 b2 3d
       0.006640855 -0.0081703905 -0.046663865 0.087100565
0002c0 f9 1c 5d 3d 01 61 a8 3d c1 26 3b 3d 74 d5 4c bd
       0.05398271 0.08221627 0.045691255 -0.050008252
0002d0 c3 c9 be 3d 15 45 10 be 0a 06 4e bd 0e 73 83 bd
       0.09315827 -0.14088853 -0.050298728 -0.06418429
0002e0 16 ae fe bd 83 1a 98 3d 9e 76 bd bd 0f 55 e8 bd
       -0.12435548 0.07426932 -0.0925114 -0.11344349
0002f0 10 4c d4 bd d7 27 2f 3d df bd f6 bd de e4 27 3d
       -0.1036607 0.042762604 -0.12047934 0.04098975
000300 2c 5a 24 bc 62 6a 96 3d d2 03 ae bd c9 c3 59 3d
       -0.010031264 0.0734451 -0.084968224 0.05316523
000310 d9 b1 b2 bb a9 0a f2 bc 16 cb 11 bc 42 7f 3b bd
       -0.00545333 -0.029546099 -0.008898517 -0.04577566
000320 32 4f 40 bd 1d 0a 0b 3d 51 67 2a bc 9e 27 76 3d
       -0.046950527 0.03394519 -0.010400609 0.060096376
000330 6b fe d6 3d a2 8e 5a 3d a2 21 01 3c 92 14 b7 3d
       0.10497745 0.05335868 0.007881554 0.0893947
000340 16 95 c6 bb 44 7d cd 3d cc 6a 8e 3d 39 df 55 bd
       -0.006060253 0.10033658 0.06953964 -0.052214835
000350 bc 73 be bd 2b f1 bf 3c b6 fa 9c 3b 15 e7 46 3e
       -0.09299418 0.023430428 0.0047906293 0.19424088
000360 60 71 c2 bd 1f 98 5b 3c 6b 33 e7 bd f3 a8 80 3c
       -0.09494281 0.013402968 -0.11289104 0.015705561
000370 7d c5 37 bc 02 48 af bd d6 2c 91 bd a2 7b a4 bc
       -0.0112165185 -0.08558656 -0.0708863 -0.020078484
000380 9d 0b 41 bd fa 57 a4 3d 49 c4 9c 3d d1 79 8f bd
       -0.047130216 0.08024593 0.07654626 -0.070056565
000390 74 3c 89 bd f4 ce 72 bc ac 83 3c 3d 2c 3e 30 bd
       -0.06700984 -0.014819849 0.04602401 -0.04302804
0003a0 3c 81 e2 3d 88 62 c9 3c bb 73 07 bd de 71 82 3d
       0.11059806 0.024583116 -0.033069354 0.06369375
0003b0 45 6e 98 bd ab 4f e7 bd 13 83 e4 3c 29 00 d0 3b
       -0.07442907 -0.11294492 0.027894532 0.0063476753
0003c0 d6 35 e6 3c b2 93 3a bd 5c a4 87 bd e4 8b f2 bc
       0.028101843 -0.04555101 -0.06623146 -0.02960772
0003d0 ed e7 cb bc 9a a8 8e 3d 00 34 7b 3c c2 a9 b5 3c
       -0.024890864 0.06965752 0.015332222 0.022175673
0003e0 0b 68 59 3d 7d 67 dd bd e1 d9 a6 3e 49 5d 41 be
       0.05307774 -0.108107544 0.32588103 -0.18883242
0003f0 ac 64 b1 3d a5 93 04 3f ed db 07 be e0 27 25 3d
       0.0866178 0.5178779 -0.13267489 0.04032123

gru_out.bias_ih_l0 f4 [372]
000000 8e 95 82 3d ab d8 ac 3d 9c 22 aa 3d fd 82 14 3e
       0.063761815 0.08439764 0.083073825 0.14503093
000010 db fb c0 3c 1b 14 fa 3d 5d ad b4 3d 21 f1 fd bb
       0.023557594 0.12210866 0.08822129 -0.007749692
000020 20 0f aa 3d ba a0 cb 3d 66 94 80 3e 04 31 a2 3a
       0.08303666 0.099427655 0.2511322 0.0012374227
000030 6c f5 d1 bd fa 9b e6 3c 20 c7 a8 3e 9e 1d 5f 3e
       -0.10251889 0.028150547 0.3296442 0.21788642
000040 bb a5 d6 3d e1 c6 a0 3e 64 75 b3 ba a5 79 09 be
       0.10480829 0.31401733 -0.0013691601 -0.1342531
000050 41 ae 2e 3e 75 4c ce 3d 03 40 5f 3d 2e 47 6f 3e
       0.1705866 0.10073177 0.054504406 0.23366997
000060 03 b9 d9 3d fd 79 c8 3d 01 d4 08 3e 0a 8b b3 3d
       0.10630991 0.097888924 0.13362123 0.08766754
000070 68 f9 2d 3d b5 32 e3 3e 75 7f 33 3c e2 bd be 3d
       0.04247418 0.44374624 0.010955681 0.09313561
000080 5c 84 78 3e e2 69 b2 bd ac d0 ce 3c 22 15 68 bd
       0.24269241 -0.08711602 0.025245987 -0.05666078
000090 dd 62 a9 3e b1 87 cb 3b e8 e8 21 be 12 38 e8 bb
       0.3308324 0.006211244 -0.15811503 -0.007086762
0000a0 79 95 84 3d b6 fc 57 3a ce f7 86 3e 45 41 1c 3e
       0.06473822 0.0008239256 0.26360935 0.15259273
0000b0 d1 9a 41 be 47 5d 01 3e 8c 4b ef bd 55 28 14 be
       -0.18906714 0.12633239 -0.11684331 -0.1446851
0000c0 1a bf b6 3d 94 9e 25 3e 4a b9 61 3e b9 a8 1d 3e
       0.089231685 0.16173774 0.22043338 0.15396394
0000d0 e0 b7 df 3d b4 f8 0c 3e 07 7f 22 3e 9d 7d 10 bd
       0.10923743 0.13766748 0.1586877 -0.035276044
0000e0 4f bc 04 bd 80 7b 16 3e f3 de 7f 3e 4d 4a 57 3e
       -0.032406148 0.14695549 0.24987392 0.21024437
0000f0 cc 68 9e 3d 59 ae 5d 3e 65 07 a7 3d a9 ea 92 be
       0.07734832 0.2164854 0.08155707 -0.28694656
000100 8d 46 d1 3c 64 30 26 3e 90 0f 56 bd 2f 24 4b 3e
       0.025546337 0.16229397 -0.052260935 0.19838022
000110 15 9f b1 bd 4a 49 48 bd 9b d0 c4 3c 69 1f 4a 3d
       -0.086729206 -0.04889802 0.024025252 0.04934636
000120 45 28 0f be eb 74 b1 bd 38 e3 07 3e 35 29 2f bd
       -0.13980205 -0.086648785 0.13270271 -0.042763907
000130 df 46 96 3e 6a 20 38 3d 24 00 9f 3e ce f1 70 3e
       0.29350945 0.044952787 0.31054795 0.23529741
000140 c0 10 35 3e d7 34 0b 3d 21 cc ce 3d 7e b6 6f 3e
       0.17682171 0.03398594 0.10097528 0.23409459
000150 ce 50 4b 3e 22 b4 34 3e b4 84 b8 3d 36 4a 50 3c
       0.19855043 0.1764684 0.09009686 0.012713006
000160 ea 0f a9 3d 6a f3 d8 bd 5b a0 1a 3e 19 d6 cb 3d
       0.082549885 -0.105933025 0.15100233 0.09952945
000170 0f 81 35 3e ec 41 05 3d 04 70 02 3e 86 65 db 3d
       0.17725013 0.03253357 0.12738043 0.107127234
000180 8c f6 c5 bd a6 53 11 3e 00 be 18 3e 3f a1 17 bd
       -0.09666166 0.14192066 0.14916229 -0.03701901
000190 d0 22 18 3e 75 70 09 3e b8 9d dd 3d 42 50 b3 3d
       0.1485703 0.13421805 0.10821098 0.08755542
0001a0 b0 c3 ef 3d ac f1 37 3e 24 53 c2 ba 1c 16 db 3c
       0.11707246 0.17963284 -0.0014825803 0.026743941
0001b0 d2 d9 2d 3e f9 fd bd bc 82 de 01 bd d4 77 20 3c
       0.16977623 -0.023192393 -0.03170634 0.009794194
0001c0 aa 61 47 3e b5 dc a5 3d 18 99 86 bc d0 8f 5c be
       0.1947085 0.08098737 -0.016430423 -0.21539235
0001d0 da 5d 5d 3e ba ff 3b bd 79 04 16 3e 2b c8 82 bc
       0.21617833 -0.045898177 0.14650144 -0.015964588
0001e0 c7 70 e2 3b cf 57 e9 bd fb 0b 40 bd c3 28 c4 bd
       0.0069104168 -0.11393701 -0.046886425 -0.09578087
0001f0 12 0c 64 be da 5d c7 bc 07 b4 b6 3d 8b 61 84 3e
       -0.2227023 -0.024336744 0.08921056 0.2585567
000200 8e dd bf be 0d 18 c9 3d c8 36 a9 3d fe 9e 79 bd
       -0.3747372 0.098190404 0.08262402 -0.060942642
000210 66 a3 8a be ab 25 5a 3d 15 3c e3 3d 4d 36 5a 3c
       -0.27077788 0.05325858 0.11095444 0.01331861
000220 4a d1 84 bc 35 96 ff bc e8 bb 83 bd 5f 15 b6 be
       -0.016213078 -0.031199554 -0.06432325 -0.3556318
000230 b6 2a 28 bd 51 bf 86 bd 8b bb 37 3c 38 b5 01 3b
       -0.041056357 -0.065794595 0.011214147 0.0019791853
000240 8e 24 93 bd 34 8d fa bc 29 35 17 be 8a 29 62 bd
       -0.07184707 -0.030584909 -0.14766373 -0.055215396
000250 c1 f5 aa 3d 7c 02 1e 3b 0d d2 12 be 67 ad f0 3d
       0.08347655 0.0024110368 -0.1433794 0.11751824
000260 44 5e 32 3e 2f 4b 3e be 25 4c 81 bd 96 0a a3 bb
       0.17418772 -0.18583368 -0.063133515 -0.004975627
000270 4c 70 02 3e 03 a1 b5 3d 97 84 9e bd db 26 36 be
       0.1273815 0.08868601 -0.07740133 -0.1778826
000280 27 09 05 bd c5 60 8a 3b 57 ea 23 be a0 c4 7c be
       -0.03247943 0.0042229616 -0.16007362 -0.24684381
000290 da bc 10 be da d8 eb 3d 06 98 22 be 0c 3d da be
       -0.14134541 0.115159705 -0.15878305 -0.426247
0002a0 58 8b 61 3e 6e 8c 1d bd 42 d9 b0 bd 6e 05 b9 3d
       0.22025812 -0.038464002 -0.08635189 0.09034239
0002b0 c2 a3 5f 3c 49 af 24 bd 7d df 2b be dc e7 52 bd
       0.013649883 -0.040206227 -0.16784473 -0.05149065
0002c0 c8 2c 04 bd 30 66 f2 bc 16 c3 ae 3d 81 c6 ed 3d
       -0.03226927 -0.029589742 0.085333034 0.11610127
0002d0 bd 4b f5 3b db 23 ff bd 51 e8 6f 3d d2 e9 c6 bd
       0.0074858353 -0.12458011 0.058571164 -0.097125664
0002e0 17 42 de be 51 7c d9 3d 8b 10 1e 3e 78 36 a5 bd
       -0.43409798 0.106194146 0.15435998 -0.0806703
0002f0 8d ae 6a 3e 9d 1d 55 be d8 51 f8 3c dd 84 93 3d
       0.22918148 -0.20812078 0.030312464 0.07203076
000300 e7 74 98 be 5e 80 43 3e 22 3a 73 be cb b4 d0 bd
       -0.2977669 0.19091937 -0.23752645 -0.101907335
000310 41 b5 45 bd 2a cf 8b 3b b1 5c 8f 3c f4 cb 57 bc
       -0.04826856 0.0042666392 0.017500253 -0.013171185
000320 81 a9 28 bd 92 fc 83 3d 0b 8d 15 bd 14 0d eb bd
       -0.041177277 0.06444658 -0.036511462 -0.11477104
000330 44 2a b6 bc b9 54 60 be 8d f4 19 3d bb 8d 4a 3e
       -0.02223695 -0.21907319 0.037586737 0.19780628
000340 72 0f 25 be 66 80 c3 bd c8 77 5e 3d 1f d3 f0 bd
       -0.16119173 -0.095459744 0.05431345 -0.11759018
000350 da 64 9f be 8b 46 af 3c 83 a2 2b be 68 d8 13 be
       -0.3113163 0.021395942 -0.16761212 -0.14438021
000360 94 5c 38 bd 79 be 3b be 32 4a d8 bd f1 6a ae bc
       -0.045010164 -0.18334378 -0.10561027 -0.021291228
000370 52 25 18 3e 47 a4 09 be 3f 7a 39 3d 26 9c 37 3c
       0.14857987 -0.13441573 0.0452826 0.011206662
000380 c1 f8 c4 bd 11 88 29 bd 43 c1 13 bc f7 d9 4f 3d
       -0.096177585 -0.04138953 -0.009018245 0.050744977
000390 85 e9 40 be a2 f2 b2 3a ea 35 bb 3d ca f6 12 be
       -0.1883908 0.0013652632 0.09141143 -0.14351955
0003a0 ee e7 67 3d d5 2c 8a 3c 85 cc ab bd e0 38 2b be
       0.05661767 0.01686708 -0.083886184 -0.16720915
0003b0 a1 d6 42 be 66 e0 ce bd 2d 39 50 3d 9e d8 15 3d
       -0.19027187 -0.10101394 0.050835777 0.036583535
0003c0 0f 73 d5 be 6e cf 0f bd 78 eb b3 bb ad 23 4f 3d
       -0.41689345 -0.03510993 -0.0054907165 0.050571132
0003d0 22 df dc bd f5 76 20 be 3f cf a6 be d1 4d fe bd
       -0.10784747 -0.15670379 -0.3257999 -0.12417186
0003e0 ed 17 65 bd 0d 08 a0 bc ed f2 52 bd 9b 60 cd 3e
       -0.05593102 -0.019535089 -0.051501203 0.40112767
0003f0 73 92 71 3c 29 78 5e bc c4 cb 0e 3e 05 2d 2c 3d
       0.014744389 -0.013578453 0.13944918 0.04203512
