vaes/trained_vaes/soutenance/VAELow_25epochs_60000steps_SoutenanceSHUFFLED_SCALE13E-1__batch64_Adam_lr7E-3.pt (torch, 79935 bytes, 19 tensors)

conv1.weight f4 [4, 1, 11]
0	0x3da59451	0.0808493
1	0xbdd75d45	-0.105158366
2	0xbd82acc2	-0.06380607
3	0x3e4df861	0.2011428
4	0x3ea5f261	0.32411483
5	0x3e8d6bd1	0.2762132
6	0x3e789a4b	0.24277608
7	0x3e22de32	0.15905073
8	0x3e2957b3	0.16537361
9	0xbda52859	-0.08064336
10	0xbdcaf623	-0.09910228
11	0xbe3e6d75	-0.18596442
12	0xbe6f0d7f	-0.23344992
13	0xbc98c881	-0.018650295
14	0x3df8d22c	0.12149462
15	0xbe5983f7	-0.21241747
16	0xbe3a24ac	-0.18178052
17	0xbe8cc7b5	-0.27496114
18	0x3e07ca4a	0.13260761
19	0xbd8f9deb	-0.07012542
20	0x3d3bd49d	0.04585706
21	0xbe95d174	-0.29261363
22	0x3e075e21	0.13219501
23	0x3daa6fe2	0.08322121
24	0xbd948a3b	-0.07252928
25	0x3e20a1aa	0.1568667
26	0x3cae41f7	0.021271689
27	0xbe0f1426	-0.1397253
28	0xbcbf4147	-0.023346556
29	0xbca2c41f	-0.019868908
30	0x3e557636	0.20845875
31	0x3e83d0ef	0.2574534
32	0x3f0f2f62	0.55931675
33	0xbeb3e480	-0.3513527
34	0x3e198809	0.149933
35	0x3e5d62aa	0.21619669
36	0xbe10d484	-0.14143568
37	0xbe43feaf	-0.19140123
38	0x3e0c08be	0.1367521
39	0xbe3c09e1	-0.18363144
40	0xbd949434	-0.0725483
41	0xbe2819f5	-0.16416152
42	0x3e099564	0.13435894
43	0x3da93a20	0.082630396

conv1.bias f4 [4]
0	0xbecb30df	-0.39685723
1	0xbe4382e0	-0.19092894
2	0xbc1f9266	-0.009739494
3	0xbe265952	-0.1624501

conv2.weight f4 [8, 4, 11]
0	0x3e108f69	0.14117207
1	0xbcc8c85f	-0.024509607
2	0x3d35c587	0.04437783
3	0x3d92f3fe	0.07175444
4	0x3b616807	0.003439428
5	0x3d287040	0.041122675
6	0x3e4bb001	0.19891359
7	0xbe5dc648	-0.2165767
8	0xbd3773ff	-0.044788357
9	0xbd57e1c9	-0.05270556
10	0xbec8bdf7	-0.39207432
11	0xbdc3d385	-0.095618285
12	0x3dc12521	0.0943091
13	0x3da8166d	0.082074024
14	0x3d90973d	0.070600964
15	0x3a7e85cf	0.000970927
16	0x3dde01e6	0.10840206
17	0xbcbe9fd6	-0.023269575
18	0x3dbca33a	0.092108205
19	0xbd315790	-0.043296397
20	0x3d6b1b39	0.05739901
21	0x3e0b6b2f	0.13615106
22	0x3da4d979	0.08049292
23	0x3d002ae1	0.031290893
24	0xbdcb58ee	-0.09929071
25	0x3caf4c43	0.02139867
26	0xbd112e20	-0.03544438
27	0xbe2c5e21	-0.16832782
28	0xbe73f7a2	-0.23824933
29	0x3e13201b	0.14367716
30	0x3e878dad	0.26475278
31	0x3f0d892e	0.55287445
32	0x3f82393d	1.0173718
33	0x3db58561	0.08863331
34	0x3da6a3e2	0.08136727
35	0xbd948163	-0.07251241
36	0xbd9ef7fb	-0.07762142
37	0x3d69ff79	0.057128403
38	0xbd01bbe2	-0.03167332
39	0xbccfd976	-0.025372248
40	0x3e8e2c6d	0.2776827
41	0x3dfe74b3	0.12424602
42	0x3d9fdc20	0.078056574
43	0x3d8c13c9	0.06839711
44	0xbe42eb80	-0.19035149
45	0xbddd16f0	-0.107953906
46	0xbde597b6	-0.11210577
47	0x3cd5a26b	0.026078423
48	0xbe228cdc	-0.15874046
49	0xbd98a626	-0.07453565
50	0x3db49d00	0.08819008
51	0x3de48e45	0.11159948
52	0xbe2da450	-0.16957211
53	0xbcf6f1a5	-0.030144522
54	0x3d26936c	0.040667936
55	0xbd6945a4	-0.05695118
56	0x3e1966b7	0.14980589
57	0xbe0edb7e	-0.13950917
58	0xbe0ee3e8	-0.13954127
59	0xbaa10ca9	-0.0012287098
60	0x3d040147	0.03222778
61	0xbde33703	-0.11094477
62	0xbe04aba1	-0.12956096
63	0x3c85a8a3	0.016315764
64	0x3ddee6d2	0.10883869
65	0x3b9f5f29	0.004863639
66	0xbe134a9d	-0.14383931
67	0xbbcab16e	-0.006185702
68	0xbcd267bd	-0.025684232
69	0x3b3d7b29	0.002891252
70	0xbdd86e5e	-0.10567926
71	0x3db05240	0.08609438
72	0xbd79ba0f	-0.060968455
73	0xbd010981	-0.031503204
74	0xbd0c1b09	-0.03420547
75	0xbd9165ca	-0.07099493
76	0xbe87fca1	-0.26559928
77	0xbdbfaa9a	-0.093587115
78	0x3ae2ef10	0.0017313678
79	0xbd8822eb	-0.06647285
80	0xbd92af6c	-0.07162365
81	0x3c242d5c	0.01002058
82	0xbe11fa40	-0.14255619
83	0xbd97030a	-0.073736265
84	0xbb9fb78b	-0.004874175
85	0x3e0758ac	0.1321742
86	0x3d5aee20	0.05344975
87	0xbbd03632	-0.006354117
88	0xbdc4c579	-0.096079774
89	0xbe10cead	-0.1414134
90	0x3db03040	0.08602953
91	0xbdc092c8	-0.09402996
92	0xbcd02823	-0.025409764
93	0x3d677779	0.056510422
94	0x3d8baff3	0.06820669
95	0xbd7a5092	-0.061111994
96	0xbd261c4b	-0.040554326
97	0x3dbcd15f	0.09219622
98	0xbe290f93	-0.16509847
99	0xbdfda638	-0.12385219
100	0xbdefe46f	-0.11713492
101	0x3dc6b5a8	0.09702617
102	0x3e085716	0.1331447
103	0x3e0a9cfe	0.1353645
104	0x3d14d745	0.03633811
105	0x3d93d4e2	0.072183385
106	0x3cfdeccb	0.0309967
107	0x3e05115a	0.129949
108	0x3d8166b2	0.06318416
109	0x3c61b785	0.013776665
110	0xbc54441c	-0.012955692
111	0xbd41e453	-0.047336888
112	0xbe00c581	-0.12575342
113	0xbe0d8da0	-0.13823557
114	0xbd60da40	-0.05489564
115	0xbd9d69db	-0.07686206
116	0x3d99207a	0.074768975
117	0x3d02d370	0.031939924
118	0xbe115561	-0.14192726
119	0x3ca0e76e	0.019641604
120	0xbd8e395e	-0.06944536
121	0x3d44e671	0.04807133
122	0xbd9ec49b	-0.07752343
123	0xbd959d75	-0.07305423
124	0x3d8f717b	0.070040666
125	0x3dd3bf72	0.1033925
126	0x3df59d67	0.11992913
127	0x3dc13eb8	0.09435791
128	0xbd0cab3c	-0.03434299
129	0x3c18b3b3	0.009320187
130	0x3b12cc13	0.002239947
131	0x3d58512d	0.05281179
132	0x3e34ca6f	0.17655347
133	0x3ee8ea34	0.45491183
134	0x3edd0279	0.4316595
135	0x3ede57bc	0.4342631
136	0x3e5f5de5	0.21813162
137	0xb9681b5c	-0.00022135436
138	0xbdea111e	-0.11429046
139	0xbe6beadf	-0.23038815
140	0xbe5932cc	-0.21210784
141	0xbe51306c	-0.20428628
142	0xbea332f0	-0.318748
143	0x3dbb20b0	0.09137094
144	0xbe038066	-0.12841949
145	0xbdbbbb0d	-0.091665365
146	0x3d8837f7	0.066512994
147	0xbd9aa180	-0.07550335
148	0x3a6b97eb	0.0008987176
149	0x3e0d8162	0.13818887
150	0x3e0a47e4	0.13503987
151	0x3d97e091	0.074158795
152	0xbc7120b8	-0.014717273
153	0x3ccd4fe9	0.025062518
154	0xbe63142e	-0.22175667
155	0xbc0b09c8	-0.008486219
156	0xbc95c777	-0.018283589
157	0xbd0cda30	-0.034387767
158	0x3e104b7e	0.14091298
159	0xbdae2867	-0.085038
160	0xbd4f1c10	-0.05056387
161	0xbdebe714	-0.11518684
162	0xbb230eec	-0.002488072
163	0x3d3b8f6d	0.04579108
164	0xbc599980	-0.013281226
165	0x3defa1ab	0.117007576
166	0xbd2c10fa	-0.042008378
167	0x3c4f5d14	0.012656469
168	0x3d9cb786	0.07652192
169	0x3e730169	0.23731007
170	0x3e33f0d5	0.17572339
171	0x3d397956	0.04528173
172	0x3e6ef9b2	0.23337439
173	0xbdb44dd2	-0.088039055
174	0xbe01007d	-0.12597843
175	0x3ba5e7e4	0.005063044
176	0x3d6694fa	0.05629442
177	0xbe2bb507	-0.16768275
178	0x3d29a71f	0.041419145
179	0xbd3a2f63	-0.045455348
180	0x3dbc3619	0.09190006
181	0xbd27c0c3	-0.040955316
182	0x3d1b8a7e	0.037973873
183	0xbccabbdf	-0.024747787
184	0xbdc5310d	-0.09628496
185	0x3df94ff4	0.12173453
186	0xbdaf839f	-0.085700266
187	0x3df4e624	0.11957958
188	0x3d6ca6cf	0.05777627
189	0x3dbcc620	0.09217477
190	0xbc6d4e04	-0.014483932
191	0xbcda3a6f	-0.026639191
192	0xbdea797e	-0.11448954
193	0xbdae81d1	-0.08520854
194	0xbda91513	-0.08255973
195	0xbd2c7c1c	-0.042110547
196	0x3dfa48bf	0.122209065
197	0x3e07d6ce	0.13265535
198	0xbd86cbf6	-0.06581871
199	0xbc0c3696	-0.008557936
200	0x3daa188c	0.08305463
201	0xbd9194f0	-0.07108486
202	0xbe152e01	-0.1456833
203	0xbd4b1837	-0.04958364
204	0xbc6a5250	-0.014301851
205	0x3c897e11	0.016783746
206	0x3dc2c3e0	0.095100164
207	0x3dcc2473	0.0996789
208	0xbd6124c5	-0.054966707
209	0x3e323717	0.17403828
210	0xbd8d5fa4	-0.069030076
211	0xbddbeb31	-0.107382186
212	0xbbf3ad14	-0.007436404
213	0x3e080604	0.13283545
214	0x3d3f9cbc	0.046780333
215	0xbda202f4	-0.079107195
216	0xbd7a218e	-0.061067156
217	0x3da362f7	0.079778604
218	0xbdd12ccd	-0.10213623
219	0xbcf68236	-0.030091386
220	0x3eacaaa4	0.33723938
221	0xbe1218a2	-0.14267209
222	0xbdc07b99	-0.093985744
223	0x3e8279c2	0.2548352
224	0xbe283224	-0.16425377
225	0xbdef4823	-0.11683681
226	0x3d502350	0.050814927
227	0x3d491ff7	0.04910275
228	0x3d7e4469	0.06207696
229	0x3eb5c3fc	0.35501087
230	0x3e95524b	0.29164347
231	0xbe157b6b	-0.14597861
232	0x3df3bb27	0.11900931
233	0x3dc10f0d	0.09426699
234	0xbe14ee28	-0.14543974
235	0x3e105840	0.14096165
236	0xbde20a87	-0.11037164
237	0xbe0758c0	-0.13217449
238	0xbd1a5447	-0.03767803
239	0x3db94adc	0.090474814
240	0xbd3a027b	-0.04541252
241	0xbdeda0ec	-0.11602959
242	0x3f07bf41	0.53026205
243	0x3f016427	0.50543445
244	0x3ee34624	0.4438945
245	0x3ec0f1bd	0.37684432
246	0x3e21383f	0.15744112
247	0x3c70c7ec	0.014696103
248	0xbdd8b25f	-0.105808966
249	0xbe92647d	-0.2859229
250	0xbec14c86	-0.37753695
251	0xbf158a40	-0.5841408
252	0xbf25050f	-0.64460844
253	0x3d97e47e	0.07416628
254	0x3dadd4e3	0.084878705
255	0x3c89658e	0.016772058

conv2.bias f4 [8]
0	0x3a122537	0.00055750035
1	0xbe47ed6c	-0.19524163
2	0xbd9d407c	-0.07678315
3	0x3e31905e	0.17340228
4	0xbe211a6e	-0.15732738
5	0x3d29df84	0.041472927
6	0x3e330261	0.17481376
7	0x3e58fe40	0.21190739

conv3.weight f4 [16, 8, 11]
0	0x3ac17516	0.0014759626
1	0xbd84b554	-0.06479898
2	0xbc564842	-0.013078751
3	0xbbe1e0ec	-0.006893268
4	0x3e03951e	0.12849852
5	0xbc0e55e3	-0.008687469
6	0x3c3772db	0.011196817
7	0xbd949f35	-0.07256929
8	0xbe4feaa0	-0.20304346
9	0xbeba2949	-0.36359623
10	0xbeef8ac9	-0.46785572
11	0x3d67e850	0.056618035
12	0x3d805dd7	0.062678985
13	0xbd3dfe3a	-0.046385027
14	0xbd3a4552	-0.045476265
15	0xba379b0d	-0.00070040004
16	0xbbcb9eb2	-0.0062139863
17	0x390923b5	0.0001307864
18	0xbd8ab983	-0.06773665
19	0xbd26ccf6	-0.04072281
20	0xbd81caf8	-0.06337541
21	0xbd3a9b78	-0.045558423
22	0xbd7c4b0f	-0.06159502
23	0xbc8d8a21	-0.017277779
24	0xbd8dfcaa	-0.069329575
25	0x3dd5d4b2	0.10440959
26	0x3d440f92	0.04786641
27	0xbba34711	-0.004982837
28	0xbb222f22	-0.0024747332
29	0x3dd4fbdd	0.103996016
30	0xbd4ec840	-0.050483942
31	0x3d6af0fd	0.05735873
32	0xbda68aed	-0.08131967
33	0xbccbf093	-0.024894988
34	0xbd13ec00	-0.03611374
35	0x3d65f60a	0.056142844
36	0xbdadefe5	-0.08493022
37	0xbc5a0a6b	-0.013308148
38	0xbd5b6180	-0.05355978
39	0xbdc6f469	-0.09714586
40	0x3e884e10	0.26622057
41	0x3e816ba8	0.25277448
42	0x3ea9a2f3	0.33132133
43	0x3e9350bb	0.2877253
44	0xbd985d94	-0.074397236
45	0x3d820e81	0.06350423
46	0xbc4285e0	-0.011872739
47	0x3cd7080c	0.026248954
48	0xbd0f0e8f	-0.034925994
49	0xbd697b74	-0.0570025
50	0xbe039aca	-0.12852016
51	0x3d921db2	0.0713457
52	0xbd3d76cc	-0.04625587
53	0x3d04413b	0.03228877
54	0xbd0f164d	-0.034933377
55	0x3edd3bc1	0.4320965
56	0x3dd9012a	0.10595925
57	0x3d024f0c	0.031813666
58	0xbc7be8ef	-0.01537536
59	0x3cd8eed2	0.026481066
60	0x3d6258f0	0.0552606
61	0x3dd66cb0	0.10469949
62	0xbc8597d3	-0.016307747
63	0xbdb2f4a6	-0.08738069
64	0xbe0c16be	-0.1368055
65	0xbe26ecba	-0.16301242
66	0xbd33c04a	-0.043884553
67	0xbda80903	-0.08204844
68	0x3dca9875	0.0989236
69	0x3c8f5fc8	0.017501727
70	0x3d606b0f	0.0547896
71	0x3da4a16e	0.08038603
72	0xbd0ed0b2	-0.034866996
73	0x3df9e507	0.122018866
74	0x3e254144	0.16138178
75	0x3dd114f6	0.10209076
76	0x3ea7950f	0.3273091
77	0xbde0ad4e	-0.10970555
78	0x3c472071	0.012153731
79	0xbda2031a	-0.07910748
80	0xbda48680	-0.08033466
81	0xbe053dbd	-0.13011833
82	0xbe30e306	-0.17274103
83	0xbdb17588	-0.086649954
84	0x3e713a89	0.23557486
85	0x3e821fd4	0.25414908
86	0x3ea4efc7	0.32214186
87	0x3eb18bb0	0.34676886
88	0xbea3402a	-0.3188489
89	0xbf11edc4	-0.57003427
90	0xbeb9cc75	-0.362888
91	0xbe0da494	-0.13832313
92	0xbd0d76e0	-0.034537196
93	0xbcbffed2	-0.023436937
94	0xbd9114e2	-0.07084061
95	0xbe686c6d	-0.22697611
96	0xbebbf0da	-0.36707193
97	0xbeac1db0	-0.336164
98	0xbfc064b2	-1.503073
99	0xbdb47dc3	-0.0881305
100	0x3d479613	0.048727106
101	0x3b9859e6	0.0046493886
102	0xbdafc361	-0.085821874
103	0xbcfee86b	-0.031116685
104	0xbdb88423	-0.09009578
105	0x3d271745	0.040793676
106	0x3d2e43c6	0.042545103
107	0xbd9ccdb2	-0.07656421
108	0xbde6ef1f	-0.112760775
109	0x3d4b7d06	0.04967978
110	0xbd943a8e	-0.07237731
111	0xbd859ab1	-0.06523646
112	0xbd733c82	-0.059383877
113	0xbdc096d5	-0.09403769
114	0xbd874f6c	-0.066069454
115	0xbca80a2d	-0.020512665
116	0x3da86747	0.082228236
117	0xbda140ca	-0.07873686
118	0xbe07bd4b	-0.13255803
119	0xbd4585db	-0.048223358
120	0xbd80716a	-0.06271632
121	0xbd05f646	-0.032705568
122	0x3e29074e	0.16506693
123	0x3ebda2c3	0.3703824
124	0x3f1a080a	0.60168517
125	0x3e8cf770	0.2753253
126	0xbc085641	-0.008321346
127	0x3de9ad71	0.114100344
128	0x3d5a2cb7	0.0532653
129	0x3e68c0eb	0.22729842
130	0x3e5c4073	0.2150896
131	0x3ed86a4b	0.42268595
132	0x3d1a9504	0.03773977
133	0xbc10a0dd	-0.008827415
134	0x3d532abc	0.051554427
135	0xbdef731d	-0.11691878
136	0xbd657a1f	-0.056024667
137	0xbe0db08d	-0.1383688
138	0xbde8f7d5	-0.11375395
139	0x3d96dec1	0.07366706
140	0xbdcb71ee	-0.0993384
141	0xbdf08eaf	-0.11745965
142	0xbdd23ae4	-0.10265139
143	0x3ddfae16	0.10921876
144	0x3d26238d	0.040561248
145	0x3dd88b35	0.10573427
146	0x3d6063da	0.054782726
147	0x3da5b854	0.080917984
148	0xbe4a7afb	-0.19773476
149	0xbded3ddd	-0.11584065
150	0xbeaf4ee5	-0.3423988
151	0x3d983764	0.0743244
152	0x3c6c9880	0.014440656
153	0x3f08e332	0.5347167
154	0x3daeecd2	0.08541264
155	0xbe43dbc2	-0.191268
156	0xbe365a2b	-0.17807834
157	0xbdf13d4a	-0.11779268
158	0x3d061a8f	0.032740172
159	0x3cb1dace	0.02171078
160	0x3e4b825a	0.19873944
161	0x3eb3eecd	0.35143128
162	0x3e687e23	0.22704367
163	0x3e095cc0	0.13414288
164	0x3f077d18	0.5292525
165	0xbdb02a1f	-0.08601784
166	0x3dfcf4e3	0.12351396
167	0x3dd1e4c8	0.10248715
168	0x3ec88d6a	0.3917039
169	0x3e9a07e6	0.3008415
170	0x3e41e3ad	0.18934508
171	0x3e31b39a	0.17353669
172	0x3d78ce2b	0.060743492
173	0x3e44eb96	0.19230494
174	0x3e76e947	0.24112426
175	0x3e9760d8	0.29566073
176	0xbe786a1c	-0.24259228
177	0xbe4d6b9c	-0.20060581
178	0xbe2384a9	-0.15968575
179	0xbe1b3ec9	-0.1516067
180	0xbd9e3cbe	-0.077264294
181	0xbbfefedd	-0.007781847
182	0xbe634eb7	-0.22197996
183	0xbe3314be	-0.17488381
184	0xbe85562f	-0.26042315
185	0xbdbc579a	-0.09196396
186	0xbe681599	-0.22664489
187	0x3b9b4ebc	0.0047396105
188	0xbd2d7106	-0.042344116
189	0xbdcb7e67	-0.09936219
190	0xbbb943c7	-0.0056538316
191	0x3d4aa6e1	0.049475554
192	0x3dc5854b	0.09644564
193	0xbdb760e3	-0.089540266
194	0x3b05d1f2	0.0020419327
195	0xbd635307	-0.055499103
196	0x3d6c6b9f	0.057719823
197	0xbdc5eab8	-0.0966391
198	0x3cec0191	0.02880934
199	0x3dd88000	0.10571289
200	0x3d545dda	0.051847316
201	0x3ccc74f0	0.024958104
202	0xbdccb50e	-0.09995471
203	0x3bfaa21e	0.0076487204
204	0x3cd71a48	0.026257649
205	0xbdc8a7c6	-0.09797625
206	0xbcf8997b	-0.030346623
207	0x3d97e026	0.074158
208	0xbd4b69c5	-0.049661417
209	0xbe28f86b	-0.16501014
210	0xbe3940b3	-0.18091087
211	0xbe088f82	-0.13335994
212	0xbd9f4155	-0.07776133
213	0xbda503a6	-0.080573365
214	0xbe65b12f	-0.22430871
215	0xbe175c24	-0.14781243
216	0xbe62e919	-0.22159232
217	0xbe7c2b41	-0.24625875
218	0xbdbe1506	-0.09281354
219	0xbdaae74a	-0.08344896
220	0xbc704468	-0.014664747
221	0xbd0856d3	-0.033285927
222	0x3d1de7e5	0.03855123
223	0x3d9a3401	0.0752945
224	0xbd46c4bc	-0.048527464
225	0x3dcd40c7	0.10022121
226	0xbcd6313a	-0.02614652
227	0x3cc13eef	0.02358958
228	0x3c80320a	0.01564886
229	0x3d487940	0.048943758
230	0x3d4730db	0.048630577
231	0xbe3f50d2	-0.18683174
232	0x3b9b39bc	0.004737107
233	0xbd5de888	-0.054176837
234	0xbd07571e	-0.033042066
235	0xbdde8f48	-0.108671725
236	0xbd9b89d1	-0.07594646
237	0xbe211456	-0.15730414
238	0xbe807f07	-0.25096914
239	0xbda13a4d	-0.07872448
240	0xbe62c902	-0.22146991
241	0xbe51b338	-0.20478523
242	0xbe7aeb59	-0.2450384
243	0xbe58ea29	-0.21183075
244	0xbd9947a4	-0.074843675
245	0xbc754f2d	-0.01497249
246	0xbdcf832e	-0.101324424
247	0xbdecd021	-0.11563135
248	0xbe2b745b	-0.16743605
249	0xbddf1c04	-0.108940154
250	0xbde2fbee	-0.11083208
251	0xbe13e2be	-0.14441964
252	0xbe85905d	-0.26086703
253	0xbe4d69d1	-0.20059897
254	0xbe667d69	-0.22508778
255	0xbe36fec6	-0.17870626

conv3.bias f4 [16]
0	0x3ecdc5a6	0.40189856
1	0x3e3df590	0.18550706
2	0xbe762a99	-0.24039687
3	0x3e9833d8	0.29727054
4	0x3e8f2218	0.279557
5	0x3cb6cb7f	0.022313831
6	0x3e0eb27e	0.13935277
7	0xbe14e1a9	-0.14539208
8	0x3c07c8b9	0.008287602
9	0xbdfd658f	-0.123728864
10	0xbcd4da86	-0.025983106
11	0x3f099fef	0.53759664
12	0x3ed42aa6	0.41438788
13	0x3d40111d	0.04689132
14	0x3dd480a2	0.10376097
15	0xbe1b68d6	-0.1517671

conv4.weight f4 [32, 16, 11]
0	0x3d781f04	0.060576454
1	0xbd1e1440	-0.03859353
2	0x3ea266ce	0.3171906
3	0xbd184b3e	-0.03718113
4	0x3ec8dfe0	0.39233303
5	0x3e241ac1	0.16025831
6	0xbba31307	-0.0049766335
7	0x3e518b16	0.20463213
8	0xbd418b05	-0.04725172
9	0x3e07c12f	0.13257287
10	0xbe7fa012	-0.24963406
11	0xbef994a7	-0.48746225
12	0xbe0d8ef0	-0.13824058
13	0x3df1a32f	0.11798703
14	0xbe67d652	-0.2264035
15	0x3e607c6b	0.21922462
16	0xbe7727da	-0.24136296
17	0x3eaee1d8	0.3415668
18	0xbd3e1620	-0.04640782
19	0x3d8531ac	0.06503615
20	0x3d300268	0.042971045
21	0x3d1bdbd0	0.038051426
22	0xbe0b62ba	-0.1361188
23	0x3d80fc75	0.06298152
24	0x3c8d547f	0.017252205
25	0x3d347b84	0.044063106
26	0x3b88b675	0.004172141
27	0x3d34b32e	0.04411619
28	0x3d282de4	0.04105939
29	0xbd8828a6	-0.06648378
30	0xbd0e749c	-0.034779176
31	0x3d2f97b7	0.042869296
32	0xbb0addd9	-0.002118936
33	0x3df9839f	0.12183308
34	0x3e657527	0.22407971
35	0xbf464148	-0.7744336
36	0x3f3ba734	0.73302007
37	0xbe8b1afd	-0.27169028
38	0x3e146e4b	0.14495198
39	0xbd108ab6	-0.035288535
40	0xbdea8217	-0.11450594
41	0x3f053933	0.52040404
42	0xbeb7f2b9	-0.3592737
43	0x3f2015fc	0.62533545
44	0x3ed1d35c	0.40981567
45	0x3ec95ca6	0.39328498
46	0xbf2514b5	-0.6448472
47	0xbe4cfe2b	-0.20018832
48	0x3df7cf12	0.121000424
49	0xbe27a03e	-0.16369721
50	0x3e56fb0e	0.20994207
51	0x3d87a5fd	0.066234566
52	0x3e778663	0.24172358
53	0x3e5cccd0	0.21562505
54	0x3e0aa7a4	0.13540512
55	0x3ea74563	0.32670125
56	0xbd3905d6	-0.04517158
57	0x3d8d2ecb	0.06893691
58	0xbd4de12e	-0.050263576
59	0x3da35dd6	0.07976882
60	0x3d0200a8	0.031738907
61	0xbe01cf61	-0.12676765
62	0xbd4489d5	-0.04798301
63	0xbe7d1b1f	-0.24717377
64	0xbc8bb36f	-0.017053334
65	0x3e004c87	0.12529193
66	0x3edfeebf	0.43736836
67	0xbe909e07	-0.28245565
68	0x3ebd4411	0.36965993
69	0x3e263512	0.16231182
70	0x3e62c20a	0.22144333
71	0xbd1ca343	-0.038241636
72	0xbde9da5a	-0.114186004
73	0xbc32a1eb	-0.010902862
74	0xbdd33edc	-0.10314724
75	0x3dd186b4	0.10230771
76	0x3e3022e3	0.17200808
77	0x3f839c80	1.0282135
78	0xbdd3052b	-0.1030372
79	0xbee0d87f	-0.43915173
80	0x3e5e2cde	0.21696803
81	0xbe88467e	-0.2661628
82	0x3dadcb25	0.08486012
83	0xbeda128a	-0.4259227
84	0xbd34367e	-0.04399728
85	0x3d05da89	0.032679114
86	0xbe79e2ca	-0.2440292
87	0x3e70dfa3	0.2352281
88	0x3dd344cc	0.10315856
89	0x3d2ef8c6	0.042717718
90	0x3d8aad89	0.067713805
91	0x3df283a2	0.11841513
92	0x3db59e06	0.08868031
93	0xbc4aebcd	-0.012385321
94	0x3d9d0b75	0.07668201
95	0x3ce77824	0.02825553
96	0x3d38eb41	0.04514623
97	0x3d5eaaca	0.054362096
98	0x3c98123a	0.018563379
99	0x3da9ffbd	0.08300731
100	0x3d8ecf6f	0.069731586
101	0x3d988e1a	0.07448979
102	0xbd060a05	-0.0327244
103	0xbe0cad9d	-0.13738103
104	0x3d8ae063	0.067810796
105	0x3ce3bf2c	0.027801119
106	0x3e135dc0	0.14391232
107	0x3dc4bbee	0.09606157
108	0x3ddf4ddc	0.10903522
109	0x3bca6ab7	0.006177272
110	0xbf8cb3b0	-1.0992336
111	0x3f136801	0.5758057
112	0x3f0b2d08	0.5436559
113	0xbc9efb88	-0.019407049
114	0x3e5ac4c5	0.21364124
115	0xbdfb5cd3	-0.12273564
116	0x3e17696d	0.1478631
117	0xbdb78cb7	-0.08962386
118	0xbe35cc30	-0.17753673
119	0xbda081f5	-0.07837287
120	0x3d104acf	0.035227593
121	0x3e6e3423	0.23262076
122	0x3e47facd	0.19529267
123	0xbdaa687d	-0.08320711
124	0x3ebb0f08	0.36534905
125	0x3d55c233	0.052187156
126	0x3e8c117a	0.27357084
127	0x3ead936c	0.33901536
128	0x3e4268ee	0.1898534
129	0x3ecd5ac2	0.40108305
130	0x3e500ecc	0.20318145
131	0x3eae4bfe	0.34042352
132	0x3ea51768	0.3224442
133	0x3d68d061	0.05683935
134	0xbd7d405d	-0.06182896
135	0x3c8204cd	0.01587143
136	0xbd844e39	-0.06460232
137	0x3e06fa1f	0.13181351
138	0x3d8cd957	0.06877392
139	0x3d740260	0.059572577
140	0x3be62263	0.007023142
141	0x3cedacc4	0.029013045
142	0x3e7e08ff	0.24808119
143	0x3e53ae48	0.20671952
144	0xbeaf8a31	-0.3428512
145	0x3dedb397	0.1160652
146	0xbe0f549e	-0.13997123
147	0x3debf854	0.11521974
148	0xbc4937df	-0.012281387
149	0x3cf0e413	0.02940563
150	0x3e196d39	0.14983071
151	0xbd9dd857	-0.07707279
152	0x3d53f87c	0.051750645
153	0x3e6e8872	0.23294237
154	0xbedcf1d6	-0.43153256
155	0xbd13d87e	-0.036095135
156	0x3e949e1a	0.29026872
157	0xbeaf59ec	-0.34248292
158	0x3eda9a66	0.42695922
159	0xbdfea315	-0.12433449
160	0x3f31eab9	0.69498783
161	0x3e9d221a	0.3069008
162	0x3e78f01e	0.24310347
163	0xbdf826a4	-0.12116745
164	0xbd125ede	-0.035735004
165	0xbdc202fe	-0.09473227
166	0xbbd8c6b8	-0.006615486
167	0xbe71ca22	-0.23612264
168	0x3d955124	0.07290867
169	0xbdddb6b6	-0.10825865
170	0xbe407f05	-0.18798454
171	0xbd96a05b	-0.07354804
172	0xbe1b4c57	-0.1516584
173	0xbe652866	-0.22378692
174	0xbe327225	-0.17426355
175	0xbe164094	-0.14673072
176	0x3ebbb471	0.36661103
177	0x3d67c262	0.056581862
178	0x3e2bd571	0.1678064
179	0xbe1d5455	-0.15364201
180	0xbee0220a	-0.4377597
181	0xbd8fa244	-0.070133716
182	0x3eb11f27	0.3459408
183	0x3f05b7be	0.52233493
184	0x3ee8ce64	0.45469964
185	0xbf468496	-0.7754606
186	0xbf03461a	-0.5127884
187	0x3ea05d92	0.31321388
188	0x3db5486e	0.088517055
189	0x3e8e2568	0.27762914
190	0x3e549ceb	0.20762984
191	0x3d899582	0.067179695
192	0x3e01e45d	0.1268477
193	0x3da63ec7	0.081174426
194	0xbe4192d6	-0.1890367
195	0x3e32ed4b	0.17473333
196	0x3d965081	0.07339574
197	0xbee211b7	-0.4415414
198	0x3e142e22	0.14470723
199	0xbc9e4bd3	-0.019323265
200	0xbcb0d02f	-0.021583645
201	0x3d95229a	0.0728199
202	0xbd2ededc	-0.042693004
203	0xbca26047	-0.0198213
204	0xbd03e2c3	-0.03219868
205	0x3d647a4d	0.055780698
206	0x3d1d2416	0.038364492
207	0xbc6850e3	-0.014179441
208	0xbd57054c	-0.052495286
209	0xbe1ca72e	-0.15298149
210	0x3e1f3134	0.15546113
211	0x3e014f07	0.12627803
212	0x3dfab192	0.122409
213	0x3e97dafa	0.29659253
214	0x3eb57495	0.35440508
215	0x3dab4e3e	0.08364533
216	0xbe7af2f5	-0.24506743
217	0x3e22c0c8	0.15893853
218	0xbf52d62f	-0.8235807
219	0x3f347b85	0.70500976
220	0xbe65d7da	-0.22445622
221	0x3e307a94	0.1723426
222	0x3e8350c3	0.25647554
223	0x3da3d39a	0.07999344
224	0xba46bb37	-0.0007580998
225	0x3beeed5e	0.00729148
226	0xbe33f1ce	-0.1757271
227	0xbc01b9d6	-0.007917842
228	0xbeddab6b	-0.43294844
229	0x3f1bb8e4	0.60828996
230	0x3e44b474	0.19209462
231	0xbe25a53c	-0.16176313
232	0xbe461c43	-0.19346718
233	0xbf02758f	-0.5096063
234	0xbec0b12c	-0.3763517
235	0xbd95d611	-0.073162206
236	0x3e85dead	0.2614645
237	0xbe8b4c75	-0.2720677
238	0xbd0c29f5	-0.0342197
239	0xbf2f14fe	-0.68391407
240	0x3c056387	0.008141405
241	0x3fc80852	1.5627539
242	0x3e0a2fb1	0.13494755
243	0x3e76e078	0.24109066
244	0xbdd1326e	-0.10214697
245	0xbe7d5987	-0.24741183
246	0xbf0f1cb0	-0.5590315
247	0xbf12b890	-0.5731287
248	0xbe3a90f8	-0.18219364
249	0x3e18c7a1	0.14919902
250	0x3e45ffdb	0.19335882
251	0x3eef30c8	0.46716905
252	0x3ec69316	0.38784093
253	0xbe25728b	-0.16156976
254	0x3e1aea61	0.15128471
255	0xbdb277b4	-0.08714238

conv4.bias f4 [32]
0	0x3e72ecd5	0.23723157
1	0x3e7c14b9	0.2461728
2	0x3bc73eab	0.0060804687
3	0x3d204583	0.03912879
4	0x3e6e00c1	0.23242475
5	0xbd20d23c	-0.039262995
6	0x3f05ac02	0.5221559
7	0xbe0b88f8	-0.13626468
8	0xbe0c0a09	-0.13675703
9	0xbd516225	-0.05111899
10	0x3b8e3a13	0.004340419
11	0xbddeb3a6	-0.10874109
12	0xbebc9cc3	-0.3683835
13	0xbc3bc4ff	-0.011460542
14	0x3e667c8c	0.22508448
15	0x3a800093	0.0009765796
16	0x3c920974	0.017826773
17	0xbd935432	-0.07193793
18	0x3e5e2be5	0.21696432
19	0x3e1d4bfa	0.15361014
20	0x3e47f7f8	0.19528186
21	0xbc30c84e	-0.010789944
22	0xbc903862	-0.01760501
23	0xb919319b	-0.00014609697
24	0x3e754e22	0.23955587
25	0x3eab0a57	0.33406326
26	0x3e95fdb7	0.29295132
27	0xbe1ae69d	-0.15127034
28	0xbc71345e	-0.014721958
29	0xbd239b25	-0.03994288
30	0x3e7c5796	0.24642786
31	0x3e7d395a	0.24728909

fc_moy.weight f4 [32, 32]
0	0xbe67dbd5	-0.22642453
1	0xbe45bccb	-0.193103
2	0xbe28cdfd	-0.16484828
3	0x3e84fb98	0.259732
4	0x3dc9a23d	0.098453976
5	0xbdc12754	-0.09431329
6	0xbe66bd4d	-0.2253315
7	0x3daaf1a8	0.083468735
8	0xbb8113a7	-0.0039391103
9	0xbd658f29	-0.05604473
10	0x3e00aed3	0.1256669
11	0x3da0e8f9	0.07856936
12	0xbeebc474	-0.4604832
13	0x3c690d3f	0.0142243495
14	0x3e016ef5	0.12639983
15	0x3d974119	0.07385463
16	0xbc54979b	-0.012975599
17	0x3bbf4f7f	0.005838334
18	0xbed8c618	-0.42338634
19	0x3de7ee21	0.11324716
20	0x3eb3f50a	0.35147887
21	0xbddd52f3	-0.10806837
22	0xbe02985b	-0.12753431
23	0xbe1a39ab	-0.15061061
24	0x3ea0d1b5	0.31409994
25	0xbd053fe6	-0.03253164
26	0x3daaf59f	0.0834763
27	0xbc61d951	-0.013784722
28	0x3df5956b	0.1199139
29	0x3d86c6b1	0.06580866
30	0xbe358b51	-0.17728926
31	0x3e1247df	0.14285229
32	0x3e5f3915	0.21799119
33	0x3ef11706	0.47087878
34	0xbd94d56c	-0.072672695
35	0xbe58faf0	-0.21189475
36	0x3e34cb92	0.17655781
37	0x3c15a989	0.009134659
38	0xbf4dbb4b	-0.8036391
39	0x3eccc08d	0.39990655
40	0x3d80854a	0.06275423
41	0x3dc234d8	0.094827354
42	0x3b090806	0.0020909323
43	0xbdfd6bf9	-0.1237411
44	0x3f3cb4f1	0.73713595
45	0xbb8dda54	-0.0043290053
46	0x3ec39659	0.38200644
47	0xbdbff832	-0.093735114
48	0x3c300df7	0.010745517
49	0xbc898794	-0.016788282
50	0xbda5c5b4	-0.080943495
51	0x3e17f9a5	0.14841326
52	0xbdf21465	-0.11820296
53	0xbc1cef6e	-0.009578569
54	0xba724f94	-0.00092434254
55	0xbe332ee9	-0.17498364
56	0xbe9f31d3	-0.310927
57	0x3d2a9b39	0.041651938
58	0x3f15aaff	0.58464044
59	0xbd99a325	-0.075018205
60	0x3bfc7ba7	0.00770517
61	0xbe5decc3	-0.21672349
62	0xbeaa3e96	-0.33250874
63	0x3d8fe3a6	0.07025842
64	0xbe22227f	-0.15833472
65	0xbef170db	-0.47156414
66	0xbe1e9388	-0.15485966
67	0x3e6b2670	0.22963881
68	0x3eada581	0.33915332
69	0xbe5b2063	-0.21399073
70	0x3f23be77	0.639625
71	0x3e6b76f9	0.22994603
72	0x3be3bc87	0.0069499644
73	0xbe15d9cc	-0.14633864
74	0x3d31b85a	0.043388702
75	0x3dffdb03	0.12492945
76	0xbe02dd99	-0.12779845
77	0x3cd92a66	0.026509475
78	0xbe5881eb	-0.2114331
79	0xbe3f53f5	-0.18684371
80	0xbe151ab0	-0.14560962
81	0xbde5973b	-0.112104855
82	0xbedfdba3	-0.43722257
83	0xbe016834	-0.12637407
84	0x3df0a095	0.117493786
85	0x3ba99275	0.0051749297
86	0x3d9386b0	0.07203424
87	0xbde23952	-0.11046089
88	0x3dda60ca	0.10662992
89	0x3e40db74	0.18833715
90	0xbde5c3c0	-0.11218977
91	0xbdecc1a8	-0.115603745
92	0x3d36fa96	0.04467257
93	0x3dea8aab	0.1145223
94	0xbea2c998	-0.3179443
95	0x3cda33e4	0.026636072
96	0x3dd2cc2c	0.10292849
97	0x3e2d69e7	0.1693493
98	0x3e1f1b41	0.1553774
99	0x3da86c9d	0.08223841
100	0x3e310cb0	0.17289996
101	0x3dd38d22	0.10329653
102	0xbe3b30fe	-0.18280408
103	0x3e694c6b	0.22783057
104	0xbd70db20	-0.058802724
105	0xbdf53694	-0.119733006
106	0x3c1ddcb2	0.009635137
107	0xbc8cdafe	-0.017194267
108	0x3f5fa127	0.87355274
109	0xbdb661c4	-0.08905366
110	0x3d154809	0.03644565
111	0x3e291c93	0.16514806
112	0xbcc45707	-0.02396728
113	0xbe084c02	-0.13310245
114	0x3dde754f	0.108622186
115	0x3e8a7b81	0.2704735
116	0xbe908927	-0.2822964
117	0x3d486966	0.04892864
118	0x3e353c34	0.17698747
119	0xbe09d6e2	-0.13460878
120	0x3e7c318d	0.24628277
121	0xbdec3394	-0.11533275
122	0x3c974b26	0.01846845
123	0x3d8a70d7	0.06759804
124	0xbdab1e54	-0.08355394
125	0xbd8587cd	-0.065200426
126	0xbedde0bf	-0.4333553
127	0xbe8a5db6	-0.2702462
128	0xbd3082ba	-0.04309342
129	0x3e8311bd	0.2559947
130	0xbcf6eabf	-0.030141233
131	0xbdf0b550	-0.117533326
132	0x3d4bc8ef	0.049752172
133	0xbcc1e8fd	-0.023670668
134	0xbd76b248	-0.060228616
135	0x3ea0a6cf	0.31377265
136	0xbe2a6873	-0.16641407
137	0xbd2736a6	-0.0408236
138	0x3c711622	0.0147147495
139	0x3cd1df61	0.02561921
140	0xbcdd671b	-0.027026704
141	0x3e40bad4	0.1882127
142	0x3d4501e0	0.04809749
143	0x3e0f1fc6	0.13976964
144	0x3cbe0c96	0.02319936
145	0xbd7e16d1	-0.06203348
146	0x3d9186a3	0.07105758
147	0x3e9c7b04	0.30562603
148	0x3e4b5f30	0.1986053
149	0xbd4f6746	-0.0506356
150	0xbd4210e8	-0.047379404
151	0x3e5df88a	0.21676841
152	0xbe0f52db	-0.1399645
153	0xbc9aedb9	-0.018912183
154	0x3e0d0557	0.13771568
155	0x3d96bcf4	0.07360259
156	0x3dab0b0a	0.08351715
157	0x3da0e33e	0.07855843
158	0x3e3f4a56	0.186807
159	0x3e01ff4c	0.12695044
160	0xbefff1b3	-0.4998909
161	0xbed1e984	-0.4099847
162	0xbd0b7f38	-0.034056872
163	0x3eec1a3c	0.46113765
164	0x3e17e0a1	0.14831783
165	0xbe555fa5	-0.20837267
166	0xbd227178	-0.039658993
167	0x3d2c8ce5	0.042126555
168	0x3e2022d6	0.15638289
169	0xbc5bcc52	-0.013415413
170	0x3dba9168	0.09109765
171	0x3dee7f87	0.11645418
172	0xbf58d945	-0.84706527
173	0x3d6f6376	0.058444463
174	0xbe859b16	-0.26094884
175	0x3d50998c	0.050927684
176	0xbd1cc407	-0.038272884
177	0x3e3b2fe4	0.18279988
178	0x3f183932	0.59462273
179	0x3e16100b	0.14654557
180	0xbf1ce6c6	-0.6128963
181	0x3deefadb	0.11668941
182	0x3d0f1f04	0.03494169
183	0xbe255fcc	-0.16149825
184	0x3e8a91b9	0.27064303
185	0xbf15c6fa	-0.5850674
186	0x3f0c5116	0.5481123
187	0xbe717212	-0.2357867
188	0x3e27833e	0.16358659
189	0xbe23e053	-0.16003542
190	0xbdacb652	-0.08433212
191	0x3ec009e8	0.37507558
192	0xbdbe849e	-0.093026385
193	0xbf498083	-0.7871172
194	0xbda5021c	-0.08057043
195	0xbe0e7c2c	-0.13914555
196	0xbe849fb9	-0.2590311
197	0x3cd08ece	0.02545872
198	0x3ed5bd29	0.4174588
199	0xbec6d1f5	-0.3883206
200	0xbc2d0a6d	-0.010561568
201	0x3d58a6fa	0.052893616
202	0xbe317d04	-0.17332846
203	0xbd738bdd	-0.059459556
204	0xbe793224	-0.24335533
205	0xbde36da6	-0.11104898
206	0x3f5fedd6	0.87472284
207	0xbe442d10	-0.19157815
208	0xbd683b47	-0.056697156
209	0x3db07828	0.08616668
210	0x3cc9ee9d	0.024649912
211	0x3df329f5	0.11873237
212	0xbe0e0a4d	-0.13871117
213	0xbd83f995	-0.06444088
214	0x3c909f98	0.017654225
215	0x3d9a17a8	0.07524043
216	0xbe60f9b0	-0.21970248
217	0xbe882acd	-0.26595154
218	0x3ec3b314	0.38222563
219	0xbe509731	-0.20370175
220	0xbd07b091	-0.03312737
221	0x3e05dad3	0.13071756
222	0xbeccc510	-0.39994097
223	0x3e0b46dd	0.13601251
224	0xbecc52bd	-0.39906874
225	0x3e67b358	0.22627008
226	0x3e459058	0.19293344
227	0xbe7692d2	-0.24079445
228	0xbf29747e	-0.6619338
229	0xbc9b6eb2	-0.018973682
230	0x3d313a1e	0.043268315
231	0x3c5cb5df	0.013471096
232	0xbb9f5262	-0.0048621157
233	0xbb6fd9e1	-0.0036598372
234	0xbc7313c9	-0.01483626
235	0xbe1078d1	-0.14108588
236	0xbf3e99a4	-0.74453187
237	0x3cf22f93	0.0295637
238	0xbdb18283	-0.08667471
239	0xbd960d43	-0.07326748
240	0xbddb3aca	-0.107045725
241	0xbdac780a	-0.08421333
242	0x3e0cbd49	0.13744082
243	0x3ed6b979	0.4193838
244	0xbe89af9c	-0.26891792
245	0x3e549045	0.2075816
246	0x3d63f497	0.05565318
247	0x3e0f2978	0.13980663
248	0xbc0a47f5	-0.008440007
249	0x3f1fe1ba	0.62453806
250	0xbf4072e3	-0.75175303
251	0x3934db3c	0.00017247809
252	0x3d9f0dd5	0.0776631
253	0x3bde9f8a	0.006793921
254	0x3dc4f8af	0.09617745
255	0x3f2acb69	0.6671663

fc_moy.bias f4 [32]
0	0xbedf937c	-0.4366721
1	0xbd898e5b	-0.06716605
2	0xbe1c7b4c	-0.15281409
3	0x3ee763da	0.45193368
4	0x3f2da84d	0.6783493
5	0x3ed68739	0.41900042
6	0xbeeaa333	-0.45827636
7	0xbf0898fb	-0.5335843
8	0xbddbe338	-0.10736698
9	0xbf3de7b6	-0.7418169
10	0xbe651448	-0.22371018
11	0x3f27733f	0.65410227
12	0xbecbb89d	-0.39789286
13	0x3f42a96d	0.76039773
14	0xbeb479c6	-0.35249156
15	0xbf5f7ab1	-0.8729659
16	0xbd85f814	-0.06541458
17	0x3e15c4de	0.1462588
18	0x3f5518c4	0.83240914
19	0xbeb73da6	-0.35789222
20	0x3f43d792	0.7650081
21	0x3f9af481	1.2105867
22	0x3cfa0fee	0.030525174
23	0x3e930667	0.28715822
24	0x3fdffacf	1.7498416
25	0x3ea36eda	0.3192051
26	0x3e99fe2f	0.3007674
27	0x3de67c20	0.11254144
28	0xbfb28f15	-1.3949915
29	0x3f53cfd1	0.8273898
30	0x3eae04dd	0.33988085
31	0xbe29ae6d	-0.16570444

fc_var.weight f4 [32, 32]
0	0xbed8a766	-0.42315215
1	0xbeb5dd80	-0.35520554
2	0x3ddd898c	0.108172506
3	0xbf988ad2	-1.1917365
4	0xbe8cda84	-0.27510464
5	0x3c97410b	0.018463632
6	0xbeb21e67	-0.3478882
7	0x3cd6419e	0.026154336
8	0xbc2c03aa	-0.01049892
9	0xbda890ed	-0.082307674
10	0x3e366156	0.17810568
11	0x3e0f96a8	0.14022315
12	0xbe1cd9c8	-0.15317452
13	0x3d8d0368	0.06885415
14	0xbed391e2	-0.41322237
15	0xbcbe6940	-0.023243546
16	0x3dbbc02c	0.09167513
17	0x3e4a94d3	0.19783334
18	0xbf0b3a48	-0.54385805
19	0xbe6d2097	-0.23156963
20	0xbe1f80b9	-0.15576448
21	0xbcfb56a0	-0.030680954
22	0x3ce981d6	0.028504293
23	0xbc92d6ef	-0.017924754
24	0xbeb4c4cc	-0.35306394
25	0xbe661680	-0.2246952
26	0xbeeb619f	-0.45972916
27	0xbdfcdb62	-0.123465315
28	0x3da0a609	0.07844169
29	0xbd3c3cc5	-0.04595639
30	0xbee195c3	-0.44059572
31	0xbeebc6c7	-0.46050093
32	0xbe8ff161	-0.28113845
33	0xbf1fe223	-0.6245443
34	0x3e1f2a43	0.15543465
35	0xbf651937	-0.894916
36	0xbecb106c	-0.39660966
37	0xbd8b958f	-0.068156354
38	0xbedc7f59	-0.4306591
39	0x3e728e99	0.23687209
40	0x3c95c091	0.0182803
41	0x3dd82dba	0.10555597
42	0x3b7a9a91	0.0038239101
43	0x3e337ccb	0.17528073
44	0xbe68fb71	-0.22752167
45	0x3bba3398	0.00568242
46	0xbea7f43f	-0.32803532
47	0xbc940261	-0.01806754
48	0xbe09109d	-0.13385244
49	0xbe036fa8	-0.12835562
50	0xbeaf4b4d	-0.34237137
51	0xbf0217d6	-0.5081762
52	0xbebda050	-0.3703637
53	0xbb0619cf	-0.002046216
54	0x3dbceb2e	0.092245445
55	0x3c0db1f3	0.008648383
56	0xbe1fe872	-0.15616015
57	0xbdbb761a	-0.091533855
58	0xbf0293a7	-0.5100655
59	0x3e68785b	0.22702162
60	0x3cee1c36	0.029066186
61	0xbccd1807	-0.025035871
62	0xbe86656c	-0.26249254
63	0xbeca83c4	-0.39553654
64	0xbe930e57	-0.28721878
65	0xbf068f15	-0.52562076
66	0xbce71aed	-0.028211081
67	0xbfa925c5	-1.3214651
68	0xbe976eba	-0.29576665
69	0x3dd91c43	0.106010936
70	0xbeeefbb9	-0.46676424
71	0xbe084029	-0.13305725
72	0x3dce31da	0.10068102
73	0xbdf7f189	-0.12106616
74	0xbde93b38	-0.11388248
75	0x3dabaf68	0.083830655
76	0xbd60ae1b	-0.05485354
77	0xbdb6d2d9	-0.08926935
78	0xbec76c82	-0.38949972
79	0x3dc7c14b	0.097536646
80	0xbc12fb6a	-0.008971075
81	0x3e32a056	0.17443976
82	0xbeb583e1	-0.35452178
83	0xbef0cce2	-0.47031313
84	0xbebc680f	-0.3679814
85	0x3da6f469	0.08152086
86	0xbda3f91b	-0.080064975
87	0x3d502f31	0.050826255
88	0xbe8aea27	-0.2713177
89	0xbeb1cad7	-0.34725067
90	0xbe917452	-0.28409058
91	0xbdba6aec	-0.09102425
92	0x3d7306e5	0.059332747
93	0xbddef75b	-0.10887023
94	0xbe1d6d08	-0.15373623
95	0xbef4ef13	-0.4783865
96	0xbe911150	-0.2833352
97	0xbf2ddfb8	-0.6791949
98	0x3df48ee4	0.11941317
99	0xbf822781	-1.0168306
100	0xbe0354d0	-0.12825322
101	0xbd06194d	-0.032738972
102	0xbec7ee6e	-0.39049095
103	0x3e0f8083	0.14013867
104	0xbdd244a5	-0.10266999
105	0x3de5af25	0.11215047
106	0xbdb8d0fd	-0.09024236
107	0xbd9c1083	-0.07620337
108	0x3d908640	0.07056856
109	0xbd8718fe	-0.06596564
110	0xbea7850d	-0.32718697
111	0xbded28e9	-0.115800686
112	0x3e5117db	0.20419256
113	0xbddf6c25	-0.10909299
114	0xbe9f2786	-0.3108484
115	0xbe953a6d	-0.29146138
116	0xbe6d06b2	-0.23147085
117	0xbb52be21	-0.0032156783
118	0x3de64a3f	0.1124463
119	0x3da94b2c	0.08266291
120	0xbe376786	-0.17910585
121	0xbe82cf0b	-0.25548586
122	0xbec570d4	-0.38562644
123	0x3de906ce	0.11378251
124	0x3d0e8bfb	0.034801465
125	0x3e0dad41	0.13835622
126	0xbe65c908	-0.22439969
127	0xbea484ec	-0.3213266
128	0xbe033009	-0.12811293
129	0xbed3e8e7	-0.41388628
130	0xbd8314b0	-0.0640043
131	0xbf22fea6	-0.6366981
132	0xbe49e741	-0.19717123
133	0xbd8c3c87	-0.06847482
134	0xbf1125ff	-0.566986
135	0xbda60a59	-0.081074424
136	0xbd9be59e	-0.076121554
137	0x3dcf664d	0.10126934
138	0x3e1d57b7	0.15365492
139	0xbd26afdb	-0.040695053
140	0xbe2317e5	-0.15927084
141	0x3e5e3b83	0.2170239
142	0xbe78e01c	-0.24304241
143	0x3d74940b	0.059711497
144	0xbde8acd7	-0.113610916
145	0x3dd03cf8	0.10167879
146	0xbe9f9847	-0.31170866
147	0xbefdae02	-0.4954682
148	0xbe4e5205	-0.20148475
149	0x3db0fd10	0.08642018
150	0x3b5ff45c	0.003417275
151	0x3df902c5	0.12158731
152	0xbee28db2	-0.4424873
153	0xbe9b97cf	-0.30389258
154	0xbeebcbc6	-0.46053904
155	0xbb1e98b4	-0.0024199905
156	0x3d0b172e	0.033957653
157	0xbbaa61cc	-0.0051996466
158	0xbe93bae1	-0.28853515
159	0xbede4ce5	-0.4341804
160	0xbe749a7c	-0.23887056
161	0xbedbd521	-0.42936042
162	0x3e4f82dc	0.20264763
163	0xbfb25bfa	-1.3934319
164	0xbe91c7af	-0.2847266
165	0xbd7f298b	-0.062295478
166	0xbefdd68d	-0.49577752
167	0x3e02b4c5	0.1276427
168	0xbdaf4a2f	-0.08559071
169	0xbdc18409	-0.09449012
170	0x3b5f81b3	0.0034104406
171	0xbd6d502f	-0.057937797
172	0x3d3e91b8	0.046525687
173	0xbd26f3aa	-0.04075972
174	0xbf1c6f99	-0.61107785
175	0x3d8e88db	0.06959697
176	0x3e456f9a	0.19280854
177	0xbddf34ee	-0.108987674
178	0xbef81b73	-0.48458442
179	0xbf02b180	-0.51052094
180	0xbe4270b6	-0.18988308
181	0xbddb388a	-0.10704143
182	0x3e4cc669	0.19997562
183	0x3de25309	0.11050994
184	0xbed04ea7	-0.40685007
185	0xbd8bad0a	-0.06820114
186	0xbeea9063	-0.45813283
187	0xbdd984c7	-0.106210284
188	0x3d0958ce	0.033531956
189	0x3b5d74cf	0.0033791547
190	0xbe9776b8	-0.29582763
191	0xbef6b00b	-0.48181185
192	0xbc829f1e	-0.015945014
193	0xbee00b14	-0.43758452
194	0xbdc7be84	-0.09753135
195	0xbf1e800d	-0.6191414
196	0xbdf1408a	-0.11779888
197	0x3e3209ba	0.17386523
198	0xbd05afbc	-0.032638296
199	0x3d81f02c	0.06344637
200	0xbd624723	-0.055243623
201	0x3d55cd28	0.052197605
202	0x3dd94d46	0.10610442
203	0x3e0c0898	0.13675153
204	0xbe6763b0	-0.22596622
205	0x3de5eb0c	0.11226472
206	0xbe5cc776	-0.21560463
207	0xbd41984b	-0.04726438
208	0x3e489f3e	0.19591996
209	0xbdb73ec1	-0.08947516
210	0xbe1af463	-0.15132289
211	0xbefd6e01	-0.4949799
212	0xbe893621	-0.2679911
213	0x3c83db0d	0.016095662
214	0xbde9d19d	-0.11416934
215	0x3e3a9729	0.18221726
216	0xbe52a273	-0.20569782
217	0xbd65ef4f	-0.056136426
218	0xbf02a408	-0.5103154
219	0xbaef47df	-0.0018255672
220	0x3d427b6c	0.047480986
221	0x3c018040	0.007904112
222	0xbe40a7bf	-0.1881399
223	0xbe843fa8	-0.25829816
224	0xbea05a40	-0.31318855
225	0xbf2913b2	-0.6604568
226	0x3cff96b5	0.031199792
227	0xbf96e353	-1.1788124
228	0xbe755831	-0.23959424
229	0xbcd10502	-0.025515083
230	0xbee45e3b	-0.44603142
231	0x3d925ede	0.07147001
232	0x3d3cc862	0.046089537
233	0x3e186e50	0.14885831
234	0x3d705392	0.05867345
235	0xbba006d8	-0.0048836283
236	0x3c01c1f8	0.007919781
237	0xbcdf6220	-0.02726847
238	0xbf17d5f2	-0.5931083
239	0xbd128758	-0.035773605
240	0x3e2f194e	0.17099497
241	0x3d86b5fd	0.0657768
242	0xbf034131	-0.5127135
243	0xbed0ed90	-0.40806246
244	0xbe867146	-0.26258296
245	0xbd41d518	-0.047322363
246	0x3dc64c1a	0.09682484
247	0xbd5a1ac6	-0.05324819
248	0xbe684555	-0.22682698
249	0xbe0806ac	-0.13283795
250	0xbf1a7d86	-0.60347784
251	0x3d7e3a25	0.06206717
252	0xbdefb3c2	-0.11704208
253	0x3de7349a	0.1128933
254	0xbeb6bd7b	-0.35691437
255	0xbf1152e5	-0.5676711

fc_var.bias f4 [32]
0	0xbe3758cc	-0.17904967
1	0xbe6a2db4	-0.22868997
2	0xbe39a733	-0.18130188
3	0xbec4cf2c	-0.3843931
4	0xbe8acc2a	-0.2710889
5	0xbec0863e	-0.3760242
6	0xbeab9891	-0.33514836
7	0xbe68f836	-0.22750935
8	0xbead3fcf	-0.33837745
9	0xbea16f51	-0.3153024
10	0xbe8a5214	-0.27015746
11	0xbe228373	-0.15870456
12	0xbe2aa4e1	-0.16664459
13	0xbee61c70	-0.4494357
14	0xbeb7a70f	-0.35869643
15	0xbee9c6d1	-0.45659497
16	0xbea4dd5e	-0.3220014
17	0xbe64a2ef	-0.22327779
18	0xbecdf07e	-0.40222543
19	0xbe919eb4	-0.28441393
20	0xbdfa62af	-0.12225854
21	0xbeae8c23	-0.3409129
22	0xbe1cad76	-0.15300545
23	0xbeb93676	-0.36174363
24	0xbea6e65d	-0.32597628
25	0xbe8177c8	-0.25286698
26	0xbdd4152f	-0.10355603
27	0xbe860429	-0.2617505
28	0xbec98885	-0.3936197
29	0xbed6aa9a	-0.41927034
30	0xbe9099c4	-0.28242314
31	0xbeb56c18	-0.3543403

convt1.weight f4 [32, 16, 13]
0	0x3e886ec9	0.26647022
1	0x3e00c24b	0.12574117
2	0x3e9289c1	0.28620723
3	0x3ddf1e63	0.10894468
4	0x3e292f28	0.16521895
5	0x3e29a2d1	0.16566016
6	0xbd94bc13	-0.07262435
7	0xbf2ba12b	-0.670428
8	0xbf3718d1	-0.7152224
9	0xbd434062	-0.047668822
10	0x3dd5252d	0.10407481
11	0x3e005488	0.12532246
12	0x3e6e982f	0.23300241
13	0xbd25303f	-0.040329214
14	0x3c881fc5	0.016616711
15	0x3ca4169b	0.02003031
16	0xbd605fac	-0.05477874
17	0x3d8da236	0.06915705
18	0x3d632af3	0.05546088
19	0xbe0df0d8	-0.13861406
20	0x3e3558df	0.17709683
21	0xbc57b6c9	-0.013166138
22	0xbdf17e93	-0.1179172
23	0x3eab88e7	0.33502886
24	0x3f0b8fc4	0.54516244
25	0x3e8f4208	0.27980065
26	0xbeb49e74	-0.3527714
27	0xbee9e858	-0.45685077
28	0xbe3ce429	-0.18446411
29	0xbd271fe4	-0.040801898
30	0x3eac9a54	0.33711493
31	0xbedf5299	-0.43617705
32	0xbf2bc978	-0.6710429
33	0x3f094aca	0.53629744
34	0x3ef3d124	0.476205
35	0x3dcec48a	0.100960806
36	0x3ed08d2d	0.4073271
37	0x3ee6b845	0.45062461
38	0xbe182c17	-0.14860569
39	0x3e84f4bc	0.25967968
40	0x3e1329f3	0.14371471
41	0xbea0057b	-0.3125418
42	0xbed808f5	-0.42194334
43	0x3ef33855	0.47503915
44	0xbdecf35e	-0.11569856
45	0x3db80e94	0.089871556
46	0xbf2d2e1c	-0.6764848
47	0x3eb72656	0.35771435
48	0xbecc7b95	-0.39938036
49	0xbeaf73a1	-0.34267905
50	0x3d18d2e7	0.037310507
51	0xbe541fb4	-0.20715219
52	0xbe93c1f7	-0.2885892
53	0xbe56f5d2	-0.2099221
54	0x3d2504c0	0.040287733
55	0xbeed6965	-0.46369472
56	0xbea96abc	-0.33089244
57	0x3ea18d67	0.31553194
58	0xbf1568fc	-0.5836332
59	0xbef10057	-0.47070572
60	0xbedc9325	-0.43081012
61	0xbef9e701	-0.48809054
62	0xbd74bbee	-0.059749536
63	0x3cd35a23	0.025799816
64	0xbec8e7db	-0.39239392
65	0xbca2074f	-0.019778876
66	0xbe490592	-0.19631031
67	0xbec89a74	-0.39180338
68	0x3ec4f5f9	0.38468912
69	0x3edc8b34	0.43074954
70	0xbf1487cd	-0.58019716
71	0xbf73694f	-0.95082563
72	0x3da9c0a1	0.08288694
73	0x3e877604	0.26457226
74	0xbe197719	-0.14986838
75	0x3e79504e	0.2434704
76	0x3d6703f7	0.056400266
77	0xbdee979b	-0.1165001
78	0x3c75c932	0.015001582
79	0x3db5442e	0.08850895
80	0x3ee4eec0	0.44713402
81	0xbda7a429	-0.08185608
82	0xbe903478	-0.2816503
83	0xbf786111	-0.9702311
84	0x3edac9bc	0.42732036
85	0x3dcd0e38	0.10012478
86	0xbf59ff0f	-0.85154814
87	0x3f13ba05	0.5770572
88	0x3f52e755	0.82384235
89	0x3f00658d	0.50154954
90	0x3d7f07a8	0.06226316
91	0xbe1d8de8	-0.15386164
92	0x3db4ee33	0.088344954
93	0xbded2a69	-0.11580355
94	0xbef6c494	-0.48196852
95	0x3e394efb	0.18096535
96	0xbe43f5de	-0.1913676
97	0x3cc327df	0.023822723
98	0x3d6a54d7	0.057209816
99	0xbe3c0c9d	-0.18364187
100	0xbdbe60ae	-0.09295784
101	0x3e8eb7a8	0.27874494
102	0x3ddee302	0.10883142
103	0xbc87b71f	-0.016566811
104	0xbd5d2b25	-0.053996224
105	0x3d95f7e7	0.07322674
106	0x3ca77223	0.020440167
107	0xbf4bc21b	-0.79593056
108	0x3ef1e28c	0.47243154
109	0x3edbefe8	0.4295647
110	0xbf86b7a8	-1.0524797
111	0x3d88f4d4	0.06687322
112	0x3e8029f5	0.2503201
113	0xbe593988	-0.21213353
114	0x3c161459	0.009160125
115	0x3f3ca9b1	0.7369643
116	0x3d96bc91	0.07360185
117	0xbf0d2a2e	-0.55142486
118	0xbe84382f	-0.25824115
119	0xbee42818	-0.4456184
120	0x3d604f4a	0.054763116
121	0xbeb57312	-0.35439354
122	0xbe1ba6b5	-0.15200312
123	0xbd53ec70	-0.051739156
124	0xbf201c04	-0.6254275
125	0x3e5af4c0	0.21382427
126	0xbe707987	-0.23483859
127	0xbd2730f4	-0.04081817
128	0x3e467637	0.19381033
129	0xbe2c8419	-0.16847266
130	0xbd1f9915	-0.03896435
131	0xbd4054a7	-0.04695573
132	0x3cf16f16	0.029471915
133	0x3d3e89e7	0.046518233
134	0xbcafece4	-0.021475263
135	0x3e3253dc	0.17414802
136	0x3eb7bd52	0.35886627
137	0x3e7bec4c	0.24601859
138	0xbeb7878f	-0.3584561
139	0xbe9e56d4	-0.3092562
140	0xbf3819cc	-0.7191436
141	0xbeb43496	-0.3519637
142	0x3bca2698	0.0061691515
143	0x3de24bdc	0.11049625
144	0xbdc6a74f	-0.0969988
145	0xbe5580e1	-0.20849945
146	0x3c02d74f	0.007985904
147	0x3f83896e	1.0276315
148	0xbe9e7967	-0.30951998
149	0xbf255b7a	-0.6459271
150	0x3c531578	0.0128835365
151	0x3f670e6f	0.902564
152	0x3e5a16e9	0.21297802
153	0x3f7ca161	0.98683745
154	0x3d50eb4f	0.051005658
155	0xbe63213d	-0.22180648
156	0x3d196ca0	0.03745711
157	0x3e661ef2	0.22472742
158	0x3e001bc5	0.12510593
159	0xbd82799d	-0.06370852
160	0xbf1167c5	-0.56798965
161	0x3b5098c6	0.0031829341
162	0x3dab4360	0.0836246
163	0xbf0a7a71	-0.5409308
164	0xbeb4ffe3	-0.35351476
165	0xbe0654b7	-0.13118254
166	0xbf076be2	-0.5289899
167	0x3ea573a4	0.3231479
168	0xbeb52084	-0.3537637
169	0x3e18308a	0.14862266
170	0xbe1dc14c	-0.15405768
171	0x3d44f98b	0.048089545
172	0xbf091738	-0.53551054
173	0xbd97056f	-0.07374083
174	0x3f0ed0da	0.5578743
175	0xbeaa60ab	-0.33276877
176	0x3ea5113e	0.32239717
177	0xbbc08aea	-0.005875935
178	0xbe884d97	-0.26621696
179	0x3d90d538	0.07071918
180	0xbd807b33	-0.062734984
181	0x3e464653	0.19362764
182	0x3e9721b4	0.295179
183	0x3bdc562c	0.0067241397
184	0x3eee42b9	0.4653528
185	0xbe8c2487	-0.27371618
186	0x3d49e7b1	0.049293224
187	0x3ef99e47	0.4875357
188	0xbe130ea9	-0.14361061
189	0xbd7af2e4	-0.061266795
190	0x3ddc36c8	0.10752636
191	0x3dda92de	0.10672544
192	0x3e172b19	0.14762534
193	0xbed15259	-0.4088314
194	0x3d357d82	0.044309147
195	0xbcf695f9	-0.03010081
196	0xbd3a6a6d	-0.04551165
197	0x3ead835f	0.3388929
198	0x3d3e3a86	0.04644253
199	0x3e3cb7fc	0.1842956
200	0xbd64c5c9	-0.055852685
201	0x3d6b44e8	0.05743876
202	0x3f0f5060	0.5598202
203	0xbea8067a	-0.3281744
204	0x3ea3c3fa	0.31985456
205	0x3e2491ef	0.16071294
206	0x3dfe30d4	0.12411657
207	0x3dd77ee5	0.1052225
208	0xbdcb9ffd	-0.09942625
209	0xbe21cd27	-0.15800916
210	0xbdc27fb1	-0.094970115
211	0xbd25de56	-0.04049524
212	0xbd77a1d6	-0.060457073
213	0xbf13cd64	-0.57735276
214	0xbea6ea35	-0.3260056
215	0x3ed9f2fb	0.42568192
216	0x3dcf13d3	0.10111203
217	0x3c1c4502	0.009537937
218	0xbd21e42e	-0.03952425
219	0xbcbd4a24	-0.023106642
220	0xbd83e58b	-0.06440266
221	0xbcbb0ab3	-0.02283225
222	0xbf4fc81b	-0.8116471
223	0xbd86d613	-0.065838
224	0xbdd0bf19	-0.10192699
225	0xbe16d8e3	-0.14731173
226	0xbd4d6669	-0.050146494
227	0xbc8f141a	-0.01746564
228	0xba03696c	-0.00050129625
229	0x3eb15754	0.3463694
230	0xbf0f6a01	-0.56021124
231	0xbec668ba	-0.38751775
232	0xbf042a84	-0.51627374
233	0x3f723b9e	0.9462222
234	0x3e513294	0.2042945
235	0xbe379444	-0.17927653
236	0x3eb32cb9	0.34995058
237	0x3f24f90f	0.64442533
238	0x3e69b1f6	0.22821793
239	0x3f34d2f7	0.70634407
240	0x3f0098a6	0.50232923
241	0x3c803512	0.015650306
242	0xbea61fd0	-0.32446146
243	0xbdfcb112	-0.12338461
244	0xbec9164c	-0.39274824
245	0x3ef58e69	0.47960213
246	0x3f03eff1	0.51537997
247	0xbdb849c3	-0.08998444
248	0xbd4e7896	-0.05040797
249	0xbf941d7f	-1.1571501
250	0xbfc5ed9d	-1.5463139
251	0xbfbcc8b2	-1.4748747
252	0xbe863c33	-0.26217803
253	0xbd443fc8	-0.04791239
254	0x3e5cb7ae	0.21554443
255	0xbdb72fb5	-0.08944646

convt1.bias f4 [16]
0	0xbf45ea7b	-0.77310914
1	0x3f4df869	0.8045717
2	0xbe51af8d	-0.20477124
3	0x3f10654d	0.5640457
4	0x3f5374dc	0.8260019
5	0x3da4e0f2	0.080507174
6	0x3e50f7d7	0.20407043
7	0x3f85aa52	1.0442603
8	0xba064a36	-0.00051227526
9	0x3f1e734a	0.6189467
10	0x3e581641	0.21102239
11	0x3f431fc6	0.7622036
12	0x3f47aab5	0.77994853
13	0x3e4d5766	0.20052871
14	0xbedc37c9	-0.4301131
15	0x3e816907	0.25275442
