vaes/trained_vaes/soutenance/VAELow_25epochs_60000steps_Soutenance_SCALE13E-1__batch64_Adam_lr7E-3.pt (torch, 79935 bytes, 19 tensors)

conv1.weight f4 [4, 1, 11]
000000 ab 48 d6 be 99 7d c6 be a7 2a 77 be e5 04 e4 be
       -0.41852316 -0.38767698 -0.24137364 -0.44534984
000010 0a a0 b9 bd bb 60 60 be 97 36 f9 bd b0 a1 07 be
       -0.09063728 -0.219119 -0.12168615 -0.13245273
000020 1f 04 67 be 74 c0 0f bf 8f 43 d2 be 44 a7 8a 3d
       -0.22560166 -0.56153035 -0.41067168 0.06770185
000030 19 a8 9b 3d 3e e5 50 bd 00 36 1e 3d 45 17 14 3e
       0.076004215 -0.050999872 0.038625717 0.14462002
000040 5b 1a 3d 3e f1 16 a5 3c 26 d9 bf bc cd e5 83 3e
       0.18467085 0.02015254 -0.023418974 0.25761262
000050 38 18 1a 3e 4c e7 e9 3e e1 c4 00 3d 47 ad 36 be
       0.15048301 0.45684278 0.03143776 -0.17839538
000060 4c 90 94 bd 39 bc 20 be 5d e0 08 3e a2 0d de 3d
       -0.07254085 -0.15696801 0.13366838 0.10842444
000070 1e 3e 47 be ec 2d e8 3d 4f 89 28 be e0 32 03 3e
       -0.1945729 0.11336884 -0.16458629 0.12812376
000080 a1 60 30 be 46 c5 85 bd a8 3d a2 3d d8 12 00 3d
       -0.17224361 -0.065317675 0.07921916 0.03126797
000090 59 92 a9 3e e6 bb 95 3e 43 45 ab 3e 98 f9 6e 3e
       0.33119467 0.29244918 0.3345128 0.233374
0000a0 f4 61 69 3e 16 84 24 be 28 10 8a be df 79 0b bf
       0.22791272 -0.16066012 -0.2696545 -0.54482836

conv1.bias f4 [4]
000000 8c 45 f8 3d a0 08 3b bd 39 99 d8 bd 0d f0 29 be
       0.1212264 -0.045662522 -0.105761 -0.16595478

conv2.weight f4 [8, 4, 11]
000000 dd 00 31 3e 4b 32 9b bd e4 da 77 bd 76 79 a6 bd
       0.17285486 -0.07577952 -0.060511485 -0.081286356
000010 54 a2 9c 3d fc a5 37 bd 77 b3 a5 3d 6e a8 95 bd
       0.07648149 -0.04483603 0.08090871 -0.07307516
000020 bb e6 53 bd 05 92 77 3e b8 63 81 3e a1 ad 44 be
       -0.051733714 0.24176796 0.25271392 -0.19206859
000030 c7 2a e5 3d 46 b5 db bc 3c c8 6c bd 16 3f 22 3e
       0.111898 -0.026819836 -0.057808146 0.15844378
000040 13 b3 29 3e f8 7d cc 3d 50 1b 75 3e 00 65 0f be
       0.16572218 0.09984964 0.239362 -0.14003372
000050 7f 39 7a be 49 8b 84 bf 79 e9 d2 bd 00 5f a0 3d
       -0.24435996 -1.0355006 -0.102984376 0.0783062
000060 d7 59 53 3d f4 ed f6 bd af a0 ac 3d b6 d2 1b 3d
       0.05159935 -0.12057105 0.084290855 0.038042746
000070 52 4a 14 be 26 a2 55 bd 06 b5 ab bb 10 c1 d8 3d
       -0.14481476 -0.05215659 -0.0052400855 0.10583699
000080 9f 5b bf bd 72 ad 30 bf db f8 98 be 77 c8 db bf
       -0.09343647 -0.69014657 -0.29877362 -1.7170552
000090 ab b3 c1 bf 00 b8 cd bf 49 b6 f2 bf 77 fa 10 c0
       -1.5132955 -1.6071777 -1.8961879 -2.2652872
0000a0 88 50 0b c0 51 67 ea bf 06 de a5 bf 0f 22 66 be
       -2.1767902 -1.831278 -1.2958381 -0.2247393
0000b0 a5 c6 2e be cd af fe bd 67 eb 0b 3d 81 e4 86 bc
       -0.17067964 -0.12435875 0.034160044 -0.016466381
0000c0 3d 53 20 be 3b bb e2 3a 43 5a 0f be 56 5d 1c 3e
       -0.15656753 0.0017298231 -0.13999276 0.1526998
0000d0 63 e5 10 3c 91 88 99 3e 27 82 ef 3e 65 bb ac bd
       0.008843753 0.29987004 0.46778986 -0.0843418
0000e0 18 57 a2 3d fb 21 c0 3d b3 6c d1 3d a8 93 8a bd
       0.07926768 0.09381481 0.10225811 -0.067664444
0000f0 5e c3 e6 3c 2e 5c d0 bc c6 62 e0 3d d8 61 ff bd
       0.02816933 -0.02543458 0.109563395 -0.12469834
000100 72 c9 cb 3c 47 32 c3 be 30 f3 b9 3c 8a e8 d1 3c
       0.02487633 -0.38124296 0.022698969 0.025623579
000110 7d 8d fa bd 81 39 12 bd ff de 1e be a1 d1 17 be
       -0.12234018 -0.03569937 -0.15514754 -0.14826061
000120 5c b6 2e 3c 8c 15 14 be 13 ea a2 3d 2d d2 00 3d
       0.010663595 -0.14461344 0.07954802 0.03145044
000130 25 df 1a be 04 e2 df bb 05 c4 f4 bc bf 55 4d be
       -0.15124185 -0.006832363 -0.029878626 -0.20052241
000140 f3 a5 70 bd 56 0e 11 be a5 b3 07 be 87 0c 14 be
       -0.05875201 -0.14165625 -0.13252123 -0.14457904
000150 9e 8c 07 bd 95 70 62 bd a9 f4 99 3d bd 4b 43 3e
       -0.033093087 -0.055283148 0.07517368 0.1907186
000160 dc 9e 70 3d 77 da 1d be e8 69 01 bc e4 5b e1 bc
       0.05874525 -0.15415369 -0.007898785 -0.027509637
000170 1a 02 0e 3a 99 06 e0 3d 00 b9 bd 3d 42 af f0 bd
       0.0005417183 0.109387584 0.092638016 -0.11752178
000180 a7 1c 7a bd b1 01 c8 3d ff c5 86 bd 42 5b 23 be
       -0.06106248 0.097659476 -0.065807335 -0.15952781
000190 b3 29 f4 bd 6a 30 98 bd 66 8a a5 bc cc 12 29 bd
       -0.11922016 -0.07431109 -0.020207595 -0.04127769
0001a0 ac a4 ad bd 1b 86 31 3d 02 2f 8e 3c 02 11 cb 3d
       -0.08478674 0.043340784 0.0173564 0.09915353
0001b0 f0 0c ec bb 1a 61 26 be 3f a9 b5 3d 1e 7c f0 3d
       -0.0072036907 -0.16247979 0.08870172 0.117424235
0001c0 df bb be bd 3b 1a 1b be 67 0e a5 bd ee 56 30 be
       -0.09313177 -0.15146725 -0.08059388 -0.17220661
0001d0 49 e7 d7 bc 33 19 1e be 41 19 db bd 48 bb 2d 3d
       -0.026355403 -0.154393 -0.10698176 0.042414933
0001e0 d8 f6 2c be e2 15 f9 3d ae 08 e5 bc 28 b5 05 3e
       -0.16891038 0.12162377 -0.02795824 0.13057387
0001f0 97 92 10 be b4 aa 23 be be ba d7 3d f3 ce b2 bd
       -0.1411842 -0.15983087 0.10533665 -0.08730879
000200 90 5b 98 bd 74 94 20 be 6f 89 a6 bd 1c 10 80 3d
       -0.07439339 -0.1568163 -0.08131682 0.062530726
000210 c3 87 08 be 89 07 1e be c3 30 b0 bd 6e 8f 15 bd
       -0.13333039 -0.15432562 -0.086030506 -0.03651374
000220 6a 47 47 be 1f 83 33 3d cd 01 f7 3d 31 21 e6 bb
       -0.19460836 0.04382622 0.1206089 -0.0070229997
000230 a9 ba 50 3e b4 8b ac 3d 6b b4 a5 3e 78 ab f8 3e
       0.20383705 0.08425084 0.3236421 0.4856832
000240 1e ef 02 3f 47 2c e1 3e 3b 50 75 3e 1a 20 61 3d
       0.51146114 0.43979093 0.23956387 0.054962255
000250 17 8b cf 3d 55 03 27 be c7 b2 1d be 08 f1 55 be
       0.10133951 -0.16309865 -0.1540023 -0.20892727
000260 cc 69 10 bf 15 b8 54 bf 2a 2e 26 3d c3 db 0d be
       -0.56411433 -0.83093387 0.04057137 -0.13853364
000270 14 7a c9 3d 8a c8 0d be 92 8c 20 be ae d5 66 bc
       0.09837738 -0.13846031 -0.15678623 -0.014089031
000280 72 00 61 3c c3 d9 fe bc 65 20 15 be aa 27 b4 bd
       0.013733016 -0.031109696 -0.14563139 -0.08796628
000290 67 e1 c0 bb 70 24 75 3e 64 08 19 bd 28 46 13 bb
       -0.005886245 0.23939681 -0.037361518 -0.0022472236
0002a0 a5 e3 a1 bd 43 5a 93 be 57 cd 26 be 7f 2c fe bd
       -0.07904748 -0.28779802 -0.16289268 -0.12410831
0002b0 b7 23 2e be ad d8 49 be af e8 6d bd 1d 8b d5 bd
       -0.17005812 -0.19711562 -0.058083232 -0.104269244
0002c0 57 0d c9 bc 08 26 8b 3d fa e6 e0 bc 3f 01 a3 bc
       -0.024542494 0.06794363 -0.027453888 -0.019898055
0002d0 e7 98 db bd ea 81 3c bd 43 02 b6 bc aa 5b 19 bd
       -0.10722523 -0.046022333 -0.022217875 -0.037440933
0002e0 74 3d 5f 3e 50 24 ca 3e 95 78 5b 3e 1a cd 82 be
       0.21800786 0.3948083 0.21432717 -0.25547105
0002f0 39 d6 78 be 57 c5 1d be 75 21 a9 bd d8 0f bd bc
       -0.2430047 -0.1540731 -0.082583345 -0.023078844
000300 cc 3a a4 bc 1f 7d 8a 3e cb 0f b0 bd 2a 71 f4 3d
       -0.020047568 0.27048585 -0.08596762 0.11935647
000310 22 bd 24 3d ef 46 da bd 2b 90 a1 bd ea ff 4b 39
       0.040219434 -0.10658061 -0.07888826 0.00019454924
000320 15 23 33 be f1 a2 21 be da 78 fe 3d 21 c0 82 bd
       -0.17493851 -0.15784813 0.12425394 -0.06384302
000330 4f 6f 25 3d a4 99 94 bd 0d e3 1e be 02 6b ba bc
       0.040389355 -0.07255867 -0.155163 -0.022756103
000340 96 66 d6 3d c7 f6 0c 3e 33 30 94 3e b9 46 c1 3e
       0.104687855 0.13766013 0.28943023 0.3774927
000350 52 dd 85 3e 16 22 eb 3d 12 ba 6b 3e 87 af 0b 3e
       0.26145416 0.11481111 0.23020199 0.13641177
000360 e4 03 c0 3e f2 36 12 3f 2e bb e6 3e 68 87 17 3f
       0.37502968 0.5711509 0.45064682 0.5919099
000370 1e 2d 74 3e 28 2f 14 3d 02 15 34 3e 63 c2 84 bd
       0.23845336 0.036177784 0.17586139 -0.06482389
000380 7c 24 c4 bd d6 7a 8a bd c7 63 14 be 7f 46 64 3d
       -0.09577271 -0.0676171 -0.14491187 0.055731293
000390 e3 df 46 bd 1c 46 13 3c b9 61 13 be 0b 5e 80 be
       -0.04855336 0.008988883 -0.14392747 -0.2507175
0003a0 93 2d 79 be ab 5d 97 be 0d 74 d0 bd cb 0d 7b bd
       -0.24333791 -0.2956365 -0.10178385 -0.06129245
0003b0 b2 51 a3 bd 5f 29 d0 bd 0d 02 65 be ac bb 51 bd
       -0.079745665 -0.10164141 -0.22364064 -0.05120437
0003c0 e8 4b 52 be ca 31 1e be ef 30 a0 bc 63 ec 40 bc
       -0.20536768 -0.1544868 -0.019554583 -0.011775109
0003d0 7f 9f ff bd 04 1d 9f bd 0c b4 cc bd b8 7f c8 bd
       -0.12481593 -0.07769206 -0.09995279 -0.097899854
0003e0 d0 b2 c6 3c 7b 72 00 be 3b f6 a2 bd be c8 c8 bd
       0.024255186 -0.12543671 -0.07957121 -0.098039135
0003f0 36 0e 06 3e 3b 29 5b 3c ef e6 0c 3c 0c 16 f8 bd
       0.13091359 0.013376529 0.008599981 -0.1211358

conv2.bias f4 [8]
000000 23 01 6b 3e d8 cf a4 3e 29 b2 b4 bd 35 71 9a 3d
       0.22949652 0.32189822 -0.08823044 0.07541124
000010 11 c3 3d 3e dd 04 43 be 60 37 2f 3d 2d dd 06 3e
       0.18531443 -0.19044824 0.04277742 0.1317031

conv3.weight f4 [16, 8, 11]
000000 82 ee 89 3d 70 06 3c bd 24 db be bd 39 b2 2d 3c
       0.06734945 -0.045904577 -0.093191415 0.010601574
000010 73 5d ef bd 11 7a 89 3c e3 8c 7f 3d ad 80 d0 bd
       -0.11687746 0.016781839 0.06239022 -0.10180793
000020 11 02 90 3c 98 22 c5 bd a5 cc 20 3c c1 03 9a bd
       0.01757911 -0.09625739 0.009814416 -0.07520247
000030 cf 7d 25 3d 87 4d 34 3d 01 b1 c1 bd 54 5d 7b bd
       0.040403184 0.04401925 -0.09457589 -0.0613683
000040 68 a3 87 3d 20 55 98 bd 79 10 b4 bc 15 d9 04 be
       0.06622964 -0.07438111 -0.021980511 -0.12973435
000050 d4 8d ec bd f6 44 7e bc a3 d2 c9 3d fa 1a 47 bd
       -0.11550489 -0.015519371 0.09854629 -0.04860971
000060 df e0 f4 3c ef 2c bc bd 80 81 93 3d af db fe bb
       0.029892383 -0.09188258 0.072024345 -0.007777653
000070 f3 1c da 3c 6f 9b c4 bd 86 85 13 bd 1d ef bc 3d
       0.026625132 -0.09599959 -0.03601601 0.09225295
000080 84 1b 1e bc 87 7d 25 3d 79 c7 ab bd ea c8 c5 3c
       -0.009650115 0.040402915 -0.08387656 0.024143655
000090 51 d8 2a bc 0d 9f ad bd fa 72 01 bd d0 27 2f 3c
       -0.01042755 -0.08477602 -0.03160379 0.010690644
0000a0 15 68 e4 bd 70 1b f0 bc c1 c2 e2 bd 44 e0 09 bc
       -0.111526646 -0.029309958 -0.110723026 -0.0084152855
0000b0 f3 a7 85 bd e9 2d 47 3d 4d 5f 70 3c 17 01 cb bc
       -0.065261744 0.048627768 0.014671159 -0.024780793
0000c0 b5 f5 d9 bd 8f 27 bb bd c3 d1 11 be 73 ee 3c 3d
       -0.10642568 -0.091384046 -0.14240174 0.04612584
0000d0 3e 54 27 3c fa 54 7b bd dd 95 1a 3d c4 e8 9a 3d
       0.010212956 -0.061360337 0.037740577 0.07563928
0000e0 f2 a4 7d 3d a5 50 d1 3d 55 3e a9 3b 69 f3 9e bc
       0.061924882 0.1022046 0.0051649013 -0.019403176
0000f0 b6 d8 80 3a 12 87 4b 3d bc f3 02 bd 61 a3 c1 3d
       0.000983021 0.04968936 -0.031970724 0.0945499
000100 14 52 a7 3d ed 82 eb 3b 78 3b 0a 3d 87 36 86 3b
       0.08169952 0.0071872384 0.03374812 0.0040958556
000110 d3 43 d3 bc 96 53 06 bd b1 9c c5 bd 2a ad a4 3c
       -0.025789177 -0.032794558 -0.09649027 0.020102102
000120 43 3d 6e 3d 22 82 c8 bc 8e 45 1f 3c 35 cd 77 bd
       0.058163892 -0.024476115 0.009721173 -0.060498435
000130 fe ff ea bc 6d f7 5b 3b 97 65 43 3d ba 10 33 3c
       -0.02868652 0.0033564225 0.047704305 0.010929281
000140 3b 4c bc bd ef 2e ed bd fe b2 1a 3c ba c5 11 be
       -0.09194227 -0.115812175 0.009442089 -0.14235583
000150 aa 87 db bc b2 1c 96 bc 60 74 f2 bb bb 29 a6 bc
       -0.026798088 -0.01832423 -0.007399127 -0.02028357
000160 ee 4d f3 3e ad 9c 72 3e ff 7e 5f 3d 36 ff 2d 3e
       0.47520393 0.2369258 0.054564472 0.16991886
000170 10 b7 7c 3c 7e f7 b4 3d b9 d9 b9 3d 2b 0e 91 3d
       0.015424505 0.08836268 0.090747304 0.070827805
000180 f7 99 f3 bc f8 84 a2 bc d9 f6 a6 3e 54 f1 2c bd
       -0.029736502 -0.019838795 0.32610205 -0.042222336
000190 d9 b9 dc bd 6e 98 f0 bc 4f 04 1a 3e b8 70 07 3e
       -0.10777635 -0.02936956 0.15040706 0.13226593
0001a0 ac 8d cd 3d c9 d0 99 3d 14 0b 71 3e 64 9c 2f 3e
       0.100367874 0.07510526 0.23539382 0.17149502
0001b0 94 73 72 3e 1b f0 cf 3e 98 41 9a bd 74 a9 98 bd
       0.23676902 0.40612873 -0.07532042 -0.074541956
0001c0 bf ba 92 bd e1 3b e6 bc cc f1 6e 3c 99 f5 ac bd
       -0.07164525 -0.028104724 0.014584016 -0.084452815
0001d0 8d cb 22 3d cf 02 cb bd f4 e7 71 3c 95 77 04 be
       0.039744902 -0.09912645 0.014764775 -0.12936242
0001e0 06 d9 1f bd 14 4b ee 3d 65 7e 1e 3d f7 f2 99 be
       -0.03902533 0.11635414 0.038694758 -0.3006818
0001f0 64 c0 93 be 94 a6 82 be ad ea 71 be 6c 1c b8 be
       -0.2885772 -0.25517714 -0.23624678 -0.35959184
000200 b4 33 97 be d4 7b a7 be 8f a6 0c be d5 02 e5 3e
       -0.29531634 -0.3271166 -0.13735412 0.44728723
000210 87 0d db 3e fc 3c 29 3e a2 18 c8 3d 9c c9 31 bd
       0.42783758 0.1652717 0.09770323 -0.04340516
000220 90 58 d0 bd e7 b4 65 bd ca 23 84 bd 80 c4 88 bd
       -0.10173142 -0.056080725 -0.06452139 -0.066781044
000230 68 32 2c be 5d 44 bb 3d 24 7c 87 3d ea d3 46 bc
       -0.16816103 0.09143899 0.06615475 -0.012135485
000240 33 dc 90 3d db f9 81 3d fd d0 9d 3d 81 2f 0b bd
       0.0707325 0.06346484 0.07705877 -0.03398085
000250 20 89 86 3d b5 56 97 3d ea a4 58 3d 3b 83 d8 bd
       0.06569123 0.07389585 0.05289165 -0.10571905
000260 ad 7c d9 bc d4 61 b0 3d b6 03 c8 3d 46 bb 96 be
       -0.026548708 0.08612409 0.09766333 -0.29439753
000270 ce 89 b3 be eb 3c 57 be 51 c5 a4 bd 08 d0 dd 3b
       -0.35066074 -0.21019332 -0.080454476 0.006769184
000280 43 b7 58 bd bf 4b c5 bc 42 fa 78 be 44 b9 ed be
       -0.052909147 -0.02408397 -0.24314216 -0.4643041
000290 ed 2d 53 bf 6b 2b c8 3e d1 1f c6 3d 1b f1 9a be
       -0.8249195 0.39095625 0.09674037 -0.30262074
0002a0 83 7e 8c be ec 05 95 bb 99 3a f8 bc 55 85 ae bd
       -0.2744027 -0.004547825 -0.030301379 -0.08521525
0002b0 17 86 f7 3d 6a a2 66 3d ef a8 47 bd 6a 74 2a 3f
       0.120861225 0.056307234 -0.048745092 0.66583884
0002c0 b0 cd 00 3f d6 0e 35 3e a7 7e d7 3d 43 09 40 3e
       0.50313854 0.1768144 0.10522204 0.18753533
0002d0 09 9a 33 3d 53 52 bb 3c c6 05 12 be 10 0a 03 be
       0.04384807 0.022866404 -0.14260015 -0.12796807
0002e0 c9 6d 87 be d1 be 55 be 68 07 0a be 6c 6c 62 3e
       -0.26450947 -0.20873572 -0.13479388 0.22111672
0002f0 9a 18 38 3e 81 8c 60 3e d2 b7 c2 3e ee 69 0b 3e
       0.17978135 0.21928598 0.3803087 0.13614628
000300 5c e7 17 3e 71 80 e5 3d 00 b6 88 3e 6c db 64 3e
       0.1483435 0.11206139 0.26701355 0.22349328
000310 02 f7 4f 3e e8 72 9b 3e c6 78 15 3d 24 93 d7 3c
       0.2030907 0.30361104 0.03649213 0.02631528
000320 3e 3c e3 bd 50 84 08 3d 36 9b c5 bd ea 98 1e 3d
       -0.11095475 0.033329308 -0.09648745 0.03872005
000330 37 18 a6 bd 8c 5a f9 bc 99 9d 88 bd 4d 20 9b bd
       -0.08110087 -0.030438684 -0.06670684 -0.0757452
000340 91 b3 0f bd 62 f9 96 be 5a 4b 22 bd 78 1b 88 3c
       -0.035083357 -0.2948714 -0.039622642 0.01661466
000350 71 9d 26 bd 72 11 9a bd 2c 67 cf bd 48 63 97 bd
       -0.04067749 -0.07522859 -0.101271 -0.07391983
000360 01 01 fa bd 35 fe 58 be 0b dd 0a be dc 8c 38 be
       -0.12207223 -0.21190722 -0.13560884 -0.18022484
000370 0e e3 10 3e 30 4c 27 3e ed 44 c8 3d fd 44 32 3e
       0.14149114 0.16337657 0.097787715 0.1740913
000380 2a 20 77 3a e2 0e 12 be 28 05 db 3c ed 99 29 be
       0.0009427095 -0.1426349 0.026735857 -0.16562624
000390 e0 43 1d be fc b2 ee bd 53 55 ab bd 38 cc 50 be
       -0.15357924 -0.11655232 -0.08365884 -0.20390403
0003a0 86 5b 48 3e 6a c2 91 be 64 fc 37 be c7 ba b1 bd
       0.19566163 -0.2846864 -0.17967373 -0.08678203
0003b0 1a 6b c7 3d 57 f5 98 3d 50 b8 1b 3e 07 bd ff bd
       0.09737225 0.0746867 0.15207028 -0.12487226
0003c0 ec 72 90 3d 49 79 ed 3d 66 84 c9 be 59 c5 53 be
       0.070531696 0.11595399 -0.39358824 -0.20680751
0003d0 57 32 56 3d 55 d6 4b 3d 35 1f 50 bc d9 0f f6 bc
       0.0522941 0.04976495 -0.012702753 -0.030036854
0003e0 00 45 4b 3e 85 d2 8a 3c c4 f6 85 3d 68 3c a7 3d
       0.1985054 0.016946087 0.065412074 0.081658185
0003f0 b8 a3 92 bd 6a 0b 78 3f f0 02 a1 3e 0b dc 43 3e
       -0.07160133 0.96892416 0.31447554 0.19126908

conv3.bias f4 [16]
000000 45 e1 dd bd 30 8a 3c 3d 43 e0 e3 3e bd 6c 02 be
       -0.108339824 0.046030223 0.44507036 -0.12736793
000010 a0 66 cd bd 33 51 0f bd 33 95 2b be c4 31 38 3e
       -0.1002934 -0.034989547 -0.16756134 0.17987734
000020 1f 70 90 3e ec c9 7a 3e a3 4f c3 bd 4d d2 3e 3e
       0.28210542 0.2449109 -0.09536674 0.18634911
000030 6b be 47 3e 62 5d 67 3e d8 0e 03 be 14 87 c6 3e
       0.19506232 0.22594216 -0.12798631 0.3877493

conv4.weight f4 [32, 16, 11]
000000 ee 0d 11 3d 33 e9 2b bc 9c f6 0f 3d 02 8e 7b 3d
       0.035413675 -0.010492611 0.035147294 0.061414726
000010 85 f6 82 3d 3b 52 0b 3c 41 b5 6e bd d2 19 62 bd
       0.06394676 0.008503492 -0.058278326 -0.055200405
000020 3c 4b 0a 3c fd 92 35 bc 0b 01 ae 3c b1 5e c3 bb
       0.008440789 -0.011082408 0.021240732 -0.005962216
000030 81 e2 bd bd 23 93 ef 3c 0b ae fb 3c 6b 93 0c bd
       -0.09271718 0.029244965 0.030722639 -0.034320276
000040 cf 10 7a bd 9f a3 0a 3d c6 4a 6d 3c 3c 93 4e 3c
       -0.061051186 0.033847447 0.014483159 0.012608346
000050 7b 53 ba bd d6 9c 88 bd 6f 48 b5 bd 6d e5 a3 bd
       -0.09097954 -0.06670539 -0.08851706 -0.08002744
000060 60 79 fe 3c 25 69 d2 bd 11 57 aa 3c 33 07 7c bd
       0.031063735 -0.10273961 0.02079347 -0.061530303
000070 0e 46 56 bd d3 7c 77 bd 3f af 3a bd 2a 5a 00 bc
       -0.052312903 -0.060421776 -0.045577284 -0.007833997
000080 36 9b 81 bd a2 ba 33 39 96 5f 42 bc 55 0d 35 3d
       -0.06328432 0.00017140296 -0.01186361 0.044202168
000090 5e d1 91 3d 69 d2 49 bd b1 95 83 3d e7 8b 52 3d
       0.07120012 -0.04927293 0.06425036 0.051402953
0000a0 b8 01 a3 bc bf 06 82 bd e7 6b 72 bd 69 c7 30 bd
       -0.01989828 -0.06348943 -0.059184935 -0.043158922
0000b0 ed 06 ba bd bc f9 ad bd eb fc c7 bc 4f 49 d8 bc
       -0.09083352 -0.08494899 -0.024412593 -0.026402144
0000c0 fc 74 b0 3b ac ac 7f 3c 34 bd a3 bc 51 68 d0 3b
       0.0053850394 0.015605133 -0.01998768 0.0063600917
0000d0 bd 2e 0e 3c b3 75 cb bd 48 35 b2 bd 10 47 6a 3d
       0.008678135 -0.09934559 -0.08701569 0.057196677
0000e0 3f 0b 7f bd 3e a4 03 3d 2a d0 d5 3c 94 12 20 bd
       -0.062266584 0.032139055 0.026100237 -0.039080217
0000f0 d3 a8 14 3d cb 49 05 bd 10 8e a8 3c ed 7b 8d 3d
       0.036293816 -0.032541078 0.020575553 0.069084026
000100 1f bb 71 3d 61 a6 ef 3c b0 b8 f5 bc c4 e5 02 3d
       0.059016343 0.02925414 -0.029995292 0.031957403
000110 a4 64 0f 3d 6a d2 13 3d 59 8b d8 3b fd 72 d2 bc
       0.035008088 0.03608934 0.0066084084 -0.025689596
000120 ca d9 11 3d 2a 3a ea ba 68 85 6c 3d 60 72 2f 3c
       0.03560809 -0.0017870117 0.057744414 0.0107084215
000130 3f 61 fd bc f8 d3 92 3c 19 5a 5d bd af 57 13 3d
       -0.03093016 0.01792334 -0.054041002 0.035972293
000140 b3 2a 7c bd 0f b6 b6 ba 63 05 88 bd fa ab 8b 3d
       -0.06156416 -0.0013939756 -0.066416524 0.06819911
000150 35 aa a3 bc f6 f3 74 bd f5 29 98 bd ca 9b 65 3d
       -0.019978622 -0.05980297 -0.07429878 0.056056775
000160 92 ca eb bb 2c 42 1c bd fc d1 78 bd cc 9c 73 bd
       -0.007195779 -0.038149044 -0.06074713 -0.059475705
000170 c5 29 6e 3d a4 62 48 bd ca 80 a5 3c de 9c 7a 3d
       0.058145303 -0.048922196 0.020203013 0.061184756
000180 32 a4 2d 3c c4 a6 28 bc a9 07 26 3d f2 6e 08 3d
       0.010598229 -0.010293666 0.04053465 0.03330893
000190 91 81 a9 bd af fd 3e 3b 30 f3 ce 3c eb 39 ba bd
       -0.08276666 0.0029142906 0.025262445 -0.09093078
0001a0 40 f1 a6 bd d9 f6 7c 3c 63 3d 09 3d 80 52 4c bd
       -0.081514835 0.015439712 0.03350581 -0.049883366
0001b0 23 42 ba 3c 68 b9 be bd 12 1e 74 3c 85 78 d7 3c
       0.022736615 -0.09312707 0.014899747 0.026302585
0001c0 64 d3 86 bd 64 dc 88 bc 44 05 47 bd 00 95 63 3d
       -0.06583288 -0.016706653 -0.048589006 0.05556202
0001d0 87 82 9d 3c 0d e3 c4 3a ba 8b 95 bc 60 57 f5 bb
       0.01922728 0.001502128 -0.018255103 -0.0074872226
0001e0 35 71 56 3d 7e ec 56 bd a9 fa 10 bc 93 0e a5 bd
       0.052354056 -0.05247163 -0.008848825 -0.080594204
0001f0 07 da f6 3c 8e 9d c6 3b 2b 11 7c 3c 43 30 e4 bc
       0.03013326 0.0060612625 0.015384953 -0.027855044
000200 52 8a c1 bd f4 c4 31 bd 0a f6 59 bd fd a2 12 bd
       -0.09450211 -0.04340072 -0.053213157 -0.03579997
000210 64 a7 9a bc 99 d0 fd bc 43 d3 8c bd 6f 68 db bd
       -0.018878646 -0.030983256 -0.068762325 -0.107132785
000220 4d 06 e0 bc ae f3 24 3c e0 c2 b9 3c df f0 9f bd
       -0.027346754 0.010067863 0.022675931 -0.078096144
000230 d9 8c 90 bd 54 60 1a 3d c8 d8 53 bb d5 e8 9b bd
       -0.070581146 0.037689522 -0.0032325257 -0.076127686
000240 37 ee 85 bd ff 93 bc bc 98 3d 7b 3c f3 60 69 bd
       -0.065395765 -0.023019789 0.015334509 -0.056977224
000250 29 a5 4c bd 6a 8e 6f bd 07 f0 bc bd f6 45 de bd
       -0.049962196 -0.058485426 -0.09225469 -0.10853188
000260 fd 0a 91 3c 01 59 77 bd bf e1 14 bc 0a 09 40 3d
       0.017705435 -0.060387615 -0.009087025 0.04688362
000270 6d 9a 96 3d 10 b4 11 3d dc 31 97 bc 62 eb bc 3c
       0.07353673 0.03557211 -0.018456392 0.023061458
000280 bc 9b 37 bd 4b 2e 02 bd 83 39 91 bd c4 83 ca 3c
       -0.044826254 -0.03178243 -0.070910476 0.024721034
000290 db 67 53 bc 9f 28 c3 3c 23 42 b1 bd aa b8 47 bc
       -0.012903179 0.02382308 -0.08655193 -0.012190023
0002a0 e5 27 4a bc 01 51 85 bc d4 24 8a bd ea 43 1a bc
       -0.012338613 -0.016273977 -0.06745306 -0.009415606
0002b0 44 a9 cb bd bd ec 7b bc 94 70 ce 3b c0 fa e8 bc
       -0.09944394 -0.015376267 0.0063000415 -0.02843988
0002c0 d5 cd 9f 3c 0e 89 83 3c 48 17 aa bb cb 5a 1e 3d
       0.019507328 0.016056564 -0.0051907636 0.038660806
0002d0 16 c1 bb 3d 67 91 2f bd 16 ac e3 3d 6f ce 17 3d
       0.091676876 -0.042863276 0.11116807 0.037062105
0002e0 f1 28 0f 3d 9b bd 15 bd 16 b1 88 3d 61 73 ec 3e
       0.034951154 -0.036557775 0.066744015 0.46181777
0002f0 50 98 7a 3e 85 ad 56 3e 4b dc b6 3e 53 44 68 3e
       0.24472165 0.2096463 0.35714945 0.22682314
000300 4d b2 61 bd f9 6c 34 3e a7 0d 3a bc dc f5 6d bd
       -0.05510168 0.17619695 -0.011355794 -0.058095798
000310 8e 74 4d 3c e9 f2 b8 be 68 b9 95 3e db f6 02 3f
       0.012539996 -0.36122826 0.29243016 0.5115792
000320 b9 d8 fe 3e d2 52 99 3e 40 f7 60 3e 8d ce ab 3e
       0.4977472 0.29946 0.21969318 0.33556023
000330 bd 58 3d 3d b7 08 85 3d 00 2c 13 3e b9 00 55 3c
       0.046227206 0.06495803 0.14372253 0.013000661
000340 02 f0 89 bd f6 83 97 bc 7e 38 00 bc 10 a0 1a bd
       -0.06735231 -0.018495541 -0.007825969 -0.037750304
000350 2c 35 59 bd 61 e9 e7 3d 9a b6 db bb d2 67 75 3d
       -0.053029224 0.1132381 -0.0067051174 0.059913464
000360 a9 ec cd 3d 4f b6 2e 3d 89 28 1e 3c bd e1 d7 3d
       0.10054905 0.04265433 0.009653219 0.10541103
000370 fa 1d da be 16 a2 ed bd 4e 58 2b 3e 45 2a e9 be
       -0.42600995 -0.11603181 0.16732904 -0.45540062
000380 9d f6 42 bd d7 ad 1f 3d 17 e8 b1 bd 3e 5d 04 3e
       -0.04759847 0.038984146 -0.08686846 0.12926194
000390 a0 79 14 3d ee 9d 9d be 6a aa ba 3e 23 cd 01 bf
       0.036248803 -0.30784553 0.3645814 -0.5070364
0003a0 2e ba 74 be cb 88 79 3e e3 5c 7a be a4 fd 2b bd
       -0.23899147 0.24368589 -0.24449496 -0.041989937
0003b0 2c d5 93 bb 38 c0 76 be 3c 06 8f bd 95 03 b1 b9
       -0.004511496 -0.24096763 -0.06983611 -0.0003376274
0003c0 2b ee fa be dc 52 be bd 6c 5e 0a 3c 51 02 d0 bc
       -0.49009833 -0.09293148 0.0084453635 -0.02539173
0003d0 83 99 c1 bc ae cd fd 3c 11 c1 c1 3d 39 de 81 3d
       -0.02363277 0.030981865 0.094606526 0.06341214
0003e0 8c 09 8c bb cb c8 38 bc e6 5a 10 bd 2c e1 93 3d
       -0.004273599 -0.0112783415 -0.035242938 0.072206825
0003f0 ce d9 5b 3d c1 48 da bd 6a f9 d1 3d 60 23 da ba
       0.05367451 -0.10658408 0.1025265 -0.0016642623

conv4.bias f4 [32]
000000 23 c8 a2 bd f0 d3 2a 3e be bc 09 3d 40 15 23 bd
       -0.07948329 0.1668241 0.033627264 -0.039815187
000010 73 8d 84 3e 35 f2 95 3e 7c 16 83 3e b4 0f ce 3d
       0.25889167 0.29286352 0.25603092 0.10061589
000020 7c 87 d7 3d 8f 71 0d be f6 d6 4f bd c4 fc 63 bd
       0.105238885 -0.1381285 -0.050742112 -0.055660978
000030 01 a6 21 3c c3 87 31 3d 3d 09 a4 bd 23 36 2b 3e
       0.009866239 0.043342363 -0.080095746 0.1671987
000040 23 ed 39 3a ca 14 39 3e fc 39 d6 bd 82 b0 89 3e
       0.0007092526 0.18074337 -0.104602784 0.26892477
000050 64 b6 43 3e e0 c2 46 3a c6 27 e8 bc a2 a7 b2 3e
       0.19112545 0.0007582139 -0.028339278 0.3489352
000060 6b fd 00 be 6b bf b4 bd 26 93 76 bd 23 14 54 3e
       -0.12596671 -0.088255726 -0.060198925 0.20710807
000070 e4 ba c4 3c 00 b2 ac 3d b6 21 6b be 65 eb ed ba
       0.024014898 0.08432388 -0.22962078 -0.0018151818

fc_moy.weight f4 [32, 32]
000000 c3 43 de bb 15 b8 95 3e 29 0c e2 be 5a 37 8b bd
       -0.00678298 0.29242006 -0.44149902 -0.06797667
000010 0f 52 16 3e 97 66 ee bc 39 41 c8 3e 32 2c 13 bf
       0.1467974 -0.029101653 0.3911226 -0.5748931
000020 29 99 72 be 91 5f 21 be e3 54 f8 3b 50 50 cf bd
       -0.23691238 -0.15759112 0.0075784787 -0.1012274
000030 72 57 9d 3e cc 88 14 bd 56 6c 90 3e 5e 0c d5 bd
       0.30730778 -0.036263272 0.28207654 -0.104027495
000040 38 72 e3 bd b7 39 10 be 60 0f 1f 3e 08 1c a3 3c
       -0.1110577 -0.14084516 0.15533209 0.019910827
000050 11 30 ed bd 6d ec cf 3e 5c 27 4b 3d aa 46 09 3f
       -0.115814336 0.40610066 0.049598083 0.5362345
000060 97 ac 07 be 89 95 96 bc cc 81 ca 3d 50 a2 b2 be
       -0.13249432 -0.01838185 0.09888038 -0.3488946
000070 52 8d 8a 3d 98 8d f8 be d3 7c 56 3e 47 da 0f be
       0.06765236 -0.48545527 0.20946054 -0.1404811
000080 a0 b0 fe bd 72 54 31 3e 31 77 68 bd 54 eb e5 3b
       -0.12436032 0.1731737 -0.056754295 0.0070165787
000090 40 72 1c 3e 42 71 ba bd 6d 61 31 3e 8b 65 c4 3d
       0.15277958 -0.091036335 0.17322321 0.0958968
0000a0 92 3f f9 3d 94 fd 0a bc 2c 99 67 bd e7 61 40 3e
       0.12170328 -0.008483309 -0.05654256 0.18787347
0000b0 12 d6 63 bd 79 3d 20 3d 93 41 9d 3e 1c b7 2f be
       -0.055624075 0.039121125 0.30714092 -0.17159694
0000c0 18 e1 95 3d df 1d 8d 3e 1c 0b bf 3d 76 87 25 be
       0.07318324 0.27561852 0.09328291 -0.16164955
0000d0 99 9f 4f 3e 11 bf a6 3e 8d 80 02 bd 44 b4 d3 3d
       0.20275725 0.32567647 -0.031860877 0.10337117
0000e0 42 2d 6f be 43 b2 a3 bd fe 37 32 bd 4a 20 5d 3e
       -0.23357108 -0.07992985 -0.04351043 0.21594349
0000f0 8d d2 99 3e 03 41 76 3e b7 bf 44 3e 2a 88 9d bc
       0.3004345 0.24048238 0.19213758 -0.019229967
000100 49 d0 94 3d 5b be ab 3e 2e 25 97 be 5c 70 6e be
       0.0726629 0.33543667 -0.29520553 -0.23285049
000110 53 4b a2 3d 84 54 0d be d2 2f a5 be 3b 91 42 3d
       0.07924523 -0.13801771 -0.32263047 0.047501784
000120 01 42 2f 3f 7a 90 c9 be 70 bb 36 bd 83 b9 ee bd
       0.6846009 -0.3936804 -0.044612348 -0.11656477
000130 fd 13 8f be a4 4e 2b 3d 75 54 08 be 6e d6 ab be
       -0.27944937 0.041823044 -0.13313468 -0.33562034
000140 a6 25 74 bd 60 58 ea be 64 f1 55 be 14 6c 2a bd
       -0.059606217 -0.4577055 -0.20892864 -0.041606978
000150 90 7f c7 be f6 42 a6 bd 20 8c 57 bd 01 e6 2f 3f
       -0.3896451 -0.081182405 -0.052623868 0.68710333
000160 2d ad 03 3e 5d ff 8e bd b0 8a b0 3d 0f 32 e6 3e
       0.1285903 -0.069823004 0.086202025 0.44960067
000170 70 6b e0 be f1 9a 2c bd 9d ff 27 3e 5c 08 15 3d
       -0.43831968 -0.04213995 0.16406102 0.036384925
000180 03 08 54 3e 33 29 bb 3e 7f 41 0e 3f 5a 12 3f 3e
       0.20706181 0.3655487 0.5556869 0.18659344
000190 7e db 09 3e ad 05 c2 3e 40 ac b8 3d 66 c7 09 3e
       0.13462636 0.37894955 0.09017229 0.1345497
0001a0 4c 8c bd be bf 5a 06 be 77 79 8d bc a0 43 93 3d
       -0.370211 -0.13120554 -0.017269833 0.07190633
0001b0 5d 96 d6 3d a0 99 15 3e 20 dd 11 be e1 09 4b be
       0.10477898 0.14609385 -0.14244509 -0.19827987
0001c0 4a c8 96 bd 08 c3 1b be 2f 33 ef bc c8 9d 2e bf
       -0.07362421 -0.15211117 -0.02919921 -0.68209505
0001d0 65 e3 13 bf 80 55 24 3d 0c 17 d1 bd c4 86 e6 3d
       -0.5776885 0.0401206 -0.10209474 0.11256173
0001e0 a4 7d a7 be a0 28 4f be 96 36 3d 3e 66 05 17 3e
       -0.32713044 -0.20230341 0.18477854 0.14748153
0001f0 27 ba 8e be 99 ba 86 3d 1d b3 10 3e 44 81 95 39
       -0.27876398 0.065785594 0.14130826 0.00028515805
000200 f3 40 3e bc 52 b2 c8 3b ff 50 21 be 89 92 d9 3d
       -0.011612165 0.006124773 -0.15753554 0.106236525
000210 89 0a 8b bd ea 86 2b be ec ed 0d be c8 44 5b be
       -0.06789119 -0.16750684 -0.13860291 -0.21412957
000220 c5 7a 40 bd 78 77 13 3e 9a 44 19 be b1 d2 04 3e
       -0.046992082 0.14401042 -0.14967576 0.12970997
000230 81 92 59 bd a2 69 63 be da b8 4c 3c 34 6c 6f 3e
       -0.053118233 -0.22208264 0.012495244 0.2338112
000240 8c da 49 3d d5 75 95 3d 2d 2d e3 bd 9c 25 65 bd
       0.04928069 0.07297865 -0.11092601 -0.05594407
000250 76 ec 2f 3e 4d 15 82 bc 07 08 2f 3e 1f 8c 15 be
       0.17180046 -0.015879298 0.17092906 -0.14604233
000260 ff d7 34 3e 10 db c1 bd 2e 0d 12 be a9 e5 28 be
       0.17660521 -0.09465611 -0.1426284 -0.16493858
000270 07 97 eb 3c 21 98 3b bd 08 cc 0d be fd a5 e4 bd
       0.028758539 -0.04579938 -0.13847363 -0.11164472
000280 72 a6 01 3d 77 2c 9a be cf 70 a3 bd cb 41 ec bd
       0.031652875 -0.3011205 -0.07980501 -0.115359865
000290 70 dc 1f be 1f a4 89 be d1 15 bb 3e ce 0f b5 3d
       -0.15611434 -0.26883027 0.36540082 0.08840905
0002a0 08 53 9c be 78 f2 10 3e d0 56 46 be 67 83 27 3d
       -0.30532098 0.14154994 -0.19369054 0.0408968
0002b0 2f b7 34 be ff f5 3b 3c a5 f9 2d bf b0 50 87 3e
       -0.17648004 0.011472224 -0.6795905 0.26428747
0002c0 c0 05 79 bc 0b f0 12 3d 5e 0c 82 bd 49 fa cc 3e
       -0.015199125 0.035873454 -0.06350015 0.40034702
0002d0 10 2b 90 be 92 32 8f 3c e6 46 2d 3e 61 34 81 3e
       -0.28157854 0.017480168 0.16921577 0.25235274
0002e0 8d e7 a7 be 36 57 e9 3b f9 aa 3f be 6d e0 11 3d
       -0.32793847 0.007120992 -0.18717565 0.03561442
0002f0 9f 04 8f bd 96 03 e3 3d ae 8f 66 be e2 e2 33 be
       -0.06983303 0.11084668 -0.22515747 -0.17567018
000300 b8 f5 81 3d b8 46 22 be 62 05 1e 3d 01 5b 12 be
       0.06345695 -0.1584729 0.038579352 -0.14292528
000310 22 7c 8e be 64 2f 91 3e eb 25 6a 3e 3f 97 92 3c
       -0.2782908 0.2835647 0.22866027 0.017894385
000320 9b 55 e6 3e dc c2 9c bd 51 57 37 be dc d6 fc 3d
       0.44987187 -0.07654354 -0.17904402 0.12345669
000330 bc 5c 2b 3e d5 4a 0f be ab 29 1c bc a4 83 a1 be
       0.16734594 -0.1399339 -0.009531419 -0.31545746
000340 e3 b2 10 be bf cd ea bc 9e 48 06 be be 02 9e be
       -0.1413074 -0.02866256 -0.13113639 -0.30861467
000350 d8 87 cd bd d4 4a 82 be 8b 55 c1 3d a4 8d 9f be
       -0.10035676 -0.25447714 0.09440144 -0.3116275
000360 e4 86 3c 3e f6 2f 44 3e d5 38 0b bd d6 17 a4 bd
       0.18410832 0.1915892 -0.033989746 -0.08012359
000370 e8 86 9f 3e ef b2 64 3e 37 c8 8f be 04 0d 3d 3d
       0.31157613 0.22333883 -0.2808244 0.04615499
000380 d3 b4 8d 3d e1 6c 2e 3e af e8 b5 3e ab c6 0a 3e
       0.06919255 0.17033722 0.35529086 0.13552348
000390 1d 63 ca bc 04 04 c0 3e f1 23 80 bd f7 d9 66 be
       -0.024705464 0.37503064 -0.06256855 -0.22544084
0003a0 c7 3f 56 3d 79 40 ff bd ec 5e d5 bc 25 f3 5b be
       0.052306917 -0.12463469 -0.026046239 -0.21479471
0003b0 67 50 81 be 8b 82 35 bd bf 44 47 3f 72 97 e3 3d
       -0.25256655 -0.04431395 0.77839273 0.1111287
0003c0 8c 16 9f 3d 3c c5 f6 3d 59 0f d2 bd 6a fe 15 be
       0.07767972 0.12049338 -0.102568336 -0.14647833
0003d0 f1 c0 81 3e 0d 77 ed 3e be ea b6 bd 1a 8b 2b be
       0.25342515 0.4637989 -0.08931492 -0.16752282
0003e0 5a a9 40 bd 3f df 08 3b 16 0a 41 3e 65 f5 c1 3e
       -0.047036506 0.0020885018 0.18851504 0.37882534
0003f0 5d 82 05 bf dc 84 99 be b5 3e 33 be 58 80 5f 3d
       -0.52152044 -0.29984176 -0.1750439 0.054565758

fc_moy.bias f4 [32]
000000 95 22 58 bd 3b 0a ee 3c 84 7e 8c 3f e8 e7 d2 3d
       -0.052767355 0.029057613 1.097611 0.10298139
000010 72 86 75 be 76 9a 55 3e 69 a2 58 be 67 17 de 3e
       -0.23977068 0.20859703 -0.21155705 0.4337723
000020 a1 0e d1 3e 61 f0 61 be 29 f3 cb be f9 99 00 3e
       0.40831473 -0.22064354 -0.39833954 0.12558736
000030 06 ce c3 3e ef e4 3f 3f 87 bc 87 bd 71 b7 fe 3e
       0.3824312 0.749587 -0.066277556 0.4974933
000040 07 76 c0 3e 50 f8 a3 bd aa 2c 25 bf 71 74 e3 be
       0.37590048 -0.08006346 -0.64521277 -0.44424775
000050 21 0b a8 bf 33 9f cc 3e da 30 fa be 54 a3 3b 3f
       -1.3128396 0.3996521 -0.48865396 0.73296094
000060 95 ea 8c be 20 1d e6 3e 01 8a 03 3f f9 17 02 3d
       -0.27522722 0.44944096 0.5138245 0.031761143
000070 8b 72 88 3f 80 b4 1e 3f c4 71 a3 3e 37 12 9d bc
       1.0659956 0.6199417 0.31922734 -0.019173725

fc_var.weight f4 [32, 32]
000000 72 0e f1 bd c7 4e ae be 6a fa 76 39 9a 39 51 3e
       -0.11770333 -0.34044477 0.00023553675 0.2043213
000010 0f 9f 18 be be a5 ae bc c4 15 f3 bd 24 dd 7e be
       -0.14904426 -0.021319266 -0.11869386 -0.24889046
000020 be 88 4c be 24 8a f0 bd 1f fc 21 be b4 5f a6 bd
       -0.19974038 -0.11745098 -0.15818833 -0.08123723
000030 46 e5 2c be 47 24 12 be 1b 25 97 3a e5 6b 53 be
       -0.16884336 -0.14271651 0.0011531444 -0.20646627
000040 f1 70 8e 3d d2 10 b2 be e1 d8 96 bc 6d 26 4e be
       0.069551356 -0.34778458 -0.018413963 -0.20131846
000050 cc f6 2f be f0 cc 0f 3d 29 1a 42 3e 64 dd 07 c0
       -0.1718399 0.035107553 0.18955292 -2.1228876
000060 b5 91 2b 3e ac 03 91 bd 47 af 8a bc e8 bd 0f be
       0.16754802 -0.070807785 -0.016929282 -0.14037287
000070 42 d8 e9 be 82 fa a1 be d0 25 9d be 4b 60 45 be
       -0.45672804 -0.31636435 -0.3069291 -0.19275014
000080 b6 c3 1f 3d 47 1a ef be ff 7a 68 be 21 12 87 bd
       0.039005004 -0.46699736 -0.2270317 -0.06595255
000090 d8 89 02 bf c6 66 46 be 99 40 d9 be fd 5b a9 be
       -0.5099158 -0.19375142 -0.42432097 -0.33077994
0000a0 d0 57 d7 be 6c f3 35 be 6f a1 22 bd 97 3b cc bd
       -0.42059183 -0.1776864 -0.039704736 -0.09972303
0000b0 6e 49 f0 be 2b db 53 3e 2d db 92 be a1 28 dc be
       -0.46931022 0.20689075 -0.28682843 -0.42999747
0000c0 12 bf 89 3d d2 12 d0 be c2 95 1a 3e fb b6 f3 be
       0.06725897 -0.4063936 0.1509619 -0.4760054
0000d0 9a f0 2e be 93 be 9f bd 98 f9 9c 3d 36 55 34 bf
       -0.1708397 -0.07800021 0.07664794 -0.7044252
0000e0 89 d1 55 3d 4e fc 02 be a0 57 4b bd 92 54 cf be
       0.05220178 -0.12791559 -0.049644113 -0.4049421
0000f0 fb f1 11 bf 5b 0c d7 be f0 12 86 be 5c 76 da 3c
       -0.5700986 -0.42001614 -0.26186323 0.026667766
000100 03 07 ff 3c ad 90 f1 be 9c e2 d9 bd bd 47 e2 3c
       0.031131273 -0.4718069 -0.106389254 0.027622098
000110 bd 8b ad be 5a 61 cf be fb 4b 9d be 4e a6 82 be
       -0.33895674 -0.4050396 -0.3072203 -0.25517505
000120 89 4a bf be d2 1b 68 bd 90 28 4b be 5b c8 5a bd
       -0.37361553 -0.056667157 -0.19839692 -0.05341373
000130 84 91 d5 be 2b 3c 0e bc 0e a1 7a 3c 01 17 0c bf
       -0.41712582 -0.008681337 0.0152971875 -0.547226
000140 0e ee fb 3b d6 0a da be 08 11 00 3c 5e 4f 1e bf
       0.0076882904 -0.42586392 0.007816561 -0.61839855
000150 4f 5d b2 be 7a 6d 95 be 19 ae 71 3c d0 46 a6 bf
       -0.34836814 -0.29185086 0.014750981 -1.299036
000160 7f d3 05 be 9c 14 29 be 68 b3 1e be 55 4f 06 be
       -0.1306896 -0.16511768 -0.15498126 -0.131162
000170 56 45 03 bf 8c bd 70 be c7 fe d9 3d 86 3d 5b bd
       -0.51277673 -0.23509806 0.10644298 -0.05352547
000180 c2 cc 57 3c 80 b5 91 be 11 fc 80 be ea f9 a5 3d
       0.013171377 -0.28458786 -0.2519231 0.08104308
000190 b2 29 ba be d4 70 94 bd 83 9b 44 be 9f be 57 bd
       -0.36359936 -0.07248083 -0.19199948 -0.052672025
0001a0 f8 92 db bd e7 1a c4 bb 65 b8 a6 3b 66 ec 88 3c
       -0.107213914 -0.0059846523 0.0050878995 0.016714286
0001b0 7b 86 74 bc f1 be 97 bd c1 61 19 be 25 99 05 bf
       -0.014924641 -0.07409466 -0.14978696 -0.52186805
0001c0 2c 1f 47 3e f5 14 3c be 01 37 15 3d 5b 80 9d be
       0.19445485 -0.1836737 0.03642941 -0.3076199
0001d0 31 4e a0 be 7e 41 fe bd 45 a8 1f be 09 0f f6 bf
       -0.31309655 -0.124148354 -0.15591533 -1.9223338
0001e0 63 5c c5 ba fd 87 e2 3d 0c 75 0f 3e c0 56 2f be
       -0.0015057441 0.11061094 0.14009494 -0.17122936
0001f0 8d 47 01 bf fe 6a a6 be 71 a7 54 be 9c f2 f2 bd
       -0.504998 -0.32503504 -0.20766999 -0.1186268
000200 24 d4 27 bd fb 9d 02 bf 71 8f 0e be bb 86 a7 bd
       -0.040973797 -0.5102231 -0.13921906 -0.08179995
000210 11 a8 c4 be e2 ed 25 be f7 42 bc be 19 e8 99 be
       -0.38409474 -0.16204026 -0.3676984 -0.3005989
000220 7e 02 d6 be a7 c2 92 bd eb e2 1f bd e3 a4 06 3e
       -0.41798776 -0.07166033 -0.039034765 0.13148837
000230 82 a0 0e be b8 ce 8d bc 88 6d 08 be ea 76 72 be
       -0.13928416 -0.017310485 -0.13323033 -0.23678175
000240 29 2d b7 3d 18 4d aa be f4 f3 60 3d 6f 0e d6 be
       0.089441605 -0.33261943 0.05492015 -0.41807887
000250 87 e9 ba be c9 d6 08 be 92 3a 9b 3d 9f 1d 83 bf
       -0.36506292 -0.13363184 0.07579531 -1.0243415
000260 29 52 87 be cb 96 5c b9 7c 7f e3 bc f4 17 ab be
       -0.2642987 -0.0002103701 -0.02777075 -0.33416712
000270 2e 8a fb be 3f 9d dc be 15 00 6a bd e9 da 9d 3d
       -0.4912886 -0.4308872 -0.057128984 0.077077694
000280 bc b6 47 3e 28 8f c2 be 6c 0b 63 be f1 59 7f bd
       0.19503301 -0.37999845 -0.22172326 -0.062341634
000290 ee d2 2a be 35 52 87 be 6d 5b 03 be 55 8f a6 be
       -0.16682026 -0.26429906 -0.12827845 -0.3253123
0002a0 eb 6c 12 be 7b a9 37 3e cd b1 e3 bd fe 22 4c bd
       -0.14299361 0.17935745 -0.11117897 -0.04983806
0002b0 ed 12 2a be 72 aa 8e bc 80 3b 38 be 7c 57 9f be
       -0.16608782 -0.017415259 -0.17991447 -0.31121433
0002c0 fb ba a4 3d 62 3e 9e be f1 1f 11 be a2 27 d9 be
       0.08043476 -0.3090697 -0.14172341 -0.4241305
0002d0 58 d3 89 bd c4 df 4e be a1 14 60 3e cb ce c0 bf
       -0.06729764 -0.20202547 0.2188287 -1.5063108
0002e0 68 33 5f 3e 7c 2d 27 bd 35 cf 18 be 86 bf 64 be
       0.21796954 -0.04081486 -0.14922793 -0.22338685
0002f0 4b 55 e6 be dc 98 9b be 42 ae 56 be ce 3b 57 3d
       -0.44986948 -0.3039006 -0.20964912 0.05254727
000300 b2 69 48 3e d3 48 2a be b8 26 97 bd e9 cf 8f bd
       0.1957157 -0.16629343 -0.07380432 -0.070220776
000310 4b 34 ce be e2 92 38 be c9 76 20 be 60 26 6e be
       -0.4027427 -0.18024781 -0.15670313 -0.23256826
000320 b8 0a c7 be aa 72 f5 bd 00 15 d6 3c 68 41 63 bd
       -0.38875365 -0.11984761 0.02613306 -0.055482298
000330 6a 33 fd bd c2 cf 75 bd ce 3a 14 3c 91 47 19 bf
       -0.12363322 -0.060012586 0.009047223 -0.59874827
000340 be d4 9f bd d7 de 95 be 42 03 0e bd 17 70 7f be
       -0.07804249 -0.29271576 -0.034671076 -0.24945103
000350 34 f2 3e be 34 50 91 bc a0 4f e7 bc 46 dc c5 bf
       -0.1864708 -0.01773844 -0.02823621 -1.5457847
000360 c3 b3 b8 bc 1d 28 9e bd c6 e8 fc bd 38 18 a4 bd
       -0.022546655 -0.07722495 -0.123490855 -0.08012432
000370 55 f8 06 bf 5c fd 97 be 58 6d 13 3d 54 59 78 3d
       -0.52722675 -0.29685485 0.03599295 0.060632065
000380 ae 8e 5f bd e4 7a db be 8d 07 38 be 94 7b e5 bd
       -0.05457943 -0.42867196 -0.1797163 -0.11205211
000390 b9 62 6a be b7 a8 26 bd 5b 4f fa be 75 28 54 be
       -0.22889222 -0.040688243 -0.48888668 -0.20718558
0003a0 d8 33 16 be 7f 9d 4a 3d 33 6d d7 bc a0 8e 0f 3d
       -0.14668214 0.049466606 -0.026297187 0.035048127
0003b0 6c 0a 7d be 9f 44 b9 3d 5e 59 18 be 95 52 63 bf
       -0.24711007 0.090462916 -0.14877841 -0.88797885
0003c0 9d 50 8b 3d 5d 4a fb bd 68 6e 10 3e e9 44 c8 be
       0.06802485 -0.12270043 0.14104617 -0.39115074
0003d0 59 1d bb bd 7c 93 59 be bc 55 4d 3d 64 fe 15 bf
       -0.09136457 -0.21247667 0.05013059 -0.58591294
0003e0 81 c4 1e 3e 0f 00 38 be 42 d6 4f be fd 6a 43 be
       0.15504648 -0.17968772 -0.20296577 -0.19083782
0003f0 27 63 e1 be 29 ee d9 be 28 93 65 be 60 e1 01 3e
       -0.4402096 -0.42564514 -0.22419417 0.1268363

fc_var.bias f4 [32]
000000 64 ea b8 be bc cf b1 be ad af 15 bf ba 20 55 be
       -0.36116326 -0.347288 -0.58471185 -0.20813265
000010 9f d5 b7 be 55 e1 04 bf 80 17 32 bf 00 40 3b bf
       -0.35905167 -0.5190633 -0.6956711 -0.7314453
000020 65 37 7d be 00 9e 46 be 48 40 b1 be f0 7b ca be
       -0.24728163 -0.1939621 -0.34619355 -0.39547682
000030 5c 29 46 be 7a 83 91 be e8 db e3 be dd 41 24 bf
       -0.19351715 -0.2842062 -0.44503713 -0.64163
000040 0d be a4 be 6d 62 f0 be c7 66 fd be 85 78 09 bf
       -0.32176247 -0.46950093 -0.49492475 -0.53699523
000050 e4 0e 03 bf e0 10 91 be d9 ef 75 be cc 24 0d bf
       -0.51194596 -0.28333187 -0.24017276 -0.5513427
000060 48 d0 16 bf e2 7d ff be 1d 6e 10 bf 96 85 05 bf
       -0.5891156 -0.49900728 -0.5641802 -0.5215696
000070 bc 02 20 bf 77 9f 8c be 61 b1 0b bf eb 5f e5 be
       -0.6250417 -0.27465412 -0.54567534 -0.44799742

convt1.weight f4 [32, 16, 13]
000000 87 85 62 bf a5 ac 2c 3c ce fa 09 3d 32 02 d9 be
       -0.88484997 0.010539209 0.03368645 -0.42384487
000010 c0 87 9f 3c 3c 97 01 bc b7 a2 21 bd 25 c8 22 bd
       0.01947391 -0.007909592 -0.039461818 -0.039741654
000020 79 41 98 3c b0 ec 20 bd 92 fc 99 bc 3a 8f 82 3c
       0.018585907 -0.039288223 -0.018797193 0.015937436
000030 4c c5 4d bf 63 5c 00 3f e7 d5 a3 bd 43 7a fd 3d
       -0.80379176 0.5014097 -0.07999783 0.12376835
000040 2a 45 08 be b7 06 25 be f0 64 06 3d c0 b2 ff bd
       -0.13307634 -0.16115843 0.032811105 -0.12485266
000050 75 43 3a bd 57 ed 0d 3e a9 83 c6 3d 2a 70 8a be
       -0.04547449 0.13860069 0.09693081 -0.270387
000060 4f 24 e9 bc d9 f3 3a bf 62 df e8 3e 25 65 5d bd
       -0.028459696 -0.7302833 0.45482928 -0.054051537
000070 d5 7b 1d 3f c6 2f f2 bd ce 2c ae 3d 91 23 05 bd
       0.6151708 -0.11825518 0.085046396 -0.032504622
000080 e9 0b 08 bf 29 56 19 3d 50 27 3a 3d 20 25 02 be
       -0.53143173 0.037435684 0.045447648 -0.12709475
000090 d6 7f 1b be ac 81 bf be a8 b4 d4 be a2 d3 58 3f
       -0.15185484 -0.3740362 -0.4154408 0.84697926
0000a0 a6 a0 75 be ec b2 d8 bd 82 86 23 3e e0 62 2a be
       -0.23987064 -0.10581002 0.1596928 -0.1663928
0000b0 c9 17 4f be 0e 08 8c 3e 76 09 dc 3d 9f 82 60 bb
       -0.20223917 0.27349895 0.10743992 -0.0034257544
0000c0 da fc 5f 3e a8 3b 5c be c7 c5 fa be 00 41 05 3e
       0.21873799 -0.21507132 -0.48979017 0.13013077
0000d0 53 05 42 3e ba b6 83 be 3d 83 1f 3f 3d 19 a3 3e
       0.18947344 -0.25725347 0.6230963 0.31855193
0000e0 90 8f 56 be dd 11 8c be 9e 0a 37 be 8b ea 17 be
       -0.20953202 -0.2735738 -0.17875144 -0.14835565
0000f0 57 18 20 3d f7 d5 db bd 88 90 85 bd 42 cf d9 3d
       0.039085712 -0.1073417 -0.06521708 0.106352344
000100 55 b3 f8 be b6 b6 24 be b3 3c 49 3f b4 c5 69 be
       -0.4857432 -0.16085324 0.78608245 -0.22829324
000110 aa 68 fc be ef 2f 14 3e 4c 9e ee be e6 f6 a9 3d
       -0.49298602 0.1447141 -0.46605146 0.08299045
000120 d8 57 6a 3f 52 cd b6 3e b3 5b 07 3e a1 3c 62 3d
       0.9154029 0.35703522 0.13218574 0.0552336
000130 5b 82 9b be fd 46 94 be af f6 e3 3e d3 13 f9 3e
       -0.3037289 -0.2896041 0.44524142 0.48647937
000140 de 3c 8e 3d 97 f8 fe 3d 0b ec b1 be 18 61 0a bd
       0.06945203 0.124497585 -0.347504 -0.033784002
000150 eb 1f a3 3e 6c 01 15 3f 49 88 80 be 51 02 0f 3f
       0.3186029 0.58205295 -0.25103977 0.5586291
000160 4b be 19 3e 4a 42 e5 3b 8d 9d 34 3e 92 89 04 3f
       0.15013997 0.0069964277 0.17638226 0.51772416
000170 7c 7d aa be e8 cc 52 3c b7 a8 94 3e 7c 99 e6 bc
       -0.33298862 0.012866236 0.2903497 -0.028149359
000180 22 68 4f 3e 8b 3a 5d 3e 56 63 57 be d7 e6 b6 3c
       0.20254567 0.21604364 -0.21033987 0.02232687
000190 c5 87 58 bd bd b2 80 bc 54 78 59 bc 9c 0f 51 be
       -0.052863855 -0.015710229 -0.013273317 -0.20416111
0001a0 b9 a7 55 3f b4 08 84 be ee 87 14 bf 24 75 7c 3d
       0.8345905 -0.2578789 -0.5801991 0.06163515
0001b0 83 3b 93 be 2f 75 a2 bd 69 fe ac 3e 3b c8 45 be
       -0.2875634 -0.07932507 0.3378785 -0.19314663
0001c0 8e 2e d9 bc 0f 4c a0 3e cf c7 4b bc 50 43 c9 bd
       -0.026511457 0.31308028 -0.012437775 -0.09827292
0001d0 0c 75 e5 bd 6a a8 19 3e 36 fd 5f 3f e0 35 ed be
       -0.112039655 0.15005651 0.87495744 -0.46330166
0001e0 96 ec 1f be 4e a3 47 3e 1c cf d9 be ac a8 40 3e
       -0.15617594 0.1949589 -0.42540824 0.18814343
0001f0 01 2e 0d 3f ea 58 2e 3e ea a6 1d be 41 80 8c bd
       0.5514832 0.17026106 -0.15395704 -0.068604
000200 f4 0e 85 3e 8e 98 1c be e2 ef 72 3c 74 37 c0 3d
       0.2598797 -0.1529257 0.0148277 0.09385577
000210 67 84 4d be ec 14 00 3d 0d 39 e8 bd 91 f4 8c 3c
       -0.20070039 0.031269953 -0.113390066 0.017206462
000220 a9 9e cc 3e f6 9f 8a 3e 6c a6 b3 be 85 70 72 3d
       0.39964798 0.27075166 -0.35087907 0.05918934
000230 b8 32 fb bd fb 8f 18 3e 1b 54 68 3c 8d d7 04 3d
       -0.12265533 0.14898674 0.014180209 0.032432128
000240 38 78 1e bf d4 68 16 be e4 7e e0 3e c2 14 19 be
       -0.6190219 -0.14688426 0.4384681 -0.14949325
000250 74 06 1d 3e 1f af ac 3e 41 e1 85 be 7e 44 e3 be
       0.15334493 0.33727357 -0.26148418 -0.44388193
000260 d6 39 52 bc d0 3c 51 be c8 90 b0 be 7c 0c 07 3f
       -0.012831172 -0.20433354 -0.3448546 0.52753425
000270 a4 3d cf be 4a bc bd 3c e6 15 c2 3e 16 05 06 bf
       -0.40476716 0.023161072 0.37907332 -0.5235151
000280 99 a5 78 3d a0 4d 0b 3e 83 d5 47 be 82 fb 0c 3e
       0.0607048 0.1360383 -0.19515042 0.13767818
000290 3c e6 63 3e 7e ae 9d be 88 6d 08 3d 75 38 73 be
       0.22255796 -0.3079719 0.033307582 -0.23752005
0002a0 65 bc 02 bf a1 53 2a 3f 53 10 c7 bc 60 fb 21 3c
       -0.5106872 0.6653386 -0.024299776 0.009886593
0002b0 11 e6 0c bd e5 94 17 bc b8 69 b7 bd 9b cd ca bc
       -0.034399096 -0.009251808 -0.08955711 -0.024756243
0002c0 3e a5 76 bd 23 66 5c 3e e9 c4 04 3f e3 2d 40 bd
       -0.06021618 0.21523337 0.5186296 -0.04691876
0002d0 8e ae 9d bc 1f 83 9d 3d be fc 00 bf f2 c6 6b 3e
       -0.019248273 0.07691025 -0.50385654 0.2302511
0002e0 7f ff a7 3e 93 72 8d be 52 10 08 be a9 d1 aa bd
       0.32812116 -0.27626476 -0.13287476 -0.08340771
0002f0 0a 33 4a be f4 a1 b2 3d f5 fd 84 3e d9 e4 ad bc
       -0.19746032 0.08722296 0.25975004 -0.021227287
000300 5c 14 43 3e 3d 0a 03 bd 34 0f 2c bc 25 f9 a8 3c
       0.19050735 -0.031992186 -0.010501672 0.020626614
000310 cc d5 a3 3e 98 88 89 be 58 28 2f be 66 6b fa bd
       0.31999052 -0.26862025 -0.17105234 -0.12227516
000320 92 bb c8 bd 49 2f 5a bd 68 84 51 3e b9 d1 5c 3e
       -0.09801401 -0.05326775 0.20460665 0.21564378
000330 24 00 e2 bd 21 83 8b 3e 49 76 16 be 39 d7 63 3e
       -0.11035183 0.2724848 -0.1469356 0.2225007
000340 1f 64 41 3e 99 f6 83 bd 64 88 8d bc b8 1e d3 3d
       0.1888585 -0.06443519 -0.01727695 0.103085935
000350 0b 72 27 3e 43 ff ea bd dc 70 5a bd 4e bc 0d bd
       0.16352098 -0.114744686 -0.053330287 -0.03460341
000360 d5 4f 9e bc 58 0f 13 bd d9 ef ea bd 5a ef 9b bd
       -0.019325176 -0.035903305 -0.114715286 -0.07614012
000370 ff 97 90 3e 62 5d 00 3f ca 6e 3a 3e 93 e2 01 3d
       0.28240964 0.5014249 0.18206325 0.03171022
000380 65 a3 28 3e d3 7b 03 3e de a9 03 be 18 71 fa bd
       0.1646858 0.12840204 -0.12857768 -0.12228602
000390 5f e2 e5 3d ff e4 75 3e ef 2d 61 3e 91 81 7b 3e
       0.112248175 0.24013136 0.21990179 0.24561144
0003a0 c9 7f 8e 3e af c4 12 3d 58 62 b2 3d 7a a3 04 3d
       0.27831867 0.035832103 0.08710164 0.032382466
0003b0 9d db 6f bd 83 b2 0f be 98 d4 b6 bd fc 47 19 be
       -0.05855905 -0.1403294 -0.08927268 -0.14968866
0003c0 7c ae 7d be 2e 0c b2 bd 9c 51 9e 3c 81 dd 97 be
       -0.24773592 -0.08693729 0.019326024 -0.29661182
0003d0 52 10 a1 bd 43 da 10 be 78 21 c3 3c 0d 49 09 3d
       -0.07864441 -0.1414576 0.02381967 0.033516932
0003e0 ec 92 22 3e 5b a2 9b 3e c9 3a 4e 3e 8b 98 81 3e
       0.15876359 0.30397305 0.20139612 0.25311694
0003f0 84 6c c1 3e c2 5a c8 3e 70 e0 a0 3e ae 00 ab 3e
       0.37778103 0.39131743 0.31421232 0.33398956

convt1.bias f4 [16]
000000 16 cb 80 bf 78 3c 4d 3e 9b aa cb be cf 7f cc 3e
       -1.0061977 0.20042598 -0.397786 0.3994126
000010 a3 3f 37 be 04 9b 62 be de b6 df be fe f2 23 3f
       -0.17895369 -0.22129446 -0.43694204 0.6404265
000020 d8 ee f9 bb a3 6d 2a be 06 63 c9 3d 44 a5 01 3f
       -0.0076273493 -0.16643386 0.0983334 0.506428
000030 82 82 cb 3e 39 94 2d 3e aa 40 3c 3f 1b 74 c4 3e
       0.39748007 0.16951074 0.7353617 0.3836983
