rnns/trained_rnns/rapport/GRU_seqin16_seqout1_1layer_30epochs_60000steps_MultiStep2_batch32_Adam_lr5E-4.pt (torch_old, 449022 bytes, 10 tensors)

gru_in.weight_ih_l0 f4 [372, 35]
00000000: f657 2e3d 0772 b4bd 72f0 c6bc ee4d 2f3b
00000010: 4f64 88bd 5554 a2bd cee4 d0bd 2817 983d
00000020: ca26 a63d f881 2d3d 3be7 9bbd aa86 193d
00000030: 684c 273d 004b 73bd 6a4d 12bd 0b2c c1bd
00000040: 262e bb3d aa35 a0bc f5f3 603d 89f5 fb3d
00000050: ff2c 1d3d f174 2f3d 86e7 e0bd c8b8 e7bc
00000060: 9639 7f3d f2e5 9dbd c47d ef3c 9db7 9cbd
00000070: 80c5 623d 4d00 c43c 6b6f 65bb 34e5 053c
00000080: 0dd8 c63c 23dd 8d3f c59d a33d 9e6c 943d
00000090: dfd3 bbbd 2a9e b4bb a87a 843d 58fa 173e
000000a0: ebf2 6cbd 5afc 203d f119 043e 55a9 d13d
000000b0: 83c3 4a3e 1372 0dbd e881 b23d f7e1 93bb
000000c0: f74b 243d 2992 42bc f466 ffbb ebbe 2bbe
000000d0: 2687 2a3d 55fb 95bd 41b1 8d3d e037 e8bc
000000e0: 13f5 8abd f45e 51bd 781b 1b3e 6fdb 03be
000000f0: a2b6 26bd 3fc6 dabd 6fe5 433b 07dd 9b3d
00000100: e449 0bbe 71c9 193e 2198 b7bd f2a9 193e
00000110: 3ef5 80be 33a3 ac3c 681e 7e3d cacf 833e
00000120: ebce 3f3e b809 603d 4cd6 00be 223e 553c
00000130: 324e 353d 1c76 8dbd 1a87 d93d 40d4 d2bd
00000140: d820 f53d 043e c0bc 9332 d83d e71b 183e
00000150: 9668 853c 603c 6bbe 0ed8 abbd 2dac d83d
00000160: 8c70 923d 9ab4 1abd 1708 b63e 1733 10be
00000170: 266d 543a c51d 4bbc 3e8f 793e 5aae 8cbd
00000180: 1e8f 6c3c 5fb0 eabc 08c2 d03d 47dc c2bd
00000190: d73e a53d 8d33 81bd 6412 d63c e469 863e
000001a0: 5f4a bd3d 18d6 e2bc 6339 5cbd f7e4 deba
000001b0: 838c ebbd 2184 543e 1569 ac3c 84a3 c03d
000001c0: c5f4 753d b982 47be 58ae 95bd cbdc 223d
000001d0: ed08 ccbc 6d88 123d c3c3 013e 6a2a 7fbe
000001e0: 2beb c0bd cb10 e2bd 557d 3e3c 7104 15bd
000001f0: bde1 b63b 6d40 16be ca51 aebd a43c 91bd
00000200: 78b2 6b3d 6db9 be3c 6dd0 143a 5d3e e93c
00000210: 1f49 433a 70b9 dc3c ebfe f8bd 3172 2d3d
00000220: 3e24 9cbd fa1d 123e 5f4b 1cbd 2bc3 2bbd
00000230: ccc9 aa3d 35b9 4c3d 58eb 08bd 4644 983d
00000240: b629 33bd 0fb4 c2bd ac2c bcbc 3609 8d3d
00000250: 68a8 923c d0b5 0b3e 43de fc3c b310 44bc
00000260: 625c 5a3d 1964 b3bd 4fc7 a53d 842c d6bd
00000270: b1b4 833c f8e6 563d 1fac 963d 767f 29bb
00000280: 87d0 4aba f711 0cbe 5f78 8b3d 28e7 c1bd
00000290: 0617 16bd 8324 d6bd b5e0 cebd 531d 89bc
000002a0: 1269 7e3d 70e8 153e 0d0d 69bd ee91 b23d
000002b0: c3af a1bb aa3f 97bf bf38 49bd 03e2 153e
000002c0: aae1 a4bd b9ec de3d 693d 61bd dc98 4dbe
000002d0: da46 1a3e e8d7 4ebe 69d1 3fbe 1ece 543e
000002e0: 7fb4 2bbe 962f 4f3e 0860 2fbd 3820 723d
000002f0: 7745 823c 2815 b73d e7c1 edbd 78aa 2ebb
00000300: b6ec 033e 117f d93d dbf7 a13d 5f13 9d3e
00000310: b124 2dbd 2230 5c3b a7f9 c7bc 161e 883d
00000320: cc96 55be fce8 54be dc5e 26bc a470 a3bd
00000330: d084 863d 59da 48be a73d f73d 1aac 39bd
00000340: f56f 2dbe c6a3 6d3e baaf c53c 8829 c33d
00000350: 395b 03bd b934 1bbe 3b76 dfbb e34a e0bc
00000360: d7f2 8abd 5ed3 b7bd f221 9abd dcec fd3d
00000370: 3463 e73d dd81 283d d12b 7a3c 9944 a23c
00000380: dac3 8a3b 4909 23bd 0f2d 80bd c822 013e
00000390: 64ef 3a3e caae 4f3d 25aa 6dbc 8c6c cf3c
000003a0: 1cac e13d adab 86bd 2b38 bc3d 4361 ed3d
000003b0: 9c2c 293d 73f9 1ebc 231f cabb aba7 113e
000003c0: 5c42 e93c 4bf9 983c fdb6 cb3d bcfa 403f
000003d0: 59ce 8e3c 16fb 813d b804 2abd 20c2 a7bd
000003e0: 70c1 0dbd 8b0e 8cbd adcd aabd 3f49 273e
000003f0: e44f 68bd 852e 3c3d 43e9 21bb 4f15 2abe
0.042564355 -0.088108115 -0.024284575 0.002674933 -0.06659757 -0.07926241 -0.10199891 0.07426292
0.08112867 0.042360276 -0.07612463 0.03748194 0.04084435 -0.059397697 -0.03571836 -0.09432229
0.091396615 -0.019556839 0.054920156 0.123026915 0.03837299 0.042836133 -0.109816596 -0.028286353
0.062310778 -0.07709874 0.029234774 -0.07652209 0.055364132 0.023925925 -0.0035009037 0.008172322
0.024272943 1.108311 0.079890765 0.072472796 -0.091712706 -0.0055120187 0.06468707 0.14841592
-0.057848852 0.03930316 0.12900521 0.10237376 0.19801144 -0.034532618 0.08716184 -0.004513021
0.04011151 -0.011875668 -0.0077942554 -0.16772048 0.041632794 -0.073233284 0.06918574 -0.028346956
-0.067850254 -0.051115945 0.15147197 -0.12876676 -0.040701516 -0.10682344 0.0029891392 0.07610517
-0.13602406 0.1501825 -0.08964563 0.15006235 -0.25187105 0.021073913 0.062040716 0.25744468
0.18731277 0.05469677 -0.12581748 0.013015302 0.044264026 -0.06907293 0.10621472 -0.1029439
0.11969155 -0.023467071 0.10556521 0.14854394 0.016285222 -0.2297225 -0.083908185 0.10579715
0.07150373 -0.03776989 0.35553047 -0.14081989 0.00081034226 -0.012397234 0.24371049 -0.068691924
0.014438419 -0.028648553 0.101932585 -0.09514671 0.080686264 -0.06308661 0.026131816 0.26252663
0.09242701 -0.027689978 -0.053765666 -0.0017005493 -0.1150141 0.20753528 0.0210462 0.09406188
0.060047884 -0.1948346 -0.07308644 0.039761346 -0.0249066 0.035774637 0.12672333 -0.24918523
-0.09419855 -0.11038359 0.011626561 -0.03638119 0.0055811093 -0.14673014 -0.08511694 -0.070916444
0.057543248 0.023281777 0.000567681 0.02847212 0.00074495556 0.026943892 -0.12157997 0.04234523
-0.076241 0.14269248 -0.038157817 -0.041934174 0.08339271 0.049981315 -0.033427566 0.07434897
-0.04374095 -0.09507 -0.02297052 0.068865225 0.017902568 0.13643575 0.030867701 -0.011966872
0.05331076 -0.087593265 0.08094656 -0.104577094 0.016077371 0.052466363 0.07357048 -0.0025863326
-0.00077367615 -0.13678728 0.06810068 -0.09467918 -0.03664305 -0.10456183 -0.10101453 -0.016737616
0.06211192 0.14639449 -0.05689721 0.0871924 -0.0049342825 -1.1816304 -0.049126383 0.14636998
-0.080508545 0.10884995 -0.054990206 -0.20077842 0.1506609 -0.20199549 -0.18732227 0.20781752
-0.16768073 0.20232996 -0.042816192 0.059112757 0.015902264 0.08939582 -0.116092496 -0.00266519
0.12883267 0.10619939 0.07908603 0.3067884 -0.04227132 0.0033598025 -0.024411036 0.066463634
-0.20858306 -0.20792001 -0.010154452 -0.07980469 0.06568301 -0.19614543 0.12072306 -0.045330144
-0.1693724 0.23207006 0.024131645 0.09529406 -0.03206942 -0.15156831 -0.006819514 -0.027379459
-0.06784599 -0.08975862 -0.07526006 0.12398693 0.11298218 0.041139472 0.015269236 0.0198081
0.004234773 -0.039803777 -0.06258594 0.12610924 0.18255383 0.0507038 -0.014505898 0.025320314
0.110191554 -0.06575713 0.09190401 0.11590817 0.04130231 -0.009703028 -0.0061682626 0.14224117
0.028474025 0.01867356 0.099470116 0.7538259 0.017432379 0.06346719 -0.041508406 -0.08191323
-0.034608305 -0.06838711 -0.08340011 0.16336535 -0.056716815 0.045942802 -0.0024705685 -0.16609691

gru_in.weight_hh_l0 f4 [372, 124]
00000000: eb78 cfbc 4961 273d 88f4 dabc 3f02 c03d
00000010: 493c 13bd 868d cdbc 4c28 0f3d 9198 fbbb
00000020: 912a 90bc 0bdc ff3c 3683 653c 7479 e23b
00000030: 1a24 85bd ba22 fabb 663e 973c 0fbe f5bc
00000040: 93e4 a13d 9d13 0dbd 3910 f4bc 4f3d ac3c
00000050: 3f01 2fbd 279e 383b d9b7 f2bc 111c 063d
00000060: f4ed 113d 4dbd 803c 3be5 6abd 1334 5d3d
00000070: 7d32 e1bc 0519 283d 8b13 abbc 8a08 183d
00000080: 75f6 75bd d004 e03c 4c65 a3bd 4acc 02bd
00000090: caa7 943c a0d9 aa3c 3ee1 70bd 90d3 c73c
000000a0: e561 d7bd 7016 99bd 32e0 563c cabc d73c
000000b0: e874 c43b 0389 7a3c e6b1 8d3c 576a 83bd
000000c0: 7781 12bd 4521 7a3d bca5 e6bd 49b2 d33d
000000d0: f103 993d 28a6 53bd 5d30 f6bc 6dff d5bd
000000e0: d5d5 55bd b978 85bc 31bb a0bd fb57 aabc
000000f0: d2e2 d9bd f097 13bc e653 11bc 523a 00bd
00000100: 1548 1cbd 6baa 133d a09f 513d 09a0 dbbd
00000110: 576a d1bb fd72 3abd 47d8 76bd 6638 653d
00000120: e801 653d db0c 513d 30e8 ea3d 37a4 89bd
00000130: 8abe 32bd 0b81 b73d bfbc 3d3d d248 7ebc
00000140: 7f0d f8bc b4af 98bd 3b27 683c 3128 993c
00000150: 966c 1dbc b577 d4bc e354 613d 24b7 273c
00000160: 9883 1e3b 5351 d43c 0315 b23a 2e19 7ebd
00000170: 9814 cbbb d866 863d aea6 7b3d cd98 5abd
00000180: 44c7 b2bd 0e40 81bc 2b4b ee3b c9dc b73c
00000190: bb18 203c fe33 393d 7d54 9b3c 0e07 9cbd
000001a0: 8387 7dbd dedf 09be fd77 34bc 0fc5 d4bc
000001b0: 3f32 34bc ee51 c93c d961 9c3d f684 e93c
000001c0: eb60 04bd 483e 06bc ac0a 6abd e6a9 73bc
000001d0: 359d 2e3d 48a2 103d 0e9b e9bc 87fe 8c3d
000001e0: c86a b5bb 2042 083d 1b7f 50bc 43fe 243d
000001f0: 9e46 81bd 8393 25be 0ab2 483d 07bf 62bd
00000200: db7e 103e 7b31 8cbc 3206 acbc 90a1 e7bd
00000210: eaf9 8d3d 9d07 62be c9c9 17bd b22b e4bd
00000220: 39e1 f63d c9e8 c4bc f911 52bd d36a d13c
00000230: 1c25 3c3d 8a62 e1bd 1a62 833c d433 a13d
00000240: 8294 5db9 ebce cebd de05 083e 71c2 cf3d
00000250: e2b0 3f3d 499a a1bc 2eac c33d bccb d6bc
00000260: 8916 073d 0993 46bc 9fd7 19be 1a83 48be
00000270: 64be fdbd c37b 0a3e 2079 34bd 8337 c93d
00000280: bc52 ab3d aa16 b5bd dbcc 56bc ed48 7a3c
00000290: 5cf0 2d3e 977d ca3d 1c6b 9ebd 82f6 933d
000002a0: 5a31 933d 0891 b4bd fa08 afbd 38c4 9c3d
000002b0: ff47 cfbd d97f b23d 8ff5 0a3e ac5f 41bd
000002c0: 246b a33d 621a c33d 3855 453c aa60 123d
000002d0: 2618 4d3b c167 2f3d 4d12 7d3e fba7 963e
000002e0: d249 f1bd 791f 943c ca8b 293d 6010 3f3d
000002f0: d53a b73d 658a b1bd 13e7 733d 732b 13bd
00000300: 2dae 453d 606d 283d c037 8abc 5dfd 393c
00000310: 6112 423e ac93 0a3d c170 3abd e649 ed3d
00000320: a0c1 3f3d fa82 eebb 8494 2d3d 05bf 0dbe
00000330: 1719 fbbc bfeb 17bd e4e4 da3b 506e a8bd
00000340: d62a c63d 6ead c53c 769a 15bd 3a63 e2bc
00000350: e32c 623d 0e44 b9bd a117 3b3d c222 843d
00000360: 6dbc ae3d f640 1cbd 0e58 a93d af4e 843c
00000370: 2860 003e 6704 cd3d f050 9cbc 4b40 f33b
00000380: e51f 34bd 6184 1c3d c06d 993b 3ff5 8a3d
00000390: 58e0 eabc 1aa0 9e3d 84df ca3d 7ff6 e83d
000003a0: d333 9a3d 591a bdbc b3db 033e 9d21 c6bc
000003b0: ecbc 7fbd 879c 27bd 6b2a 36bd 5c82 f73d
000003c0: 8105 613d abc1 ce3d eaf8 693d 6b65 cdbd
000003d0: 59ec db3d ef30 d9bd 8f10 093e 2c89 db3c
000003e0: 7e15 01bd 5f00 e13d fc09 473e 5522 5cbd
000003f0: 9aef 313e b32f 0dbe 83c3 7e3d d009 283e
-0.025326213 0.040864263 -0.02672793 0.093754284 -0.035946164 -0.025091898 0.03495054 -0.0076780994
-0.017598422 0.031232854 0.014008334 0.006911451 -0.065010265 -0.0076335343 0.018462371 -0.029997854
0.07904925 -0.034442533 -0.029792892 0.021025328 -0.042725798 0.0028170438 -0.029628681 0.03274161
0.03562732 0.015715266 -0.057347517 0.05400474 -0.027489895 0.041039485 -0.020883342 0.03711752
-0.060049493 0.027346045 -0.07978305 -0.031933106 0.018146414 0.020855725 -0.058808558 0.024392873
-0.10516719 -0.07474983 0.013114976 0.026335139 0.0059953816 0.015291455 0.017296743 -0.06416767
-0.035768 0.061066885 -0.1126208 0.103367396 0.07471455 -0.05167213 -0.030052358 -0.10449109
-0.05220588 -0.016292917 -0.07848204 -0.020793905 -0.10638966 -0.009008393 -0.008870101 -0.03130562
-0.03815468 0.036051195 0.05117762 -0.10723884 -0.0063908505 -0.045519818 -0.060264852 0.05596199
0.05591002 0.05103765 0.114700675 -0.067207746 -0.043638743 0.0896016 0.04632258 -0.015520291
-0.030279873 -0.07455388 0.0141695095 0.018695923 -0.009608408 -0.025935987 0.055012595 0.010236535
0.0024187323 0.025917685 0.0013586584 -0.062035732 -0.0061975233 0.06562585 0.061438255 -0.05336838
-0.08729413 -0.015777614 0.0072721443 0.022444146 0.009771521 0.0452156 0.018961186 -0.07618533
-0.061896812 -0.13464305 -0.011014936 -0.025972871 -0.010998308 0.0245752 0.076358505 0.028505784
-0.03231899 -0.00819356 -0.057139084 -0.01487205 0.042630393 0.035311013 -0.028516319 0.06884485
-0.005536411 0.033266187 -0.012725617 0.040281545 -0.06312297 -0.16169553 0.048997916 -0.05535796
0.14110892 -0.017113438 -0.020999048 -0.113101125 0.06932433 -0.22073217 -0.03705767 -0.11141147
0.120546766 -0.024036782 -0.05128667 0.025563633 0.045933828 -0.11005123 0.01603799 0.078712136
-0.00021131526 -0.1009806 0.13283488 0.10144509 0.046799548 -0.01972689 0.09554325 -0.026220195
0.032980476 -0.012120017 -0.15023659 -0.19581261 -0.1238983 0.13523774 -0.044060826 0.09825041
0.0836539 -0.088422135 -0.013110365 0.015276176 0.16986221 0.098872356 -0.07735273 0.07224752
0.071871474 -0.08816725 -0.08546634 0.07654613 -0.10121154 0.08715791 0.13570236 -0.04721038
0.0797942 0.095265165 0.0120442435 0.035736717 0.0031294911 0.042823557 0.24714012 0.29425034
-0.11781658 0.018081414 0.04139308 0.046646476 0.08946768 -0.08668975 0.05954654 -0.03593011
0.04826181 0.041119933 -0.016872287 0.01135191 0.18952323 0.033832237 -0.045517687 0.11586361
0.046815515 -0.007278797 0.042377964 -0.138424 -0.030651612 -0.03709006 0.006680118 -0.082241654
0.09676139 0.02413055 -0.03652426 -0.027635206 0.05521859 -0.090461835 0.04567683 0.06451942
0.08532033 -0.03814789 0.08268748 0.0161508 0.1253668 0.10010605 -0.019081563 0.007423436
-0.04397573 0.038212184 0.0046822727 0.06785058 -0.028671429 0.07745381 0.099059135 0.113751404
0.07529416 -0.023083853 0.12876777 -0.02418595 -0.06243603 -0.04092076 -0.044474047 0.12085411
0.05493689 0.10095533 0.05712215 -0.100291096 0.10738439 -0.106050365 0.13385223 0.026798807
-0.031514637 0.10986399 0.19437402 -0.05374368 0.17376557 -0.13787727 0.062198173 0.16409993

gru_in.bias_ih_l0 f4 [372]
00000000: 9d2e b5bd e2d4 743d afb3 db3c 2a60 6e3d
00000010: 22ba a0bd e61e 8f3a 5368 a03c 9cec 8c3d
00000020: 410d 093d 5d1f af3b c2dd 3abd 5f44 dabc
00000030: bd1f 243d f19f f7bd 3d5a c23d 8544 9a3d
00000040: 5a38 ea3c 4616 e0bd 869a 143c 83a4 b0bd
00000050: 7cf4 723d 0223 8ebd de6e b7bd f865 d63d
00000060: 31d7 ff3d 7a36 ae3b 1419 173d 78d1 013d
00000070: 15a0 32bd 5cd7 85bc 5786 94bb 42f7 4c3c
00000080: 8cf3 0bbd bc59 8bbc 2bc3 a7bd ecd3 00b9
00000090: 2e92 65bd 2c28 89bd 86dd e7bb a9d4 00be
000000a0: e2f0 7abd 7b82 c5bd 0f03 5cbd 019a 55bc
000000b0: 8b1d 44bb 2df2 7abd c957 8b3d 3584 70bd
000000c0: 89b7 0abd f142 f23b 30d6 96bc 0986 75bd
000000d0: 1510 45bd 4bcd 1cbd 8045 79bd 7e30 da3c
000000e0: 3470 4fbc b869 b63d 1ecf 133d b5e2 a7bd
000000f0: 9545 a73b da82 b3bd 3571 f1bc 13fd 6abd
00000100: 52d6 733d 2634 bcbc 23cf b23d f91f 9fbc
00000110: 06b9 a03d 05cd 26bd 4465 983c 2fcf 09bd
00000120: d29a bdbd 0c43 833d 83ed e4bc 8b13 86bd
00000130: de53 8e3d f4e7 8c3b 02fe 463d 9a67 e2bc
00000140: e224 f73c 08c5 9936 7e9a 80bc 211e 403d
00000150: 3202 f6bb 79f5 6a3d 939b bcbd 6e6b 423d
00000160: 74d6 6cbd 523e 523c ddce 1dbd f988 85bc
00000170: 6deb 893d 28ba 043d c17e 42bd 077c c93d
00000180: ed01 aebc 0f4d 843c 2bb0 693d 4b82 52bd
00000190: 450d 6b3d 3fea afbd 0155 9a3d ef29 3c3b
000001a0: a7e0 843d c908 f33b 7ce9 afbd 64b8 80bd
000001b0: 84da e93b 0456 b3bd 03d2 95bc 5095 a13d
000001c0: f130 8a3d b4eb afbc cb53 c13d 7fcf b8bd
000001d0: f9f6 143d 56ed b63d 74d8 5ebd a0fb c1bc
000001e0: f4b3 383d 54e6 793c 7f5f e3bc a816 9f3d
000001f0: 84e5 35bd 6bfb 66bc ceea aa3c b232 1e3d
00000200: ffd1 48bd cbb8 9ebd 24d1 62bd 4c73 8dbd
00000210: 77b4 11be 6593 dbbd c223 d2bd 56d9 23bb
00000220: fd96 01bd 6319 23be c281 09be 44ac 22bc
00000230: 9ae3 ac3d 6974 583c e562 06be 8dc4 b0bc
00000240: c960 8dbd 5c22 01be b8c5 dbbd a5ee b1bd
00000250: 8c48 8abc f567 7ebd ea47 8dbb 7a56 c7bd
00000260: 5e48 65bd 5a67 1abe ace7 78bd 9290 17be
00000270: 5480 ebbd c230 98bd bd0c d83b d382 05be
00000280: ee50 13be fbbc 8fbd fa22 d5bc 3a9d f5bd
00000290: 0fd0 733b e5ea bebb 9e0e 44be fc83 aebd
000002a0: 7c50 b8bd ff93 9c3d 2ee8 76bd 617b c5bd
000002b0: 65f2 d9bd 7280 9abd 3419 5ebc 8877 243d
000002c0: 4e13 8e3c f317 273d 065a b5bc 6862 b0bd
000002d0: 2c92 d1bd 3fd7 04be 8499 7abd 9583 a7bd
000002e0: 20e8 5fbb f7a1 fcbd eaa3 9b3c 9963 27bd
000002f0: 97cd 6dbd 4f11 afbd 2a8b 6cbd 28cb 8b3c
00000300: 9a76 bbbd 3ff9 a3bc 2c9c fbbc 73ed 16bc
00000310: 2f0c 8cbd fe6e 3c3d 967c 393d 74d0 623d
00000320: cb49 4fbd f805 83bd 2456 693d ea63 a9bd
00000330: fda8 94bd 5508 10bd 7806 28bd fe96 a9bc
00000340: c902 22be ad6b c5bd a788 d1bd c3ff b4bc
00000350: 5f82 1d3d e429 f93c c0e4 5e3d e434 06be
00000360: 506c 1fbe ea96 b8bc 0f00 03be 2e1a 3dbd
00000370: e4c0 ccbc b932 bebd d5db cd3c 8260 5fbd
00000380: 4e14 f9bd 9dbf cabc 127d a23c 0bd2 883c
00000390: 24eb b33c efe7 d4bd a6e2 9ebc f2d7 1abc
000003a0: 095b ab3c 51f5 20be 2175 04be 0173 9b38
000003b0: b797 70bd 7f8a 11be 53ed 12be 552f c1bd
000003c0: 9357 3fbe 32c0 693d 036b bcbd 77df c83d
000003d0: 6e28 ebbd 471f 73bd 42fd 15be dc98 88bd
000003e0: a8e5 d9b9 67d5 a1bd 8235 643d 6df5 3e3d
000003f0: 1661 1ebd be78 38bd 57bc 8a3c 328a e2bc
-0.088467814 0.059773333 0.026819078 0.058197178 -0.07848002 0.0010919243 0.019580996 0.06881067
0.033459906 0.005344315 -0.04562164 -0.02664393 0.04006933 -0.12091053 0.09489868 0.075326
0.028591324 -0.10941748 0.009070044 -0.08625128 0.05931519 -0.06940271 -0.08956693 0.10468668
0.124922164 0.0053165527 0.03688915 0.031693906 -0.043609697 -0.016338043 -0.004532616 0.012510123
-0.03416781 -0.017010562 -0.08191522 -0.00012285978 -0.05604761 -0.06697115 -0.007075968 -0.12581123
-0.06126488 -0.09644028 -0.053713854 -0.013037206 -0.0029924836 -0.061266113 0.06803853 -0.058719832
-0.03386644 0.007393234 -0.01841268 -0.05994228 -0.04811104 -0.03828172 -0.060857296 0.026634451
-0.012661029 0.08906883 0.036086194 -0.08197538 0.0051047304 -0.08765192 -0.029472927 -0.057370257
0.059530564 -0.022974085 0.087309144 -0.019424425 0.078477904 -0.040722866 0.018602975 -0.03364485
-0.09258045 0.064092726 -0.027945286 -0.06546696 0.0694959 0.004300112 0.048582084 -0.027637292
0.030168954 4.582693e-06 -0.015698668 0.046903733 -0.007507586 0.057363007 -0.09209361 0.047465734
-0.057821706 0.012832241 -0.03852736 -0.016300665 0.06734357 0.032404095 -0.047484163 0.098381095
-0.021241153 0.016150026 0.057052772 -0.05139379 0.0573857 -0.08589601 0.075357445 0.0028711518
0.064881615 0.0074168188 -0.085894555 -0.0628517 0.007136645 -0.087566406 -0.018288618 0.07889807
0.06747616 -0.021474697 0.0943981 -0.09023952 0.036368344 0.08931987 -0.054405645 -0.023679554
0.04509349 0.015252668 -0.027755497 0.07767993 -0.044408336 -0.014098029 0.020863917 0.038622566
-0.049028393 -0.0775009 -0.055375233 -0.06906757 -0.14228998 -0.10721473 -0.102607265 -0.0025001368
-0.031638134 -0.15927653 -0.13428405 -0.009928767 0.08441849 0.013211348 -0.13123663 -0.021578098
-0.06903226 -0.12610763 -0.10731071 -0.08688096 -0.016880296 -0.06211086 -0.0043115513 -0.09733291
-0.055977218 -0.15078488 -0.060767815 -0.14801243 -0.11499086 -0.07431175 0.0065933154 -0.13038187
-0.14386341 -0.07018467 -0.026017655 -0.11992879 0.003720287 -0.0058263415 -0.19146201 -0.08521268
-0.08999726 0.076454155 -0.060280018 -0.09642673 -0.10641936 -0.0754403 -0.013555814 0.040153056
0.01734319 0.040794324 -0.022137653 -0.086125195 -0.10232958 -0.12972735 -0.06118156 -0.08179394
-0.0034165457 -0.1233558 0.018999059 -0.040866468 -0.058057394 -0.08548223 -0.057749905 0.017064646
-0.09153481 -0.02001631 -0.030714117 -0.009211886 -0.06838261 0.046004288 0.04528483 0.055374578
-0.050607484 -0.06397623 0.056966916 -0.0827101 -0.072587945 -0.035164196 -0.041021794 -0.020701881
-0.15821375 -0.09639678 -0.102311425 -0.022094613 0.03845441 0.030415483 0.05441737 -0.13106114
-0.15568662 -0.022532899 -0.12792991 -0.046167545 -0.024994321 -0.09287018 0.025129238 -0.054535396
-0.12162076 -0.024749571 0.019835029 0.016701719 0.02196271 -0.103958 -0.019395184 -0.009450899
0.020917432 -0.15718581 -0.12935306 7.412397e-05 -0.058738437 -0.14212988 -0.14348345 -0.09432856
-0.1868575 0.057068057 -0.09200098 0.098082475 -0.11482321 -0.059356 -0.14647391 -0.066697806
-0.00041560573 -0.079020314 0.05571509 0.046620775 -0.038666807 -0.045037024 0.01693551 -0.027653787

gru_in.bias_hh_l0 f4 [372]
00000000: aa97 9d3d 134f 7f3c dff6 2e3d 85f1 f83d
00000010: 2e33 2cbc d638 a03d 2ed1 0abd 30bd 74bd
00000020: 91c2 c0bd 073f 873c 2d1b f7bd 0a84 9f3d
00000030: 607a e2bb 77b6 02be 4bf9 df3d 4a94 c13d
00000040: 90db 07bd 5c8a e03c 6b5d 163d 5061 5ebd
00000050: 3b5f 42bd ebdf 2ebd ac62 7d3b 6545 b43d
00000060: a17b 38bd 232d 89bb b7fe 9ebc 2279 213d
00000070: 12ff b83d c3b0 6e3d 59b6 2a3c 269f a73b
00000080: 7f2b 9abc 538a 9fbd f0cf 7d3c 59c6 a4bd
00000090: fc8f a1bc a13a f0bc 39fb e73d 0a6a acbd
000000a0: b88f 03bd 4238 15bd c140 be3d b8dd 063c
000000b0: 7ddd ddbb cc2b ae3c ae25 773c 7139 81bc
000000c0: 48bd 4fbd c1f8 8ebd 7426 21bd 9a14 233d
000000d0: 825b 8bbc 6560 96bd 28b9 443d d726 9dbc
000000e0: fd93 a1bd 3fed 703d a364 153b da77 a53d
000000f0: cb5a 74bc 32aa 7f3c fcfe c33c 37ab 09bd
00000100: add4 54bd 5a91 b1bd 2183 ffbc bdf8 133d
00000110: 3662 8abc f9b6 05bd 43e4 bbbb 6e53 8bbb
00000120: d40b 313d d2e8 5ebd 1f42 15bd 09db 563c
00000130: 48c5 183d b2bb 083d 5bf0 bebc 9a12 bd3d
00000140: 2ad4 a0bd aa58 afbd cf91 6cbd e3eb 3d3d
00000150: a02b 653d f89d 013c e497 5abd 34fd ea3c
00000160: 955b 87bc 0dea fdbc 7b7c 44bd 6756 2bbc
00000170: 555e 90bc c911 8dbd 71b8 f63c c69f c3bc
00000180: 111f ae3d 0ac1 93bd 89e4 e73b eb38 b43b
00000190: 93b6 993b 2ece 19bd ce5f 893d f880 b93c
000001a0: a74e 2cbd 5545 7cba 0187 c9bd ef5b 88bd
000001b0: 50a1 cf3d f71a 753d 661b 28bc b24f b83d
000001c0: fafd eb3d ec19 f3bc fe77 003d 418f c4bc
000001d0: c263 923d dead 26bc 42f1 a0bd ac89 f53d
000001e0: 7813 c3bd f165 6abd f6ff 49bd f8fe dc3d
000001f0: e38f 76bd bdb3 b0bd d572 52bd b840 013d
00000200: f75d a3bd 66a9 ae3c 14a6 67bd 1e2c 22bd
00000210: eee1 90bc 8092 e0bc 2f06 3abd 33f2 bbbd
00000220: 563c b0bc 187a 2abe 46bd cebd 9874 e6bd
00000230: 0fc4 8c3a 5a44 9dbc 939c cf3c 4663 d1bd
00000240: 82e8 0bbd 0c83 22bd 002c bdbd a788 fabc
00000250: bd82 12bd b00c 84bd 7822 28bc c4d5 0dbc
00000260: 2782 4ebd 15c2 0dbd d10b 4fbc 6753 10be
00000270: 47e6 16be 6e3f cebc ebb2 8dbd a24b 5cbd
00000280: 676f 16be e034 bcbd 3721 66bd 96e3 15bd
00000290: d3ba 353c 7303 80bd cabd 0abe 380d aebd
000002a0: bbc4 99bd 37f2 93bd 888e 91bd a670 47bc
000002b0: 3f79 a6bd 4b16 3abd 3541 23be f621 61bd
000002c0: e52f cabd 656d e0bd 565d 60bc 0c6b 0bbe
000002d0: 8b34 c33b a942 8bbd f85d 713c 89d1 9fbd
000002e0: 9efd 15be f734 22be 86a5 af3c 0049 b8bd
000002f0: 0f8e 66bb fd6f a0bc 123c 81bc e850 1bbc
00000300: 8421 90bd 3911 0b3d 9445 93bd 8d25 babc
00000310: 1566 a7ba 23f7 4f3c 1fe0 c03d 15b1 953d
00000320: ebec adbc 4671 29be a855 e9bd 4b2b b93c
00000330: de95 0dbe 7cd1 20be b8ac a4bd 3e40 e63c
00000340: 2adf 2cbd 25e9 35be 6ed5 afbd 9dd2 0cbe
00000350: 2bb5 59bc dd09 e6bd bc65 6b3d 0413 07be
00000360: 68ba 70bc 56c0 95bd c0da 293d 2de8 57bd
00000370: 9c73 93bd 0585 e8bd ed96 933c 0754 e0bc
00000380: 552c eb3c f160 e2bd 0418 10be bfb2 6bbd
00000390: e58c 2bbc f133 dcbd a585 40bd 7531 51bd
000003a0: d626 593d c826 4fbd 8869 c8bd 516d d3bc
000003b0: a0d3 83bd 7602 20bd 6059 30be be4a a4bd
000003c0: 0245 f1bc eb2c 893c 603a 9dbd a272 bc3c
000003d0: 9cc8 32be ea02 3bbc 34d7 43be d5f6 5cbd
000003e0: f5a4 ae3d f658 8fbd ad58 36bd cc8b 6cbd
000003f0: 1492 5ebb caff b83c df94 893d 7584 f4bd
0.07694943 0.015582818 0.042715903 0.12155441 -0.010510249 0.078233406 -0.033890896 -0.059750736
-0.094121106 0.016509546 -0.1206573 0.07788856 -0.006911561 -0.12764917 0.10936221 0.09452112
-0.033168375 0.027409725 0.036710184 -0.054292023 -0.0474541 -0.042694014 0.003866355 0.088022985
-0.045039777 -0.004186289 -0.019408567 0.039422162 0.09033026 0.05827404 0.010419452 0.0051154075
-0.018819569 -0.07790055 0.015491471 -0.08045644 -0.019721977 -0.029324831 0.11327214 -0.08418663
-0.032119483 -0.036430605 0.092896946 0.008231573 -0.006770788 0.021261118 0.015084667 -0.01577446
-0.050717622 -0.0698104 -0.039343312 0.03981457 -0.017011408 -0.073426045 0.04802814 -0.01918356
-0.07889555 0.058820006 0.002279558 0.080795005 -0.014914225 0.015604543 0.023925297 -0.03361055
-0.051960636 -0.08670302 -0.031190457 0.036125887 -0.016892534 -0.0326452 -0.005733998 -0.004251889
0.04322417 -0.054421254 -0.03644001 0.0131137455 0.037297517 0.033382125 -0.02330797 0.092320636
-0.07852967 -0.08561833 -0.05775624 0.046367537 0.055949807 0.007911198 -0.05336751 0.02868519
-0.016523162 -0.030995393 -0.047970276 -0.010457612 -0.017623106 -0.06888158 0.030117245 -0.023879897
0.08502019 -0.07214554 0.007076804 0.005499949 0.004690954 -0.037550144 0.067077264 0.022644505
-0.042067196 -0.00096233684 -0.09840203 -0.0665816 0.1013819 0.05984017 -0.010260439 0.08999576
0.115230516 -0.029675446 0.031364433 -0.02399409 0.071479335 -0.010173289 -0.07858516 0.119891495
-0.09525198 -0.057226125 -0.04931637 0.10790819 -0.060195815 -0.08628032 -0.051379044 0.03155586
-0.07976907 0.02132101 -0.05655487 -0.039592855 -0.017685857 -0.027413607 -0.045416053 -0.09177055
-0.021513145 -0.16648138 -0.10094695 -0.11252707 0.0010739582 -0.019197632 0.025343215 -0.10224013
-0.034157284 -0.039675757 -0.09236908 -0.030582739 -0.035769213 -0.064477324 -0.010262124 -0.008656923
-0.05041709 -0.03460892 -0.012637095 -0.14094315 -0.14736281 -0.02517673 -0.069188915 -0.053783067
-0.14690934 -0.091897726 -0.05618402 -0.036593996 0.011091906 -0.06250658 -0.13548961 -0.08498615
-0.075082265 -0.07223933 -0.07107264 -0.012172854 -0.081285946 -0.045431416 -0.15942843 -0.05496403
-0.098724164 -0.10958365 -0.013694128 -0.13615054 0.0059571913 -0.06799824 0.014731877 -0.078036375
-0.14647529 -0.15840517 0.021441232 -0.08998299 -0.0035179888 -0.01958465 -0.015775714 -0.009479739
-0.070376426 0.03395197 -0.07191005 -0.022722984 -0.0012771512 0.012693199 0.09417748 0.07309166
-0.021231135 -0.16547117 -0.11393291 0.022603652 -0.13826701 -0.15704912 -0.08040756 0.028106805
-0.042205013 -0.17764719 -0.0858563 -0.13752218 -0.013287823 -0.1123235 0.05747007 -0.13190848
-0.01469288 -0.07312076 0.041468382 -0.052711654 -0.07199785 -0.113534965 0.018016303 -0.027383817
0.028707663 -0.11053646 -0.14071661 -0.057543512 -0.010470604 -0.107520945 -0.047002453 -0.051072557
0.053015552 -0.050574094 -0.097857535 -0.025808962 -0.06436849 -0.039064847 -0.17221594 -0.080220684
-0.02945185 0.016745051 -0.0767715 0.02300388 -0.17459339 -0.011414269 -0.19125062 -0.053946335
0.08527557 -0.0699939 -0.04451816 -0.05775051 -0.003396158 0.022582907 0.06717848 -0.11939327

gru_out.weight_ih_l0 f4 [372, 3]
00000000: e714 0ebd bd62 a739 5deb d3bd a9fa 833d
00000010: b25d 4f3d d94a 7a3c 6778 293d 1e5b 8ebb
00000020: cb2b 073e 02cf d33d 8d5b e1bd 2c56 85bd
00000030: 646c dbba bbd3 88bc 4e01 b1bc ccc9 c3bc
00000040: 792d 143d 1bdf c43c 68d9 4b3c 502c 15bd
00000050: 58b8 5f3d 0e68 acb9 e4e2 f3ba 7d2a 86bd
00000060: b7ef 003d da09 69bc 41e6 80bd 428c bf3d
00000070: d53f 8abc 778e 52bd 681d a73d ffa2 a1bd
00000080: 7466 a93c 8dbd 0c3d 7fee 453d 926f 1ebd
00000090: 51a4 adbd 5b8d 203e e78c fdbd 5170 d0bc
000000a0: ee20 20bd 269d 6c3b 9569 fbbb cba2 a93b
000000b0: ed2e e73c 845b 85bc 74d9 9c3c 8855 b93b
000000c0: 3bb8 ae3d b207 5d3d 63ff 0ebc 92cd 5a3c
000000d0: 31e6 053b c959 2a3c 6974 23bd 6650 9f3d
000000e0: 8f3d 34bd 44d0 d03b 8196 183c 7516 553d
000000f0: 856a c3bb 2664 90bd 614e 99bd 178e 543d
00000100: 6f7b d4bc 4d06 133e 4790 b9bd 07c1 fbbc
00000110: c23e f33a ee56 6ebd 48d2 8f3c 0e8b 5e3d
00000120: 64e3 73bd 7df8 36bd 71e8 b33c b11a 83bc
00000130: 4ca9 6fbb dabc 4fbd 4bb2 f7bc e2e5 d03d
00000140: abe3 4f3b 881e 38bd f22f c33c 935c bdbd
00000150: b2e5 813d 8c7b 22bc 456e 283d dda2 b33c
00000160: fc36 863c 89eb a13b 38fa 1bbc 621f 59bc
00000170: 6bea 213d 3c11 5a3c 68b3 1fbc 90d2 95bc
00000180: b097 a33c a5b6 5a3d 4dfb 993d c93e fa3c
00000190: 1f63 97bd 77c5 debc 6640 6cbd 9e6f 48bd
000001a0: 4f4a 803d ab15 37bc 22a6 093b f25c 133e
000001b0: d3ff 203b 6af9 043e 616d a3bd 782c 50bc
000001c0: da49 963c fee5 8e3c b297 be3d 20af c13c
000001d0: b842 dd3d 4ba6 2a3d 2083 32bc 004d f63c
000001e0: 27b8 a33d 5019 4bbd 5a6e bfbb 3fba 163d
000001f0: 2b31 18bd 4e3c 0fba f123 643d 609c 88bc
00000200: 9183 1cbd 1688 b4bd df17 873d 4d3d a23d
00000210: 500d d7bd 219a 11bd 7a80 093d e42f 94bb
00000220: b908 bfbc 8dd3 3c3d 2a31 84bd e272 073e
00000230: e67a 7cbb 5a48 1bbd b17e 8abd 5118 9a3c
00000240: 8805 633a bbb4 0ebd d96d 1cbd 5fd2 603c
00000250: 8f94 5bbb 34c4 843d 181b 3f3c 31cf 25bd
00000260: cbda 08bd 0913 a13c f9e2 a5bd 581e 323c
00000270: 5863 03be 10d4 9eb9 4302 7e3e 9288 d3bd
00000280: 5d63 b8bc 0824 be3b 296a 293d 5864 e7bb
00000290: 054d 94bd e450 9a3b 6497 803c 2f80 21ba
000002a0: b0bc 8dbd 6424 7b3d e0c4 d43d 593a 88bd
000002b0: b36e f13c 1c87 28bd 8150 d93d bc05 28be
000002c0: ef04 1cbe 34df 5a3d 0e98 9f3d 52eb bc3d
000002d0: ab3a fc3b 9bec cbbd 8650 e33c 9c23 a33d
000002e0: c5b1 753d fade 11be 08cf dabd f2c6 2bbd
000002f0: af7c 303d 88ca cebc 5af4 ba3d 38b6 23bc
00000300: f067 5f3a c643 433d 0942 4d3d 19bd 71bc
00000310: 1622 1ebd 0f5c 943d 32e3 013d 00a1 71bd
00000320: 0017 0b3d 7711 8b3d c182 c0bd 9d07 433d
00000330: 26c3 38bc 4827 74bc 7292 ee3c 6ec1 2cbd
00000340: 0a36 8e3d 823c e03c f215 44bc eae6 c7bc
00000350: 26e8 03bd 4528 663d ba58 7abd 0b8a 04bd
00000360: dfd8 fabc cf1d aa3d 5062 073d bb24 25bc
00000370: 47f8 173c f280 2f3c b6c6 0c3d afdc 133d
00000380: 9622 d03d befe 82bc fc05 c13c ff77 5d3d
00000390: 55a0 b33d 984f 7bbd b1c1 533d 6495 b73b
000003a0: 4bc8 3f3d de51 98bd 72d5 0f3c c57b 0b3d
000003b0: 82d7 6bbd 08aa 13bd cb73 903c 5adc ed3c
000003c0: 9255 983d 65e9 f2bb f6ad ea3c aaad 4ebd
000003d0: 5dce 3b3c 7852 90bc 742c 82bd 21ac e9bd
000003e0: 0e6f f23c 046b d3bb d6fd 273c 71c7 4dbc
000003f0: f9df eb3d 0b7c 1c3e b366 ac3c e8ba b93c
-0.034687903 0.00031926288 -0.10347626 0.06444294 0.050626464 0.015276634 0.04137459 -0.004344358
0.132003 0.10342218 -0.1100379 -0.065105766 -0.0016740677 -0.016702523 -0.021607067 -0.023899935
0.03617618 0.024032166 0.01244197 -0.036419213 0.054619163 -0.00032883923 -0.0018607047 -0.06551073
0.03147861 -0.01422354 -0.062939174 0.09352924 -0.01687614 -0.051405396 0.08159906 -0.07892417
0.020678736 0.034360457 0.04832315 -0.03868062 -0.084786065 0.15678923 -0.123803906 -0.025444182
-0.039093904 0.003610441 -0.0076724985 0.005176877 0.028220618 -0.01627899 0.019146658 0.005655948
0.08531233 0.053962417 -0.008727881 0.013354676 0.0020431394 0.010397383 -0.03990594 0.07779007
-0.04400402 0.0063724834 0.009313227 0.05202337 -0.005963626 -0.07050352 -0.07485653 0.05189332
-0.025937764 0.14357872 -0.09060722 -0.030731691 0.0018558132 -0.05818837 0.017556325 0.05433183
-0.05954303 -0.04467057 0.021961423 -0.016003938 -0.0036569415 -0.050717212 -0.030236384 0.10200097
0.0031721394 -0.044950992 0.023826573 -0.09246173 0.06342639 -0.009917151 0.041120786 0.021928245
0.01638364 0.004941408 -0.009520106 -0.013252111 0.0395302 0.013309773 -0.009747364 -0.01828888
0.019969791 0.05339684 0.07518635 0.030547516 -0.07391953 -0.027193768 -0.057678603 -0.04893457
0.06264173 -0.0111746 0.0021003564 0.14390925 0.0024566546 0.12985769 -0.07979847 -0.012705915
0.018345762 0.017443653 0.09306277 0.023643076 0.10803741 0.041662496 -0.01089552 0.030066013
0.07994109 -0.049584687 -0.0058420124 0.036798712 -0.037156265 -0.0005464003 0.05569834 -0.016676128
-0.03821141 -0.08815019 0.0659635 0.079218484 -0.10500586 -0.03554738 0.03356979 -0.0045223106
-0.023319589 0.046100188 -0.0645469 0.13227418 -0.0038525402 -0.037910797 -0.06762446 0.018810423
0.0008660187 -0.034840327 -0.038190696 0.013722031 -0.0033505296 0.06482735 0.0116641745 -0.040480796
-0.033411782 0.019662397 -0.08099932 0.010871492 -0.12830865 -0.00030294107 0.2480555 -0.10328783
-0.022508318 0.005802635 0.041361008 -0.0070615225 -0.07241253 0.00470935 0.015697189 -0.00061607634
-0.06920755 0.061314 0.103891134 -0.06651754 0.02947173 -0.041144475 0.10611058 -0.16408437
-0.15236257 0.05343552 0.07792674 0.09224571 0.0076974235 -0.09957238 0.027748358 0.07965776
0.059983987 -0.14245215 -0.10684019 -0.041937776 0.043087658 -0.025243059 0.091286376 -0.009992175
0.0008522263 0.047672056 0.050111804 -0.014754557 -0.038606726 0.07244121 0.03171081 -0.058991432
0.03395748 0.067904405 -0.09399939 0.047614682 -0.011276996 -0.0149019435 0.029122565 -0.042176656
0.06943901 0.027372602 -0.011968123 -0.0244021 -0.032203816 0.056190748 -0.061119772 -0.03235821
-0.03062099 0.08306467 0.033052742 -0.010079558 0.0092755025 0.010711895 0.034369193 0.036099132
0.10162847 -0.015990611 0.023562424 0.054069515 0.08770815 -0.061355203 0.05169839 0.0056025255
0.046821874 -0.0743749 0.008778917 0.034053583 -0.05757857 -0.036050826 0.01763334 0.029035736
0.07438196 -0.0074130767 0.028647404 -0.050458588 0.011462775 -0.01761745 -0.06356135 -0.11409784
0.02959397 -0.0064519662 0.01025339 -0.012559758 0.11517329 0.15281694 0.021045065 0.022672132

gru_out.weight_hh_l0 f4 [372, 124]
00000000: 276e 943c ce9e 4cbe e147 c7bd 993f f1bd
00000010: ea89 3a3d 33b7 bb3d 2a8d efbd 58ab a5be
00000020: bcef 253d f4cb 99be 800b 4ebd d05e 83bc
00000030: cdec 58bd a42d 83bc ef55 9d3d 4f45 fb3d
00000040: 3994 d63d 655e 02be dbd9 8a3d 1976 09bc
00000050: c451 243d 8dfc 37be a808 4cbe f2d5 5a3d
00000060: dedf a9bd 833e a7bb a819 fd3c 2294 20bd
00000070: 9d9a 6f3e 63d1 823d 7222 59bd 5f3f e93e
00000080: 99c5 46be 74c7 a23c b0c4 6fbe b8b7 643e
00000090: 933e 64bd dd6d f1bd 174a db3c c562 c3bd
000000a0: e792 563d 75de 003d 54ae d6bd 9fcd 8abc
000000b0: f21f 53bd 439f a6bb fd80 403d 1f8f 6dbe
000000c0: b57b c2bd c1de bf3e 530e 963d a6b6 47bd
000000d0: 225d 0ebe 731e 023e 7042 94bd f2a0 cd3c
000000e0: 5939 343e 4168 debd b71f 013e 5810 613d
000000f0: 0a82 913c b265 613c 8fe8 b33d 4d7c 43bd
00000100: 86c4 d7bd 81e5 85bc 7f07 b5bb 6b95 22bd
00000110: 6dc0 73be d8b9 12be a474 51be f0ee 573d
00000120: 3c87 623d 4682 253e ba35 c6bb a119 00bd
00000130: a783 4a3e 7088 383d 7d60 4b3c e662 8c3d
00000140: 97e8 37bd 4d0f ca3d 7722 ddbd 4af2 6ebe
00000150: 0195 233d c9f6 123e ed2d 9fbc cd1e 1d3e
00000160: 0ccf 793d 93df b13b efae 643d 0fb5 d63d
00000170: b858 383e 7bd9 9f3c a73d 2abd 3263 a0bd
00000180: 9eb6 613d c5e8 52be 224c bf3d 9999 e1bb
00000190: 5451 a9bd d84f f83d 0895 3ebc aa0b 603d
000001a0: e88b 57bc 545a c83d 8136 1fbe 010a 793d
000001b0: b0bd b33c d2ff 093e 53df 01bd d7d2 a3bd
000001c0: 6db7 c43d 9b31 a8bd d9f1 ddbd f20e b13c
000001d0: c9c8 3b3e b051 153d e69c 753e 353c b03c
000001e0: c2e8 fdba 067f 263f 2aca 943e 828f aa3d
000001f0: 59c5 69be efae 373d 225e 103d 84d3 663d
00000200: 3a27 633e 4932 303d 2873 1cbf 76cd 7ebe
00000210: 06eb b73e ec70 70be 4402 183e 796c bd3d
00000220: 9620 37be ac87 d6be 03a0 7abc f3f2 9f3e
00000230: 82e0 423d 4544 02bd 81a1 49bd 8b4e 623d
00000240: f118 833d 7304 92bc 46e1 e4be 67fc 10bc
00000250: 23ef cb3d b28b 1d3e 57f2 cdba b9e3 2ebd
00000260: 7cfb 4e3c 7e6a 183f c8d0 c1bd ba25 ba3e
00000270: 986e ff3c 1b2d 423d 7f44 92be 0b76 d13d
00000280: 1f62 c13e 2ec8 edbc 0bca f43d 029f 513e
00000290: 724a e03d 27e6 cebd 4fa9 9bbe c6b1 94be
000002a0: 9845 53bd 7a8b 0dbd 54e9 213d aa0b 063d
000002b0: b34e 96bd 4b0d fd3d af37 22bd 5ddf 413c
000002c0: f7d5 2abd 1e16 90bd 30fc 903e 12b8 cebd
000002d0: 004b df3e 7645 36be 71bc 343e 92d0 2a3d
000002e0: 88f3 a63d dd8a d4bd 9942 83bd cf4a 10bd
000002f0: dc4e 2a3c b244 3c3c 5db9 3cbe cada 4cbe
00000300: 7d2d b43c cb0f a0be 3443 553d 1477 603e
00000310: 0495 4cbb faa1 0838 e137 c83d 13fc cebd
00000320: 4fb0 273e 0efe 48bd f69c 9e3d c1b1 b6bb
00000330: 7748 1abf 5613 13bd acb4 c33d f03a a6be
00000340: 71dd 87bd 1845 19bf 2002 b0be 9133 703e
00000350: cdd3 b0bc 3d00 f53d b1f4 5f3d 8d54 9cbe
00000360: 9cdd a23e d5dc d4be 849a 7ebc 90a2 b4bc
00000370: 8989 d2bd af3a f53d 735d 25be ae0c 053f
00000380: 64e9 083e d7a4 053e 3e34 81be 24d4 213d
00000390: ece0 11be 1256 263d 1d4f fb3d a6ec 74bd
000003a0: 8a49 043d 264c 9ebe d1fc 193e db8e f5bc
000003b0: 3a56 193b c31c 8dbe c3b3 203f 800c fc3d
000003c0: 2c7e 873d e65d 083e 5ecb b8bc 2514 193d
000003d0: a225 833e e2d8 b6bd cfae fb3d b3fe a73a
000003e0: 1bbc 1abd 2457 573d 4c18 953b b987 6a3c
000003f0: 63c7 233e fbe3 43bd 02ef ecbd 7b06 5dbe
0.018118931 -0.19982454 -0.09730507 -0.117797084 0.04554168 0.09165802 -0.11696847 -0.32357287
0.04051183 -0.30038416 -0.050303936 -0.016036421 -0.052960206 -0.016012974 0.07682406 0.12269079
0.1047749 -0.12731321 0.06779834 -0.008389973 0.04011704 -0.17967434 -0.19925177 0.05342669
-0.082946524 -0.0051038875 0.030896023 -0.03920377 0.23398824 0.063875936 -0.053011365 0.4555616
-0.19411315 0.019870497 -0.23414874 0.22335708 -0.055723738 -0.11788533 0.026768727 -0.09540323
0.05238619 0.03146215 -0.10482469 -0.01694375 -0.051544137 -0.0050849034 0.046998013 -0.23199128
-0.094962515 0.37474635 0.07326951 -0.04875817 -0.13902715 0.12706928 -0.072392344 0.025101159
0.17600001 -0.108597286 0.12609755 0.054947227 0.017762203 0.013757156 0.087845914 -0.047725964
-0.10535531 -0.016344788 -0.0055245752 -0.039693277 -0.23803873 -0.14328706 -0.20454651 0.052718103
0.05530475 0.16162977 -0.006048885 -0.03127444 0.19776784 0.045051992 0.012413141 0.06854801
-0.04489955 0.098662 -0.10797589 -0.23334613 0.039937023 0.14351954 -0.019431079 0.15343781
0.06098847 0.0054282635 0.055830892 0.10483753 0.18002594 0.019512882 -0.041562703 -0.0783142
0.055105798 -0.20596607 0.09340693 -0.0068847653 -0.08267465 0.12124604 -0.0116322115 0.054698624
-0.013155915 0.09782854 -0.15548135 0.060800556 0.021941036 0.13476494 -0.03170712 -0.07999199
0.09605298 -0.082125865 -0.108371444 0.021613572 0.18338312 0.036454856 0.23985633 0.021513084
-0.0019371735 0.6503757 0.2906049 0.08328153 -0.22829188 0.044844564 0.035246022 0.05635406
0.22182932 0.043016706 -0.61113214 -0.24883065 0.35921496 -0.23480576 0.14844614 0.09249205
-0.17883524 -0.41900384 -0.015296939 0.31240043 0.04757739 -0.03180339 -0.049226288 0.055250686
0.064012416 -0.017824387 -0.4470312 -0.00884924 0.09957721 0.15385321 -0.0015712482 -0.042697642
0.012633201 0.59537494 -0.0946365 0.36356908 0.031180665 0.047406297 -0.28567883 0.10227593
0.37770173 -0.029026117 0.11952599 0.20470813 0.10951699 -0.10102492 -0.3040261 -0.2904188
-0.05158004 -0.034556843 0.03952916 0.032725967 -0.073392294 0.12356051 -0.039603885 0.011833039
-0.04170796 -0.070354685 0.28317404 -0.100937024 0.43611908 -0.17799935 0.1765001 0.041702814
0.08151919 -0.103780486 -0.06409187 -0.035227593 0.010394778 0.011490988 -0.18430085 -0.20005336
0.021994347 -0.3126205 0.052066043 0.21920425 -0.003121675 3.257578e-05 0.09776283 -0.10106673
0.1637585 -0.04907041 0.07744782 -0.005575389 -0.6026682 -0.035907112 0.09555945 -0.3246684
-0.066340335 -0.59871054 -0.3437662 0.23457171 -0.02158537 0.11962936 0.054676715 -0.30533257
0.318097 -0.4157473 -0.015539769 -0.022050172 -0.10280139 0.11974084 -0.1614893 0.5197247
0.13370281 0.13051163 -0.2523517 0.039508954 -0.14245957 0.040609427 0.12270949 -0.059795998
0.032296695 -0.30917472 0.15037848 -0.029975345 0.0023397342 -0.27561006 0.62774295 0.12307072
0.06615862 0.1331707 -0.02255791 0.037372727 0.2561465 -0.08928086 0.122892015 0.0012816995
-0.037777048 0.05257334 0.0045500156 0.014314585 0.15994029 -0.04782484 -0.115690246 -0.21584503

gru_out.bias_ih_l0 f4 [372]
00000000: 51bc c73d b929 00bd 1b90 573d ba3a 3cbd
00000010: 7488 213d 6e0f 883c 0d70 8aba 1cf6 b23d
00000020: 51d7 b13d 8613 13bb 54a7 fa3d ffaa 103e
00000030: 709e a43b 289f a03d 3011 12bd 9ee9 fbbd
00000040: 0b7f 933d 04fc 7cbc 22df 0ebd 0c2a a03d
00000050: 0a86 ba3b 3d83 ff3d fb1f 213d adc8 f1bb
00000060: 771e ce3c 8aeb 60bd 3a4a da3d b859 8c3b
00000070: 3ae3 bc3d b1f1 7b3d 0629 db3d 30f8 663d
00000080: 6dbf 9f38 ea47 d93d f5e5 4c3e 390f b73d
00000090: 3264 a03d 5711 e53d 74de 43bd 32ea be3d
000000a0: fea0 f039 c657 423e 04ae c43d 6d94 b03d
000000b0: 06bd 003d 20cb 053e 1a4f 373d 7030 fc3d
000000c0: d8c9 34bd f1e8 81bc 0a8f 5f3c 29b0 01bd
000000d0: 77ca ef3d 2f0b 563d d928 9f3d 2df5 babd
000000e0: 0714 923d 193b 99bc 8b6f 18bc f483 c3bb
000000f0: 96d7 683d d844 b83d f745 17bb 41ca 3fbd
00000100: 35f3 563d ee4f fc3d 0483 113d 9d96 743d
00000110: 05c1 05be cb73 463d ff4d 663d 1683 973d
00000120: 45aa 9abc 9d21 e93d 784a 9ebd e26f 6bbc
00000130: d084 c53d 0331 183e a2a8 80bd 725d 9b3d
00000140: b576 bd3d 49a5 a13d 8493 663d b3d3 7d3d
00000150: bd05 99bc c529 003e 577e 353d c4f4 bc3d
00000160: 228b 3c3d dc35 a3bd fc92 ad3d 322f 9bbc
00000170: f27d 943d 5968 063e ff2b 1b3e cf9c c93b
00000180: 5662 27bd 10be 883b c53f 163e 1093 21bd
00000190: ca66 ff3c c4c1 4fbb e063 863e 1747 bc3b
000001a0: 1aa9 b33d 70d0 e83c 1b95 243c 3a32 983d
000001b0: c01e 4abd b65f d73d 6051 953d abc6 b93d
000001c0: 9695 713d 8188 adbc 2b82 8d3d 3352 41bc
000001d0: bc4b 1bbd 8112 dd3d ba01 bbbc 29f7 ac3c
000001e0: 9a73 9a3d eb10 473d ed93 dd3d 3e82 4b3e
000001f0: 7512 c0bc fe93 9ebc 4b63 2bbc e958 583c
00000200: e8a7 01be d83f 85bd 62c4 efbd 78ca 9fbd
00000210: cd1a 3b3d a12e 2b3d ae8b 703c 564c 1fbc
00000220: 389c 1fbd 6dff 213d a0fb bfbd ece2 87bd
00000230: 019d 05bd 5210 afbd f6dd 0cbe 4c6d 63bd
00000240: 9dde 893c 7e4f a43d 3255 14be fcdd eb3c
00000250: 681b d1bd ddb3 4dbd f58c b4bd aeac fb3c
00000260: 7cf7 29bd bd42 6cbc 0298 83bc eff7 28bc
00000270: a38a 22bd e6c1 d43c 8f84 c9bd 0c93 e6bd
00000280: a202 b9bb 3cf7 d0bd b6de ad3c 1073 353d
00000290: c943 fd3a 1b4e a63c d38e dc3c 2efd 4f3d
000002a0: 548a 15bd b2cf 333d 1680 a43b 94ab 0ebd
000002b0: caa7 13bd 094d 633c 640a c23c d42f d1bd
000002c0: 8cec 0ebd e352 7c3d a8b1 01bd fe84 093d
000002d0: d526 c1bd 6d42 91bd 4e2c 623b 826e 2cbd
000002e0: bd20 6cbd f04f 933d b741 ffbc e919 36bd
000002f0: 8f08 12bd 4e62 c5bd 49d9 873d 18a6 413d
00000300: 6400 f6bc 7d95 1fbd 46a5 f3bd 474c 1fbd
00000310: 179a 9bbc dbc8 b3bd 1b9b cd3c 91cc a93d
00000320: 7196 3a3d aa0f 6abd 2b20 543c a741 153c
00000330: add3 48bd 6d2f 10bd f39f c03c 46ea 443c
00000340: cb91 913d 4ef7 63bd 8492 42bd cc27 5e3c
00000350: 97e2 db3c 1073 5f3c c048 ce3b c0c7 d3bc
00000360: f494 f73b f985 c5bc 958d 9a3d b94d dabd
00000370: 296b 0d3d b632 bcbd c985 a6bd 8df3 b1bd
00000380: 2e52 743d 3487 833d c9f4 b13d cdcb 173d
00000390: f3df eebc d217 e73c 793d e1bd 4317 98bd
000003a0: be6d 49bd 5536 07bc 1155 f0bd 2f47 1bbd
000003b0: cdfc 69bc aa62 323d c4f1 123d 0281 353d
000003c0: 6313 2dbd 6132 573c 09d9 833b c350 713d
000003d0: 4667 c8bd e5dd edbc c901 61bd d5df 87bd
000003e0: 9257 9ebc d436 0ebe 1651 3e3c c42c ce3d
000003f0: a989 8f3d 3b68 9f3d b396 a8bd 3d07 313d
0.097527154 -0.03128979 0.052627664 -0.045954444 0.039436772 0.01660892 -0.0010561958 0.08738348
0.086836465 -0.0022442057 0.122389466 0.1412773 0.00502377 0.07842857 -0.035660923 -0.12300418
0.07201966 -0.015440945 -0.034880765 0.0782052 0.005692248 0.124762036 0.03933714 -0.0073786587
0.025161011 -0.054912128 0.10658689 0.0042831562 0.092230275 0.06150979 0.10701184 0.056389034
7.617367e-05 0.1060942 0.20009597 0.0893845 0.07831611 0.11184948 -0.04781957 0.09322013
0.00045896316 0.18978795 0.09603503 0.0862206 0.031430267 0.13065767 0.04475317 0.12313926
-0.044137806 -0.015858145 0.013644943 -0.03166214 0.11708539 0.05225676 0.07771463 -0.09128795
0.07132726 -0.018704938 -0.009303938 -0.005966658 0.056846224 0.08997506 -0.0023082474 -0.046823744
0.052478034 0.12319933 0.035525337 0.05971395 -0.13061912 0.048450273 0.056226727 0.073980495
-0.018880019 0.11383364 -0.077290475 -0.014369937 0.096444726 0.14862446 -0.06282164 0.07586183
0.09251157 0.07892854 0.056293026 0.06196947 -0.018679494 0.12515934 0.04430994 0.09226373
0.046031125 -0.07969257 0.08475301 -0.018943403 0.07250585 0.13125743 0.15153502 0.0061527262
-0.040865265 0.004173048 0.14672764 -0.03944689 0.031176943 -0.0031701187 0.26248074 0.0057457793
0.08772488 0.028419703 0.010045315 0.07431455 -0.04934573 0.10516302 0.07290912 0.09071096
0.058980547 -0.021183254 0.06909593 -0.011799383 -0.037914023 0.10794545 -0.022827972 0.021113949
0.075415805 0.04860012 0.1081923 0.19873902 -0.023446301 -0.019357678 -0.010460685 0.013204792
-0.12661707 -0.06506318 -0.11707379 -0.0780229 0.045679856 0.041792516 0.01468174 -0.00972279
-0.03896734 0.039550234 -0.093741655 -0.06635079 -0.032620434 -0.08548035 -0.13756546 -0.055524155
0.016829783 0.080229744 -0.14485624 0.028792374 -0.102103055 -0.05022036 -0.08815948 0.030721989
-0.041495785 -0.0144202085 -0.016063694 -0.010313018 -0.039682996 0.025971364 -0.09839737 -0.11258516
-0.005646066 -0.10203406 0.02122436 0.044299185 0.001932257 0.020300915 0.026923573 0.05077856
-0.036508873 0.043899246 0.005020152 -0.0348316 -0.036048688 0.013873347 0.023686595 -0.102142006
-0.034893557 0.061602484 -0.031663567 0.033574097 -0.09431235 -0.07092748 0.003451127 -0.042097576
-0.05764841 0.07192981 -0.031159265 -0.044458304 -0.035652693 -0.09637891 0.06633241 0.04727754
-0.030029483 -0.038960923 -0.11896758 -0.038891103 -0.018994374 -0.087785445 0.025098374 0.08290971
0.04555363 -0.057143845 0.012947123 0.009109891 -0.049029995 -0.03520148 0.02351377 0.012018746
0.07107886 -0.05565577 -0.04750301 0.013559293 0.026841445 0.013638273 0.0062952936 -0.025852084
0.0075555984 -0.024111735 0.07546536 -0.10659356 0.034526024 -0.0918936 -0.08130986 -0.08689032
0.059648685 0.06422272 0.08689267 0.037059594 -0.029159522 0.0282096 -0.10998053 -0.07426312
-0.049176924 -0.0082527 -0.11734975 -0.037909683 -0.014281464 0.043551125 0.035875097 0.044312485
-0.042254817 0.01313457 0.0040236753 0.05891491 -0.09785323 -0.029036472 -0.054933343 -0.066344894
-0.019328866 -0.13888103 0.011616012 0.10067132 0.070086785 0.07783552 -0.082318686 0.043219794
