rnns/trained_rnns/rapport/GRU_seqin16_seqout3_1layer_30epochs_60000steps_MultiStep2_batch32_Adam_lr5E-4.pt (torch_old, 449022 bytes, 10 tensors)

gru_in.weight_ih_l0 f4 [372, 35]
00000000: 9644 b73d 3adc f3bb a82a e5bd 6a92 6ebd
00000010: 97dc cfbc c595 8abd bd4f 053e 9f9c af3d
00000020: df23 9d3d cef7 963c 0076 8abb 8f92 a23d
00000030: d4af 253e ddb7 a2bc f3a3 ad3d cc66 8cbd
00000040: 59d1 babc 87b3 84bd ebef 503d 802f 7c3d
00000050: f89f 17bb 7c2f 873d 7003 123e bb0e fb3c
00000060: 66f5 de3c 1417 523d 3d41 b93c cf60 803b
00000070: dec8 06be 5743 03bd f873 fe3d aa81 3b3d
00000080: f200 4e3e c807 373f cdbc 283e 6e4e debd
00000090: 7e0f 773d 7a06 3c3e cadf 84bd adad c03d
000000a0: 49e3 fd3d 2e2c 2e3d ccd1 19ba c481 d5bc
000000b0: a365 5f3d a845 eabd 2c07 c53d b187 323d
000000c0: 87f4 213e 9988 adbd 2104 59be 153f 1b3d
000000d0: 02f3 33bd d369 653c a86e 32bd 5a60 f93d
000000e0: 407c bc3c a262 fab9 6ba6 1ebd eeae 91bd
000000f0: f7eb 6ebb 20d4 1abe 5f43 df3c ff2c 1cbb
00000100: 9259 ebbd 584e 353e 7479 da3d b2e1 d83d
00000110: 786a b93d 8cbb 4fbe 1899 483d ee11 c0bc
00000120: 5663 f6bd f60a 9bbd a74c 46bc ccfa 06bc
00000130: ed6a 0b3e 6de5 d93d 0da3 dc3c 7a0e f73d
00000140: 0186 97bc 0708 88bb 69de 203c a79b 92bd
00000150: 51ca 0b3e b033 c03b d299 533d 6dae c03d
00000160: c473 02be 3117 d9bc ad71 e5bd 1618 633c
00000170: bcef e83d 7f3e 56bd 2bdd 113d cf7f 5dbd
00000180: a87c c33d a588 4b3e 3e74 65bd d072 8ebc
00000190: a36b 1b3e a1c3 1c3e 2d2d 6e3d 71d7 55bf
000001a0: e3e5 08be ad48 7dbc 04aa d33d 6291 ea3c
000001b0: 03df b8bc b81c 7dbd f828 26bd c3ff 5dbc
000001c0: efec a4bd c548 e2bd 53e3 53be 67f7 44bd
000001d0: 9c01 0b3d 9d8a 9bba 28dd 1a3d 2891 fcbd
000001e0: bda4 f03d 4efb 16be 8aae d5bd 8b96 00be
000001f0: 09d3 8abd 460b 51bd 6a31 72bc 5d92 c5bd
00000200: 7809 de3d b618 35bc 7a70 d93c e4b3 713d
00000210: c41f 273d 1f4f 9cbc 9e5c f6bc 9e12 bd3d
00000220: 4e86 1dbe 9788 cc3e 281e ad3d 5c48 153e
00000230: 6fd0 06bc 31aa abbd 2c99 8a3d 3e25 25bd
00000240: 4494 8f3d 2240 f43c ea38 053e 9112 7f3a
00000250: b140 febc 22e2 bebc 6269 91be 2302 bfbd
00000260: 8503 3c3d bacd 8e3a 6061 2e3d 252d 9ebb
00000270: 578b 493e 7b3e 0fbe 4a32 d5bd a08c 8b3d
00000280: aded ea3d 7a93 e0bd cafa dabc 138d 00bd
00000290: 6cee 313c da15 953c 1901 64be d234 b83d
000002a0: 85fb a93c a1b3 d7bd 5a23 023c defd 123e
000002b0: 30ae a03e 224a 25be d86d b03d 3e58 b93b
000002c0: f940 5abd e798 f7bd d6ba 573d a293 403e
000002d0: 8c22 743d 01b5 e9bd 38b3 af3c e2eb 063e
000002e0: 0c31 4d3e 1fdd 61bd 46c4 b63d 669f 1d3e
000002f0: ad9a b5bc 925d 67bd d177 79be c069 573d
00000300: d467 c5bd fd78 e1bb 13e8 583d 1c3c 103e
00000310: 3508 31be 26f1 1cbd 8abb db3c 5065 583e
00000320: dba4 543e 8ded 253e 7109 80bd 3e8c 9d3d
00000330: cc65 91bd ad6c 48bd 8d2d 0e3e 64df 0fbd
00000340: 1167 25be df78 8f3d f03d 5a3d 56c3 803d
00000350: 7807 91bd eaee c93b b08f 293d 35ff 8bbe
00000360: c12b c8bd 5d1b 6d3e 34f4 6f3e a730 f03d
00000370: 8880 f73d 1b63 a6bd cd45 623d 6918 5f3e
00000380: 11a7 b7bd 2f3c b7bd 84f4 15be e353 5cbe
00000390: 8f93 d63d 2c3e 883d 2c6a 92bd 5399 f43d
000003a0: 6741 ff3d d01a bebd bfda 88bd bcd4 5cbc
000003b0: a51e 4c3d ffb8 56be faed efbd d07b 1b3b
000003c0: 8e3c 83bd d79b 113e 6c89 2b3e c16c c6be
000003d0: e334 03bd 5349 c63d 10d2 e23b 0227 f53d
000003e0: edb5 83bd f206 833c 3b3e 533a e6c0 d2bc
000003f0: 9eb4 353e 17d3 003e 1874 ea3c 95ac 00bd
0.089486286 -0.0074420245 -0.11189777 -0.0582451 -0.02537374 -0.067668475 0.13018699 0.08574795
0.076728575 0.01842871 -0.0042254925 0.0793811 0.16180354 -0.019863063 0.084785365 -0.068555444
-0.022804903 -0.064795546 0.051010054 0.061568737 -0.002313612 0.06600854 0.14259124 0.030646672
0.027216624 0.05129154 0.022614116 0.0039177905 -0.13162562 -0.032046642 0.12424463 0.045777954
0.20117548 0.7149625 0.16478272 -0.10854803 0.06031751 0.18361846 -0.06487997 0.09408126
0.12396867 0.0425226 -0.0005867749 -0.026062854 0.054540288 -0.11439067 0.096205086 0.043586437
0.15815936 -0.084733196 -0.21192981 0.037901957 -0.043932922 0.014002281 -0.04356256 0.12176581
0.023008466 -0.00047757203 -0.038732927 -0.07113443 -0.0036456564 -0.15119982 0.027253805 -0.002383053
-0.114916936 0.17705667 0.106676966 0.10589923 0.090535104 -0.20286387 0.048974127 -0.02344605
-0.120306656 -0.0757045 -0.012103236 -0.008238506 0.13615008 0.106394626 0.026933217 0.12063308
-0.018496515 -0.0041513476 0.009818652 -0.071585946 0.13651396 0.0058655366 0.051660366 0.09408269
-0.12739474 -0.026500316 -0.112033226 0.013860723 0.11373851 -0.052305695 0.035611313 -0.054076966
0.09545261 0.19876345 -0.05601906 -0.017388731 0.15177779 0.15309002 0.05814855 -0.8353186
-0.13368945 -0.015459222 0.10335162 0.028633777 -0.022567278 -0.061794966 -0.040566415 -0.013549748
-0.08053004 -0.11049036 -0.20692186 -0.048087504 0.03393708 -0.0011866872 0.037808567 -0.12332374
0.11750171 -0.14744303 -0.10433681 -0.12557428 -0.06778533 -0.05103614 -0.014782289 -0.09647057
0.1084165 -0.011053255 0.02654289 0.059009448 0.04080178 -0.019080697 -0.03007346 0.092320666
-0.15383264 0.3994796 0.084530175 0.14578384 -0.008228405 -0.08382071 0.067674965 -0.04031872
0.07010701 0.029815737 0.13009992 0.00097302446 -0.031036707 -0.023301188 -0.28400713 -0.093265794
0.045901794 0.0010895052 0.042573333 -0.004827159 0.1968206 -0.13988678 -0.104099825 0.068139315
0.11471114 -0.10965629 -0.026730914 -0.03138454 0.010860067 0.018198896 -0.22266044 0.0899445
0.020749817 -0.10532308 0.007942999 0.14354655 0.31382895 -0.1614156 0.08614701 0.0056562712
-0.05328462 -0.12089711 0.052668415 0.18806317 0.05960326 -0.11411477 0.021447763 0.1317592
0.20038241 -0.055142518 0.08924155 0.15392837 -0.022168482 -0.05648572 -0.24362113 0.052591085
-0.09638944 -0.006880878 0.0529557 0.1408543 -0.17288287 -0.038315915 0.026822824 0.21132398
0.20766012 0.162039 -0.06251801 0.07692765 -0.07099494 -0.048931766 0.13884564 -0.03512515
-0.16152598 0.07005476 0.053281724 0.062872574 -0.07081503 0.006162514 0.041396797 -0.27343145
-0.097739704 0.2315497 0.23433 0.1172803 0.12085062 -0.081243716 0.05524235 0.21786655
-0.08967412 -0.08947026 -0.14644057 -0.21516375 0.10477363 0.06652483 -0.07149157 0.11943307
0.124636464 -0.09282458 -0.066823475 -0.013478454 0.049833912 -0.20969008 -0.11715312 0.002372492
-0.06408034 0.14219604 0.16751641 -0.38754848 -0.03203286 0.09681954 0.006922014 0.11970331
-0.06431184 0.015994523 0.00080582843 -0.025726747 0.17744681 0.12580524 0.028619811 -0.031414587

gru_in.weight_hh_l0 f4 [372, 124]
00000000: e35d f9bd 7ce6 09bd 8881 6b3d fe2b 89ba
00000010: 180d 533d fa57 013e 4a53 97bd ca9d 9abd
00000020: 38b4 4cbc c01a 313d 69cc 5b3c aa46 fabc
00000030: 7c42 f03c f708 c93c af10 b3bc 5bb7 d83d
00000040: fa4a cc3d f90b f33d 12c9 da3b d7ac e7bd
00000050: 82ca 8fbc 514b 29be b8f1 9dbd fea7 75bb
00000060: 9cfa e33c 5e88 6dbd b860 513d 9b59 b2bd
00000070: 5a48 553d 870d 26be e848 0e3e b90c 21be
00000080: 6d0c 2abe e4a2 bfbd 7f2f b5bd 8c6c 6fbd
00000090: 0964 b2bd 2325 7dbd 01ba 85bd 6ff3 68bd
000000a0: 879f e83c 0fba d33d 7e2a 113c b62e dcbd
000000b0: 847d 0c3e cace 0ebc 3cb0 9dbb 9551 57bd
000000c0: 50e9 7c3d d737 8fba 47a0 5e3d 8434 e4bc
000000d0: f0e6 213e 5dfc 16be ddbb 853c 21a9 27be
000000e0: 7aec 4c3d f6b7 503d 9acb 023e d69f c23d
000000f0: f889 d8bd 89cb 0b3c 02ea 09bd 46c4 cebd
00000100: dba2 083e db18 38bd f9ef 993d 589f f4bd
00000110: 4774 f13d a094 783d 5e7e 18bd f7da 603c
00000120: 3e88 92bd bc1d bebb a4ce 24bd d625 f0bd
00000130: 0728 073d e6a4 e63d 3e0e 753d a849 5e3d
00000140: e151 1b3e 0356 913d 9865 3ebb bec8 5cbe
00000150: 4f8b 703c e2b6 8e3c 7ea9 2bbd 9504 cabb
00000160: 46f6 62bd 1952 5a3d 906b 46bb 57f2 ad3d
00000170: 9027 f03b 1e21 0abe 8765 9cbb 101a 2e3d
00000180: 5532 3b3d 2fd3 dabd 0a0e e43d d9ba 04be
00000190: a580 d03d c89f 83be 566c 13bd 9c3b 37be
000001a0: b6c9 8bbd c028 71bd 3fbd 8fbc 4a90 01bd
000001b0: 4460 b43d d7db 31bd 0091 55bd d5e5 e83d
000001c0: 686d 513b 4c3d b8bd 7039 6d3c 3dcb bd3b
000001d0: 9419 bcbc ba04 d3bc bac3 e0bc e8c6 9c3d
000001e0: 6935 8e3d 411f 333d 644b 24bd 0a84 903d
000001f0: 85af 96bd 7df1 afbc 2619 5abe d92c 61bd
00000200: 452c ca3d 4e6b 1e3c 5ca4 0e3e 2e6b cf3a
00000210: efdc 073d bcac fdbd 4677 41bb 70ed 9f3d
00000220: acc5 9cbb 3e1d ecbd 812e 4abe 2d7c edbb
00000230: b837 aabd 6a32 9a3d bf6e 203e 9beb e83c
00000240: a20d c43d ae7d 39bd 9f47 99bd 6786 113e
00000250: 3e2e 24be 0e2a 59bd 66b4 e03d 69a6 8b3d
00000260: 5e19 b6bd 5bfc 5bbc d74d c2bd 333a 05be
00000270: eedb 7a3e 84ff 613e 0a4c 16be d4de b33d
00000280: 9c94 533c 8047 1a3c f71e 8fbc 5b9a 2a3d
00000290: a5eb 08bd b759 7ebd a4fc 283d a0df 3d3e
000002a0: 6c5d 933c 91a1 c9bd d56a 9fbd 6297 463e
000002b0: 9d03 37bb 6548 ac3d 326a 42bb 3111 e93c
000002c0: ce28 ed3d cf7c 2f3c 4299 863d de4f 0cbd
000002d0: 1c4e f43c 63de 0ebe 4db3 02be c909 e33c
000002e0: 798f 1abd 3679 003d 9fac c23d 924e 483e
000002f0: bfb9 653d b31a 733e b216 09bd 19b1 af3d
00000300: bbd4 2ebd c10b 1d3e 3145 ba39 2903 f3bd
00000310: df19 dc3c a691 913d 920b d83d 077a 38be
00000320: 5fac 053d 1fe4 aeb9 e039 e0bc 355e f6bd
00000330: 1996 40be 8121 0fbd 40e0 fa3d c96b 11bd
00000340: 19fe 6c3d 603e e13d 598d 573b abae 453e
00000350: c4b8 09be c707 b8bd 1e67 d6bd b677 8d3c
00000360: 93e2 ca3d 1422 e5bc 0f57 0a3e 5e4a b3bd
00000370: a0c8 053e bd47 58bd 193b 3abd 112a 39be
00000380: 5454 a4bd b159 443d 3e01 383e 727c ffbc
00000390: 8beb 5c3e 5e43 983d bca9 663d 7096 aabd
000003a0: f04e 48bb 1db4 903d 4cb3 fb3c 37d3 413e
000003b0: 58a6 b83d ba5e 72bd 4474 19be 5139 6a3d
000003c0: cedf 92bc c2cd 84bd 636f 98bd 492f 1fbb
000003d0: 7c87 513d 1908 393c ad5a 7a3d d6ea a93d
000003e0: bfe2 39bc 68a6 c2bb 369b d03d 74cd 4abd
000003f0: d10c d13c 08e4 f43c 68f5 ed3d 8bd1 5b3b
-0.121761106 -0.033667073 0.057496578 -0.0010465381 0.05152616 0.12631217 -0.07388933 -0.07549627
-0.012494139 0.0432384 0.013415434 -0.030551273 0.029328577 0.024540408 -0.021858541 0.10581847
0.09975238 0.11867518 0.0066768015 -0.113122635 -0.017552618 -0.16532637 -0.0771212 -0.0037484164
0.02782946 -0.057991378 0.05111763 -0.08708497 0.052070953 -0.16216098 0.13894999 -0.1572751
-0.16606303 -0.09357241 -0.0884695 -0.058453128 -0.087104864 -0.061802994 -0.06529618 -0.05687278
0.028396381 0.10338222 0.008860229 -0.10751097 0.13719755 -0.008716295 -0.0048122685 -0.052568037
0.06174594 -0.0010926676 0.05435207 -0.027857073 0.15810752 -0.14744706 0.016324932 -0.16373111
0.05003021 0.05095669 0.1277298 0.095031425 -0.105731905 0.008532413 -0.033670433 -0.1009603
0.13343374 -0.04494558 0.07516474 -0.11944455 0.11789756 0.060688615 -0.03722989 0.01372408
-0.071548924 -0.0058018845 -0.04023613 -0.11725967 0.032997157 0.11261921 0.059828036 0.054269463
0.15167953 0.070964836 -0.0029052254 -0.21560952 0.014681651 0.01742119 -0.041909687 -0.006165097
-0.055410646 0.05330095 -0.0030276515 0.08493488 0.007328935 -0.13489196 -0.004772845 0.042505324
0.045702297 -0.10684811 0.1113549 -0.12961902 0.10180787 -0.2570784 -0.03599199 -0.17893833
-0.06825583 -0.058876753 -0.017546294 -0.031631745 0.08807424 -0.043422546 -0.052140236 0.11371962
0.003195608 -0.089960665 0.014479026 0.00579205 -0.022961415 -0.02575909 -0.02743708 0.07655126
0.06943781 0.043730978 -0.04011096 0.070564345 -0.073576964 -0.021477455 -0.21298656 -0.05497441
0.09871725 0.009669138 0.13929886 0.0015824789 0.033169683 -0.12386462 -0.0029520555 0.078089595
-0.0047843065 -0.11529015 -0.19744302 -0.007247469 -0.08311409 0.07529147 0.15667246 0.028432658
0.09572913 -0.045285873 -0.07484364 0.14211427 -0.16033265 -0.053018622 0.10971908 0.068188496
-0.08891557 -0.013426865 -0.09487503 -0.13010482 0.24497959 0.22070128 -0.14677444 0.087827355
0.012913849 0.009416461 -0.01747082 0.04165111 -0.033427853 -0.062097277 0.041256562 0.18542337
0.017988883 -0.098452695 -0.077840485 0.19393685 -0.0027925738 0.08412246 -0.0029665348 0.02845058
0.115800485 0.010710909 0.065722 -0.034255855 0.029822402 -0.13952021 -0.1276371 0.027714627
-0.037734482 0.031365596 0.09505581 0.19561222 0.056085344 0.23740654 -0.03346891 0.085787006
-0.042683344 0.15336515 0.00035528236 -0.11865837 0.026867805 0.07107858 0.10549082 -0.180153
0.03263509 -0.0003335783 -0.027371347 -0.12029687 -0.18807258 -0.03494406 0.122498035 -0.035503183
0.057859514 0.10998225 0.0032890646 0.19304912 -0.13449389 -0.089858584 -0.10468887 0.017268997
0.09906497 -0.027970351 0.13509773 -0.08754419 0.13064814 -0.05280279 -0.045466516 -0.18082453
-0.08023897 0.0479371 0.17969224 -0.03118727 0.21574228 0.07434724 0.056314215 -0.08329475
-0.0030564629 0.07065604 0.030725144 0.18928228 0.090161026 -0.05917237 -0.14985758 0.057183567
-0.017928984 -0.06484558 -0.0744312 -0.0024289659 0.0511546 0.011293435 0.06112163 0.082967445
-0.011345564 -0.0059402473 0.10185854 -0.04951234 0.025518807 0.02989389 0.11619073 0.0033541645

gru_in.bias_ih_l0 f4 [372]
00000000: df0c babc b819 6fbd 0e21 953c f755 e43c
00000010: deee 11bd 92cc 84bd d67a 203d 63e9 12bd
00000020: 127b 053d 4e2b 953d 1dfd 643d b18a 48bc
00000030: 7180 a83d 9da0 403d 5e8a 1cbb bd6c 25bd
00000040: ea2c 9c3c 2308 91bd acc9 923c 11d1 f6bc
00000050: 4a27 c2bd bb42 a4bd 54ab a93d 235a 0cbd
00000060: c521 4ebd 102a 95bc ea5c 863c 42c4 233b
00000070: 67cf 563d ed5b 103d 42ea 45ba d838 413d
00000080: 297c bbbb 14b4 86bd 452d 883c 1086 113d
00000090: 0a14 953d 29e9 ec3d d319 1abb 8003 7cbd
000000a0: 896e 373d 8ea0 033d 3c24 293d 0ef1 a0bd
000000b0: 8bb0 66bc 7feb 573d 9f38 ae3d 9f10 d9bc
000000c0: c5ab 9bbd 5910 f83d c056 9739 ceb1 b63c
000000d0: 6f76 cd3c f195 103d de59 5cbd 647d b1bd
000000e0: 9a4a 953d 0e55 22bd b6f8 c1bd cea8 cfbd
000000f0: 134e a53d 72e3 a23d 1e92 92bd 0fe8 4dbc
00000100: 2660 0fbc 3c5e e23c 5864 eabc d887 53bd
00000110: 0582 54bd c4c8 893c bcdc a33c ffbe 893d
00000120: cfa4 873d 3a1b 72bd bb77 823d 7e5a a8bc
00000130: 1325 18bd 72ff b3bc 2530 933d 8d1e 993d
00000140: 64d5 27bd b4a9 40bc 7069 bfbc a932 f4bc
00000150: a6f4 fa3d dc57 0bbd be89 523d aa4f 0e3d
00000160: c2a8 8abd 03c2 1d3d 1bdf 7fbc 6573 de3c
00000170: d907 c63c 82e1 cabb 098e 4c3c a32d 76bd
00000180: f7d5 4b3c 5183 9e3d 2c5f 1ebb 8291 203d
00000190: 9d1e 313c 908b 3d3d 4e5e 613a bc2a 04bd
000001a0: 1531 21bd c060 cb3a cce1 aabc f0da 033d
000001b0: 3d6b fc3c 211d 783d 2274 813d e7c1 62bc
000001c0: 8966 813c c565 a93c 3782 123d f106 213d
000001d0: 5fc0 a93d 2ccd cebd e8a4 8e3d 4c76 b03b
000001e0: aaad 50bd 3847 373d 2de5 6f3d 6609 d13c
000001f0: d88f 90bd 5a46 32bd b64b 90bc b61c 24bd
00000200: 75c5 25bd 450a 39be cc62 a7bc 4d21 96bd
00000210: 35bc aabd f5b7 3ebd bebf febb 34ee 313d
00000220: fbac 85bd 6fbf 86bd 007a 6ebd be00 573c
00000230: fc41 bf3c 53ad b33b 454c 51bd d80c 5fbd
00000240: 7464 6cbc e0b1 9fbd 0a2e 873b ccef 56b8
00000250: b08f 483d b5a3 c7bd 1711 4dbb 47f3 fabd
00000260: df07 343d 5f8d 92bd c2a6 e03c 7170 abbd
00000270: e889 453d bc77 51bc 99ae 53bc d42f 01be
00000280: 44bb b0bc b693 a4bc 8417 69bd ac90 b1bd
00000290: c423 44bd 9bbf 01be 9f79 39be 4aa6 12be
000002a0: dfce ee3c e648 d0bd 1b8a 22bd c608 f3bc
000002b0: b0b2 7a3d 715c 86bd aae1 9cbc 4241 653c
000002c0: 8a9c efbd 5546 f2bc 5f75 0bbe 530b 4d3b
000002d0: 7f45 dfbc 5cdb 0a3d 484b 2b3d 0ffc e5bc
000002e0: 7cb1 17bc 3c88 fbbd a92b 4a3c deaa c6bc
000002f0: 9ab7 f0bd 7f8b d53c abf5 11be 434b b4bd
00000300: 0743 76bd 7444 97bc b584 e8bc 7f2e 833d
00000310: 70e4 90bc 4086 3ebd 9da3 0fbe d83a 773d
00000320: 2b15 153d cb85 e0bc 3cd1 acbc 9080 003d
00000330: 0bb2 03be c63c 07bd c6fe e0bc eab5 fd3c
00000340: e422 0fbd 15e2 e3bc d13b cabd f73d 1fbc
00000350: b0a9 ce3d 976a da3b 7846 20bc 71fc e8bc
00000360: 3696 2abc 55d0 86bd d268 93bd 58ab e0bd
00000370: ffbf b4bd bf91 12be 0b68 3c3c 6492 c2bd
00000380: 66e9 84bd 85fb f23c 322c 3b3d c8b4 7cbd
00000390: 1b22 f23c 97bc 0dbd 6c66 9dbc d884 87bd
000003a0: 2668 2bbe 0d00 c6bd f124 93bd 179e 883c
000003b0: 8ea9 eebd b15a 0d3d da41 c8bd 8f3c a2bd
000003c0: 5815 1b3c e31a a9bd 6585 01be 1a00 9e3c
000003d0: 7555 95bc 2748 a8bc cd82 d03b e661 b73c
000003e0: 433a bb3c f447 093d 67d4 99bc 8b8e 6abc
000003f0: 31c7 923c 92c5 e1bd 454c 123d 275f bc3d
-0.022711216 -0.058374137 0.018204238 0.027873022 -0.035628192 -0.06484331 0.039179645 -0.035867106
0.032588072 0.0728365 0.05590545 -0.012240098 0.08227623 0.047028173 -0.0023886184 -0.040386904
0.019064385 -0.0708163 0.01791843 -0.030128988 -0.0948015 -0.0802054 0.08284631 -0.03426565
-0.050325174 -0.018208534 0.016401727 0.0024988805 0.052443888 0.035243917 -0.0007549861 0.04717335
-0.005721588 -0.06577316 0.016623149 0.035528243 0.07279213 0.11567909 -0.0023513928 -0.061526775
0.04478315 0.03213554 0.04129432 -0.078584775 -0.014080177 0.05271482 0.08506893 -0.026497183
-0.07601122 0.12112493 0.00028865598 0.02230158 0.025080888 0.035299245 -0.05379664 -0.086664945
0.0728962 -0.039631896 -0.09471266 -0.10139619 0.08071532 0.07953538 -0.07156776 -0.012567534
-0.008750951 0.027632825 -0.0286123 -0.051643223 -0.05188181 0.016819365 0.020002715 0.06725883
0.066232316 -0.059107997 0.06370493 -0.020550963 -0.03714473 -0.021972392 0.07186917 0.0747653
-0.04097499 -0.01175921 -0.023365706 -0.029809313 0.12253694 -0.034019336 0.051400892 0.034743942
-0.06770469 0.038515102 -0.015617157 0.027154634 0.024173664 -0.0061914334 0.012485036 -0.060102116
0.01244115 0.0773989 -0.0024165614 0.039201267 0.010810521 0.046275675 0.00085971213 -0.032267317
-0.03935345 0.0015516505 -0.020859621 0.032191217 0.030812854 0.060574654 0.06320979 -0.013840175
0.015795963 0.02067841 0.035768714 0.03931326 0.08288645 -0.10097727 0.06965047 0.005385196
-0.05094687 0.044745654 0.05856817 0.025517177 -0.07058686 -0.043524124 -0.017614227 -0.040066443
-0.040471513 -0.18070324 -0.020432852 -0.0733057 -0.08336679 -0.046562154 -0.0077743223 0.04344006
-0.06527134 -0.06579482 -0.058221817 0.013122736 0.023346893 0.0054833083 -0.051098127 -0.054455608
-0.014428247 -0.07797599 0.0041253613 -5.1244904e-05 0.048965156 -0.097480215 -0.0031290704 -0.12253433
0.04395282 -0.07155871 0.027423266 -0.08371056 0.04822722 -0.012784895 -0.012920045 -0.12615901
-0.02157367 -0.020089965 -0.056907192 -0.08670172 -0.04788567 -0.12670748 -0.18112801 -0.14321247
0.029151378 -0.10170154 -0.03968249 -0.02966727 0.061205566 -0.065606005 -0.019150574 0.013992609
-0.11699779 -0.029574553 -0.13618992 0.0031287267 -0.027254818 0.033900604 0.04181984 -0.028074292
-0.009258624 -0.12281844 0.012339511 -0.024251398 -0.11753769 0.026067493 -0.14253871 -0.088034175
-0.060122516 -0.018465258 -0.028383592 0.06405353 -0.017687052 -0.04651475 -0.14027257 0.060358852
0.03639714 -0.027407547 -0.021095864 0.031372607 -0.12860887 -0.033016942 -0.027465235 0.030970532
-0.034945384 -0.027817765 -0.0987469 -0.009719363 0.10090959 0.0066655385 -0.009782426 -0.028440686
-0.01041179 -0.06582705 -0.07197727 -0.10970181 -0.08825683 -0.1431341 0.011499415 -0.09500578
-0.0648983 0.02966095 0.045696445 -0.061695844 0.029557278 -0.03460368 -0.019213878 -0.06617135
-0.16738948 -0.096679784 -0.071847804 0.016676946 -0.11653434 0.03451032 -0.09778185 -0.07921707
0.009465538 -0.08257081 -0.12648542 0.019287158 -0.018229226 -0.020542217 0.006363249 0.022385549
0.02285493 0.033515885 -0.01877804 -0.014316211 0.017917247 -0.11024012 0.035717268 0.09197836

gru_in.bias_hh_l0 f4 [372]
00000000: 2d4d d2bd 891d 993c dd6d 77bd e53a d13d
00000010: fbce bdba 4d85 63bd d155 aabd f190 a3bd
00000020: 34de dabc c04d 10bd 018a 953d bfee bdbc
00000030: a51d 4d3c a8a3 953d fd4f 85bd c70d 71bd
00000040: a4a4 2a3d c1b7 b1bc 13b6 2f3c ad2d e939
00000050: 024e 5fbd 2e7c 8dbd f969 ce3d ac17 c2bc
00000060: 9212 3c3d 6a87 b2bd eb70 83bd 805e 893d
00000070: d5e0 7cbd 1ffb e0bc 9e9c ed3d a08c 0c3d
00000080: add8 153d 4898 353d 66a3 abbd 65b6 103d
00000090: aef9 9abd f7c8 a93c 5aea 223d dab8 ab3d
000000a0: 624d 9cbd 2bba 29bc 59e8 1dbd 3d71 903b
000000b0: 38de 7cbb 3524 4ebd a9d9 76bd b33d b23d
000000c0: 6470 dd3c 5194 07bd 75ee be3d b7ab 2abd
000000d0: c400 9e3d 3816 923d 3294 be3b 98c0 dfbd
000000e0: 90c9 96bd 759c cc3b 5862 7b3b d198 ac3b
000000f0: 6c83 6bbc ec2e 6a3d 1906 603d 7757 54bd
00000100: 27b2 6a3d 77ac f73a 7c6a aa3d 324b 983d
00000110: c573 4c3c d5b9 b5bb 5e27 573d 7210 dc3d
00000120: d705 17bb e824 96bd 9c36 5bbc fbd4 8f3b
00000130: 03d4 033e b7e8 a73c c68c 4abc cc2a d8bc
00000140: 9665 8fbd 7de8 bd3d 116e 88bc b415 f4bc
00000150: baf1 a53d aefa 30bd b7e0 90bc c1c3 5b3d
00000160: 95ae a23d 9f35 aebd 8392 38bd 9066 e9bc
00000170: 3398 953d 9f64 dabd d844 c13a 137d 453d
00000180: 4b10 8f3c e2e2 ad3d f46d 57bb 2daf 97bc
00000190: 452e 3d3d e9b8 49bd 1d49 aabc 816a cbbc
000001a0: ac06 183d bdd2 cabd e4fc 7d3d 860c 55bd
000001b0: 1af1 023a 5917 a43c b9a9 1abc 9c10 52bc
000001c0: b04e 31bd 5a84 2cbd dc75 87bd c5a2 913d
000001d0: 81e5 393d 0344 d6ba 81d2 673d d87a 573d
000001e0: c216 283d 571d 0bbd 53e9 1ebd af12 30bc
000001f0: a48c 42bc febd 9a3c 68dd 70bd 35a9 653d
00000200: 6d2b b1bd c256 c9bd 1139 07be 5d18 5ebc
00000210: 023a 8abd a3a0 d5bd 3038 5c3d 4965 5ebd
00000220: 85d5 9e3d c8cf 1e3d afee 02bd 2961 24bd
00000230: 5e0a 2dbd 1389 3cbc 4bfa f4bd 2852 d8bc
00000240: c6f1 853b cb9e 90bc 09db 0ebe ce41 a0bc
00000250: 9634 fbba 8d92 15be 51ec c4bc c81a 12bd
00000260: 6bff 5cbd 867c 51bd dfdf bfbd 8561 d33b
00000270: a6fe a3bd 489b b6bc 8397 b43d de4b e0bd
00000280: f56a d3bd d07c 14bd 6299 4c3d 2f51 b4bc
00000290: f0d3 1d3c ec74 6abc e687 08be 6728 babd
000002a0: 87ec 01be a776 c0bd fff5 2e3b 2ce8 933d
000002b0: f42a bcbc f90a 2bbc e6b6 c9bd 530d a4bc
000002c0: 4867 c1bd 1ea4 23be f41a edbd 441b 43bd
000002d0: c4cb a5bd cf22 d9bd 0c0c 923c ace1 ccbd
000002e0: e16a 26bd d9a6 043d 1256 e3bc 5e79 4c3c
000002f0: 2dde bfbc a786 94bd 69d9 02be fce8 e6bd
00000300: c791 713d b0d8 09be 1e9c a6bd 9983 24bd
00000310: dec2 81bd d51a 03be 0b44 9bbb c116 b2bc
00000320: 312d 43bc 6bdb 3bbd 8564 52bd de60 c3bd
00000330: b897 98bd 2e62 bb3d 22b7 e7bd 4be5 55bb
00000340: 7256 f73c 7b87 10be d479 4ebd 81cf 7c3c
00000350: 2afc 62bc d8a8 11be 5f2e e4bc 624e 933d
00000360: 20fd dabd 5d2f 43bd bd86 02bd e010 a1bd
00000370: f369 d5bd ad05 b2bd 95f3 82bd e01f c33c
00000380: e227 78bd a8bb 8ebd 3966 dabd 81db ffbd
00000390: f243 12bd 4742 203d b1cf 16be 00b2 e8bc
000003a0: 21e6 82bd 0417 27bd b863 01bd 8df6 d1bd
000003b0: bc51 24be a42d a0bd ab8d e7ba 88d6 adbd
000003c0: 5cba aa3c 818c 22bd 29fa 91bc f87b 8d3d
000003d0: 563d c5bd 57a2 68bc cabe dfbd 73b9 093d
000003e0: a336 4c3d 9eb4 88bc de13 2dbd edc4 183e
000003f0: 0d5e 8b3c bf66 0e3d 0701 563c e146 5a3d
-0.10268626 0.018690841 -0.06040751 0.10216311 -0.0014481241 -0.055547047 -0.083171494 -0.0798663
-0.026717283 -0.0352304 0.07301713 -0.023185132 0.012519275 0.073066056 -0.06509397 -0.05885103
0.04166092 -0.021694066 0.010724562 0.00044475254 -0.054517753 -0.06908451 0.100788064 -0.023692928
0.045916148 -0.087172344 -0.06418022 0.067074776 -0.061737854 -0.027463494 0.11602138 0.034313798
0.03658359 0.04433468 -0.08380775 0.035330195 -0.07567154 0.02072571 0.039774276 0.08384867
-0.07631947 -0.010359327 -0.038551662 0.0044080303 -0.00385846 -0.0503275 -0.06026617 0.087031744
0.027031131 -0.03310043 0.09322826 -0.041667666 0.0771499 0.07133144 0.005816006 -0.10925406
-0.07362664 0.006244237 0.0038358178 0.0052672406 -0.014374595 0.057173654 0.054693315 -0.051841225
0.057298806 0.0018896003 0.083210915 0.07436217 0.0124787735 -0.0055458345 0.052527778 0.10745324
-0.0023044252 -0.07331258 -0.013379719 0.004389403 0.12873845 0.02049671 -0.012362665 -0.026387595
-0.07001798 0.09272859 -0.016654046 -0.029795505 0.08102746 -0.043207817 -0.017685277 0.053653482
0.07943455 -0.08506321 -0.0450616 -0.028491288 0.0730442 -0.10663723 0.0014745248 0.048214983
0.017463824 0.0849054 -0.0032871934 -0.018516148 0.046186704 -0.04924861 -0.020786816 -0.024831058
0.037115738 -0.099034764 0.062008753 -0.052013896 0.00049950334 0.020030664 -0.009439879 -0.012821343
-0.043287933 -0.042118408 -0.06614277 0.07111124 0.045384888 -0.0016347173 0.056597237 0.052607387
0.04103733 -0.033963528 -0.038796734 -0.010746642 -0.011874352 0.018889423 -0.0588049 0.05606957
-0.08650861 -0.09831001 -0.13205363 -0.013555613 -0.06749345 -0.1043103 0.053764522 -0.05429581
0.07755569 0.038772374 -0.031965908 -0.04013172 -0.042246215 -0.01150729 -0.11961802 -0.026406363
0.0040876595 -0.017653843 -0.13950743 -0.019562628 -0.0019165452 -0.14606686 -0.024038466 -0.03567007
-0.053954523 -0.051144145 -0.09368872 0.006450834 -0.08007555 -0.02229084 0.08817961 -0.109519705
-0.10323135 -0.036251843 0.049950965 -0.022011368 0.009633049 -0.014310103 -0.13333091 -0.090897374
-0.12687884 -0.09397631 0.0026696918 0.07222018 -0.0229697 -0.010439628 -0.09849338 -0.020025885
-0.094435275 -0.15980574 -0.115774065 -0.047633424 -0.08095506 -0.10602342 0.01782801 -0.10003981
-0.04062927 0.03238568 -0.027751002 0.012480108 -0.023421371 -0.072522454 -0.12778248 -0.11274907
0.058976915 -0.13461566 -0.08135246 -0.040164564 -0.06335996 -0.12803204 -0.004738336 -0.021739366
-0.01191263 -0.04586355 -0.051365394 -0.0953996 -0.07450813 0.09149586 -0.11314227 -0.003263789
0.030192588 -0.14114182 -0.050409153 0.015430332 -0.013854066 -0.14224565 -0.027854143 0.07192685
-0.10692811 -0.04765259 -0.031866778 -0.07864547 -0.10420599 -0.08692489 -0.06394116 0.02381891
-0.06058491 -0.06969386 -0.10664029 -0.12493039 -0.03570933 0.039125707 -0.14727665 -0.02840519
-0.0639155 -0.040793434 -0.03158924 -0.10252104 -0.16046804 -0.07821205 -0.0017666122 -0.08488184
0.020840816 -0.039684776 -0.017819481 0.06908411 -0.096308395 -0.014198861 -0.10925062 0.033624124
0.049856793 -0.016687687 -0.042255275 0.14918871 0.01701262 0.034765955 0.013061768 0.05329025

gru_out.weight_ih_l0 f4 [372, 3]
00000000: 3fd8 b6bd 0ad4 79bd a5d0 c2bd 65d3 7c3d
00000010: ef9e 883e 782b 613d 98d9 35bc d398 aa3e
00000020: 1ce8 873d d0c4 fdbd 6064 08b9 c927 b43b
00000030: d0e8 80bd 9742 4abf eae2 19bc 0b7d 983d
00000040: 395a 273f 04c2 823d c479 023e 8b1f df3e
00000050: aa02 393d 827d 3cbd a479 8ebe bb2f 413e
00000060: b17c 383d e1c8 413d e68b 34bc 6859 653c
00000070: eac4 34bf a781 48bd 74da 753d 74c4 e2be
00000080: f67b 47bb 6901 1ebd 61d7 0abe 56f0 86bd
00000090: 9045 a53d c966 de3c 286d f5bc afb5 aa3d
000000a0: 24db cfbe 49f6 26be 05ca 6f3d d9e1 e6bd
000000b0: d6f4 213d a77f 81bc fdd1 333f 4c32 86ba
000000c0: b400 1a3b 6d70 7f3e 8f16 633d f5e7 b83c
000000d0: 492e 1bbe ca96 593d 0ac6 1abc d35d 0fbf
000000e0: db27 cbbd d235 0d3c 80fe d73e b8ba 35bd
000000f0: e77c 77bd fa4b 653d 3844 07be 2b7f 053e
00000100: 9464 ccbe a75f 683c 92a8 ad3b a837 c33c
00000110: a7ed 72be 2d33 183e 2dd7 513f 7650 a43d
00000120: 07cb d4bd e057 1abe bade b43c c9f8 5b3d
00000130: 276a d73e 579d 633d 801c 9f3d ce83 bdbe
00000140: fbcc dfbd 1af7 84be f801 2f3f 3079 3bbd
00000150: 17a7 aabd 9a62 933f e185 a53a 1cc4 b9bd
00000160: cce5 99be 88a6 ea3c 36ad 90bd 4c77 f7bd
00000170: 6940 f3bc ad15 b63d b195 cabd c9ac 5f3d
00000180: 47f4 0c3c 2b39 25be 4448 28bd 688f 213e
00000190: 28eb 213f d1c8 a03c 2aba 143e b29c 4fbe
000001a0: cb79 1fbe 5126 9dbc 15f3 7d3e 1a3c e93a
000001b0: 541d 4a3d 5177 9c3e 152e 65bd 2bb3 84be
000001c0: 6385 583e f94c 1a3b 915f 3bbd b81d 36bd
000001d0: dc61 51bc 691e 0ebc 0d10 b03e 5e68 de3d
000001e0: cea5 ef3b b889 963f c299 963a ad2f 943c
000001f0: cf09 1f3e 5c2a 90bc 32cc 113d 373c c4be
00000200: ab88 c83d 0177 bc3d 7db7 92be ce1e 3c3d
00000210: 4a1a 893c 07aa 623d bfea b53d fdc4 0abe
00000220: 5153 843e 2268 ed3c 8267 493d 3844 af3d
00000230: 9f16 04bc c0fa dabd 247a 55be de6c 6fbd
00000240: e6f2 50bc c748 fcbc c808 c43c 0dd2 973c
00000250: 16d3 193d 6a36 0bbd da8c 2d3d cf13 bcbd
00000260: e2d0 3d3e ddc2 09bc c198 853d 5a85 403d
00000270: d3fe cb3c 6c13 0f3f 15e8 04bd 69ba 063d
00000280: f761 0f3e 678b 8e3d 57b1 233d c8a7 aabe
00000290: 8d8a 113d 1ad4 ac3b 6f5b a03d ac23 e5bc
000002a0: 0992 8b3d ce9f a1b8 9b44 a43c 7009 de3a
000002b0: 870c 72bf f248 f7bb caa5 7c3d e356 ce3d
000002c0: a2cb 1a3e 8133 7a3d 5ce0 ca3f e660 763c
000002d0: 1053 82be e4e0 903d 220d 57bd 3d9f 64bd
000002e0: 6065 593d f5ea ecbc 53bd bebc e9fd 88be
000002f0: abb2 cf3c 7464 d33c 7553 3abe 25dd dd3c
00000300: df53 1d3b b6f1 0bbe ff7b 643d f974 003d
00000310: 3778 cebd 95fa acbd 1604 ddbc 5245 61be
00000320: 241c 87bc 53ee bdbd 4a2f 98be dc22 033d
00000330: 9074 aa3e 3f78 fbbe 7a51 6e3d 0fb2 183e
00000340: f66b f5be d48d c5bc 943b babd 7912 9b3e
00000350: cd6f e93d 1243 d7bc e3fb 47bd bceb ccbd
00000360: 11ca de3b 5a44 88be 450b c13c 76be a73d
00000370: 5f0d 2bbf da4c 443e b284 d53c 5e59 9dbe
00000380: 190a c6bb 3bf9 b13c 9651 903d e366 1b3d
00000390: 352d 76bc f921 f5bc 340d b03c 1edf 88ba
000003a0: 3ab7 d43e f5bc c13d c929 11bc afe3 133f
000003b0: f079 cc3d bfdf 22bb f0de adbf 6b31 303c
000003c0: 112c 47bd fd92 413f 35f8 94bc d4b5 acbc
000003d0: 50e6 05be ccc8 20bd 1cc8 e2bd 7c1d e8bd
000003e0: 6944 c83d 57f5 973c eb8e b2be 0a78 563d
000003f0: 5f42 45bb c11c 80bc 2228 7c3c aed4 3dbd
-0.089279644 -0.06099323 -0.09512452 0.06172504 0.26683757 0.054973096 -0.011099242 0.3331972
0.06636068 -0.12391055 -0.00013007363 0.005497907 -0.062944055 -0.7900786 -0.009392479 0.07445725
0.65372044 0.06384662 0.12741762 0.43578753 0.045168556 -0.04601813 -0.2782718 0.18865864
0.04504079 0.047310714 -0.0110196825 0.013998367 -0.70612967 -0.04895177 0.060022786 -0.44290507
-0.0030438877 -0.038575564 -0.13558723 -0.06588809 0.080699086 0.027148621 -0.029959276 0.08335435
-0.4059688 -0.16304888 0.05854227 -0.11273546 0.039540134 -0.01580794 0.7024229 -0.0010238378
0.0023498954 0.24945231 0.055441435 0.022571543 -0.15154375 0.05312232 -0.00944663 -0.5600254
-0.09919711 0.008618789 0.42186356 -0.044367522 -0.06042185 0.05598066 -0.13209617 0.13036792
-0.39920485 0.014182962 0.005299636 0.02383025 -0.2372347 0.14863272 0.8196896 0.08023159
-0.10390287 -0.15072584 0.02207886 0.053704057 0.42073175 0.055569973 0.07769108 -0.37014621
-0.10927769 -0.25969774 0.6836238 -0.04576987 -0.08332651 1.1514466 0.00126284 -0.09070608
-0.30058134 0.028643861 -0.07064287 -0.12083301 -0.0296938 0.08890853 -0.098918326 0.05460814
0.008603162 -0.16135089 -0.041084543 0.15777361 0.63249445 0.019627007 0.14524141 -0.20274618
-0.15573804 -0.01918331 0.2479976 0.0017794401 0.049344376 0.3055978 -0.05595215 -0.25917944
0.21144633 0.0023544414 -0.045745436 -0.044461936 -0.012779679 -0.0086742425 0.34387246 0.1085975
0.0073134666 1.1760778 0.0011489915 0.01808914 0.15531085 -0.017598324 0.035595126 -0.3832719
0.09791692 0.09202386 -0.28655615 0.045927815 0.016736168 0.055337932 0.08882665 -0.13551708
0.25844815 0.028980318 0.04917098 0.085579336 -0.008062034 -0.10692358 -0.20847374 -0.058453433
-0.012753224 -0.030796422 0.023929968 0.018532777 0.037554823 -0.03398744 0.042370655 -0.09183466
0.18536714 -0.008408275 0.06523276 0.047002174 0.024901783 0.5588901 -0.032447893 0.03289262
0.14002214 0.06960183 0.039964046 -0.33331132 0.035532523 0.005274308 0.078299396 -0.027971111
0.06814963 -7.706844e-05 0.020052245 0.0016940068 -0.94550365 -0.0075465376 0.061681546 0.10075166
0.15116742 0.061084274 1.5849719 0.015037751 -0.25453997 0.070741445 -0.05250276 -0.055815924
0.053075194 -0.02892063 -0.023283636 -0.26756218 0.02535375 0.025804736 -0.18195899 0.027082989
0.002400629 -0.13666424 0.055782314 0.031361554 -0.10081523 -0.08446232 -0.026979487 -0.219991
-0.01649291 -0.09273972 -0.2972358 0.032015666 0.33292055 -0.49115178 0.05818317 0.14911674
-0.4793393 -0.02411548 -0.09093395 0.3028753 0.113982774 -0.026277099 -0.048824202 -0.100059
0.0067989905 -0.26614648 0.023564944 0.081906244 -0.6681728 0.19169942 0.02606425 -0.30732244
-0.006043684 0.021725288 0.07046811 0.037939917 -0.015025427 -0.029923426 0.02149067 -0.0010442471
0.4154604 0.09459869 -0.00886006 0.5776929 0.09984195 -0.0024852601 -1.358366 0.01075397
-0.04862601 0.7561491 -0.01818476 -0.021082796 -0.13076138 -0.039253995 -0.11073324 -0.11333749
0.09778673 0.018549604 -0.34874663 0.052360572 -0.0030099375 -0.01563871 0.015390428 -0.046345405

gru_out.weight_hh_l0 f4 [372, 124]
00000000: e8ae f03d efdd 3ebc 4082 99bd 9862 84bd
00000010: 6c84 af3e e67c 0dbe f1ad cdbd 9c41 fdbd
00000020: 2678 ffbd b7d1 48be 67dd f8bd e41a 2bbd
00000030: 640c f13c 966d 943d 865f b3bd ebe7 a2be
00000040: 841e b93d f8e2 05be 1c12 89be 549f 283d
00000050: 9cc3 b1bd ca04 c43b 3245 a33e 2651 a13e
00000060: fd11 c2bd ac7a ba3e e036 92bc 5350 f83c
00000070: b8ff ffbc 1dd6 053e 1a3d 74bd 31a2 db3d
00000080: cd36 11bc 930a cc3c 6d7f b2bd bae5 05be
00000090: 17be 603d 3144 0dbe fcd2 dfbd 607c aebd
000000a0: 6559 20be 7c03 55be 2046 ffbd a514 06bc
000000b0: decb 7a3e aa40 2e3e cf8c c63e 092c e4bd
000000c0: 79aa 21be 7c66 f53c 471d 2ebc ab73 043c
000000d0: 6739 68be dd73 14bd b2d8 b83e 2af0 a83c
000000e0: be0f 813d edca 763e 0fa9 d7bd 108d c7be
000000f0: 0910 b3bc 9b3b b1bd 1d93 ddbd 12c7 353e
00000100: 6665 9ebe 391e 51be ecc4 ee3d 6fd4 f13d
00000110: eb8b ef3d 6860 b13b 8ab2 40ba 9936 7b3b
00000120: e2b0 08be ab2b 11bc 0d44 1d3d bfac f13d
00000130: aec9 613c 888d b4bd d681 333d 315e 413f
00000140: e3bd 14bf 733d 873e 1dfa 12bd 94ab 66bf
00000150: f632 653c 7897 9fbe 743d 9a3c fcbc 89be
00000160: 2109 24bd 5451 283f b343 4abe d2fa e73d
00000170: 6126 193d 35aa 4a3e c7f7 5e3d c45c e33c
00000180: 526a 133e 8a92 27be 6da2 14be c9ac 6e3e
00000190: fd8b 883e be54 793d dd05 753e 69c1 16be
000001a0: 7435 53be afa6 23be c1d2 143f 1be9 a63d
000001b0: 98e7 4abe 13d8 b73d 4424 54bd 72a2 3f3e
000001c0: d784 2abe 5524 77be 8e1d 2b3f c893 d0bd
000001d0: 8e11 59be 280e afbe 4989 26be 6240 28be
000001e0: 5c64 313e 0194 bd3c cb62 ae3c 1ea3 01bb
000001f0: ce42 0e3e 765c 00bd aba6 f9bd 4f0d d13d
00000200: 60ce 6dbd 795c bfbd 26a3 c93d d4d1 cb3d
00000210: 095c 19be aac4 b3be 199c ccbd 6b00 c43e
00000220: 93b8 df3d 0693 013e 6ef6 fe3c e924 05bc
00000230: 6bb5 943d 8355 6b3e 899f 443e 5c04 933d
00000240: 54ef f5bc 18c7 4abe 9cdd 2ebe a780 233e
00000250: f751 aa3c a160 0c3f 736b 4dbe c0b6 d9bc
00000260: 5c87 76be f992 d8bd 6144 a33d 9b9a 563e
00000270: c8fe 033e b468 4fbe cdfa 503e 1bed 8dbe
00000280: 0315 2bbd 3be7 83bc 7112 613d fb2e bfba
00000290: 0e7f c5be 4250 8fbe 6e47 423e 0747 383e
000002a0: 42b0 e3be c012 623e a564 b8bd b3f5 a5bd
000002b0: 8a9d 743e c88c 563d 8256 0e3d 07db eabe
000002c0: 9947 97bd 5033 63be 9bed ae3e 79f5 eabd
000002d0: 1d61 cf3d 7ac0 33be 9b32 93bd a08e eabd
000002e0: d685 3a3c 86fd 84bd a2d8 4cbe b973 4e3e
000002f0: d970 2abb d49f 56bb 3d7b a7bc 9d52 d1bd
00000300: 89c5 d63c f442 57be e355 0c3e 8676 c33d
00000310: c182 30bd 65b7 183c 29c3 edbe 35ec 113e
00000320: 713d c2bd bb1d 2f3e 9f28 973d 0731 e93c
00000330: 60cc 6ebc 5411 45bc 807d 543e 80f7 7fbd
00000340: eef6 2fbd d2d5 aebd 1cb7 30bd 0921 e13d
00000350: 8d16 b23d 67dd 93bc 4ad8 ddbd ac8b 45bd
00000360: 318d 293d 4b60 c7be 10f7 80bc 6caf 7bbe
00000370: 7b54 223e 9e6b 34bd ecea 823d 837c 8b3d
00000380: f1d6 523e 052e 2cbc 312c f43d a305 b43e
00000390: f4d4 d73d 3341 6dbd 9dd8 b93e b619 4f3e
000003a0: 94a7 11bd 2ac7 adbc 8b99 debc fcf8 32be
000003b0: de68 36be 0316 403e c16f e13d 921a 30bd
000003c0: 191e 9fbd e802 bbbd 7926 c0bd af25 35bd
000003d0: d6d3 e6bd 0b17 303e 711a 03be c52e e23d
000003e0: 7caf e03b 0cc8 75bc 40f5 fb3e eebd 893d
000003f0: e820 56bd c253 913e 9c18 e83e 302b 35bd
0.11752111 -0.011649593 -0.07495546 -0.06464118 0.34280717 -0.13817176 -0.10042942 -0.123660296
-0.12474088 -0.1961125 -0.12151604 -0.04177369 0.029424854 0.07247464 -0.08758454 -0.31817564
0.090390235 -0.13074863 -0.2677163 0.041167572 -0.08679888 0.005982016 0.3188873 0.31507224
-0.09476087 0.36421716 -0.017848432 0.03031174 -0.031249866 0.13069959 -0.059628583 0.10724295
-0.008863163 0.024907386 -0.08715711 -0.13075915 0.054868784 -0.13795544 -0.10928914 -0.085198164
-0.15659101 -0.2080211 -0.12464547 -0.008183633 0.24491832 0.17016855 0.38779303 -0.111412115
-0.15787686 0.029956095 -0.010627097 0.008084218 -0.22678147 -0.03624331 0.36102825 0.020622332
0.06301831 0.24100848 -0.10530292 -0.3897481 -0.021858232 -0.08653947 -0.10819075 0.1775172
-0.30936736 -0.20421685 0.116586536 0.118080966 0.11696609 0.005413104 -0.0007350823 0.0038332103
-0.13348725 -0.008860509 0.038394976 0.11800527 0.013780994 -0.088160574 0.043824993 0.7553435
-0.58102244 0.2641407 -0.035883058 -0.9010556 0.013989201 -0.3117025 0.018828131 -0.26901996
-0.04004777 0.65749097 -0.19752388 0.11327137 0.037390117 0.19791491 0.054435518 0.027754195
0.14396027 -0.16364494 -0.14515086 0.233081 0.26669303 0.060871832 0.23928018 -0.14722218
-0.2062586 -0.15981553 0.58134085 0.0814993 -0.19814909 0.0897676 -0.051792398 0.18714312
-0.16652237 -0.24134953 0.6684197 -0.10184437 -0.21198103 -0.34190488 -0.16263308 -0.1643081
0.1732344 0.023141863 0.021287343 -0.0019781063 0.13892671 -0.031338178 -0.121899925 0.102076165
-0.058058143 -0.0934381 0.09845571 0.09952131 -0.14976515 -0.3511098 -0.09990711 0.3828157
0.109238766 0.12653741 0.031123366 -0.008126476 0.07261165 0.22981839 0.19201483 0.07178566
-0.030021347 -0.1980251 -0.17076725 0.15967046 0.020791037 0.54834944 -0.2006052 -0.0265764
-0.24075073 -0.10574908 0.079720266 0.20957415 0.1289016 -0.20254785 0.20408173 -0.2771996
-0.041768085 -0.01610147 0.054949228 -0.0014586145 -0.38573498 -0.2799092 0.18972561 0.17995845
-0.44470412 0.22077465 -0.090035714 -0.08103504 0.23888221 0.052380353 0.03475047 -0.4587023
-0.07386703 -0.22187543 0.34165654 -0.114726014 0.10125945 -0.17553893 -0.071873866 -0.11452985
0.011384448 -0.06493668 -0.20004514 0.20161332 -0.0026007204 -0.0032749074 -0.020444507 -0.10220835
0.026217239 -0.21021634 0.13704638 0.09544091 -0.043093447 0.009321068 -0.46437958 0.14250262
-0.09484375 0.17101185 0.07380795 0.02846576 -0.014575094 -0.012028057 0.20751 -0.062491894
-0.0429601 -0.08536877 -0.043143377 0.10992629 0.086957075 -0.018049909 -0.108322695 -0.048228905
0.041394416 -0.38940653 -0.015742809 -0.24578637 0.15852539 -0.044047944 0.06392464 0.06810858
0.20589806 -0.010509019 0.11922491 0.3516055 0.105386645 -0.057923507 0.36298075 0.20224652
-0.035560206 -0.021213133 -0.027172824 -0.17477793 -0.17813441 0.18758397 0.110076435 -0.04299409
-0.077694125 -0.09131414 -0.09382338 -0.04422539 -0.11270873 0.1719629 -0.12803055 0.11044077
0.006856857 -0.015001308 0.49210548 0.06725679 -0.052277476 0.28384215 0.45331275 -0.04423064

gru_out.bias_ih_l0 f4 [372]
00000000: b01b 69bd 4288 dc3c 15dc a63d 6226 9abc
00000010: 0a86 a73d 0d53 573d 9dfd a33d 9216 173e
00000020: 6751 2b3e a37b 853c aa7a 99bd 8c26 39bd
00000030: a3d5 ad3d 764e 7c3d 2516 f23d 9fd7 683d
00000040: 3d01 ae3c 214c 503d e75b 203d 3f7a a13d
00000050: 7216 ab3d 8020 423e e485 d9bc 4797 623c
00000060: 9700 8bbd aee7 73bc 89a3 333d 967f 303d
00000070: 3ebe ae3d 38ef 543d 0522 733d 3beb 483e
00000080: cd63 853c 016d 603e fd19 833d 594f 163c
00000090: bdfc 863d 5e07 993d 4e05 193c 7b54 a3bc
000000a0: 0c69 743d d13b 20bd 0a80 613c c3b7 993e
000000b0: 0d93 ce3d 0a62 133d dbba be3d 8140 47bd
000000c0: 89e8 f43d fec1 1bbd 0b29 853d 129b a93d
000000d0: b2bb 8f3d a95f 86bd bb3a 123e 97a7 ba3c
000000e0: 6c83 403d 6f7c 08bc 8fa5 873d 3e3a c7bc
000000f0: 5d4a 283e 4865 e03d 9f1e 093e dd8c 263e
00000100: 9c43 4c3d 9c7d 163e 7b43 a0bb b15d 2cbc
00000110: dc97 b13d e8de a93c 1a35 d1bd 9c62 eb3d
00000120: 2724 cf3c f367 f2bd 68d7 763c b5c2 103c
00000130: 0c11 323d 23c3 553d 1769 283d a74c 2d3c
00000140: 615f bf39 d055 fd3b 4da9 223e 723a 913e
00000150: 8ef6 4fbd c8c5 4abd 3257 19bd 0062 dd3c
00000160: b30f 5bbd a6bd 183d 6401 d6bb e417 1a3e
00000170: f926 eb3d 9c41 453e c86f e63d 33bc 173e
00000180: 5b60 c13d 6f18 503e 4dac 353d e02a d5bb
00000190: e526 84bd 9842 f03d c233 5d3d e14f 653e
000001a0: 1f46 8e3d ac8d 623d c4db 443e 3440 cb3b
000001b0: e8a1 083d 3a08 dc3d 54ec 71bd abd6 99bd
000001c0: ca74 833d fe61 fd3d 5b8c 823d 18b0 b0bd
000001d0: 9989 21bd 87c1 87bc 4856 a23d da50 c63d
000001e0: b753 50bd 575c 903c d92e 8e3d 1f90 01bb
000001f0: 331b 923d 73d0 e8bd 0c26 26be 4d2e b53c
00000200: 3240 01bd eea0 d2bd 83d1 97bd 465a 283c
00000210: b67d d0bd d335 8fba 27a3 10be b7a1 793c
00000220: 78bf 7e3e d0fe a0bd 5561 bebd c177 b23d
00000230: e664 dbbd c8d6 25bd 9da1 083e d569 03be
00000240: 1405 debd a097 a63c fee0 83bc 1345 04be
00000250: 294a 213d d1fd 2ebc 93c7 c03d 890a 933d
00000260: 9f0c f63b a0fe cabd 8560 82bc bda5 25bc
00000270: e0db 2abd b308 f73d 7326 493d 7b2c c43d
00000280: 5fe2 593d 6cf5 453d 4354 ba3c 75be a2bd
00000290: 6f30 0ebe 9b56 d3bc 463f 6cbb 65b7 243c
000002a0: ed6f 6f3d 11c9 b4bc 642f ee3b a6fc fcbc
000002b0: cd4a 953c 20c4 18bc b7e9 47bd 604c 08be
000002c0: 5c82 ec3c 61d8 a5bd e7dc 9cbc 1f62 6dbd
000002d0: 2d1a 20be 5150 0dbe 9098 bc3d 4f68 5cbe
000002e0: d43b c53c d4ae 2abe 3088 693b c9d7 763d
000002f0: e593 83bd d924 a8bd c36b b0bd fec1 5ebd
00000300: 09f3 9bbd 96e4 4b3c dd7e c03d 94b2 3b3d
00000310: a1a0 5e3c 529e d03b 731e 0b3e 0e45 853c
00000320: aa7c ffbd 1226 99bd 08bb bf3d bfa4 56be
00000330: 134f 15be 1d53 bbbd f948 e4bd a4df e93d
00000340: f808 d83d 5f9d 24be 75a9 82b9 0ce3 a3bd
00000350: 486d d33d cdcb f3bd 36ee 54bd 8ebc 1cbe
00000360: a0c9 58bc 8e4d 323d e672 823d 72b4 18be
00000370: bb28 c5bd 16e1 b0bb ba5e adbc b6ed ccbb
00000380: 7020 c4bc d93b a6bd 9f5d a13d 7fbf 45bc
00000390: 00f0 e03d aac8 30be edc9 663d 6948 0abe
000003a0: 9548 d2bd 0add a8bd 6938 96bb cf35 eebd
000003b0: 8041 e0bc 7f63 14be a35d 7ebe e7a4 3cbd
000003c0: 9a63 7bbd 7c8e 87bd fe0d c2bd 0dc6 7abd
000003d0: 5158 9b3c 25b0 623b f4db ddbd e58b 04bd
000003e0: 58b7 08be df14 85bd 9b67 f43d 0415 87bd
000003f0: 0141 7c3e 36a0 44bc bedb c1be 6461 fc3d
-0.05691117 0.026920442 0.08147446 -0.01881713 0.08179863 0.052569438 0.08007357 0.14754704
0.16730271 0.016294306 -0.074940994 -0.045202777 0.084880136 0.061598264 0.1182063 0.056846257
0.021240825 0.050853852 0.039150145 0.07884645 0.083538905 0.1895771 -0.026553102 0.013830013
-0.06787222 -0.01488678 0.04385713 0.043090425 0.085323796 0.05198595 0.059358615 0.19620983
0.01628294 0.21916582 0.06401441 0.009174191 0.06591175 0.07472108 0.009339644 -0.019937744
0.059670493 -0.039119545 0.013763437 0.30023012 0.100866415 0.03598217 0.093129836 -0.0486455
0.11958415 -0.038026802 0.06501969 0.082815304 0.07018222 -0.065612145 0.14280216 0.022784991
0.047000334 -0.0083304485 0.06623375 -0.024319764 0.16434617 0.10956818 0.13390587 0.16264673
0.049869165 0.14696354 -0.004890857 -0.010520385 0.08671543 0.020736173 -0.102152064 0.114934176
0.025285793 -0.11836233 0.015066005 0.008835484 0.04347329 0.05218805 0.041115846 0.010577357
0.00036501422 0.007731177 0.15884896 0.28364903 -0.050772242 -0.049505025 -0.03743667 0.02702427
-0.05348177 0.037290238 -0.0065309275 0.15048176 0.11482043 0.19263309 0.11251789 0.14817886
0.094422065 0.2032182 0.044353772 -0.0065053552 -0.06452731 0.11731452 0.05400444 0.22393753
0.06946968 0.05531089 0.19224459 0.006202722 0.03335753 0.107437566 -0.05906327 -0.07511648
0.0641876 0.12372206 0.06374427 -0.08627337 -0.039437864 -0.016571773 0.07926613 0.0968339
-0.050861087 0.017622156 0.06942529 -0.001976974 0.07134094 -0.113678835 -0.16225451 0.022116804
-0.031555362 -0.10284601 -0.07413008 0.010275429 -0.101802275 -0.0010926075 -0.14124738 0.01523631
0.24877727 -0.078611016 -0.09295908 0.087142475 -0.10712604 -0.040488034 0.133429 -0.1283334
-0.10840812 0.020335972 -0.016098496 -0.12916975 0.039377365 -0.010680632 0.09413066 0.07179744
0.007508829 -0.09911847 -0.015915165 -0.010110316 -0.041713595 0.12062206 0.049108934 0.095787965
0.0531944 0.048329756 0.022745257 -0.07946483 -0.13885663 -0.025798133 -0.0036048456 0.01005349
0.05845635 -0.022068532 0.007268833 -0.03088219 0.018224144 -0.009324104 -0.048806872 -0.13310385
0.028870754 -0.080979116 -0.019148303 -0.057954904 -0.15634985 -0.1380017 0.092087865 -0.21524166
0.02407638 -0.16668254 0.0035634153 0.060264383 -0.06424693 -0.08210153 -0.08614304 -0.054384224
-0.07614715 0.012444636 0.09399197 0.045824602 0.013588102 0.0063665295 0.13585834 0.01626828
-0.1247495 -0.074779645 0.09361845 -0.20961283 -0.14580946 -0.09146712 -0.11146731 0.11419609
0.10548586 -0.16075657 -0.00024921788 -0.0800229 0.10323578 -0.11904106 -0.05198499 -0.15306303
-0.013231665 0.043530993 0.063695714 -0.14912584 -0.09626909 -0.005397926 -0.021163333 -0.0062539233
-0.023941249 -0.08116884 0.07879185 -0.012069582 0.10983276 -0.17264047 0.056344915 -0.13504185
-0.1026775 -0.08245285 -0.0045843613 -0.11631357 -0.027374983 -0.1449108 -0.24840407 -0.0460557
-0.061374284 -0.066189736 -0.09475325 -0.061224032 0.018963011 0.0034589854 -0.10832968 -0.032359976
-0.1335119 -0.064981215 0.11933824 -0.06595805 0.24634172 -0.012001088 -0.37862962 0.12323263
