rnns/trained_rnns/rapport/GRU_seqin16_seqout3_1layer_21epochs_60000steps_MultiStep2_batch32_Adam_lr5E-4.pt (torch_old, 449022 bytes, 10 tensors)

gru_in.weight_ih_l0 f4 [372, 35]
0.09803632 -0.004288231 0.03767639 -0.043314833 0.013510574 -0.0484575 0.069380715 0.0012987469
-0.0029241857 -0.0043085795 0.07478333 0.037359003 0.061256647 -0.08637186 0.058462642 -0.023628779
-0.0389115 0.07271684 0.06140953 0.015487083 0.09587304 0.0007244951 0.15374465 -0.07609822
0.09964105 0.010675095 0.06953445 0.028404783 -0.09621775 -0.124569334 0.034388002 0.09427849
0.017315002 -0.64506656 0.054964643 -0.017039295 -0.062393576 0.15260515 -0.18136914 0.05099169
-0.1448468 -0.2533728 0.05018215 -0.032323647 -0.022830825 -0.06113113 0.028930124 -0.08962208
0.047894757 -0.0028139364 -0.093158595 0.049284104 -0.017837167 0.06727413 0.03108975 -0.050946712
0.08580254 -0.011647683 0.021994518 0.02189891 0.08108183 -0.0714474 -0.06665493 -0.15730466
0.021161348 0.08010845 0.03270432 -0.28607497 -0.7730135 -0.089480005 0.20300545 -0.030478848
-0.058043804 0.04819235 -0.17017826 0.01357092 0.0031460023 0.12443036 0.23476356 0.06930809
0.1190878 -0.07174079 0.039490163 -0.08742466 0.25438935 -0.012614999 0.052747 -0.08428809
0.114399455 -0.10499995 0.14568456 0.055616405 0.14286374 -0.013145951 -0.005679956 -0.19338055
-0.13162583 -0.0010364304 -0.022282364 0.03893227 -0.13466325 0.25676727 0.01234763 0.3996518
0.04716923 0.03878086 -0.123063274 -0.04283557 -0.04500169 0.06723555 -0.029943632 0.05124666
0.008810552 0.008391698 -0.0895875 -0.07342281 0.024738953 0.11542025 0.07043849 -0.132028
-0.26049665 -0.03572266 -0.053548463 -0.038697846 0.05334368 0.1393217 0.05003594 -0.07183319
-0.0712241 -0.041378263 0.016963854 0.046498362 0.020338982 -0.14880398 -0.039464913 0.06231071
-0.08743276 0.15479878 0.19008794 0.09196637 -0.0027544948 -0.023180062 -0.07646941 0.0636306
-0.04630666 -0.0789325 0.01118054 0.0394175 0.098218374 0.008041101 -0.015172302 0.011191467
0.061140858 -0.0035947906 -0.03491975 -0.06931322 0.040045504 0.15809844 0.0013469689 0.052773077
0.012706705 -0.013061282 -0.013010686 0.06940596 0.034708627 -0.076881565 0.10143755 0.038197137
0.054629873 0.037466757 0.033252973 -0.0822775 -0.061816063 0.99577117 0.01945775 -0.17062542
-0.08110977 -0.0043684067 -0.080942996 -0.06979605 -0.02352833 -0.12908004 -0.032700237 0.07955781
0.004068879 0.033571046 0.077975936 0.0419048 0.09519234 0.039311808 -0.08273535 0.008121851
0.11935147 0.03207734 0.010797978 -0.03396427 0.15609877 0.04639531 0.07297239 0.0031911712
0.049593475 -0.0840944 0.025639594 -0.1303907 0.055041652 0.008761471 -0.0016338135 0.35900408
0.7801274 0.20644003 0.1079391 0.017172081 -0.08594896 -0.14123157 0.03891169 0.03932175
0.035903126 -0.028266286 0.09046758 0.0697738 -0.091607064 -0.04080585 0.0034584182 -0.034172367
0.09504461 -0.1365246 0.028219327 0.01079114 0.008429634 0.0627633 0.30589932 0.2447982
-0.005764615 -0.0322579 0.03415351 0.024788564 0.12603518 -0.050687354 -0.079454854 0.08296905
-0.07929248 -0.13264151 -0.16444024 -0.09586107 0.041513395 0.03223106 -0.14282429 0.040376335
-0.035712525 0.16247603 0.10304584 -0.19496855 0.007249058 0.1574466 -0.08547145 -0.016996311
00000000: 44c7 c83d 4a84 8cbb 8f52 1a3d e56a 31bd
00000010: 745b 5d3c 5f7b 46bd 7a17 8e3d b73a aa3a
00000020: b2a3 3fbb fc2e 8dbb 0128 993d c105 193d
00000030: 40e8 7a3d bbe3 b0bd 8676 6f3d 2491 c1bc
00000040: aa61 1fbd 91ec 943d 8f88 7b3d 89bd 7d3c
00000050: 1659 c43d 0bec 3d3a 3d6f 1d3e 62d9 9bbd
00000060: 9b10 cc3d 98e6 2e3c 1468 8e3d 26b1 e83c
00000070: d00d c5bd 351e ffbd 6fda 0c3d 1515 c13d
00000080: 31d8 8d3c 1523 25bf 9b22 613d fe95 8bbc
00000090: 6890 7fbd 8644 1c3e d5b8 39be aadc 503d
000000a0: b852 14be 14ba 81be cc8b 4d3d cd65 04bd
000000b0: b607 bbbc a364 7abd defe ec3c c88b b7bd
000000c0: 4b2d 443d 056a 38bb efc9 bebd 21de 493d
000000d0: 401f 92bc 05c7 893d eeaf fe3c 80ad 50bd
000000e0: 3eb9 af3d ecd5 3ebc d92d b43c 5865 b33c
000000f0: 3b0e a63d 0453 92bd 6182 88bd 7914 21be
00000100: 905a ad3c e60f a43d f7f4 053d 6b78 92be
00000110: 36e4 45bf 4b41 b7bd a9e0 4f3e c7ae f9bc
00000120: 57bf 6dbd 5765 453d 3643 2ebe 9058 5e3c
00000130: 292d 4e3b 58d5 fe3d dc65 703e 66f1 8d3d
00000140: 4ee4 f33d d6ec 92bd 70c0 213d b30b b3bd
00000150: 523f 823e 24af 4ebc 3d0d 583d 3c9f acbd
00000160: 434a ea3d 370a d7bd 552e 153e 07ce 633d
00000170: df4a 123e 1d62 57bc ed1e babb 8d05 46be
00000180: ecc8 06be d5d8 87ba 8189 b6bc 7277 1f3d
00000190: 2ae5 09be 0077 833e b74d 4a3c 299f cc3e
000001a0: 8634 413d aed8 1e3d 9908 fcbd 5a74 2fbd
000001b0: b153 38bd cbb2 893d 594c f5bc 05e8 513d
000001c0: 225a 103c 557d 093c a779 b7bd b35e 96bd
000001d0: 58a9 ca3c 7461 ec3d 0e42 903d 5932 07be
000001e0: d15f 85be ed51 12bd a255 5bbd a281 1ebd
000001f0: e77e 5a3d 59aa 0e3e 7cf2 4c3d 481d 93bd
00000200: f1dd 91bd 417c 29bd c8f7 8a3c 1175 3e3d
00000210: f09d a63c 1260 18be f6a5 21bd 8439 7f3d
00000220: f20f b3bd 9283 1e3e 6aa6 423e dd58 bc3d
00000230: c184 34bb 1de4 bdbc fe9b 9cbd c350 823d
00000240: 0dac 3dbd 5da7 a1bd 952e 373c 3f74 213d
00000250: b726 c93d d2be 033c 3f95 78bc 6a5c 373c
00000260: d66e 7a3d 9496 6bbb 0308 0fbd 17f4 8dbd
00000270: c106 243d 8fe4 213e c78c b03a 9528 583d
00000280: c92f 503c fdfe 55bc c62a 55bc b624 8e3d
00000290: a22a 0e3d 1574 9dbd 7dbe cf3d 9a74 1c3d
000002a0: 93c3 5f3d be76 193d 4534 083d 1b81 a8bd
000002b0: d732 7dbd dcea 7e3f dc65 9f3c 6eb8 2ebe
000002c0: e11c a6bd da24 8fbb 71c5 a5bd 3bf1 8ebd
000002d0: 7cbe c0bc 8f2d 04be aff0 05bd 35ef a23d
000002e0: 3b54 853b cb81 093d d9b1 9f3d 5ea4 2b3d
000002f0: 34f4 c23d 6b05 213d 2771 a9bd 8311 053c
00000300: 8b6e f43d 8763 033d 01ea 303c 1e1e 0bbd
00000310: 5bd8 1f3e 0209 3e3d 8c72 953d f822 513b
00000320: 8722 4b3d af39 acbd 200a d23c 2485 05be
00000330: 5b73 613d 468c 0f3c af25 d6ba 62cf b73e
00000340: 6eb6 473f 0465 533e 2d0f dd3d 77ac 8c3c
00000350: 0206 b0bd 029f 10be dd61 1f3d d80f 213d
00000360: 280f 133d b38e e7bc 1147 b93d 91e5 8e3d
00000370: 7c9c bbbd 0924 27bd a1a6 623b 53f8 0bbd
00000380: c0a6 c23d 1bcd 0bbe 382c e73c 52cd 303c
00000390: 731c 0a3c 0c8a 803d d69e 9c3e 61ac 7a3e
000003a0: 18e5 bcbb dc20 04bd 8de4 0b3d 6311 cb3c
000003b0: 5e0f 013e 8b9d 4fbd 3ab9 a2bd adeb a93d
000003c0: 1964 a2bd 2dd3 07be 0663 28be cf52 c4bd
000003d0: f309 2a3d b704 043d 8840 12be a861 253d
000003e0: 4c47 12bd 1e60 263e b309 d33d d6a5 47be
000003f0: 8289 ed3b ae39 213e a80b afbd d93b 8bbc

gru_in.weight_hh_l0 f4 [372, 124]
-0.18955106 0.09822994 -0.051809445 -0.07119281 0.037142746 -0.020138908 -0.0086413855 0.012553984
0.063968286 -0.055199776 0.1350735 0.027442582 -0.050011624 -0.11032405 0.029104363 -0.13533948
-0.13639021 0.031403538 -0.030294882 0.008929262 0.039104417 0.007904044 0.03661387 -0.11042956
0.01254936 0.014852985 -0.04843851 0.041202318 0.0693946 0.03790217 -0.012144132 0.06341639
-0.019091403 -0.068067275 0.1067061 0.11117806 -0.024827361 -0.049870238 0.07506628 -0.012942127
-0.07901062 -0.10140252 0.06867824 -0.0656698 0.07599051 -0.0534316 -0.09317683 0.008608835
0.082208954 -0.03251379 0.03941201 0.07763129 -0.0634542 -0.013533046 -0.039478455 -0.03959885
0.09459094 0.03614304 -0.00953028 0.059355363 -0.092137575 0.1361572 -0.094056465 -0.026613938
0.077787876 0.052534588 -0.06987541 0.04507341 0.03273847 -0.03325642 0.03979664 -0.04381792
-0.093252644 -0.066250995 0.06719197 -0.09493806 0.070409216 0.008854634 0.08823352 -0.026126565
0.16680908 0.08790665 0.13051857 0.033148162 0.042661753 0.048195157 -0.1359642 -0.02114451
-0.033331927 0.017467 0.14627574 0.14996152 -0.014846542 0.06870747 -0.040465303 -0.016686989
0.021507 -0.0011318 0.084943935 -0.06464471 -0.046649896 0.06839767 -0.082665235 -0.12143407
-0.047857907 0.0045657367 0.12185957 -0.040847495 0.102471985 0.056236763 0.07936979 -0.098205894
-0.0792223 0.10777053 -0.041150462 0.09698209 -0.06680191 -0.0055764476 0.16578834 0.09593054
0.06975766 -0.12102768 0.12100934 -0.017764429 0.071695656 -0.10218591 -0.13130482 -0.079989515
0.0054092 0.069934756 0.04795212 0.024198292 -0.10586522 -0.18386503 0.086837195 0.040178925
0.04417167 0.060481276 0.07525675 0.018026136 -0.0010391459 -0.15791284 -0.09336294 0.020439444
-0.008249949 0.10193931 0.111404754 -0.057612102 -0.17533217 -0.14976339 -0.16767597 -0.089700356
0.093766026 0.029524025 0.054060984 0.021243587 0.009292781 0.03071041 -0.041920688 -0.09676224
-0.04670366 -0.19230197 0.08854633 0.0670832 -0.057023898 -0.036586884 0.08383758 0.012457281
-0.080583915 -0.04149937 0.06890919 -0.069579884 -0.00760194 -0.17315552 -0.07910186 0.06079109
-0.08304398 -0.05310134 -0.098962665 -0.003968675 0.005494567 0.008713645 -0.11116723 -0.0075757285
0.0044087325 -0.06342524 -0.15902771 0.11451266 -0.05618015 -0.08013021 -0.009770704 0.003700478
0.08027824 -0.21976332 -0.13391656 -0.018735662 0.022113966 -0.041543618 -0.13065761 -0.115475245
-0.101576574 -0.14239724 -0.08869747 0.012643998 -0.009623027 0.1370744 -0.059680436 -0.00764502
0.11028911 -0.0075444197 -0.081399076 0.08454181 0.0016511866 -0.021781141 -0.011469262 0.024707463
0.027604159 0.03130297 0.006564148 -0.041715357 -0.16461432 -0.015315267 -0.019259417 0.08712564
0.16807447 0.059027184 -0.2308246 -0.11652629 0.20122667 0.03397041 0.037029948 -0.073746376
0.09627603 0.025133383 0.07119099 -0.009709505 0.007187826 0.064702384 -0.14521746 -0.053815775
-0.058938198 -0.010485 0.002731882 0.08029096 0.053053178 -0.092639394 0.13423078 -0.010280158
0.03152328 -0.08466783 -0.12023526 -0.05371844 0.032528933 -0.13046195 -0.03377814 0.0006254574
00000000: ac19 42be c72c c93d 2436 54bd 89cd 91bd
00000010: fe22 183d 5afa a4bc 9994 0dbc 3aaf 4d3c
00000020: ce01 833d 2919 62bd b550 0a3e 44cf e03c
00000030: fdd8 4cbd 93f1 e1bd 466c ee3c 6f96 0abe
00000040: e0a9 0bbe ffa0 003d f92c f8bc 0a4c 123c
00000050: f42b 203d f77f 013c 6df8 153d e528 e2bd
00000060: d59b 4d3c ef59 733c 7667 46bd c3c3 283d
00000070: c21e 8e3d 4e3f 1b3d 2ef8 46bc 74e0 813d
00000080: 9365 9cbc db66 8bbd ba88 da3d 53b1 e33d
00000090: c062 cbbc bc44 4cbd 5abc 993d 370b 54bc
000000a0: 52d0 a1bd 20ac cfbd 2da7 8c3d e37d 86bd
000000b0: eaa0 9b3d 18db 5abd 7ed3 bebd 120c 0d3c
000000c0: 2b5d a83d 2e2d 05bd 7d6e 213d 27fd 9e3d
000000d0: 47f4 81bd b5b9 5dbc 29b4 21bd 6732 22bd
000000e0: e5b8 c13d b90a 143d e424 1cbc 9c1e 733d
000000f0: a0b2 bcbd cb6c 0b3e ada0 c0bd 7905 dabc
00000100: 404f 9f3d 822e 573d d71a 8fbd e59e 383d
00000110: c618 063d e237 08bd cd01 233d 6b7a 33bd
00000120: 3efb bebd 9aae 87bd f29b 893d e36e c2bd
00000130: b532 903d 0713 113c c7b3 b43d 6107 d6bc
00000140: 00d0 2a3e 6708 b43d a9a6 053e 5ec6 073d
00000150: 17be 2e3d 4968 453d 333a 0bbe 4037 adbc
00000160: 0f87 08bd f416 8f3c 4fc9 153e 838f 193e
00000170: e93e 73bc 81b6 8c3d f2be 25bd 27b3 88bc
00000180: 732f b03c e858 94ba 16f7 ad3d 7264 84bd
00000190: f613 3fbd 1414 8c3d 644c a9bd 6db2 f8bd
000001a0: a706 44bd 2d9c 953b 8391 f93d b44f 27bd
000001b0: d5dc d13d 8558 663d a18c a23d 2c20 c9bd
000001c0: 4d3f a2bd ccb6 dc3d 638d 28bd 8c9e c63d
000001d0: 71cf 88bd a2ba b6bb 6bc4 293e 3b77 c43d
000001e0: 1bdd 8e3d 5cdd f7bd bfd3 f73d b586 91bc
000001f0: 2cd5 923d d946 d1bd c574 06be 8bd1 a3bd
00000200: a93f b13b f439 8f3d 7169 443d 7f3b c63c
00000210: ddcf d8bd 1d47 3cbe b3d7 b13d a892 243d
00000220: 5aed 343d 37bb 773d 3620 9a3d 8cab 933c
00000230: f333 88ba e7b3 21be 1235 bfbd 9f70 a73c
00000240: cb2a 07bc 8fc5 d03d 2d28 e43d abfa 6bbd
00000250: 478a 33be 935b 19be 40b3 2bbe d2b4 b7bd
00000260: 6708 c03d 5edc f13c 0d6f 5d3d 0807 ae3c
00000270: c040 183c 6694 fb3c 07b5 2bbd 482b c6bd
00000280: 564c 3fbd cfea 44be c757 b53d eb62 893d
00000290: e491 69bd 21dc 15bd 0ab3 ab3d a019 4c3c
000002a0: 2e09 a5bd 3efb 29bd 4320 8d3d e67f 8ebd
000002b0: b219 f9bb ae4f 31be 2800 a2bd 1400 793d
000002c0: f612 aabd ca80 59bd f0ac cabd a90b 82bb
000002d0: c50b b43b adc3 0e3c a5ab e3bd d13d f8bb
000002e0: 2177 903b 18e5 81bd 29d8 22be 9d85 ea3d
000002f0: 281d 66bd 4f1b a4bd 4e15 20bc b883 723b
00000300: eb68 a43d a309 61be 6c21 09be 887b 99bc
00000310: 5928 b53c a429 2abd 1ccb 05be 497e ecbd
00000320: 6107 d0bd 95d0 11be 05a7 b5bd c528 4f3c
00000330: e7a9 1dbc 3b5d 0c3e 7973 74bd 1383 fabb
00000340: 42df e13d 2e37 f7bb 8fb4 a6bd 4224 ad3d
00000350: a16c d83a 5d6e b2bc 92e9 3bbc 4e67 ca3c
00000360: 1e22 e23c 8b37 003d 1018 d73b b9dd 2abd
00000370: a890 28be e3ec 7abc edc5 9dbc ed6e b23d
00000380: b71b 2c3e 7dc6 713d 495d 6cbe 56a5 eebd
00000390: 5d0e 4e3e 8e24 0b3d b7ac 173d 5708 97bd
000003a0: 5e2c c53d 86e4 cd3c 95cc 913d 9e14 1fbc
000003b0: db87 eb3b af82 843d e3b3 14be ee6d 5cbd
000003c0: 2e69 71bd 47c9 2bbc 6009 333b 966f a43d
000003d0: 4a4e 593d b9b9 bdbd cb73 093e 1c6e 28bc
000003e0: 8e1e 013d 5466 adbd e73d f6bd de07 5cbd
000003f0: 0f3d 053d d197 05be f25a 0abd bcf5 233a

gru_in.bias_ih_l0 f4 [372]
0.058606073 0.043895114 0.017948164 0.060550738 0.06139028 -0.06804551 -0.052366342 0.056596212
-0.07265316 0.057619505 -0.010611517 -0.048381787 0.026080491 -0.09154485 -0.034398783 0.0071722013
-0.005259071 0.14280784 0.04808408 -0.043681845 0.042304814 -0.08708656 0.05851882 -0.054360446
-0.031404704 -0.038040787 0.02219646 0.06734369 -0.10506531 -0.040513415 0.10355807 0.022811402
0.012440479 -0.07045732 0.04173723 0.01417527 0.013945626 0.07709998 -0.056882296 0.044313964
0.025131105 0.006860844 0.047136776 -0.01489226 -0.044974267 0.034398448 -0.014661727 -0.055190735
0.035882015 -0.024056068 0.061650366 0.09270963 -0.01953634 0.007072944 -0.08459224 0.090099424
-0.080009535 0.10802507 0.08225763 0.004831692 0.028365275 -0.121595725 -0.054968193 -0.03081726
0.055993214 0.054050747 0.07006632 0.014374048 0.00328293 -0.02947303 -0.007219691 -0.08132947
-0.067708276 0.028850965 -0.017388243 0.014148329 0.01898433 0.05007419 -0.08096722 0.040854722
-0.031812098 0.06917696 -0.008268098 -0.02780809 -0.11028905 -0.00015284131 -0.06381442 -0.07858613
-0.05265912 -0.1033736 -0.06692515 -0.039525125 -0.018423684 0.00149662 -0.0051642447 -0.0077852886
-0.05920248 -0.08063742 -0.06059858 0.05902799 -0.020728858 0.0255034 0.026879646 0.012917012
-0.053448297 0.08466937 0.10057397 0.09864963 0.06684514 -0.12017516 -0.027323226 0.1006318
0.0336445 -0.04203104 -0.08643553 -0.013936992 -0.0485605 -0.05133859 -0.013802499 -0.013189379
-0.03816415 -0.006494389 0.08381059 -0.0829002 -0.08845175 -0.005667631 -0.0054192175 -0.069882356
-0.054286722 -0.07432753 -0.002307569 0.0176379 -0.10114747 -0.009099934 -0.018990139 -0.10983192
-0.10662112 -0.038057648 0.013882043 -0.0013291911 -0.017437305 -0.06429503 0.054908276 -0.06521901
-0.04958676 -0.08366044 -0.05905899 -0.005080203 -0.10607706 -0.14013505 -0.11425466 0.013167187
-0.10391823 0.03802327 -0.10977423 -0.12514518 0.009368237 -0.17808469 -0.085272305 -0.11946088
-0.08877709 0.00065090886 0.03746043 -0.0018022619 -0.06645094 -0.09963842 -0.021669973 -0.016729478
-0.067924805 -0.12960523 -0.017450128 0.035737682 -0.055330064 -0.11684164 -0.08846745 -0.07891523
0.00019291541 0.06262355 -0.06541341 -0.11653081 0.10946062 -0.045739334 -0.1446811 -0.022277145
-0.050467893 -0.06902953 -0.12968579 0.04467854 0.046557017 -0.030102214 -0.028262505 -0.004979003
-0.10115184 -0.0942474 -0.078444056 -0.09150246 -0.10466553 -0.07926138 -0.14045104 -0.074782565
-0.06659925 0.0046905256 -0.13195279 0.020408722 -0.14006469 0.07604647 -0.07115552 -0.019655325
-0.12348793 -0.07246353 -0.10161173 -0.14381061 -0.02814992 -0.0805362 -0.14546677 -0.09565899
-0.114686854 -0.056737166 -0.17563386 -0.023130676 -0.082376294 -0.12419053 -0.046440933 -0.10070743
-0.028572548 -0.10576368 -0.025119836 -0.031630773 -0.06545463 -0.03550461 -0.10229632 -0.017685195
-0.13710117 -0.112216935 -0.08789354 0.009202611 -0.02553002 -0.070325725 0.00022916652 -0.119318
-0.07328094 -0.0034476304 -0.1135989 -0.06892792 -0.13771497 -0.094548 -0.13174517 -0.05991617
0.014186134 0.066714555 0.055840053 0.00033461192 0.090121865 0.006017203 -0.03391733 0.03791888
00000000: ec0c 703d 5dcb 333d 0708 933c 0d04 783d
00000010: 6074 7b3d 725b 8bbd 177e 56bd 6ed1 673d
00000020: 2ecb 94bd 6e02 6c3d eedb 2dbc fb2b 46bd
00000030: c1a6 d53c de7b bbbd bde5 0cbd c904 eb3b
00000040: 4954 acbb 383c 123e d0f3 443d bceb 32bd
00000050: d047 2d3d 705a b2bd 6eb1 6f3d 0fa9 5ebd
00000060: 38a2 00bd a8d0 1bbd 5ad5 b53c 7deb 893d
00000070: 7b2c d7bd 65f1 25bd 4116 d43d fade ba3c
00000080: 27d3 4b3c ed4b 90bd a8f4 2a3d 643f 683c
00000090: 327c 643c 98e6 9d3d 69fd 68bd 8f82 353d
000000a0: bfdf cd3c eed0 e03b 7e12 413d aafe 73bc
000000b0: f036 38bd 63e5 0c3d bd37 70bc ae0f 62bd
000000c0: 05f9 123d 3b11 c5bc 1885 7c3d 8cde bd3d
000000d0: ad0a a0bc 28c4 e73b b23e adbd 0c86 b83d
000000e0: 0adc a3bd 3f3c dd3d b076 a83d 2c53 9e3b
000000f0: 4b5e e83c 2e07 f9bd 5426 61bd 7a74 fcbc
00000100: 2459 653d 5164 5d3d ee7e 8f3d 2181 6b3c
00000110: 6d26 573b 6c71 f1bc 2893 ecbb 1190 a6bd
00000120: a3aa 8abd dc58 ec3c ca71 8ebc 65ce 673c
00000130: 0785 9b3c 981a 4d3d 24d2 a5bd 4857 273d
00000140: 674d 02bd a6ac 8d3d eb76 07bc cbcd e3bc
00000150: 3adf e1bd 0744 20b9 22b1 82bd c4f1 a0bd
00000160: 17b1 57bd 8ab5 d3bd 0e10 89bd 19e5 21bd
00000170: 44ed 96bc 3c2a c43a d338 a9bb bc1b ffbb
00000180: 4d7e 72bd 3b25 a5bd 3736 78bd 55c7 713d
00000190: 91cf a9bc 82ec d03c b432 dc3c e0a1 533c
000001a0: 9aec 5abd 2267 ad3d baf9 cd3d d108 ca3d
000001b0: 1be6 883d 651e f6bd f5d4 dfbc 0c18 ce3d
000001c0: d1ce 093d bd28 2cbd 1c05 b1bd fb57 64bc
000001d0: 60e7 46bd 6a48 52bd e023 62bc 4418 58bc
000001e0: 0352 1cbd e2ce d4bb e3a4 ab3d 94c7 a9bd
000001f0: 3126 b5bd 89b7 b9bb b193 b1bb 7b1e 8fbd
00000200: c15b 5ebd 0839 98bd 953a 17bb 5b7d 903c
00000210: 6826 cfbd e417 15bc 3591 9bbc 8fef e0bd
00000220: 2c5c dabd 56e2 1bbd 8271 633c 4138 aeba
00000230: aed8 8ebc 1dad 83bd 80e7 603d 8b91 85bd
00000240: 7d1b 4bbd 2a56 abbd d7e7 71bd d577 a6bb
00000250: ee3e d9bd 907f 0fbe 59fe e9bd 2fbb 573c
00000260: 15d3 d4bd 4abe 1b3d 50d1 e0bd 0f26 00be
00000270: 3c7d 193c d55b 36be 3fa3 aebd e8a7 f4bd
00000280: c3d0 b5bd c1a1 2a3a 1c70 193d e039 ecba
00000290: 6e17 88bd 3a0f ccbd 3a85 b1bc 420c 89bc
000002a0: 291c 8bbd 3cb7 04be 92f3 8ebc ad61 123d
000002b0: c7a1 62bd ab4a efbd 6c2e b5bd 4f9e a1bd
000002c0: 5649 4a39 c740 803d 77f7 85bd b5a7 eebd
000002d0: e42c e03d 2b59 3bbd 4827 14be 8f7e b6bc
000002e0: 6cb7 4ebd 5b5f 8dbd 5acc 04be d800 373d
000002f0: 92b2 3e3d eb98 f6bc c586 e7bc e826 a3bb
00000300: b228 cfbd c804 c1bd 47a7 a0bd a465 bbbd
00000310: e25a d6bd ca53 a2bd 66d2 0fbe 9a27 99bd
00000320: 3065 88bd fbb2 993b a21e 07be 3130 a73c
00000330: 1e6d 0fbe 40be 9b3d fcb9 91bd 3404 a1bc
00000340: 3de7 fcbd c267 94bd d019 d0bd 1743 13be
00000350: a99a e6bc 2af0 a4bd 3ef5 14be dce8 c3bd
00000360: f1e0 eabd 3b65 68bd 5dd9 33be 8b7c bdbc
00000370: e7b4 a8bd 9b57 febd d938 3ebd b23f cebd
00000380: fa10 eabc a19a d8bd 1dc8 cdbc 458f 01bd
00000390: 140d 86bd 486d 11bd bc80 d1bd 8be0 90bc
000003a0: 4064 0cbe fed1 e5bd 8701 b4bd 8cc6 163c
000003b0: 5524 d1bc ef06 90bd 6b4c 7039 ff5c f4bd
000003c0: 5114 96bd a4f1 61bb 8aa6 e8bd 152a 8dbd
000003d0: 2705 0dbe 62a2 c1bd 35e8 06be a86a 75bd
000003e0: f56c 683c a4a1 883d 8ab8 643d da6e af39
000003f0: d091 b83d f52b c53b e6ec 0abd d450 1b3d

gru_in.bias_hh_l0 f4 [372]
-0.021672295 -0.044118293 -0.07410845 -0.014581117 0.022340119 0.0417002 -0.08822854 -0.017731119
0.042518884 0.036008332 -0.04619344 -0.043631297 0.012447389 -0.093098186 -0.07816749 -0.05479768
-0.042936783 -0.019866133 -0.015184723 -0.010014973 0.08173703 0.0393746 0.080086395 0.08007695
-0.029780058 -0.043154985 -0.03810958 -0.011546197 -0.11372523 -0.057861716 0.022210734 0.08340571
-0.08216539 0.027763331 0.0013756761 -0.041054692 -0.007058826 0.116598025 -0.031720348 0.06789783
-0.021046191 0.046982434 0.097771265 -0.009904414 0.02275607 -0.05838314 -0.12493605 0.014004223
-0.11097555 0.008408135 0.031683758 0.025567612 0.052603267 -0.029523106 -0.0098374225 0.1397743
-0.048664957 0.07336836 -0.02230712 0.015100758 -0.002533034 -0.0056724683 0.06739515 0.00602088
0.024231948 -0.06849887 0.113587774 0.0023940643 0.054943487 -0.025277164 -0.012016034 0.030822316
0.089051574 0.0910117 0.039057154 0.07200939 0.008113778 0.011324405 -0.024110632 -0.029214835
-0.028751984 -0.021833615 -0.003516305 0.012116417 0.0489712 0.022484655 -0.06136345 0.008293382
-0.16516274 -0.025643148 -0.10641422 -0.016840996 -0.06681435 -0.041709755 -0.070571505 -0.08822355
0.04796957 -0.04332957 -0.12371414 0.077285804 0.01931611 -0.04722009 -0.062684216 0.0042496473
0.06788647 0.058147084 -0.02962352 0.09515592 -0.006300064 0.031067483 0.011926583 0.030333964
0.022268044 0.09068313 -0.047254845 0.03406608 0.079735294 0.029038448 -0.060348395 -0.017400555
0.0002647271 0.02232513 0.052943673 0.0702004 -0.08704008 -0.09549446 0.011225432 0.011715039
-0.053495567 -0.088637255 -0.099016406 -0.07533104 0.020784466 0.050079104 -0.04140979 -0.15945408
-0.034958508 -0.058501404 -0.09759384 0.04591044 0.038299054 -0.014659825 -0.08504905 -0.027214473
-0.015731892 -0.0924852 -0.06482287 -0.0971347 -0.06652355 -0.14577694 -0.019259645 0.0645615
-0.14812012 -0.057378482 0.007914208 -0.124327034 -0.11580417 -0.106972665 -0.111005746 -0.1321681
-0.009182968 -0.010196477 -0.023513848 -0.027397562 -0.026200375 -0.123331696 -0.046724882 -0.0951704
-0.02928829 -0.08798893 -0.11053723 -0.0029241478 -0.07835594 -0.07427601 -0.027229512 -0.029504975
-0.1377535 0.041143812 -0.11908959 0.027979894 0.026619019 -0.02744174 -0.09901499 -0.0840229
-0.02865753 0.034193467 -0.058324605 0.12293169 -0.050368592 -0.024833934 -0.09285269 -0.10911023
-0.14889026 -0.06680904 -0.12711154 0.024771085 -0.011188161 -0.022290526 -0.07146939 -0.11980984
-0.029964617 -0.100948915 -0.09407238 0.025141798 0.017813452 -0.086620174 -0.11925948 -0.09513724
-0.11200427 0.029286861 -0.02491614 -0.021902155 -0.07962321 -0.045901265 -0.010092967 -0.060221672
0.0014516369 -0.111430526 -0.013685258 -0.06350025 -0.12628633 -0.17888838 0.0030624035 -0.05198271
0.06847404 -0.106400974 0.03462208 0.052959822 -0.09669243 0.0106220115 -0.039949547 -0.044608355
0.0076937447 -0.12020028 0.016073804 0.048961073 -0.1102277 -0.11699778 -0.006260777 -0.093833126
-0.049826737 -0.039081346 0.01380372 -0.035898805 -0.14481702 -0.073562905 -0.06167439 -0.115245074
-0.032537982 0.04400114 0.060127035 -0.02932657 0.18894777 0.101020664 -0.01753118 0.05958379
00000000: 198a b1bc 62b5 34bd 2cc6 97bd a3e5 6ebc
00000010: a002 b73c d4cd 2a3d 2ab1 b4bd da40 91bc
00000020: 4828 2e3d 797d 133d 5535 3dbd bbb6 32bd
00000030: 22f0 4b3c 43aa bebd 4716 a0bd 8873 60bd
00000040: 7bde 2fbd 4dbe a2bc 58c9 78bc d715 24bc
00000050: be65 a73d 4347 213d 5604 a43d 62ff a33d
00000060: 4ff5 f3bc 48c3 30bd ca18 1cbd 432c 3dbc
00000070: c6e8 e8bd 6800 6dbd 49f3 b53c 9dd0 aa3d
00000080: 5446 a8bd ed6f e33c 0850 b43a f728 28bd
00000090: b94d e7bb f2ca ee3d 32ed 01bd 040e 8b3d
000000a0: 1069 acbc a770 403d 4d3c c83d 2046 22bc
000000b0: f06a ba3c 2923 6fbd 79de ffbd f871 653c
000000c0: 2647 e3bd 46c2 093c d4c6 013d 2b73 d13c
000000d0: 8676 573d 71da f1bc 242d 21bc fe20 0f3e
000000e0: e854 47bd 2742 963d 6cbd b6bc 2b69 773c
000000f0: 4201 26bb 1de0 b9bb 7806 8a3d cd4a c53b
00000100: 1482 c63c 2349 8cbd b5a0 e83d bce5 1c3b
00000110: 6c0c 613d 0e12 cfbc e6de 44bc 157f fc3c
00000120: ac60 b63d 5864 ba3d 65fa 1f3d a979 933d
00000130: a7ef 043c ff89 393c a983 c5bc f353 efbc
00000140: 4889 ebbc 69dc b2bc cf71 66bb f083 463c
00000150: 0696 483d bd31 b83c 3e58 7bbd f7e0 073c
00000160: 6c20 29be 9411 d2bc b3ef d9bd 21f6 89bc
00000170: f6d5 88bd d9d7 2abd cb87 90bd 8cae b4bd
00000180: bd7b 443d 597a 31bd d75d fdbd 0548 9e3d
00000190: d23c 9e3c da69 41bd 9560 80bd a040 8b3b
000001a0: 1008 8b3d a32b 6e3d 06ad f2bc 1be1 c23d
000001b0: c470 cebb 3c81 fe3c b767 433c ef7e f83c
000001c0: 796b b63c 14b8 b93d 4c8e 41bd e088 0b3d
000001d0: 424c a33d 0ae2 ed3c e12f 77bd 9c8b 8ebc
000001e0: 12cb 8a39 31e3 b63c 77db 583d 3ac5 8f3d
000001f0: 1242 b2bd 9992 c3bd e0ea 373c 6ff0 3f3c
00000200: 2b1e 5bbd 7387 b5bd 1dc9 cabd 2947 9abd
00000210: 2f44 aa3c bf1f 4d3d 509d 29bd ee47 23be
00000220: a730 0fbd 2b9f 6fbd 47df c7bd 960c 3c3d
00000230: 78df 1c3d c32f 70bc 322e aebd e3f0 debc
00000240: 2be0 80bc e168 bdbd dac1 84bd 8fee c6bd
00000250: 803d 88bd 8d46 15be 67c6 9dbc d238 843d
00000260: cdac 17be b305 6bbd 98aa 013c 2c9f febd
00000270: bd2a edbd 7c14 dbbd fb56 e3bd 1357 07be
00000280: 2974 16bc 200f 27bc 1da0 c0bc da70 e0bc
00000290: 2ba2 d6bc 5495 fcbd 9762 3fbd b3e8 c2bd
000002a0: ffed efbc 8a33 b4bd 5861 e2bd 0fa3 3fbb
000002b0: 1479 a0bd 051e 98bd 6d10 dfbc 6bb4 f1bc
000002c0: 410f 0dbe 6a86 283d 3ee5 f3bd 1736 e53c
000002d0: 2110 da3c 80cd e0bc 5fc8 cabd 3314 acbd
000002e0: 32c3 eabc 730e 0c3d c8e5 6ebd 9cc3 fb3d
000002f0: 4c4f 4ebd 8970 cbbc 8d29 bebd 2f75 dfbd
00000300: b076 18be 2ed3 88bd 8729 02be bbec ca3c
00000310: 8c4e 37bc 9f9a b6bc 8b5e 92bd dd5e f5bd
00000320: 5b78 f5bc 4ebe cebd 05a9 c0bd 2cf6 cd3c
00000330: 84ed 913c eb65 b1bd 503e f4bd 50d7 c2bd
00000340: 7f62 e5bd 00eb ef3c ef1c ccbc 266c b3bc
00000350: 7e11 a3bd f702 3cbd f95c 25bc 00ab 76bd
00000360: da44 be3a b035 e4bd 2238 60bc 6b0c 82bd
00000370: 3451 01be 842e 37be 9bb2 483b d2eb 54bd
00000380: 1e3c 8c3d c1e8 d9bd e2cf 0d3d 66ec 583d
00000390: ae06 c6bd f207 2e3c 23a2 23bd 40b7 36bd
000003a0: cf1b fc3b 902b f6bd 36ad 833c 688b 483d
000003b0: 0fbf e1bd 889c efbd 3427 cdbb 952b c0bd
000003c0: 1f17 4cbd c313 20bd ff28 623c a00a 13bd
000003d0: ea4a 14be 26a8 96bd 499e 7cbd 9c05 ecbd
000003e0: 8c46 05bd 8a3a 343d c447 763d 463e f0bc
000003f0: 867b 413e ece3 ce3d 8d9d 8fbc 220e 743d

gru_out.weight_ih_l0 f4 [372, 3]
-0.0092292065 0.27115414 -0.07272052 0.17530452 0.028127886 0.04910971 -0.09996689 0.15583478
0.02146369 -0.00042252164 -0.10643016 -0.044126496 -0.028463038 0.47482732 -0.035485636 0.07272132
-0.06363257 0.07451094 0.030657735 0.35103077 0.014894798 -0.05677377 0.25594348 0.041362695
-0.17585386 -0.054150753 0.0991423 -0.045049198 0.032636426 -0.038432747 0.31891266 -0.8214296
-0.18213406 -0.010849522 1.0200766 -0.008761438 -0.013025524 -0.13460585 -0.0024617047 -0.06761032
0.58589804 -0.004523425 -0.06051639 -0.2959944 -0.22665627 0.07895514 0.15003511 -0.24685761
0.027062858 -0.07955701 -0.03198011 -0.062636875 -0.15280543 0.06872084 -0.12090146 0.22118585
0.012822596 -0.0050599277 -0.3807924 0.05963409 0.046960916 -0.9534404 -0.0775444 0.19553787
-0.15230213 0.0077914004 -0.031881593 -0.049010832 0.011170138 0.09677766 0.13491529 -0.016283724
-0.013020969 -0.17586315 -0.12082858 0.011885103 -0.13754727 0.13304071 -0.032767247 0.08225603
-0.057639096 0.14026071 0.14853066 0.035229903 -0.08787104 0.38106564 0.040368836 -0.0049463995
-0.45087036 -0.0890388 -0.03141632 -0.015647648 0.051980928 -0.060706377 -0.6162837 -0.037067916
-0.070865296 0.12521668 -0.04155182 0.014032063 0.9528665 0.009461607 -0.004352282 0.29097122
-0.07060366 0.037372813 0.5040364 -0.03377189 0.0075001083 -0.2674521 0.0495031 -0.08716993
0.21782804 -0.06373614 -0.034328047 0.1031787 -0.015266177 -0.031202419 0.41340426 0.026435375
0.06821289 1.1552911 0.09960446 0.013703168 0.20585382 0.10511477 -0.025662962 1.2432901
0.037877876 -0.0012929064 0.043892883 0.048562456 -0.12234234 0.1113458 0.007199053 0.029207299
0.02709418 -0.06347194 0.026379948 0.15287161 -0.053079955 0.12680243 0.5303418 -0.01422837
0.04883431 0.12502402 -0.0048985844 0.061883986 -0.22574633 0.021946838 0.024062514 -0.052279484
0.052435063 0.017197883 -0.286831 0.03585809 0.07372464 -0.4381872 0.032832094 0.031505626
0.024764614 -0.032811716 0.01695681 -0.1915074 0.029116254 0.026336096 0.22226104 0.064399436
0.1055529 0.35455132 -0.056472715 0.10668012 0.22099966 -0.085400715 -0.0067883795 0.029645225
-0.07049751 0.04437108 -0.203539 -0.02692401 -0.010456179 0.23210195 -0.034983035 0.03489633
-0.4598263 -0.09175484 0.22863802 1.0618237 -0.08668356 -0.01504328 0.36907542 -0.0619144
0.011961296 -0.20668057 -0.009477688 -0.17095941 -0.120314375 -0.012331717 -0.018806767 0.21637896
-0.04990887 0.07118511 0.8294755 -0.003922157 -0.1057217 -0.14381674 0.029337589 -0.016988812
-0.19811964 0.03896529 -0.06187948 0.10467808 0.123037376 -0.04170457 -0.17532918 0.0052552074
0.05842985 0.28658235 -0.06275985 -0.028081125 0.13911891 0.010997373 0.15951714 0.09837916
-0.012383564 0.04661925 0.39940095 -0.039083175 0.022584379 0.087526634 -0.040238187 0.050955523
0.35041434 -0.050221592 -0.047281113 -0.3888482 0.03006956 -0.06409628 -0.5794569 0.010201668
0.07102514 -0.3320928 -0.0068987594 0.13091017 0.8295764 0.037311275 0.003982447 0.07463424
-0.014105372 0.00030049073 -0.13363133 0.0016668278 -0.13094556 -0.12782468 -0.090103656 0.108837
00000000: 1936 17bc b7d4 8a3e 7fee 94bd 0783 333e
00000010: 746c e63c 4327 493d 71bb ccbd 2793 1f3e
00000020: 9fd4 af3c e585 ddb9 0ef8 d9bd fcbd 34bd
00000030: 512b e9bc 911c f33e 6359 11bd eaee 943d
00000040: cb51 82bd 3199 983d ee25 fb3c 4eba b33e
00000050: 5009 743c 9d8b 68bd 060b 833e ee6b 293d
00000060: 0913 34be 2ecd 5dbd 1e0b cb3d 8285 38bd
00000070: c6ad 053d a86b 1dbd 8548 a33e 3649 52bf
00000080: 5a81 3abe 32c2 31bc df91 823f 228c 0fbc
00000090: 0269 55bc 1ed6 09be 8d54 21bb 4877 8abd
000000a0: 6afd 153f 3d39 94bb 09e0 77bd 948c 97be
000000b0: 9518 68be 3cb3 a13d cea2 193e 3ec8 7cbe
000000c0: edb2 dd3c c9ee a2bd 93fd 02bd c347 80bd
000000d0: 0779 1cbe 83bd 8c3d 2f9b f7bd 8b7e 623e
000000e0: de15 523c c0cd a5bb 39f7 c2be e042 743d
000000f0: 175a 403d ac14 74bf 99cf 9ebd 143b 483e
00000100: 17f5 1bbe 014f ff3b 4696 02bd 95bf 48bd
00000110: f402 373c 5e33 c63d 3c27 0a3e 7265 85bc
00000120: e755 55bc 7815 34be f974 f7bd bcb9 423c
00000130: 31d9 0cbe d33b 083e f336 06bd d975 a83d
00000140: f916 6cbd 81a0 0f3e 6c18 183e 3b4d 103d
00000150: bbf5 b3bd 091b c33e cb59 253d 6815 a2bb
00000160: 7bd8 e6be f959 b6bd 66ae 00bd 7f2f 80bc
00000170: f4e9 543d 40a7 78bd c5c4 1dbf 87d4 17bd
00000180: d321 91bd cd38 003e 3e32 2abd bde6 653c
00000190: 0fef 733f db04 1b3c 969d 8ebb 2efa 943e
000001a0: a798 90bd 3c14 193d 8808 013f 6554 0abd
000001b0: 78c3 f53b 7bef 88be c3c3 4a3d 2686 b2bd
000001c0: 500e 5f3e 1888 82bd 919b 0cbd 5b4f d33d
000001d0: fd1e 7abc 379c ffbc b9a9 d33e 008f d83c
000001e0: 33b3 8b3d 94e0 933f 6cfd cb3d 4183 603c
000001f0: 58cb 523e 6a46 d73d 223b d2bc 2124 9f3f
00000200: d525 1b3d bd76 a9ba 06c9 333d 6de9 463d
00000210: 9f8e fabd 4409 e43d 09e6 eb3b 2544 ef3c
00000220: 9df4 dd3c 94fd 81bd c31a d83c 608a 1c3e
00000230: 5e6a 59bd 7fd8 013e 7bc4 073f 1c1e 69bc
00000240: 7c06 483d 4c06 003e 4e84 a0bb 107a 7d3d
00000250: 0c2a 67be dbc9 b33c c01e c53c 0323 56bd
00000260: 26c6 563d 93e2 8c3c 83db 92be efdf 123d
00000270: f2fc 963d 135a e0be f27a 063d 0b0c 013d
00000280: 29df ca3c 9465 06bd 02e9 8a3c 841a 44be
00000290: 3685 ee3c ccbe d73c 6698 633e dae3 833d
000002a0: 1e2c d83d c087 b53e ef4f 67bd 1b7b da3d
000002b0: bc4d 623e 92e6 aebd 0e71 debb 8bda f23c
000002c0: 0061 90bd 73be 353d 876c 50be be8f dcbc
000002d0: 6550 2bbc 22ac 6d3e 5f4a 0fbd 74ef 0e3d
000002e0: 5a6e ebbe f6e9 bbbd 1620 6a3e d7e9 873f
000002f0: 2687 b1bd 1778 76bc 74f7 bc3e f499 7dbd
00000300: 50f9 433c 12a4 53be 4e48 1bbc fc0f 2fbe
00000310: 6267 f6bd f80a 4abc a610 9abc 7292 5d3e
00000320: 3e6d 4cbd 80c9 913d 8258 543f 7085 80bb
00000330: 9e84 d8bd b244 13be 6255 f03c 1f2c 8bbc
00000340: e0df 4abe 119a 1f3d 5675 7dbd 7661 d63d
00000350: 05fb fb3d 69d2 2abd 7e89 33be e033 ac3b
00000360: 2354 6f3d ecba 923e 3c88 80bd 630a e6bc
00000370: 3075 0e3e 532e 343c 7658 233e 037b c93d
00000380: 6fe4 4abc d4f3 3e3d 487e cc3e ae15 20bd
00000390: e002 b93c 2a41 b33d ccd0 24bd bdb6 503d
000003a0: 8269 b33e 28b5 4dbd d7a9 41bd 1c17 c7be
000003b0: 7054 f63c e944 83bd 4a57 14bf e624 273c
000003c0: a175 913d 1108 aabe fd0e e2bb 510d 063e
000003d0: 1e5f 543f b5d3 183d 307f 823b d6d9 983d
000003e0: 381a 67bc 2f8b 9d39 a7d6 08be 7679 da3a
000003f0: 9816 06be 79e4 02be 4488 b8bd efe5 de3d

gru_out.weight_hh_l0 f4 [372, 124]
-0.07881482 -0.33134082 -0.14539689 0.4555418 0.15256278 0.07789919 -0.10975121 0.006408664
0.12108546 0.028076384 0.19284016 0.110509686 -0.059702646 -0.08730457 -0.20347117 -0.07592252
-0.077086635 0.14122644 0.29739708 -0.011093145 0.06221947 -0.045846503 -0.061155125 -0.02270265
0.15950185 -0.119773634 0.039970633 0.0035773339 -0.004444479 0.08545066 -0.043576173 0.016938148
-0.01795676 -0.4299601 -0.2167688 -0.062336806 -0.0446918 -0.028837992 -0.14643106 -0.063075155
-0.461266 -0.3487586 -0.16172251 0.22553027 -0.21192151 0.33705294 -0.1806401 0.11696469
-0.06355352 -0.012895646 0.101884745 -0.1688428 0.09994144 0.08519798 0.13316077 0.120561555
0.3614925 0.057490204 0.22451088 0.21932209 0.06682201 0.003488309 -0.39356202 -0.30960453
0.21404095 -0.3460317 0.04690285 -0.3508187 -0.115128875 -0.2318313 0.11031959 -0.091081
0.19575498 0.012852531 0.055804633 -0.079734445 0.0093953 -0.3085955 0.27957302 0.09442665
0.27623743 -0.11024473 -0.34502512 -0.16310021 -0.033270024 -0.041770197 0.17611834 -0.024292208
-0.054157 -0.26877838 0.12499341 0.24794579 0.17481191 0.29869598 0.111198306 0.072921075
0.0065208995 -0.09028769 0.00036459268 0.08262112 -0.115876615 -0.29840416 0.20421956 -0.16137679
0.11205305 0.0041409275 -0.31046632 0.097246185 0.19312443 -0.07881205 -0.017250873 -0.017858882
0.19931515 -0.003199307 -0.11010018 0.06621211 0.21541671 0.052713502 -0.65750676 -0.48813552
-0.101731166 -0.13212387 0.03451081 -0.09802125 -0.14522912 0.0688443 0.17276332 0.05362028
0.011335912 0.065096736 -0.11686574 0.14323913 0.058605816 -0.012894007 0.10986909 -0.20634556
0.016020617 -0.071940534 0.3018763 0.15990415 -0.17179444 0.16113381 0.051056005 -0.07346421
0.08395713 -0.22303419 0.05644433 0.122940004 0.1566926 0.084147304 0.11331695 0.25407466
-0.11979359 0.22355923 0.09246935 0.13478078 0.0039177183 -0.059150282 0.018052647 0.15864877
0.0076826047 -0.052974977 -0.029567612 -0.13215078 -0.16549107 -0.20579985 0.0827144 -0.19504517
-0.10890499 0.1926436 0.2238803 0.0066338805 -0.07604413 0.052098196 -0.20195188 -0.10924801
0.08132378 0.024346521 0.1541582 0.07992915 0.13735998 -0.14215708 -0.16008502 0.20923191
-0.02495255 0.149729 -0.17810918 0.14680462 -0.08298985 -0.13234891 0.1274953 0.086710386
-0.16194022 0.24220085 0.08039373 -0.07495939 -0.265032 -0.2681919 -0.09132365 0.20369036
-0.029064305 0.055787157 -0.018995661 0.08276676 -0.3681145 -0.006210882 0.103339314 -0.07971212
0.10925163 0.0116035445 -0.1300673 -0.05704763 0.003509757 0.15432371 -0.031192467 0.03646722
-0.25970185 0.05897333 -0.25260708 -0.022248786 -0.07004866 -0.07631005 -0.25897965 -0.3477095
0.026461992 0.25047752 -0.02154371 -0.062513046 -0.27345088 0.0031245449 -0.035822373 -0.03446802
0.25985962 -0.05198682 -0.15903915 -0.037492707 0.011585741 -0.07218095 -0.003806453 0.10650058
-0.06571982 -0.25378755 0.18536977 0.27001795 0.20135745 -0.01989591 0.14806929 -0.11084888
-0.11491367 0.18504931 0.18309838 -0.17450103 -0.10185575 -0.08894312 0.15965287 0.13648915
00000000: aa69 a1bd 81a5 a9be ece2 14be c63c e93e
00000010: 6b39 1c3e 9c89 9f3d 3ec5 e0bd c5ff d13b
00000020: a7fb f73d 7200 e63c e477 453e e752 e23d
00000030: c38a 74bd bdcc b2bd bf5a 50be 447d 9bbd
00000040: 99df 9dbd aa9d 103e 6e44 983e 06c0 35bc
00000050: d8d9 7e3d 8bc9 3bbd cc7d 7abd e8fa b9bc
00000060: 7454 233e e14b f5bd 3fb8 233d b471 6a3b
00000070: fea2 91bb c100 af3d ee7c 32bd dfc1 8a3c
00000080: 0e1a 93bc bb23 dcbe a4f8 5dbe e154 7fbd
00000090: c00e 37bd a73d ecbc 06f2 15be 8c2d 81bd
000000a0: 0f2b ecbe 7d90 b2be 969a 25be 68f1 663e
000000b0: f401 59be 3492 ac3e b8f9 38be 2f8b ef3d
000000c0: 5928 82bd 4248 53bc f3a8 d03d 21e5 2cbe
000000d0: 19ae cc3d 477c ae3d 4c5b 083e fae8 f63d
000000e0: 8c15 b93e d97a 6b3d 2ee6 653e f895 603e
000000f0: fad9 883d 1d9c 643b f680 c9be 7c84 9ebe
00000100: 8d2d 5b3e 112b b1be 341d 403d 829e b3be
00000110: b0c8 ebbd 2f65 6dbe 3def e13d ad88 babd
00000120: fe73 483e 6c93 523c 6693 643d d04b a3bd
00000130: bfee 193c 3b00 9ebe 3224 8f3e c262 c13d
00000140: fe6e 8d3e fdc7 e1bd 22a7 b0be be03 27be
00000150: 2646 08bd 3a17 2bbd 5e58 343e 7400 c7bc
00000160: bbd3 5dbd 529d 89be 8cfc ff3d 80e5 7d3e
00000170: e501 333e aeee 983e f0bb e33d a557 953d
00000180: 45ad d53b c1e8 b8bd cd26 bf39 4335 a93d
00000190: b850 edbd 6ec8 98be ef1e 513e f53f 25be
000001a0: 127c e53d 9eb0 873b 71f5 9ebe 0229 c73d
000001b0: 69c2 453e 3668 a1bd b451 8dbc ca4c 92bc
000001c0: 4519 4c3e 77ab 51bb 347c e1bd 379a 873d
000001d0: 3396 5c3e 1dea 573d 5d52 28bf e6ec f9be
000001e0: 6e58 d0bd 7b4b 07be 355b 0d3d 5dbf c8bd
000001f0: f1b6 14be 3efe 8c3d dee8 303e f0a0 5b3d
00000200: 43ba 393c 7051 853d 4e57 efbd 47ad 123e
00000210: a70c 703d 6341 53bc 0c03 e13d 404c 53be
00000220: ab3d 833c 8f55 93bd 888f 9a3e eabd 233e
00000230: e2ea 2fbe 4300 253e 1a20 513d 6774 96bd
00000240: b7f1 ab3d 1363 64be 2b32 673d f8c7 fb3d
00000250: 0674 203e 6c55 ac3d b812 e83d 1316 823e
00000260: 5756 f5bd b6ec 643e 9260 bd3d f903 0a3e
00000270: 3460 803b 9147 72bd 25e3 933c d374 223e
00000280: 5cbe fb3b 4afc 58bd c737 f2bc 8952 07be
00000290: 7e76 29be 32bd 52be 2b66 a93d ecb9 47be
000002a0: 9409 dfbd 5d44 453e e140 653e 0661 d93b
000002b0: 06bd 9bbd eb64 553d 79cc 4ebe 6cbd dfbd
000002c0: 158d a63d 5b72 c73c a6db 1d3e e5b1 a33d
000002d0: 18a8 0c3e a091 11be 54ed 23be e440 563e
000002e0: 4a69 ccbc 8f52 193e 4162 36be f353 163e
000002f0: 95f6 a9bd 7986 07be 218e 023e 3795 b13d
00000300: a8d3 25be 8003 783e 78a5 a43d 4f84 99bd
00000310: 46b2 87be 7350 89be e507 bbbd 3594 503e
00000320: 4418 eebc 1381 643d ca9c 9bbc 9e81 a93d
00000330: 8179 bcbe a884 cbbb 90a3 d33d 1c40 a3bd
00000340: 52bf df3d cb1c 3e3c 5d30 05be c7aa 69bd
00000350: f403 663b 0907 1e3e 5887 ffbc a75e 153d
00000360: a4f7 84be 058e 713d b755 81be 1643 b6bc
00000370: ac75 8fbd 7248 9cbd fb98 84be fb06 b2be
00000380: d2c6 d83c 973e 803e 6f7c b0bc d706 80bd
00000390: c101 8cbe 2ac5 4c3b 7bba 12bd 572e 0dbd
000003a0: 520c 853e 22f0 54bd 29db 22be f491 19bd
000003b0: 1fd2 3d3c 9bd3 93bd af75 79bb fa1c da3d
000003c0: 1d98 86bd 71f0 81be 93d1 3d3e cb3f 8a3e
000003d0: a630 4e3e bffc a2bc 7a9f 173e bd04 e3bd
000003e0: dc57 ebbd 917d 3d3e 247e 3b3e 66b0 32be
000003f0: bf99 d0bd cf27 b6bd 0b7c 233e d0c3 0b3e

gru_out.bias_ih_l0 f4 [372]
0.04258089 0.049008593 0.14492545 -0.014218687 0.077626005 -0.08464797 0.09203957 -0.010204176
0.10813766 0.14611475 -0.017405381 -0.047254957 0.054565057 -0.023941163 0.04904099 0.010118691
0.06888819 0.061751198 0.11668658 0.020136349 -0.06489535 0.06760129 0.04873699 -0.13280198
0.09124481 0.063304 -0.09774509 0.033821423 -0.062132873 0.08934014 0.028087081 -0.027154453
0.029475465 -0.04431402 0.042191193 0.10045374 0.08411333 -0.0011821366 0.030671468 0.13767175
-0.037790064 0.054011855 0.1339121 0.101045854 -0.07073686 0.06690201 0.01888888 -0.024196299
-0.07676297 0.012040873 0.028935254 0.073809534 -0.011167288 -0.0088930065 0.09051299 0.028315412
0.023028418 0.012981654 0.018281622 -0.0808713 -0.01137797 -0.09416204 0.04049308 0.08308686
0.028574111 -0.09181533 0.3011468 0.05204546 0.12977017 0.08076443 0.042171888 0.0029675812
0.15540718 0.04358092 0.1182402 0.17586422 0.123203084 0.10632216 -0.014502838 0.128527
-0.05387932 -0.005827989 0.047369834 -0.05844965 0.028503703 0.031121137 0.08453537 0.019323017
0.043389 0.08769199 0.123029664 0.22841933 0.06491998 0.028395526 0.0890758 -0.026939947
0.11739857 0.09225274 0.06634572 0.030370198 0.08065953 -0.007099595 0.01655581 0.012804944
0.16402751 -0.06636551 0.08335299 0.12816544 0.11760663 0.094866745 -0.014075238 0.08811051
0.033083547 -0.02847986 0.09320319 0.1579472 -0.040045112 -0.037256204 -0.114244215 0.08701009
-0.12710813 0.06553071 -0.022449316 0.14218162 -0.14208923 -0.07140538 -0.014604526 -0.04274533
-0.15282418 0.14089376 -0.15935639 0.016828062 -0.06342792 0.0071288813 0.16092783 -0.21027306
-0.24259378 -0.04924651 0.09784309 -0.16940801 0.06267939 -0.046958394 0.09927072 -0.050674785
-0.111816354 -0.081335925 0.031172741 0.059129342 -0.08693571 0.0054802117 -0.07453293 -0.11710069
0.0026758057 -0.022792986 -0.16795102 -0.11592307 0.06680027 -0.13785736 -0.1864633 -0.024975672
0.062505536 0.0010153182 -0.083346166 -0.07852118 -0.15182121 -0.020971691 -0.021395547 -0.01013073
-0.2661083 -0.022148835 0.06546313 -0.084829114 -0.07431417 0.12402206 -0.07480177 -0.026095489
-0.059066642 -0.20010473 -0.068046816 -0.002990981 -0.061691258 -0.010498976 -0.060095392 -0.2702045
0.05468242 0.014636981 -0.0824469 -0.14375488 0.070913345 -0.20937113 0.03917374 -0.19601816
-0.086065724 -0.12249272 -0.0035495895 0.009813706 -0.08810668 -0.0885622 0.046480235 -0.16021131
-0.017963707 0.0059873317 0.0576969 -0.1645993 -0.107467115 0.013967667 -0.120873205 0.03786307
0.044752683 -0.018356593 0.12910959 -0.162563 0.13649857 0.049339656 -0.02629931 0.0183554
-0.12508242 -0.07848039 -0.18929982 -0.07354849 -0.009935546 -0.07912701 -0.066121735 -0.097408675
-0.092390284 0.03287552 -0.10625582 -0.1544824 -0.07698091 -0.07617004 0.020382224 -0.097488336
0.12044888 -0.058541764 -0.09586225 0.00918915 -0.07056188 0.042053632 0.019512787 -0.035323877
-0.18605895 -0.053383537 0.0654556 -0.18836194 -0.06298519 -0.14594124 -0.15519555 -0.019668445
-0.062582284 0.08795144 0.07573157 0.010873209 0.24393085 -0.21361817 0.055464942 0.0009173395
00000000: 4d69 2e3d 3cbd 483d 5667 143e 7ff5 68bc
00000010: 62fa 9e3d ea5b adbd 3e7f bc3d 6b2f 27bc
00000020: 4777 dd3d 1b9f 153e bb95 8ebc 6a8e 41bd
00000030: 9c7f 5f3d 4220 c4bc 35df 483d dec8 253c
00000040: 4015 8d3d d3ee 7c3d 60f9 ee3d fcf4 a43c
00000050: dae7 84bd 8c72 8a3d 70a0 473d 3efd 07be
00000060: 8fde ba3d 87a5 813d 942e c8bd 5588 0a3d
00000070: 0a7f 7ebd f7f7 b63d e116 e63c 0473 debc
00000080: 8876 f13c 9e82 35bd acd0 2c3d b1ba cd3d
00000090: 9c43 ac3d ecf1 9aba bb42 fb3c d3f9 0c3e
000000a0: c1c9 1abd 893b 5d3d 4120 093e 21f1 ce3d
000000b0: 7dde 90bd ec03 893d dabc 9a3c 5137 c6bc
000000c0: e735 9dbd 1547 453c a009 ed3c 7429 973d
000000d0: 00f7 36bc f9b3 11bc e05e b93d b9f5 e73c
000000e0: 18a6 bc3c 01b1 543c 57c3 953c da9f a5bd
000000f0: aa6a 3abc 07d8 c0bd 12dc 253d 7229 aa3d
00000100: 4114 ea3c ad09 bcbd ea2f 9a3e 9f2d 553d
00000110: 79e2 043e d267 a53d 6ebc 2c3d c07b 423b
00000120: 0f23 1f3e e881 323d eb27 f23d c015 343e
00000130: e651 fc3d 6fbf d93d 509d 6dbc 959c 033e
00000140: 90b0 5cbd b7f8 bebb df06 423d e668 6fbd
00000150: 9980 e93c c1f1 fe3c e120 ad3d 4e4b 9e3c
00000160: aab8 313d dc97 b33d faf6 fb3d c2e6 693e
00000170: c4f4 843d bc9d e83c 5f6d b63d 2ab1 dcbc
00000180: a96e f03d 01ef bc3d 44e0 873d ecca f83c
00000190: d330 a53d b8a3 e8bb 0da0 873c d4cb 513c
000001a0: d4f6 273e a4ea 87bd f9b4 aa3d cd3d 033e
000001b0: bfdb f03d 7f49 c23d d49b 66bc 4873 b43d
000001c0: 9d82 073d 984e e9bc 50e1 be3d e9bc 213e
000001d0: 5806 24bd f699 18bd dff8 e9bd 5932 b23d
000001e0: a228 02be f734 863d a1e7 b7bc 0f98 113e
000001f0: d77f 11be fc3c 92bd d247 6fbc ba15 2fbd
00000200: f17d 1cbe 7446 103e 522e 23be 01db 893c
00000210: 7fe6 81bd 6499 e93b 44ca 243e d251 57be
00000220: 816a 78be b5b6 49bd f561 c83d 4b79 2dbe
00000230: 0d5e 803d 7257 40bd 724e cb3d 5d90 4fbd
00000240: f9ff e4bd 7393 a6bd fa5d ff3c 9c31 723d
00000250: 590b b2bd 5993 b33b b9a4 98bd 7dd2 efbd
00000260: 925c 2f3b 5bb8 babc 5afb 2bbe 1369 edbd
00000270: 94ce 883d 7b2a 0dbe 3cf0 3ebe c899 ccbc
00000280: e702 803d 6d14 853a 65b1 aabd b6cf a0bd
00000290: 0577 1bbe d3cc abbc b745 afbc 5dfb 25bc
000002a0: 593f 88be 7971 b5bc 8911 863d e3ba adbd
000002b0: 0732 98bd 47ff fd3d ac31 99bd 35c6 d5bc
000002c0: ddef 71bd 41e8 4cbe 215c 8bbd 5604 44bb
000002d0: f9af 7cbd e603 2cbc 9626 76bd 3f58 8abe
000002e0: acfa 5f3d f3cf 6f3c ecd9 a8bd 7b34 13be
000002f0: 043b 913d 6365 56be a574 203d fcb8 48be
00000300: 3a43 b0bd 77dd fabd 3ba0 68bb abc9 203c
00000310: 4671 b4bd 1960 b5bd 0f62 3e3d 6f0e 24be
00000320: a028 93bc 6131 c43b 9653 6c3d b88c 28be
00000330: b817 dcbd a4d8 643c 5f8c f7bd 4e16 1b3d
00000340: 974e 373d 9160 96bc 4e35 043e ea76 26be
00000350: 48c6 0b3e 6118 4a3d a771 d7bc 105e 963c
00000360: 9b15 00be 54ba a0bd d0d7 41be 97a0 96bd
00000370: b3c8 22bc 580d a2bd d56a 87bd 337e c7bd
00000380: 1e37 bdbd 7ba8 063d a79c d9bd a230 1ebe
00000390: 2ba8 9dbd 0aff 9bbd 9ff8 a63c f7a7 c7bd
000003a0: e7ad f63d 7dc9 6fbd 6d53 c4bd 178e 163c
000003b0: bf82 90bd 6e40 2c3d 48d9 9f3c c5af 10bd
000003c0: 3d86 3ebe b2a8 5abd 960d 863d f4e1 40be
000003d0: 61fe 80bd 9f71 15be 95eb 1ebe b81f a1bc
000003e0: 242b 80bd e21f b43d 2719 9b3d 8b25 323c
000003f0: 02c9 793e b9be 5abe 352f 633d 9d79 703a
