rnns/trained_rnns/rapport/GRU_seqin16_seqout3_1layer_15epochs_60000steps_MultiStep2_batch128_Adam_lr5E-4withVAEHigh.pt (torch_old, 449022 bytes, 10 tensors)

gru_in.weight_ih_l0 f4 [372, 35]
-0.011070933 0.055208296 -0.06909526 0.14507343 0.0056020077 -0.15936868 0.036268856 0.050811507
-0.029141912 0.05787145 -0.12487375 0.03333768 -0.097601704 0.09240313 -0.03672942 -0.12589958
0.0106108785 -0.14453815 -0.0140205985 -0.0039780713 -0.15964122 0.010040384 0.08215851 0.041632526
-0.14943607 0.018998235 0.08865551 0.016866835 -0.052909367 0.16079593 0.13708906 -0.04278085
-0.013383137 0.31328818 -0.011834371 0.058984198 -0.1014613 0.0339831 0.06707462 -0.08977862
0.08319654 -0.10518449 -0.0047995457 0.13550615 0.028135974 0.09960854 0.04429655 -0.035342474
-0.12054137 -0.02890267 -0.049524706 0.121265694 0.07988204 0.022728559 -0.04807504 0.00047176945
-0.111345224 0.06406071 0.018160326 -0.0052825785 -0.13810173 -0.15885235 0.04724866 0.122232564
0.060795303 0.117381476 0.025418866 0.0704563 0.4699567 0.036984783 -0.023056384 0.077751465
-0.0411766 -0.022112727 0.088056386 0.021532902 0.12691864 0.08149656 -0.01967006 0.028350366
-0.084075674 0.092421316 0.018487003 0.10709251 0.07583894 -0.10627305 -0.14784935 -0.0069855438
-0.006508323 0.0720533 0.06627417 0.113878675 -0.085773416 -0.054533783 0.018013319 -0.07691363
0.07208969 0.06287406 -0.0870059 -0.08252278 -0.01709582 -0.057262212 0.15849316 0.25760263
-0.19895987 0.07212005 0.0048886137 -0.0053786477 -0.056255016 0.04542093 0.054838564 -0.037015922
0.04538327 0.09778809 0.07400202 0.09948833 -0.017602747 -0.015375508 0.016329799 0.04308125
0.07555757 0.048254427 -0.03384451 0.15234604 -0.04720837 0.18712302 -0.048054904 -0.012176545
-0.047742806 0.08748276 -0.08713693 -0.032545883 -0.001405432 0.08868474 -0.02518755 -0.09573981
-0.05211679 0.06280508 0.88480264 0.017476195 0.0027788198 0.0855898 0.051294643 -0.06986636
-0.13572127 -0.108919844 -0.00644805 -0.03908444 -0.07705645 -0.112488866 0.069744006 0.074712306
-0.03195909 0.03626677 0.081552535 -0.10064561 0.053595886 -0.018735565 0.05958158 -0.12040496
0.008887444 0.058917057 0.024852471 0.07027453 -0.07441586 0.078503124 -0.042796597 0.062669404
0.032819748 0.048122745 -0.07501304 -0.14707966 0.013431674 0.7882343 0.01355565 0.07011443
0.042944793 0.038062625 0.048705604 -0.05787689 0.012274902 -0.07478177 -0.03761055 0.032528315
0.021216204 0.08875052 0.11859479 -0.045251112 0.047190074 -0.012248879 0.07269929 -0.08771038
-0.06796829 -0.035576936 -0.05232082 0.025311213 0.031088255 -0.059470322 0.047765348 -0.012859965
-0.1007618 0.05242241 0.09108436 0.025944274 0.036960334 -0.028762281 -0.037783448 0.114064895
-0.093806654 0.016957736 0.03355003 -0.040832732 -0.0928917 -0.020330716 -0.106412835 -0.10290114
0.08241518 -0.081684485 0.020636868 0.12825137 0.028684938 -0.0094337035 0.11121454 0.051263843
0.030929726 -0.07955706 0.006037794 0.04282871 0.028971573 0.015463632 -0.049285766 -0.028139507
0.20406912 -0.093887195 0.14970927 -0.14310528 0.042658452 0.101529986 -0.016642852 0.055686098
0.16399027 0.011037806 -0.059644803 -0.15238257 -0.007902412 -0.058860525 0.11700053 -0.038604636
0.04047619 -0.026958214 0.02200035 0.08308849 -0.06741357 0.009304707 -0.045572642 -0.06786802
00000000: dc62 35bc 1822 623d d181 8dbd 218e 143e
00000010: 0c91 b73b 8b31 23be a78e 143d ba1f 503d
00000020: 05bb eebc 9d0a 6d3d cfbd ffbd 178d 083d
00000030: 67e3 c7bd da3d bd3d 9771 16bd d2eb 00be
00000040: 40d9 2d3c cf01 14be a7b6 65bc 7b5a 82bb
00000050: fd78 23be 6c80 243c b942 a83d de86 2a3d
00000060: c505 19be 30a2 9b3c 0591 b53d 512c 8a3c
00000070: 7eb7 58bd b0a7 243e 1361 0c3e f93a 2fbd
00000080: f244 5bbc 4f67 a03e f3e4 41bc 6a99 713d
00000090: f1ca cfbd dd31 0b3d 6b5e 893d dadd b7bd
000000a0: f362 aa3d f76a d7bd 8245 9dbb 20c2 0a3e
000000b0: 6a7d e63c 90ff cb3d 4d70 353d 45c3 10bd
000000c0: 65de f6bd 4bc5 ecbc 6bda 4abd 265a f83d
000000d0: 3299 a33d 3e31 ba3c 55ea 44bd d357 f739
000000e0: f708 e4bd 4332 833d f7c4 943c 7b19 adbb
000000f0: 8a6a 0dbe 31aa 22be d087 413d 1155 fa3d
00000100: 7f04 793d b365 f03d 3a3b d03c 654b 903d
00000110: 2a9e f03e 5b7d 173d bee0 bcbc 293c 9f3d
00000120: cba8 28bd c025 b5bc e856 b43d c565 b03c
00000130: f6f6 013e abe7 a63d 1b23 a1bc 073f e83c
00000140: de2f acbd 6347 bd3d 0e72 973c 5153 db3d
00000150: 7251 9b3d afa5 d9bd d265 17be fde6 e4bb
00000160: c543 d5bb ae90 933d c1ba 873d 3939 e93d
00000170: f9a9 afbd d15e 5fbd ab90 933c e584 9dbd
00000180: c2a3 933d 1dc4 803d 2630 b2bd b401 a9bd
00000190: 880c 8cbc c88b 6abd 084c 223e 7ee4 833e
000001a0: 23bc 4bbe adb3 933d aa30 a03b 5e3f b0bb
000001b0: a96b 66bd 4c0b 3a3d 679e 603d 029e 17bd
000001c0: cfe3 393d 1f45 c83d 5f8e 973d 8ac0 cb3d
000001d0: a333 90bc 8ee9 7bbc 12c6 853c f775 303d
000001e0: edbd 9a3d 6fa6 453d 8aa0 0abd 9a00 1c3e
000001f0: 905d 41bd 2d9d 3f3e 38d5 44bd 2280 47bc
00000200: f68d 43bd 292a b33d d974 b2bd d54e 05bd
00000210: 7936 b8ba 58a0 b53d 1f56 cebc 3c13 c4bd
00000220: 6a78 55bd f39f 803d 6d82 623f 3d2a 8f3c
00000230: dc1c 363b b449 af3d 551a 523d 1816 8fbd
00000240: 84fa 0abe 5e11 dfbd 2a4a d3bb 0117 20bd
00000250: c6cf 9dbd 9060 e6bd f2d5 8e3d c402 993d
00000260: 89e7 02bd 778c 143d 0405 a73d 491f cebd
00000270: 5c87 5b3d 547b 99bc d10b 743d e096 f6bd
00000280: a49c 113c 0353 713d 6997 cb3c 18ec 8f3d
00000290: 5867 98bd 3fc6 a03d 7c4b 2fbd d158 803d
000002a0: 006e 063d 5b1c 453d 70a0 99bd 0d9c 16be
000002b0: 8610 5c3c b9c9 493f 8418 5e3c 2798 8f3d
000002c0: e1e6 2f3d 8ee7 1b3d 877f 473d 5110 6dbd
000002d0: ac1c 493c 2f27 99bd 850d 1abd 693c 053d
000002e0: 9bcd ad3c d5c2 b53d d3e1 f23d 3b59 39bd
000002f0: 614a 413d 86af 48bc 5ee3 943d 80a1 b3bd
00000300: f532 8bbd 1fb9 11bd 5b4e 56bd 7659 cf3c
00000310: ccac fe3c 2797 73bd 99a5 433d 9ab2 52bc
00000320: 345c cebd e2b8 563d 708a ba3d 1689 d43c
00000330: b863 173d e09e ebbc d1c2 1abd db9a e93d
00000340: b41d c0bd f3ea 8a3c c26b 093d 3940 27bd
00000350: 013e bebd 9a8c a6bc f9ee d9bd d5bd d2bd
00000360: 4ac9 a83d 324a a7bd a60e a93c 5454 033e
00000370: adfc ea3c d28f 1abc 73c4 e33d 09fa 513d
00000380: 5660 fd3c d0ee a2bd b0d8 c53b 286d 2f3d
00000390: cb55 ed3c 2c5b 7d3c dfdf 49bd d384 e6bc
000003a0: 7ff7 503e ee47 c0bd 634d 193e 318a 12be
000003b0: a1ba 2e3d f4ee cf3d 9756 88bc 1b17 643d
000003c0: 11ed 273e ead7 343c 1c4e 74bd 2d0a 1cbe
000003d0: 1e79 01bc bc17 71bd f99d ef3d e51f 1ebd
000003e0: 5dca 253d 79d7 dcbc 143a b43c 4c2a aa3d
000003f0: 2010 8abd c572 183c 61aa 3abd 63fe 8abd

gru_in.weight_hh_l0 f4 [372, 124]
0.131271 -0.049074255 -0.03334633 0.07944057 -0.010149727 0.053751625 -0.001871449 0.018384445
0.091163166 0.07652955 -0.044097662 -0.06667634 0.059379123 -0.01422287 0.076308146 0.064090446
-0.012508509 0.04482742 -0.023551794 0.037483525 -0.016422248 -0.03434821 -0.04899793 -0.08031859
-0.014903202 0.040502112 0.025255036 0.07086197 0.13245036 0.1473083 0.05530058 0.0161614
0.13264678 -0.081867196 0.06516421 -0.024893941 0.031158663 -0.034808084 0.02059474 0.029255785
-0.08696908 -0.05751092 -0.06670433 0.06373248 -0.13767739 0.015130684 0.011986881 0.0033596428
-0.08124184 0.053242087 0.089657456 -0.001998607 -0.03630957 0.049096536 -0.076030925 -0.04289698
-0.07664609 0.107860245 -0.016173307 -0.08158051 -0.076131284 -0.123149954 -0.035082657 0.065444894
-0.048491005 0.008688173 0.051215522 0.08544238 0.051483333 0.013971415 -0.009125032 0.038709223
-0.011867933 0.023454566 0.06920149 0.001095065 -0.21952382 0.0947329 0.06814533 -0.12400307
-0.036829624 0.082919165 -0.024093142 0.0015201309 0.026153898 -0.098912366 -0.11144232 -0.015893018
0.021213887 -0.07107941 0.080312416 0.19575442 -0.020418966 0.12637247 0.017609688 0.012348605
-0.12878376 0.022775948 0.13791691 0.11146563 0.10950938 -0.02605757 0.050851632 0.05533415
-0.1327637 0.041141182 -0.0330386 0.05966749 0.022742352 -0.23334886 -0.041879907 -0.05166446
-0.016072802 0.0054184073 -0.0395366 0.08619325 0.050179277 0.10268717 -0.027402852 -2.1092786e-05
-0.027044758 0.045643527 -0.095757514 0.0055766064 -0.031167181 -0.009225078 0.027173247 -0.0057683964
0.024724256 -0.045660697 -0.062761106 0.14546107 -0.18125194 -0.06163651 -0.0032730266 0.10215451
-0.058803007 -0.04047542 -0.006421994 0.018306378 -0.091499425 -0.007007185 -0.07036999 -0.013504547
-0.0030534444 -0.080270186 -0.021658024 0.09218131 0.10740053 0.07408248 0.10837734 -0.0049109897
-0.060111344 0.02983837 -0.038910367 0.0951243 -0.14655618 -0.049945362 -0.07711114 0.021208365
-0.02182935 -0.06023301 -0.104826786 0.048415147 -0.08827169 -0.004500571 -0.1068495 -0.016741676
9.9603e-05 -0.10739229 0.040995218 0.040118355 0.083063446 0.037806932 0.08868523 -0.05279776
0.039599024 -0.033013772 -0.05226152 -0.02458986 0.02279226 0.03908877 0.030079186 -0.103789106
-0.13224576 -0.07057802 -0.09302111 -0.11286188 0.049800135 -0.10800361 -0.024869783 0.011414222
0.07694817 0.021710018 0.030456338 0.036019206 -0.008926379 -0.022982817 -0.103416406 -0.035724018
0.03410133 -0.10927221 0.010699008 -0.027549509 -0.0013424548 -0.1232369 0.065601066 -0.08774267
-0.022554189 0.026432041 -0.020104432 -0.010018766 -0.021508683 -0.09990642 0.032700732 -0.0029704233
-0.039360378 -0.03277383 0.09767338 0.022858182 -0.0046891198 -0.013859966 -0.10572559 0.049508598
0.07699414 -0.07276476 -0.013524287 -0.05812115 0.037661687 0.063032426 -0.1641533 0.05581704
-0.01824555 -0.020637428 0.015795896 -0.044866536 -0.034338802 0.03621762 0.020663038 -0.09818733
-0.03361499 -0.068191394 -0.0377341 -0.020382319 -0.09278025 -0.062439647 -0.058424085 -0.12819201
-0.09361668 -0.038499635 0.047238857 0.10422583 -0.13903835 -0.0071713645 0.021657407 -0.042735614
00000000: e86b 063e 1602 49bd 2996 08bd bdb1 a23d
00000010: 0a4b 26bc aa2a 5c3d 694b f5ba fa9a 963c
00000020: c1b3 ba3d 86bb 9c3d c09f 34bd 9b8d 88bd
00000030: 8637 733d 0a07 69bc 7247 9c3d da41 833d
00000040: 7df0 4cbc f59c 373d b1ef c0bc 5388 193d
00000050: f387 86bc b5b0 0cbd 0eb2 48bd 137e a4bd
00000060: 8f2c 74bc 8be5 253d a6e3 ce3c 1520 913d
00000070: 11a1 073e fdd7 163e dc82 623d ea64 843c
00000080: 8fd4 073e fda9 a7bd d074 853d 61ee cbbc
00000090: 7440 ff3c ec92 0ebd 4db6 a83c d4a9 ef3c
000000a0: d81c b2bd 9290 6bbd 489c 88bd 2d86 823d
000000b0: 4dfb 0cbe b0e6 773c 9f64 443c 742d 5c3b
000000c0: 1f62 a6bd 6014 5a3d 549e b73d 10fb 02bb
000000d0: 58b9 14bd 7319 493d 1ab6 9bbd beb4 2fbd
000000e0: a0f8 9cbd d5e5 dc3d e27d 84bc af13 a7bd
000000f0: b8ea 9bbd 0b36 fcbd d5b2 0fbd f907 863d
00000100: 819e 46bd d758 0e3c 5ec7 513d 6afc ae3d
00000110: 30e0 523d 5de8 643c 2981 15bc 908d 1e3d
00000120: b871 42bc ca23 c03c 83b9 8d3d 4988 8f3a
00000130: daca 60be 5303 c23d c78f 8b3d 52f5 fdbd
00000140: a9da 16bd 86d1 a93d fb5e c5bc 213f c73a
00000150: b340 d63c 9192 cabd df3b e4bd 1332 82bc
00000160: bfc8 ad3c 1592 91bd d67a a43d d973 483e
00000170: ad45 a7bc c967 013e 3142 903c ce51 4a3c
00000180: e4df 03be a094 ba3c 173a 0d3e 1848 e43d
00000190: 7446 e03d af76 d5bc cd49 503d 10a6 623d
000001a0: 35f3 07be a883 283d 7c53 07bd e665 743d
000001b0: 2b4e ba3c 01f3 6ebe 448a 2bbd 1d9e 53bd
000001c0: 1cab 83bc e58c b13b 21f1 21bd 1686 b03d
000001d0: c988 4d3d a74d d23d f27b e0bc 6af0 b0b7
000001e0: f88c ddbc b5f4 3a3d 841c c4bd f7bb b63b
000001f0: 5152 ffbc c824 17bc 6e9a de3c d104 bdbb
00000200: 868a ca3c b606 3bbd e588 80bd bff3 143e
00000210: 1c9a 39be 9176 7cbd 4680 56bb 6236 d13d
00000220: 6cdb 70bd 8ec9 25bd 976f d2bb 42f7 953c
00000230: 0d64 bbbd 879c e5bb 241e 90bd 2d42 5dbc
00000240: 4c1c 48bb b264 a4bd 2b6c b1bc 8ec9 bc3d
00000250: cff4 db3d 8eb8 973d f0f4 dd3d 5eec a0bb
00000260: 5037 76bd 996f f43c 7a60 1fbd 87d0 c23d
00000270: d312 16be 8293 4cbd 72ec 9dbd 2abd ad3c
00000280: 77d3 b2bc e4b6 76bd 6daf d6bd f64e 463d
00000290: cac7 b4bd 8779 93bb e9d3 dabd d725 89bc
000002a0: f4e1 d038 7df0 dbbd 9aea 273d 2553 243d
000002b0: 2b1d aa3d 71db 1a3d 9aa0 b53d 7742 58bd
000002c0: 9632 223d 7339 07bd 2d10 56bd ad70 c9bc
000002d0: d5b6 ba3c 8c1b 203d a068 f63c 628f d4bd
000002e0: 6f6b 07be 358b 90bd da81 bebd 2124 e7bd
000002f0: 3afb 4b3d ff30 ddbd b7bb cbbc b802 3b3c
00000300: 0197 9d3d 35d9 b13c 927f f93c e088 133d
00000310: f23f 12bc 7646 bcbc fbcb d3bd 5953 12bd
00000320: d6ad 0b3d 1cca dfbd e44a 2f3c 82af e1bc
00000330: 4ff5 afba a163 fcbd da59 863d 6eb2 b3bd
00000340: 90c3 b8bc 0288 d83c 0db2 a4bc c025 24bc
00000350: fa32 b0bc bd9b ccbd 34f1 053d 6fab 42bb
00000360: 5938 21bd da3d 06bd fb08 c83d 1541 bb3c
00000370: 30a7 99bb e914 63bc a886 d8bd 87c9 4a3d
00000380: 1baf 9d3d b105 95bd f994 5dbc 7110 6ebd
00000390: 2443 1a3d 2517 813d cd17 28be 69a0 643d
000003a0: b177 95bc d30f a9bc 6566 813c f9c5 37bd
000003b0: d8a6 0cbd ed58 143d 8845 a93c 7016 c9bd
000003c0: dfaf 09bd eea7 8bbd 128f 1abd d2f8 a6bc
000003d0: 9203 bebd b7c0 7fbd 184e 6fbd c444 03be
000003e0: 1aba bfbd cbb1 1dbd 887d 413d 5a74 d53d
000003f0: 1260 0ebe c4fd eabb e06a b13c 8a0b 2fbd

gru_in.bias_ih_l0 f4 [372]
0.027497472 0.024808262 -0.018055761 0.0003818062 0.004521516 0.10646121 -0.030992739 -0.05065464
0.071963936 -0.00036356278 -0.012435718 0.013298105 0.07780249 0.015708422 -0.029804252 0.037988547
-0.07802811 0.049094174 -0.02884579 0.04558404 0.030884812 -0.05301618 -0.029132836 0.057067856
0.053475976 -0.061121676 -0.056367412 -0.008277281 0.05214369 0.0044011404 0.047532547 0.038005684
-0.019489633 0.082581244 -0.0476486 0.09121469 -0.055243235 -0.0020769215 -0.089018166 -0.07391447
0.09931326 -0.09905223 -0.055566855 0.09410607 0.041676387 -0.027348999 0.025983324 0.09355337
0.00037289452 0.038773555 -0.017678937 0.00631946 0.008684814 -0.04540991 0.01258884 0.016554814
0.016403735 -0.05320243 0.104827285 0.046561223 0.11187756 -0.0016685646 0.04857438 -0.072374426
0.0221702 0.07604237 -0.066072516 0.07215418 0.0535229 0.0628987 0.13660844 -0.057360668
0.06658731 -0.09108841 -0.014625076 -0.039528005 -0.100566864 -0.047466397 0.011216956 0.013063216
-0.050501965 -0.02403175 -0.04107595 0.063362 -0.048484165 0.045842726 -0.018952107 -0.049692772
0.028295603 0.07496405 0.040993806 0.012719525 0.025897328 0.07844902 -0.032889202 0.004312378
-0.08242994 0.08726193 -0.05443902 -0.059176836 0.028215654 -0.070026875 0.041305482 0.010655827
-0.028527707 -0.050722115 0.0056877267 0.03675199 0.04397235 0.06578318 0.05975021 -0.11361327
-0.002795256 0.057764824 -0.020741923 -0.039911363 0.0706192 -0.08002458 0.0099591585 -0.041844625
0.01970215 -0.099324636 -0.042273596 0.038601015 -0.108041845 -0.10567226 -0.06036923 -0.019936409
-0.011107645 -0.07484029 0.01849174 -0.08085896 -0.07945663 0.003707291 -0.09977717 -0.08862072
-0.012198961 0.005829656 -0.03616917 -0.14266635 -0.11535471 0.025549462 -0.12637113 0.013008387
-0.033957083 -0.13779727 -0.040506646 -0.02367183 -0.03428788 -0.19381337 0.024461655 -0.033162877
-0.1183328 -0.07561766 0.026049845 -0.05994745 -0.08460436 -0.03669076 -0.15032676 -0.021987796
-0.09980737 -0.06854702 0.036884986 -0.12606297 0.0022490164 -0.19871216 0.017290607 -0.12148435
-0.054768655 0.06723936 -0.07458317 -0.057604842 -0.020050224 -0.105284914 0.007675617 -0.13215272
-0.019786429 -0.10576604 -0.030347345 -0.0828496 -0.0069795 -0.0134192165 -0.046305213 -0.12559998
-0.033593692 -0.12481474 -0.08364245 -0.036737423 0.01761441 -0.14437178 -0.026689833 0.035123453
-0.12398083 -0.004618134 0.020161163 -0.13315113 -0.06570766 -0.055963565 -0.11522239 -0.08823234
-0.11177015 -0.085130095 0.038324624 -0.09656567 -0.06311492 -0.046842806 -0.0093631055 0.010801449
0.0042616813 -0.059935946 -0.055640366 -0.11406688 -0.11098881 -0.019907782 -0.020009296 0.0008932646
-0.13690545 -0.032617304 0.05186233 -0.010647737 -0.10374168 -0.113761574 -0.09391199 -0.14337285
-0.081116475 -0.1512567 -0.061408278 -0.08085335 0.0698964 -0.12757388 -0.055308055 -0.09757174
-0.037665576 -0.11068583 -0.0260705 -0.12721184 0.022999931 0.093461536 -0.056243196 -0.008228694
0.005445284 0.007465628 -0.053289756 -0.14820465 -0.06927135 -0.09360164 -0.0014693543 -0.10701554
0.074865915 -0.031474594 -0.02985775 0.064411394 -0.0033219613 0.023665246 -0.053794984 -0.0850542
00000000: 6142 e13c b23a cb3c ade9 93bc 292d c839
00000010: 3a29 943b 5608 da3d 7ce4 fdbc 3d7b 4fbd
00000020: d461 933d 929c beb9 2fbf 4bbc 4ce0 593c
00000030: e956 9f3d f3ae 803c 0c28 f4bc e199 1b3d
00000040: 34cd 9fbd f916 493d 024e ecbc 55b6 3a3d
00000050: 2502 fd3c 7e27 59bd fca7 eebc fcbf 693d
00000060: a009 5b3d b95a 7abd 84e1 66bd 6f9d 07bc
00000070: 9f94 553d 7137 903b 7db1 423d d9ab 1b3d
00000080: b9a8 9fbc 5b20 a93d 2e2b 43bd c4ce ba3d
00000090: bb46 62bd f61c 08bb 284f b6bd 7860 97bd
000000a0: c064 cb3d e5db cabd 129a 63bd afba c03d
000000b0: dcb4 2a3d 020b e0bc fbda d43c e998 bf3d
000000c0: 0e81 c339 05d1 1e3d 6bd3 90bc 7913 cf3b
000000d0: c04a 0e3c beff 39bd 6c41 4e3c f69d 873c
000000e0: 2061 863c cbea 59bd b0af d63d fbb6 3e3d
000000f0: 1020 e53d bdb3 daba eef5 463d 0b39 94bd
00000100: 479e b53c 1abc 9b3d 0751 87bd 92c5 933d
00000110: d43a 5b3d 09d1 803d 15e3 0b3e 05f3 6abd
00000120: ed5e 883d 8f8c babd 049e 6fbc 1ee8 21bd
00000130: 00f6 cdbd 206c 42bd 53c7 373c 1907 563c
00000140: 26db 4ebd 3cde c4bc 413f 28bd f0c3 813d
00000150: 5597 46bd 95c5 3b3d 7341 9bbc a68a 4bbd
00000160: 2ecc e73c c086 993d 1fe9 273d 8e65 503c
00000170: a226 d43c e1a9 a03d d4b6 06bd d94e 8d3b
00000180: 07d1 a8bd 62b6 b23d 73fb 5ebd 6963 72bd
00000190: 8424 e73c 406a 8fbd f02f 293d c795 2e3c
000001a0: f0b2 e9bc fec1 4fbd 1c60 ba3b 4189 163d
000001b0: 5a1c 343d 55b9 863d a3bc 743d 13ae e8bd
000001c0: 9d30 37bb cf9a 6c3d f7ea a9bc 197a 23bd
000001d0: cda0 903d ede3 a3bd bd2b 233c 4565 2bbd
000001e0: 6766 a13c b76a cbbd 1427 2dbd 191c 1e3d
000001f0: 0b45 ddbd b36a d8bd ba45 77bd ae51 a3bc
00000200: d7fc 35bc de45 99bd fd7b 973c 6299 a5bd
00000210: 28ba a2bd 06f6 723b f957 ccbd c87e b5bd
00000220: 27de 47bc b306 bf3b 2026 14bd 2117 12be
00000230: 173f ecbd 1b4d d13c 6f67 01be 2121 553c
00000240: 9516 0bbd ba1a 0dbe 4cea 25bd 6deb c1bc
00000250: 7371 0cbd 0377 46be cf63 c83c ccd5 07bd
00000260: 7858 f2bd 6fdd 9abd 7c66 d53c 758b 75bd
00000270: 0d45 adbd 0d49 16bd 42ef 19be c01f b4bc
00000280: ce67 ccbd 6162 8cbd b614 173d a716 01be
00000290: 3c64 133b 337b 4bbe 08a5 8d3c c9cc f8bd
000002a0: 1955 60bd cab4 893d 10bf 98bd 0ef3 6bbd
000002b0: 5e40 a4bc 9e9f d7bd be83 fb3b 0b53 07be
000002c0: 2617 a2bc de9b d8bd ff9a f8bc 0dad a9bd
000002d0: 4ab4 e4bb 46dc 5bbc 89aa 3dbd 489d 00be
000002e0: 8a99 09bd df9e ffbd bc4c abbd fb79 16bd
000002f0: 184c 903c 32d6 13be a3a4 dabc 9cdd 0f3d
00000300: a9e9 fdbd b753 97bb 0629 a53c c558 08be
00000310: bd91 86bd 0d3a 65bd b7f9 ebbd 28b3 b4bd
00000320: c0e7 e4bd b058 aebd 48fa 1c3d 39c4 c5bd
00000330: 6542 81bd 3ede 3fbd b667 19bc 90f8 303c
00000340: 93a5 8b3b 657f 75bd 27e7 63bd e59b e9bd
00000350: 1a4e e3bd a515 a3bc 89ea a3bc f929 6a3a
00000360: f130 0cbe b999 05bd 986d 543d d973 2ebc
00000370: 8576 d4bd d4fb e8bd ee54 c0bd 55d0 12be
00000380: 6520 a6bd 09e3 1abe 3f87 7bbd 7196 a5bd
00000390: d825 8f3d baa2 02be b38a 62bd b1d3 c7bd
000003a0: 3847 1abd 41af e2bd cd91 d5bc d243 02be
000003b0: 5a6a bc3c c368 bf3d 445f 66bd a5d1 06bc
000003c0: 5a6e b23b 3aa2 f43b 5c46 5abd f6c2 17be
000003d0: 23de 8dbd 37b2 bfbd 5997 c0ba f72a dbbd
000003e0: 4d53 993d 81eb 00bd 3d98 f4bc 1fea 833d
000003f0: 43b5 59bb 9edd c13c 2158 5cbd e530 aebd

gru_in.bias_hh_l0 f4 [372]
-0.06533954 0.056955054 0.018168468 0.05725976 0.04204136 -0.000902266 0.0057462477 0.021061935
0.001990848 -0.034417253 0.10907514 -0.012025754 0.015995953 0.06392769 0.048457615 0.0078032296
-0.012946598 0.008489101 0.064398386 -0.065553114 0.023862777 -0.015024199 0.002475205 0.013660076
0.08248597 0.013676881 -0.017121892 -0.027628098 -0.055584278 0.07468073 -0.06019872 0.051420853
0.01982604 -0.033273127 -0.04291483 0.11483841 0.04826218 -0.037741628 -0.067702025 0.028040543
0.06220253 -0.07502571 0.0721407 0.026242964 -0.023632653 0.08477076 -0.08722226 0.07916137
-0.034137215 -0.049382746 -0.08474839 -0.09126264 -0.0007071674 -0.0063623325 0.029008817 0.039567422
-0.06977911 -0.0019107712 -0.011301691 -0.011760616 0.09850318 0.043254472 -0.030195177 -0.058000423
0.08858001 0.067171946 -0.039993808 0.0947426 0.025151154 -0.0065447316 0.1027449 -0.03836306
0.029675141 0.0027363761 -0.0889224 0.067488424 -0.06489871 0.05430252 0.047002144 0.04553224
-0.042112473 -0.04357441 -0.02686354 0.09725852 -0.027320992 -0.012236914 0.0076486017 -0.018823009
-0.098943956 0.092776775 -0.018361414 0.014577319 -0.039681952 -0.030903177 0.108592615 -0.04644773
-0.036606714 0.021820638 0.0675675 -0.06404575 -0.07078274 0.039159007 0.044806987 -0.0947035
-0.0017199586 -0.04073879 0.08497257 -0.05922513 -0.066675596 -0.005854721 -0.035976138 0.00533552
-0.009675272 0.056719415 0.06544327 -0.065409094 -0.0765027 0.028299881 0.06928131 -0.02777039
0.04268939 0.044307273 0.051883977 -0.09544141 -0.092663355 0.03433713 0.0132360915 -0.097266726
-0.13222572 -0.056264896 -0.06118502 -0.08775216 -0.054195896 -0.11060953 -0.008443976 -0.021565344
0.042601883 -0.041622125 -0.14587778 -0.12319585 -0.10452556 0.019483745 -0.10803184 -0.024976294
0.013046998 -0.13081017 -0.12790436 -0.12165387 -0.12528305 -0.070226595 0.0016009287 -0.0030564372
-0.07531416 -0.028510071 -0.05057471 0.01922584 -0.08834876 0.004456111 -0.039879564 -0.037676897
0.038263224 -0.119450636 -0.12152203 0.0169916 0.06762959 -0.03694021 -0.005622243 -0.12962168
-0.104642235 -0.084889084 -0.11821008 -0.05604573 -0.11252102 -0.006917786 -0.14219393 -0.044203985
-0.15999697 -0.09864077 -0.008373472 -0.083132215 -0.1365553 0.02872425 -0.104221635 -0.00036453802
0.016574085 -0.024049683 0.0058840197 0.00050049176 -0.007518711 0.0014593989 -0.18731156 -0.017335521
-0.02331223 -0.028737994 -0.024972342 -0.074597225 -0.028749254 -0.054915812 -0.029374493 -0.0072599263
-0.08303213 -0.038280856 -0.02519921 -0.13710411 0.00060758396 -0.1021006 -0.11755411 -0.016560182
-0.100482546 0.013773072 -0.13693908 -0.18538529 0.0031486792 -0.033614833 -0.05936984 -0.019112226
-0.06508527 -0.023296524 -0.048955247 -0.004009113 0.03186894 -0.051683206 -0.057293758 -0.079314984
0.021291418 -0.09878941 -0.11618713 -0.11228639 0.08123019 -0.03796866 -0.072060145 -0.04917794
-0.069061145 -0.111277886 -0.0712342 -0.122828275 -0.12090491 0.047462493 -0.14362353 0.00079651084
-0.12129856 -0.1488312 -0.021320209 -0.15134975 -0.062282436 -0.14845662 -0.06939209 -0.04055909
0.06179216 0.09275843 -0.031399027 0.030244958 -0.058100287 0.09915771 -0.032437183 0.0069079944
00000000: bdd0 85bd b449 693d 0ad6 943c 3689 6a3d
00000010: 9033 2c3d 0c86 6cba 054b bc3b 148a ac3c
00000020: e378 023b 1bf9 0cbd c962 df3d ab07 45bc
00000030: f209 833c 85ec 823d 7e7b 463d 3cb2 ff3b
00000040: f81d 54bc df15 0b3c 4de3 833d b640 86bd
00000050: df7b c33c 0f28 76bc 0d37 223b 83ce 5f3c
00000060: 67ee a83d ff14 603c 3643 8cbc 5254 e2bc
00000070: 57ac 63bd 36f2 983d ef92 76bd ac9e 523d
00000080: 386a a23c 6749 08bd 76c7 2fbd 6630 eb3d
00000090: 90ae 453d f796 1abd 5ca7 8abd 48b5 e53c
000000a0: 15c8 7e3d 14a7 99bd 81be 933d 7cfb d63c
000000b0: 4499 c1bc 4b9c ad3d 96a1 b2bd 5b1f a23d
000000c0: 77d3 0bbd 9045 4abd 9090 adbd e8e7 babd
000000d0: 3361 39ba 1d7b d0bb e6a3 ed3c 7311 223d
000000e0: 5ae8 8ebd d872 faba ba2a 39bc 99af 40bc
000000f0: 09bc c93d 9a2b 313d e05b f7bc da91 6dbd
00000100: 7069 b53d 7291 893d 8cd0 23bd 6908 c23d
00000110: cb09 ce3c 3075 d6bb eb6b d23d 9622 1dbd
00000120: 4819 f33c c654 333b f21c b6bd 5f37 8a3d
00000130: 9de9 84bd 526c 5e3d 5285 403d 0480 3a3d
00000140: 217e 2cbd 157b 32bd ed10 dcbc 7a2f c73d
00000150: 46d0 dfbc 567d 48bc 1fa1 fa3b b632 9abc
00000160: 21a3 cabd c001 be3d ad6a 96bc b5d5 6e3c
00000170: 8b89 22bd a928 fdbc ce65 de3d fa3f 3ebd
00000180: ecf0 15bd 32c1 b23c d460 8a3d 6b2a 83bd
00000190: 8bf6 90bd 3265 203d 8887 373d e9f3 c1bd
000001a0: 3c70 e1ba b8dd 26bd 1906 ae3d 0d96 72bd
000001b0: 378d 88bd f6d8 bfbb b75b 13bd 96d5 ae3b
000001c0: 0885 1ebc 9e52 683d 1f07 863d 34f5 85bd
000001d0: 73ad 9cbd 27d5 e73c 5ce3 8d3d bb7e e3bc
000001e0: 12db 2e3d 8b7b 353d 4b84 543d c976 c3bd
000001f0: 49c6 bdbd 17a5 0c3d 31dc 583c c733 c7bd
00000200: 2e66 07be 0576 66bd 259d 7abd 68b7 b3bd
00000210: 84fc 5dbd 4087 e2bd 9a58 0abc cea9 b0bc
00000220: 507f 2e3d f67b 2abd fc60 15be 1b4e fcbd
00000230: 7f11 d6bd 609c 9f3c cc3f ddbd 169b ccbc
00000240: 13c3 553c 1af3 05be 5cf9 02be aa25 f9bd
00000250: 334a 00be f6d2 8fbd 41d6 d13a 824e 48bb
00000260: 4f3e 9abd f48d e9bc 6d27 4fbd 827f 9d3c
00000270: 32f0 b4bd 9204 923b c158 23bd 1753 1abd
00000280: e6b9 1c3d 89a2 f4bd 8be0 f8bd f831 8b3c
00000290: 6281 8a3d 9e4e 17bd cb3a b8bb 8cbb 04be
000002a0: ab4e d6bd 54da adbd 2018 f2bd 3590 65bd
000002b0: 6c71 e6bd 98ae e2bb 499b 11be 3d0f 35bd
000002c0: 3fd6 23be 2c04 cabd e330 09bc 3941 aabd
000002d0: 27d5 0bbe 1e4f eb3c 2772 d5bd 771f bfb9
000002e0: 60c6 873c d703 c5bc bcce c03b 6f33 033a
000002f0: 855f f6bb 4d49 bf3a 9ace 3fbe 3903 8ebc
00000300: 4af9 bebc f16b ebbc cc92 ccbc 6ec6 98bd
00000310: 8e83 ebbc 67ef 60bd c7a2 f0bc ade4 edbb
00000320: c00c aabd 63cc 1cbd 936e cebc 0565 0cbe
00000330: 4546 1f3a 1f1a d1bd 36c0 f0bd 38a9 87bc
00000340: cbc9 cdbd 73a8 613c c239 0cbe a4d5 3dbe
00000350: 125a 4e3b b5af 09bd ca2d 73bd 3e91 9cbc
00000360: 6d4b 85bd 5ad8 bebc 4c85 48bd e15e 83bb
00000370: 0189 023d c5b1 53bd dcac 6abd e56f a2bd
00000380: 576b ae3c 1a52 cabd 85f3 edbd 68f6 e5bd
00000390: 045c a63d 0785 1bbd 4594 93bd cf6e 49bd
000003a0: ee6f 8dbd a9e5 e3bd 3ce3 91bd 648d fbbd
000003b0: fe9c f7bd 0868 423d 0c12 13be f0cc 503a
000003c0: 616b f8bd 3567 18be b8a7 aebc 6efb 1abe
000003d0: de1b 7fbd 0305 18be 711d 8ebd 4a21 26bd
000003e0: c719 7d3d 22f8 bd3d 449c 00bd 46c4 f73c
000003f0: 91fa 6dbd 3313 cb3d dadc 04bd 755c e23b

gru_out.weight_ih_l0 f4 [372, 3]
0.03454583 -0.09976491 -0.05839555 -0.01907362 -0.03485135 0.050475717 -0.031835344 -0.0037437913
0.03640892 -0.039147757 -0.063715756 0.011591706 0.021252818 -0.033499002 -0.04984411 -0.037449226
0.0054280455 0.026079739 -0.033880625 -0.11969655 0.12629938 -0.122796275 0.0020242943 0.025612729
0.032997653 -0.051096793 -0.1564556 0.084995896 0.06177018 0.0011813593 0.0026519662 -0.12037328
0.030426892 -0.017044097 0.10198411 0.062285133 0.05494715 -0.06934724 0.038293682 0.034422733
0.018052122 0.07066734 0.01606555 0.08710737 0.11510318 -0.024005929 -0.0064660627 -0.049286485
0.051690746 0.07871658 0.0535066 0.00041477967 -0.05594935 -0.007271488 -0.0181672 0.055060886
0.015719686 0.031905085 0.05253085 0.026822198 0.0012955636 -0.03546389 -0.0017372422 -0.10924575
-0.050591726 0.04976674 -0.051900942 0.07695362 -0.07019878 0.03181136 -0.05756391 0.023772389
0.012751282 -0.10592943 0.029952768 0.020580918 -0.035915837 -0.0058626016 0.009933234 -0.071843535
-0.017292244 0.026539883 0.17471 0.07531808 -0.009724778 0.0031621247 0.058535438 -0.01834489
0.07667654 0.09799547 -0.01615585 -0.087258466 -0.06774603 0.036883634 0.12116302 0.0011347206
-0.06655533 0.12066835 -0.032366376 0.04820185 0.008604773 0.020683063 -0.012504918 0.08644215
-0.0385423 -0.0050205803 0.02062118 -0.05452637 -0.0067723976 0.007928209 0.066819996 0.03077765
0.007692327 0.025559535 0.017120667 -0.045614585 0.082152866 0.05964319 -0.01698084 -0.016746609
-0.028636808 0.014620014 -0.024767976 -0.06581797 0.09309865 0.031237107 0.102832116 0.0035306064
-0.13019826 -0.04792429 0.0041431263 -0.035078205 -0.00057744846 -0.027552588 0.0094350595 0.06214445
-0.022840515 -0.013137553 -0.055708054 0.06039235 -0.04721743 0.081987254 -0.116875835 0.023845265
-0.04516229 -0.034078173 0.051911857 -0.08263171 -0.09232933 0.039202828 -0.06566404 0.08042004
0.039978825 -0.06299723 -0.08398825 -0.06523655 -0.023593714 0.1428124 0.028816286 0.027123952
0.028334156 0.0150206 -0.041472416 -0.014145372 -0.059563704 0.018110324 -0.028536523 -0.06086319
0.0038760994 -0.058711402 0.10236432 -0.031085826 0.057128504 -0.0069549005 -0.0788325 -0.06475187
0.047349434 0.00030280076 0.029272482 -0.08374069 0.00873329 -0.053354874 0.0023249371 0.081715725
0.050042465 0.0017836376 -0.057471495 0.02537606 0.0033403696 0.0062260777 -0.06322432 0.0095487395
0.0034814347 -0.097097225 -0.00093253166 0.06434898 0.00987278 -0.039197456 0.025976378 0.014434679
0.05765398 0.08834287 0.024766393 -0.03632455 0.01922673 -0.0056953127 0.018177686 -0.074734546
-0.036737468 -0.052900057 -0.0010160429 0.017582547 -0.0869453 -0.09990415 0.035855778 -0.027113155
-0.04450143 0.06997927 -0.032846645 0.036335185 -0.10150736 0.09175032 -0.021176714 0.044986516
-0.054419883 0.017551601 0.03636577 -0.02652347 0.109920524 -0.023488196 -0.032057714 -0.04366461
-0.022192724 -0.05876843 0.0043502934 0.004917493 0.012359771 0.013147706 0.026640214 0.054534636
-0.034163386 0.061702657 0.06796266 0.035767913 0.002689522 -0.040705666 -0.036873944 -0.013555538
2.975838e-05 -0.05514633 0.019260967 0.02121264 -0.006709793 -0.035014056 0.01162226 0.022178037
00000000: ee7f 0d3d 8c51 ccbd 2c30 6fbd 4840 9cbc
00000010: 4ac0 0ebd a0bf 4e3d c765 02bd 655a 75bb
00000020: 8521 153d 6659 20bd 687d 82bd 24eb 3d3c
00000030: 641a ae3c 4036 09bd 5629 4cbd 5c64 19bd
00000040: bfdd b13b 2da5 d53c 69c6 0abd 7723 f5bd
00000050: a054 013e 9d7c fbbd 06aa 043b c9d1 d13c
00000060: 8c28 073d df4a 51bd e635 20be 5412 ae3d
00000070: ba02 7d3d d7d7 9a3a 9ccc 2d3b 4486 f6bd
00000080: d141 f93c 10a0 8bbc 0cdd d03d b21e 7f3d
00000090: 4310 613d ed05 8ebd d6d9 1c3d dafe 0c3d
000000a0: 0be2 933c 0aba 903d e69b 833c 5965 b23d
000000b0: 37bb eb3d 15a8 c4bc 44e1 d3bb a0e0 49bd
000000c0: adb9 533d 2936 a13d bd29 5b3d c976 d939
000000d0: 252b 65bd aa45 eebb 61d3 94bc 8687 613d
000000e0: 92c6 803c e8ae 023d 972a 573d 3aba db3c
000000f0: e7cf a93a 9542 11bd 2db4 e3ba 3cbc dfbd
00000100: 4539 4fbd 36d8 4b3d 1596 54bd dc99 9d3d
00000110: 61c4 8fbd a14c 023d 22c8 6bbd 50be c23c
00000120: c1ea 503c 87f1 d8bd 825f f53c 5099 a83c
00000130: 7c1c 13bd 111b c0bb 01bf 223c b422 93bd
00000140: 77a8 8dbc 2b6a d93c 2ee7 323e 5e40 9a3d
00000150: ad54 1fbc a63b 4f3b dbc2 6f3d 0648 96bc
00000160: 9708 9d3d d9b1 c83d 4659 84bc 91b4 b2bd
00000170: 6ebe 8abd 4b13 173d 5124 f83d e8ba 943a
00000180: 294e 88bd f820 f73d 9b92 04bd 4e6f 453d
00000190: 09fb 0c3c 876f a93c 6de1 4cbc 9508 b13d
000001a0: 88de 1dbd ae83 a4bb c0ed a83c 0b57 5fbd
000001b0: fdea ddbb 52e5 013c ecd8 883d 6921 fc3c
000001c0: ea0f fc3b 3b62 d13c a440 8c3c 5cd6 3abd
000001d0: c33f a83d 6b4c 743d 671b 8bbc 2f30 89bc
000001e0: bd97 eabc c888 6f3c 36e6 cabc 92cb 86bd
000001f0: 81aa be3d f6e4 ff3c a599 d23d bf61 673b
00000200: b152 05be 434c 44bd 10c3 873b 2aae 0fbd
00000210: e95f 17ba f7b5 e1bc 8295 1a3c 2e8b 7e3d
00000220: 081c bbbc e43e 57bc 212e 64bd f85d 773d
00000230: 1067 41bd efe8 a73d 995c efbd 2557 c33c
00000240: 18fc 38bd 8e95 0bbd 87a1 543d d03a a9bd
00000250: 2917 bdbd 2593 203d de7a 86bd 43b3 a43d
00000260: d6c0 233d b104 81bd 0802 acbd be9a 85bd
00000270: 9b47 c1bc 6a3d 123e 2210 ec3c 0d33 de3c
00000280: 081d e83c f618 763c fbde 29bd fec1 67bc
00000290: 12f9 73bd 1a5c 943c 6dc5 e9bc ae4b 79bd
000002a0: 2806 7e3b 5e7b 70bd 62a4 d13d b4a7 febc
000002b0: 94ff 693d efe5 e3bb ef72 a1bd a19c 84bd
000002c0: 7bf1 413d 3bc1 9e39 d8cc ef3c 3d80 abbd
000002d0: 1316 0f3c a48a 5abd f95d 183b 935a a73d
000002e0: 54f9 4c3d f2c8 e93a 3b67 6bbd 74e1 cf3c
000002f0: 1aea 5a3b 2004 cc3b c17b 81bd 5172 1c3c
00000300: c828 643b e9da c6bd 2475 74ba 66c9 833d
00000310: 71c1 213c 838d 20bd 6acc d43c 6f7f 6c3c
00000320: 9426 6c3d 1bed b43d e4e2 ca3c 0dc9 14bd
00000330: 6081 9d3c bf9f babb 5fe9 943c 6d0e 99bd
00000340: 077a 16bd bbad 58bd be2c 85ba 4609 903c
00000350: 6110 b2bd 8c9a ccbd 82dd 123d 681c debc
00000360: 2247 36bd 4b51 8f3d 348a 06bd 34d4 143d
00000370: 17e3 cfbd 97e7 bb3d ca7a adbc c843 383d
00000380: 62e7 5ebd 60c8 8f3c 46f4 143d c047 d9bc
00000390: 031e e13d 516a c0bc f34e 03bd a9d9 32bd
000003a0: 84cd b5bc 2ab7 70bd e88c 8e3b ec22 a13b
000003b0: a380 4a3c 7a69 573c 943c da3c b65f 5f3d
000003c0: e8ee 0bbd edbb 7c3d 0230 8b3d 6081 123d
000003d0: b142 303b fcba 26bd 2209 17bd 0c18 5ebc
000003e0: a2a1 f937 1ee1 61bd 2dc9 9d3c 21c6 ad3c
000003f0: d3dd dbbb e66a 0fbd 4b6b 3e3c b7ae b53c

gru_out.weight_hh_l0 f4 [372, 124]
0.16791627 0.14199768 -0.1530704 0.033952393 -0.16807213 0.102218665 0.10826512 0.051811066
0.036555223 0.066294774 0.06162752 -0.050632652 -0.06727199 0.057423778 -0.04701434 0.018000478
0.09078164 0.23666681 -0.06228486 0.06425122 -0.06747601 0.09359339 -0.16171186 -0.038659174
0.0636689 0.0059439153 -0.017329743 0.08657603 0.08467171 -0.13782805 -0.07054845 -0.111443125
0.18342586 0.03448103 0.11021726 0.22507727 -0.12360619 -0.032277957 0.11323155 0.006023332
0.09666722 0.031477164 0.120174035 -0.08506001 -0.11290357 0.055108275 0.19773968 0.12593928
-0.15808196 0.015231464 -0.07905043 0.039480444 0.024645917 -0.2030218 0.030553801 -0.15919179
0.061819773 0.03600464 0.045317013 -0.0016486606 0.03454343 0.13354348 0.079004474 -0.01794193
-0.019626861 0.054320034 0.010512577 0.22879444 -0.06784974 0.09036977 -0.05014844 -0.17270665
-0.083178066 0.123874135 -0.023211291 0.08301387 -0.13137509 -0.010004603 0.094156325 0.081464574
0.025851144 0.07513392 0.026679976 0.04596229 0.120921955 -0.088023864 0.06814178 0.089233495
0.012620462 0.0035472633 -0.16661023 -0.001355283 0.13930593 0.13061257 -0.05990783 -0.13839515
-0.030537385 0.12713856 0.09853832 0.0038028937 -0.11799603 0.09757815 0.0032442806 -0.06560513
-0.09448845 -0.15558235 0.08639326 -0.08072403 0.08839438 -0.0020010164 0.0849966 0.026758192
-0.033838734 -0.09844932 0.045998264 -0.058629613 -0.007989088 0.15645202 0.0019399605 0.24505898
0.10448289 0.10179508 -0.035879783 -0.0013126344 0.00860105 0.12330875 -0.093292594 -0.016001826
0.00862884 0.026503632 0.006787671 -0.09632252 0.14790906 0.008498862 0.07213891 -0.07135149
-0.03769139 0.008320004 -0.18084505 -0.0061465576 0.057078633 0.11270952 0.15421057 0.05640234
-0.091147184 -0.052294638 -0.057608623 -0.12734205 -0.14392182 -0.15527707 -0.055843815 0.09074362
0.077781595 0.029269172 -0.09385576 0.13350095 0.18485533 0.08011444 0.10742514 0.017557569
-0.15431416 -0.040231317 0.06432673 0.102835685 0.12609409 0.109677814 0.058062352 -0.13797234
-0.1297417 0.13201989 0.053590294 0.081163645 -0.0476016 0.01852271 -0.057856973 0.05636899
-0.059225198 -0.0146613745 0.082727656 -0.12897651 -0.06849295 0.13325034 0.051653113 0.01688865
-0.04399774 0.06467784 0.04787339 -0.018569814 0.026939237 -0.1243006 0.09195233 0.030799132
-0.15217263 0.009479217 -0.20127282 0.06658984 0.069721855 -0.03501503 0.0025561438 0.0907732
-0.0019733554 -0.07990016 0.05892208 -0.014095205 0.008449129 0.14618091 -0.023805955 0.14011773
0.09017524 -0.037147243 0.079516344 0.015593912 0.0844134 0.022476442 -0.16225296 -0.13740249
0.112985395 0.034598462 -0.09796648 -0.061415352 0.057990544 0.036052506 0.10973665 -0.05989681
-0.12408542 0.10247584 0.064357616 -0.049607642 -0.0637902 0.08462828 0.07693543 -0.10311249
0.13363968 -0.073806316 0.07922529 0.0915056 0.150512 -0.123657316 0.05128054 0.1277287
-0.030964276 0.042661317 0.04025336 0.18423676 0.00071352086 -0.0054200827 0.024671862 -0.12227079
-0.062484004 0.20479286 -0.064961895 -0.08984601 -0.12620056 0.12126217 0.04175195 0.050387695
00000000: 3ef2 2b3e d767 113e 7dbe 1cbe aa11 0b3d
00000010: 1a1b 2cbe 0558 d13d 1aba dd3d d737 543d
00000020: eeba 153d 8ec5 873d 236d 7c3d 2f64 4fbd
00000030: e6c5 89bd 3235 6b3d 1c92 40bd bd75 933c
00000040: b9eb b93d c958 723e 691e 7fbd 2596 833d
00000050: dd30 8abd e4ad bf3d cb97 25be 1559 1ebd
00000060: d764 823d 2dc5 c23b 1bf7 8dbc c64e b13d
00000070: 5d68 ad3d cc22 0dbe b57b 90bd 4b3c e4bd
00000080: fdd3 3b3e fb3b 0d3d 96b9 e13d a87a 663e
00000090: 3e25 fdbd e435 04bd f1e5 e73d 5f5f c53b
000000a0: 77f9 c53d 33ee 003d ce1d f63d f133 aebd
000000b0: fd39 e7bd 37b9 613d 457c 4a3e 3af6 003e
000000c0: 3de0 21be 648d 793c 31e5 a1bd 3fb6 213d
000000d0: 3ce6 c93c f2e4 4fbe f74b fa3c 2c03 23be
000000e0: bb36 7d3d 9a79 133d 559e 393d df17 d8ba
000000f0: 697d 0d3d 9fbf 083e 19cd a13d f4fa 92bc
00000100: 83c8 a0bc af7e 5e3d f23c 2c3c 1749 6a3e
00000110: cef4 8abd c913 b93d 7368 4dbd 03da 30be
00000120: 4359 aabd b9b1 fd3d 9b25 bebc 2d03 aa3d
00000130: 3187 06be 59ea 23bc 08d5 c03d e6d6 a63d
00000140: c7c5 d33c d0df 993d f78f da3c f442 3c3d
00000150: eea5 f73d db45 b4bd eb8d 8b3d 0dc0 b63d
00000160: 0ec6 4e3c 3479 683b df9b 2abe c0a3 b1ba
00000170: 37a6 0e3e 4dbf 053e ea61 75bd 75b7 0dbe
00000180: 8a29 fabc 9c30 023e 75ce c93d f839 793b
00000190: e7a7 f1bd 0ed7 c73d ff9d 543b fb5b 86bd
000001a0: 2983 c1bd fb50 1fbe f3ee b03d a452 a5bd
000001b0: 1d08 b53d 7c23 03bb b312 ae3d ff33 db3c
000001c0: 7c9a 0abd cc9f c9bd ad68 3c3d 9b25 70bd
000001d0: aae4 02bc f534 203e 4646 fe3a bef0 7a3e
000001e0: 20fb d53d f079 d03d aef6 12bd b40c acba
000001f0: 6beb 0c3c 4c89 fc3d 3010 bfbd 4316 83bc
00000200: fa5f 0d3c 251e d93c 1c6b de3b be44 c5bd
00000210: 7975 173e d03e 0b3c 91bd 933d bb20 92bd
00000220: 4962 1abd a050 083c 722f 39be 1069 c9bb
00000230: 49cb 693d 40d4 e63d 60e9 1d3e 2406 673d
00000240: 60ab babd e732 56bd 05f7 6bbd f465 02be
00000250: 3e60 13be f400 1fbe 7cbc 64bd cbd7 b93d
00000260: f54b 9f3d e7c5 ef3c 7337 c0bd 79b4 083e
00000270: b74a 3d3e 0a13 a43d b601 dc3d e4d4 8f3c
00000280: 8804 1ebe 98c9 24bd bcbd 833d 849b d23d
00000290: cf1e 013e c39e e03d cad2 6d3d 9f48 0dbe
000002a0: 02db 04be 3930 073e 7f81 5b3d 2039 a63d
000002b0: e5f9 42bd f0bc 973c 6ffb 6cbd 2ce3 663d
000002c0: 1f96 72bd 4336 70bc 1e6d a93d 6b12 04be
000002d0: 0846 8cbd c772 083e 3792 533d 115a 8a3c
000002e0: f936 34bd d175 843d e316 443d b91f 98bc
000002f0: adaf dc3c 5091 febd 8151 bc3d 764e fc3c
00000300: 24d3 1bbe b84e 1b3c 761a 4ebe 4160 883d
00000310: 55ca 8e3d ec6b 0fbd fa84 273b 4de7 b93d
00000320: 6953 01bb b2a2 a3bd 4758 713d 93ef 66bc
00000330: 376e 0a3c 73b0 153e b504 c3bc 067b 0f3e
00000340: ccad b83d b527 18bd 77d9 a23d 9c7d 7f3c
00000350: efe0 ac3d 8420 b83c a425 26be 3db3 0cbe
00000360: e364 e73d 1eb7 0d3d a6a2 c8bd aa8e 7bbd
00000370: 7e87 6d3d cbab 133d 9cbd e03d 5c56 75bd
00000380: 7f20 febd dade d13d edcd 833d 6231 4bbd
00000390: 70a4 82bd 9751 ad3d 5390 9d3d a42c d3bd
000003a0: d7d8 083e c427 97bd de40 a23d 4a67 bb3d
000003b0: d11f 1a3e 0c40 fdbd 8b0b 523d 50cb 023e
000003c0: cba8 fdbc a2bd 2e3d b5e0 243d 90a8 3c3e
000003d0: 930b 3b3a f39a b1bb a51c ca3c 1c69 fabd
000003e0: 3aef 7fbd 38b5 513e be0a 85bd 2f01 b8bd
000003f0: b83a 01be 4d58 f83d 1804 2b3d 5463 4e3d

gru_out.bias_ih_l0 f4 [372]
0.10015704 0.123777784 0.04372771 0.11984285 0.06352283 0.03783423 0.023006668 0.03907721
0.08192602 0.01815034 0.056946915 -0.030911073 0.13737293 -0.039325804 0.05241861 0.06983665
0.02665722 -0.06801784 0.012214347 0.11573076 0.020301834 -0.023550658 0.03787924 -0.0060759187
0.08611074 0.0989504 -0.06663171 0.10998119 0.1122143 0.15286137 0.0075796745 0.067120835
0.11083399 -0.030614493 0.06833295 0.12357702 0.021899274 -0.027986761 0.1401626 0.031816456
0.086968794 -0.056126807 0.0272634 -0.02559498 -0.07544706 0.021032233 -0.019872457 0.11477358
-0.041954998 0.10516471 0.05019383 0.13813506 0.08297985 0.09705394 0.050048772 0.08180529
-0.05045472 0.11077816 0.01617926 0.068831526 -0.0126086045 0.03946412 0.10113334 0.016315779
-0.026468445 -0.002793424 0.010978831 -0.0004812404 0.084720425 0.017582474 -0.028555723 0.020027911
0.06330415 0.040637713 -0.011174909 0.07363138 0.072734684 0.039318357 0.02775169 -0.011556163
0.09504896 0.11370257 -0.04385141 0.0559928 0.042990528 0.07522424 0.056230903 -0.061394196
0.121474855 0.019304624 0.02109636 0.028247166 -0.038852714 0.14745332 0.008182978 0.0009453183
0.06487095 0.10024162 0.017754102 0.07729072 -0.08530292 0.11003422 0.07594698 -0.052063953
0.10062307 0.120707884 0.031135485 0.10256025 0.03766486 0.10148833 0.09414256 0.037008435
-0.031674325 0.023608508 0.06699811 0.15231493 -0.045557577 0.16794229 -0.023521837 0.043197017
0.0810861 -0.076137096 0.04212155 0.08642867 0.050403863 0.04207054 -0.11814827 0.013706848
-0.07463319 0.1333956 -0.09335272 0.025963722 0.010530367 0.037029717 -0.061253194 -0.08970846
-0.028469753 -0.05930115 -0.020722007 0.06507022 -0.04665915 -0.02408462 0.021364253 -0.005545269
-0.09326493 0.11074792 -0.09698426 -0.09617069 -0.07074467 -0.09366587 -0.055592667 0.12552936
-0.0139648635 -0.07178794 -0.06080537 -0.09769732 0.062401496 -0.011453544 0.0006720142 0.036901936
-0.117926225 -0.059578773 0.11557292 0.10072698 -0.016534038 0.030830061 -0.06724425 -0.11180065
-0.11986995 0.02435444 -0.061026976 -0.048002396 -0.017849563 0.05670925 -0.033229817 0.0017815767
-0.077749066 -0.105300635 0.022584977 -0.070743576 -0.079936184 0.061987303 -0.020754093 0.08443288
-0.13830383 0.0032039995 0.03656102 0.033719894 -0.06642277 -0.056501005 -0.07261644 0.12459515
0.004955814 -0.07263028 -0.007535515 0.10601364 0.07319799 -0.09248906 0.06983111 -0.04254688
-0.08401883 0.1032952 -0.0752919 0.039151818 -0.04799329 -0.09314795 -0.079515204 0.055498954
-0.10812494 0.026730057 -0.12272281 -0.060782336 -0.04614594 0.00970243 0.021842422 -0.022190407
-0.023671784 0.05022438 -0.066914916 -0.11857355 0.041909907 0.017085455 0.01407761 -0.05266884
-0.10421533 -0.01328172 -0.06687925 -0.052920483 -0.04833997 -0.12606163 -0.11179093 -0.1933187
0.015925484 -0.03303681 -0.016324567 -0.055402018 -0.09047867 0.06822078 0.0043770727 -0.012616782
0.027625898 -0.048723876 -0.024374608 0.047841292 -0.08451492 -0.08036306 -0.10330966 0.009292733
-0.07734842 0.102008104 -0.05479502 -0.07992458 -0.09163719 -0.027601494 -0.12977616 -0.09377088
00000000: 221f cd3d 357f fd3d d41b 333d 2b70 f53d
00000010: 4218 823d 11f8 1a3d 7b78 bc3c 6d0f 203d
00000020: d4c8 a73d 06b0 943c 2b41 693d 3839 fdbc
00000030: 7dab 0c3e 1814 21bd e5b4 563d 8406 8f3d
00000040: 3e60 da3c f04c 8bbd af1e 483c 4004 ed3d
00000050: 0850 a63c 4fed c0bc 4327 1b3d 8018 c7bb
00000060: d45a b03d 82a6 ca3d 3576 88bd d13d e13d
00000070: 9cd0 e53d b187 1c3e eb5e f83b a676 893d
00000080: eefc e23d 3fcb fabc 25f2 8b3d f315 fd3d
00000090: 1b66 b33c 7e44 e5bc c986 0f3e f951 023d
000000a0: b21c b23d 39e5 65bd 7e57 df3c 90ac d1bc
000000b0: fd83 9abd ca4b ac3c 90cb a2bc 690e eb3d
000000c0: 01d9 2bbd 9860 d73d 0c98 4d3d 4773 0d3e
000000d0: 57f1 a93d 37c4 c63d f1ff 4c3d 8889 a73d
000000e0: 9ca9 4ebd a9df e23d 5e8a 843c 8bf7 8c3d
000000f0: 5294 4ebc 21a5 213d ff1e cf3d aba8 853c
00000100: 5ad4 d8bc e111 37bb 8ee0 333c fe4e fcb9
00000110: e781 ad3d 1f09 903c b1ed e9bc 9311 a43c
00000120: 9ba5 813d bb73 263d f716 37bc 0dcc 963d
00000130: ecf5 943d 490c 213d 8357 e33c 1056 3dbc
00000140: 07a9 c23d e5dc e83d 899d 33bd b558 653d
00000150: d616 303d 2b0f 9a3d 6052 663d 7b78 7bbd
00000160: cfc7 f83d bb24 9e3c 46d2 ac3c 9a66 e73c
00000170: 0624 1fbd 01fe 163e e611 063c 3dcf 773a
00000180: 10db 843d 7a4b cd3d 0d71 913c 994a 9e3d
00000190: 4cb3 aebd 9f59 e13d 178a 9b3d 0341 55bd
000001a0: 7813 ce3d b235 f73d d80f ff3c 1c0b d23d
000001b0: 7846 1a3d 1dd9 cf3d d1cd c03d 2896 173d
000001c0: f0bc 01bd a166 c13c 4e36 893d 72f8 1b3e
000001d0: 959a 3abd 10f9 2b3e deb0 c0bc 5bef 303d
000001e0: 7810 a63d c4ed 9bbd a587 2c3d 8401 b13d
000001f0: 4874 4e3d 2952 2c3d b8f7 f1bd b092 603c
00000200: 49d9 98bd db98 083e b62f bfbd dfb1 d43c
00000210: 8f87 2c3c 79ac 173d a1e4 7abd 12b9 b7bd
00000220: 6639 e9bc c3e5 72bd 33c1 a9bc 8943 853d
00000230: aa1d 3fbd 1c4d c5bc 1604 af3c 17b5 b5bb
00000240: af01 bfbd cecf e23d af9f c6bd 24f5 c4bd
00000250: 95e2 90bd e4d3 bfbd 23b5 63bd c58a 003e
00000260: e2cc 64bc 8e05 93bd 0d0f 79bd 8815 c8bd
00000270: b698 7f3d a5a7 3bbc 1c2a 303a 7c26 173d
00000280: 4e83 f1bd df08 74bd 7fb1 ec3d f249 ce3d
00000290: 6472 87bc 538f fc3c 5ab7 89bd bdf7 e4bd
000002a0: 607e f5bd f682 c73c 6cf7 79bd 299e 44bd
000002b0: 3f39 92bc f547 683d fd1b 08bd cb83 e93a
000002c0: e73a 9fbd dca7 d7bd 2104 b93c 02e2 90bd
000002d0: 95b5 a3bd 66e6 7d3d 7d04 aabc 25eb ac3d
000002e0: 859f 0dbe 31fa 513b 02c1 153d df1d 0a3d
000002f0: a908 88bd 996d 67bd eeb7 94bd be2b ff3d
00000300: 6264 a23b 2fbf 94bd 7bec f6bb ae1d d93d
00000310: d4e8 953d e76a bdbd 9d03 8f3d a345 2ebd
00000320: 1012 acbd 6f8c d33d a432 9abd a85d 203d
00000330: 9d94 44bd 5ac4 bebd ded8 a2bd df52 633d
00000340: 9c70 ddbd fef8 da3c 1956 fbbd e6f6 78bd
00000350: 8603 3dbd f1f6 1e3c e1ee b23c a8c8 b5bc
00000360: 54eb c1bc 14b8 4d3d b00a 89bd b0d6 f2bd
00000370: b9a9 2b3d ccf6 8b3c c7a5 663c 48bb 57bd
00000380: d96e d5bd 929b 59bc fdf7 88bd 26c3 58bd
00000390: 2200 46bd 4d16 01be a5f2 e4bd 56f5 45be
000003a0: 2976 823c 9b51 07bd 19bb 85bc 3aed 62bd
000003b0: e24c b9bd 56b7 8b3d 8c6d 8f3b 9fb6 4ebc
000003c0: b54f e23c b092 47bd 42ad c7bc 3bf5 433d
000003d0: 2916 adbd 6395 a4bd 0494 d3bd 8c40 183c
000003e0: d968 9ebd a0e9 d03d be70 60bd 80af a3bd
000003f0: 47ac bbbd 871c e2bc 0be4 04be f20a c0bd
