rnns/trained_rnns/rapport/GRU_seqin16_seqout1_1layer_21epochs_60000steps_MultiStep2_batch32_Adam_lr5E-4.pt (torch_old, 449022 bytes, 10 tensors)

gru_in.weight_ih_l0 f4 [372, 35]
0	0xbdd06e30	-0.101772666
1	0xbe3a14c5	-0.18171985
2	0x3e01771c	0.12643093
3	0xbde17376	-0.110083506
4	0xbbd3b396	-0.0064606173
5	0xbe05344c	-0.13008231
6	0xbdb79ecd	-0.08965836
7	0x3d3cddec	0.04611008
8	0xbc6d5f69	-0.01448808
9	0xbd4bc911	-0.0497523
10	0xbd874ba5	-0.06606225
11	0x3d12989f	0.035790082
12	0xbe2064d0	-0.15663457
13	0x3d537d8c	0.051633403
14	0x3dda8648	0.10670143
15	0xbe136dbb	-0.14397328
16	0x3dcaf85d	0.09910653
17	0x3e2e16a1	0.1700082
18	0x3d003d67	0.031308558
19	0x3d561794	0.05226858
20	0x3e0d4c5c	0.1379866
21	0x3cf2bb0b	0.029630205
22	0xbd558b9d	-0.0521351
23	0x3c822bef	0.01589009
24	0xbd0ff39c	-0.035144433
25	0x3cc7fa40	0.02441132
26	0xbe664628	-0.224877
27	0x3e88c30f	0.26711318
28	0xbd1cf53f	-0.038319822
29	0x3c9827c8	0.018573657
30	0x3d9724a2	0.07380034
31	0x3dd94adb	0.10609981
32	0xbcec69b3	-0.028858995
33	0x3f7742b2	0.96586144
34	0xbd004ab4	-0.031321242
35	0x3e74b53b	0.23897259
36	0x3e245bf2	0.160507
37	0xbd27ea36	-0.040994845
38	0xbda73544	-0.081644565
39	0x3c6e87c0	0.0145587325
40	0xbd85ac35	-0.065269865
41	0x3ccfbab3	0.02535758
42	0x3e2a64f1	0.16640069
43	0x3d6be59a	0.057592012
44	0xbd2a5191	-0.041581694
45	0x3d032dd5	0.03202613
46	0x3cff5d1f	0.031172333
47	0xbe18d9c6	-0.14926824
48	0x3d2fb626	0.04289832
49	0x3d9363dc	0.07196781
50	0x3e0481ff	0.12940215
51	0xbc8e3334	-0.0173584
52	0x3c0e0948	0.008669205
53	0x3e2b4265	0.16724546
54	0xbddeda33	-0.10881462
55	0x3e134a81	0.1438389
56	0x3cc76127	0.024338318
57	0xbe3afd07	-0.18260585
58	0x3d5c6e26	0.053815983
59	0xbddaea25	-0.10689191
60	0x3e0b190e	0.13583776
61	0xbda7ccd8	-0.08193368
62	0xbc760143	-0.015014949
63	0x3ebe0b4f	0.37118003
64	0x3df76754	0.12080255
65	0x3cac1422	0.021005694
66	0xbe647f20	-0.2231412
67	0xbdae63be	-0.08515118
68	0x3cc85c30	0.02445802
69	0xbd0bb57c	-0.034108624
70	0x3ddf6302	0.10907556
71	0x3d866cfe	0.06563757
72	0xbb2f60bc	-0.002676054
73	0xbd995415	-0.074867405
74	0x3db78aef	0.08962046
75	0xbb7427b0	-0.00372551
76	0xbd99b464	-0.0750511
77	0xbd6a7745	-0.05724265
78	0x3b845e4d	0.004039562
79	0x3dbe0479	0.09278197
80	0x3dd2dddf	0.10296225
81	0x3d55717a	0.052110173
82	0x3d9adb8b	0.07561406
83	0x3e072b1a	0.13200036
84	0x3d2c8ec3	0.042128336
85	0x3d22421a	0.03961382
86	0x3da26d2d	0.0793098
87	0x3dbca7a3	0.09211662
88	0x3e6c097b	0.23050492
89	0x3ce4e224	0.027939864
90	0x3bc661dc	0.006054146
91	0xbe03fac5	-0.1288863
92	0x3b8ed4b4	0.0043588523
93	0x3cf8362c	0.030299269
94	0x3dfe0cd0	0.124047875
95	0x3d90aabc	0.07063815
96	0x3e6169ff	0.2201309
97	0x3e396a49	0.18106951
98	0x3eb75dec	0.35813844
99	0x3d54a4f5	0.051915128
100	0x3e15dbed	0.14634676
101	0x3bd76566	0.006573367
102	0x3d07a050	0.03311187
103	0xbf12ec83	-0.5739214
104	0x3e37111e	0.17877623
105	0x3c39d7dc	0.011342969
106	0xbd9b7a1b	-0.07591649
107	0xbd98eadf	-0.07466673
108	0xbe311406	-0.17292795
109	0xbdbaed05	-0.09127239
110	0xbe495072	-0.19659594
111	0xbd8a0563	-0.06739309
112	0x3ce7b1fd	0.028283114
113	0x3dc0bd2d	0.094110824
114	0x3e2d22ad	0.16907759
115	0x3e2f55ea	0.17122617
116	0xbc867035	-0.016410926
117	0x3dd20828	0.10255462
118	0x3d85f24e	0.065403566
119	0x3ea8caff	0.32967374
120	0x3daf2fd8	0.08554047
121	0x3b248dfc	0.0025109043
122	0x3dc3d558	0.095621765
123	0xbc851f3d	-0.016250247
124	0x3d955006	0.07290654
125	0x3e2660b5	0.16247828
126	0x3e4ab1df	0.19794415
127	0x3e60ae93	0.21941595
128	0xbe01e729	-0.12685837
129	0xbcf9c46a	-0.030489165
130	0xbd9ac587	-0.075572066
131	0x3e2cabfe	0.16862485
132	0x3e3902da	0.18067494
133	0xbc46c479	-0.012131804
134	0x3e398f55	0.18121083
135	0xbc992933	-0.018696403
136	0x3dd57ece	0.10424577
137	0x3d2fd884	0.042931095
138	0xbe48d67a	-0.19613066
139	0x3d58dac1	0.052942995
140	0xbd8b335a	-0.06796904
141	0xbdb620a6	-0.08892946
142	0x3b936249	0.0044978005
143	0x3bda953a	0.006670621
144	0x3d04c487	0.032413986
145	0xbd990927	-0.07472449
146	0xbc9ec941	-0.019383075
147	0x3d79dd55	0.061002094
148	0x3cfebfa1	0.031097235
149	0x3e19afa8	0.15008414
150	0xbd605089	-0.054764304
151	0x3da01c24	0.078178674
152	0xbc481c5a	-0.012213791
153	0xbd622e0d	-0.0552197
154	0x3d9d429b	0.076787196
155	0xbd88d642	-0.066814914
156	0xbd8b1b45	-0.067923106
157	0xbb9d7c6b	-0.0048060915
158	0xbb210e8a	-0.0024575316
159	0xbcea97cc	-0.028636836
160	0xbc2f3f39	-0.010696226
161	0x3dd33044	0.1031194
162	0x3d6d655c	0.057957992
163	0x3d4dda6f	0.050257143
164	0xbd35f5f2	-0.044424005
165	0x3db39dc7	0.08770328
166	0xbc9e8190	-0.01934889
167	0x3d34cf7a	0.044143178
168	0x3dc6509b	0.09683343
169	0x3def4765	0.11683539
170	0xbd596187	-0.053071525
171	0xbc63ee5f	-0.013911813
172	0x3cb17346	0.021661412
173	0x3f2b75eb	0.66976804
174	0xbd207191	-0.039170805
175	0x3c8d40e2	0.017242853
176	0x3c495da4	0.012290392
177	0xbcb518b5	-0.022106508
178	0x3d157241	0.036485914
179	0xbcb1ba20	-0.021695197
180	0x3d983db1	0.07433642
181	0xbbae8c2b	-0.005326768
182	0x3deef71d	0.11668227
183	0xbb72f501	-0.0037072303
184	0x3d5d8598	0.054082483
185	0xbd1c6945	-0.03818633
186	0x3d258bd2	0.040416546
187	0x3d9e7d71	0.0773877
188	0x3da8b5e0	0.08237815
189	0xbde3b8d9	-0.11119241
190	0x3d928bdb	0.071555816
191	0x3aadd0b2	0.0013261049
192	0x3d12e085	0.03585865
193	0x3d8f3449	0.069923945
194	0x3de7ca74	0.11317912
195	0xbd133921	-0.035943154
196	0x3cfbaddb	0.03072255
197	0x3d8a7acd	0.06761704
198	0x3df46816	0.11933915
199	0xbd07d350	-0.033160508
200	0xbdc73a9e	-0.09727977
201	0xbda1a5b3	-0.07892933
202	0x3cab0131	0.020874592
203	0x3be43b59	0.0069650826
204	0xbd9f8cf9	-0.0779056
205	0xbd8f048d	-0.0698329
206	0x3dc6794a	0.09691103
207	0x3a879ec3	0.0010346997
208	0xbda4a295	-0.080388226
209	0xbdd3ff44	-0.103514224
210	0xbd098aa9	-0.033579502
211	0x3b5f1bfb	0.0034043777
212	0x3e36a101	0.17834856
213	0xbe11d443	-0.14241128
214	0x3e39645a	0.18104687
215	0x3d881f84	0.06646636
216	0xbdc40a14	-0.09572235
217	0xbd2b7d84	-0.041867748
218	0xbdc9c8fe	-0.09852789
219	0xbe3d9522	-0.18513921
220	0xbdba14a3	-0.090859674
221	0xbc031349	-0.008000203
222	0xbe2dbf90	-0.16967607
223	0x3dfc3cd6	0.12316291
224	0xbdc03322	-0.09384753
225	0xbd228857	-0.039680805
226	0x3d1eab62	0.038737662
227	0x3da4197e	0.08012675
228	0xbd83afda	-0.064300254
229	0x3d88d62a	0.066814736
230	0x3d79c8fc	0.06098269
231	0xbd4b8392	-0.049686022
232	0xbea073dd	-0.31338397
233	0x3d2b3c36	0.04180547
234	0xbdeb977b	-0.11503502
235	0x3d0cfc7f	0.034420487
236	0xbe154418	-0.14576757
237	0x3e2219ee	0.15830204
238	0x3d4540fd	0.04815768
239	0xbe1f0332	-0.15528563
240	0x3ca6b770	0.020351142
241	0x3cc76107	0.024338258
242	0x3b815448	0.0039468147
243	0x3da7c487	0.081917815
244	0xbee68f2d	-0.4503111
245	0x3d90a6db	0.07063075
246	0xbd42ab92	-0.047526903
247	0xbeb21027	-0.34777948
248	0x3d9ca0f2	0.076478854
249	0x3dbf36e8	0.093366444
250	0x3e0d8721	0.13821079
251	0xbcf9745c	-0.030450992
252	0xbe120f13	-0.14263563
253	0xbde7fff8	-0.11328119
254	0xbd0c0920	-0.03418839
255	0xbdb8005c	-0.089844435

gru_in.weight_hh_l0 f4 [372, 124]
0	0xbdaeaf17	-0.085294895
1	0x3ce5b8c9	0.028042214
2	0xbd4b016d	-0.049561907
3	0x3baf456a	0.005348851
4	0xbc669fd2	-0.01407619
5	0xbd378897	-0.044807997
6	0xbd94026a	-0.07227023
7	0x3e321a48	0.17392838
8	0xbd34a740	-0.044104815
9	0x3d0e03d3	0.034671616
10	0x3cc4c4ce	0.024019625
11	0xbdd048ee	-0.1017016
12	0x3b3362d7	0.0027372146
13	0x3d63a2f1	0.055575315
14	0x3db0ef16	0.08639352
15	0xbd0b1f84	-0.033965603
16	0x3d9a5a96	0.07536809
17	0xbdb9bed4	-0.09069601
18	0xbdd23642	-0.10264255
19	0xbd40feee	-0.04711812
20	0xbd65a3ca	-0.056064405
21	0x3d2e72bf	0.0425899
22	0x3ce03cf1	0.02737281
23	0xbcacf554	-0.021113075
24	0x3dd02bba	0.1016459
25	0x3e279f3e	0.1636934
26	0x3d9dc1b8	0.077029645
27	0xbd59194d	-0.053002644
28	0x3c20be95	0.009811063
29	0x3d8c40c9	0.06848294
30	0x3d3354dd	0.043782104
31	0x3d30ffa6	0.043212555
32	0x3cc1ea9c	0.02367144
33	0xbdd8ba81	-0.10582448
34	0xbdd1deaf	-0.10247552
35	0x3b98c3e7	0.0046620253
36	0x3da8f0a4	0.082490236
37	0x3bfdd42b	0.0077462397
38	0xbb815525	-0.0039469176
39	0xbd0b3513	-0.033986162
40	0x3a23346f	0.000622577
41	0x3c813d02	0.015776161
42	0xbd09fb99	-0.033687208
43	0xbd92d28b	-0.07169064
44	0x3dbe1d92	0.09282984
45	0x3dad3b73	0.08458605
46	0x3d37e1c2	0.044893034
47	0x3d240de2	0.040052302
48	0xbd1f9876	-0.038963757
49	0x3e50ed44	0.2040301
50	0xbc4eea10	-0.012629047
51	0xbc1e807a	-0.009674186
52	0xbdf9edd9	-0.12203569
53	0x3ce6d077	0.028175576
54	0xbb78bc02	-0.0037953858
55	0xbd5c1ee4	-0.053740397
56	0xbd97053c	-0.07374045
57	0xbc0d8c98	-0.008639477
58	0xbb9e1bd7	-0.004825096
59	0xbcd7f2a2	-0.026360814
60	0x3cced56b	0.02524825
61	0xbd7b7e46	-0.06139972
62	0xbdaf39fe	-0.08555983
63	0x3d5e059a	0.05420456
64	0x3d047e2a	0.032346882
65	0xbd97d883	-0.07414343
66	0x3e0bc0e9	0.13647808
67	0xbbee4418	-0.007271301
68	0xbca31d39	-0.019911395
69	0xbd8c86dc	-0.0686166
70	0x3d8a79f6	0.067615435
71	0xbc953820	-0.018215239
72	0xbe0b891c	-0.13626522
73	0xbdfcf30f	-0.12351047
74	0xbd11c1e4	-0.0355853
75	0xbded066e	-0.11573492
76	0xbbe014f6	-0.0068384362
77	0x3ca64f0b	0.020301362
78	0x3c177178	0.009243362
79	0xbc81c4e1	-0.01584095
80	0xbd76eba4	-0.06028332
81	0x3d3b2244	0.045686975
82	0xbd6e2671	-0.05814213
83	0xbd7fb36c	-0.06242697
84	0xbd80f9e0	-0.0629766
85	0x3db4e36d	0.088324405
86	0x3d2a0579	0.041509125
87	0xbb74281e	-0.0037255357
88	0xbd801868	-0.06254655
89	0x3d733015	0.059372026
90	0x3def2fc8	0.116790354
91	0xbccdc93c	-0.02512037
92	0x3d0eca0b	0.034860652
93	0x3d1c355f	0.038136836
94	0xbd7b6a02	-0.061380394
95	0xb8960a87	-7.154518e-05
96	0x3ce86f96	0.02837352
97	0xbdbbef3f	-0.09176492
98	0xbc2c2619	-0.01050713
99	0xbe190e46	-0.14946851
100	0x3e59fe35	0.21288379
101	0x3d932e5e	0.07186578
102	0xbca88ddd	-0.020575458
103	0xba4bcab0	-0.0007774038
104	0xbddb54db	-0.10709544
105	0xbc98a0e9	-0.018631415
106	0xbcd15cae	-0.025556888
107	0x3d51d600	0.051229477
108	0xbd76d00d	-0.060257006
109	0xbd5a1e43	-0.053251516
110	0x3d9b25f3	0.075755976
111	0xbcd4d78b	-0.025981685
112	0xbd8107c9	-0.06300313
113	0x3d1e955e	0.038716666
114	0xbd897dcf	-0.06713449
115	0xbcc826b1	-0.024432512
116	0x3d977ec0	0.073972225
117	0xbd46ed49	-0.048566137
118	0x3cb1862f	0.021670429
119	0x3c32004b	0.010864328
120	0x3bcfe4ca	0.0063444125
121	0x3ce34f18	0.027747676
122	0xbca81c03	-0.02052117
123	0x3e3d6136	0.18494114
124	0x3dbd5436	0.092445776
125	0x3c548de7	0.012973285
126	0x3df174dc	0.11789867
127	0xbd8181de	-0.06323598
128	0x3da16e13	0.07882323
129	0xbd9dc350	-0.077032685
130	0x3e32c3b2	0.17457464
131	0x3e021d39	0.1270646
132	0xbe27be55	-0.163812
133	0xbe2518b9	-0.16122712
134	0xbde20f0c	-0.11038026
135	0x3df53af2	0.119741336
136	0x3c767e8e	0.015044821
137	0xbc69b46e	-0.014264209
138	0xbe187ffe	-0.14892575
139	0x3e164111	0.14673258
140	0x3df9d63b	0.12199064
141	0xbdad6f6e	-0.08468519
142	0x3caaa662	0.02083129
143	0x3ca1d339	0.01975404
144	0x3da38db6	0.079860136
145	0x3ccdbb84	0.025113828
146	0x3e3eb1b1	0.18622471
147	0x3e185e04	0.14879614
148	0xbd333bc5	-0.043758173
149	0xbde11202	-0.10989763
150	0x3dba26d4	0.09089437
151	0x3dbaee19	0.09127445
152	0x3bc7c066	0.0060959337
153	0x3dd54dda	0.1041524
154	0xbdda8fe0	-0.10671973
155	0x3da345e7	0.07972317
156	0x3d50dc7c	0.05099152
157	0xbe2ed3d2	-0.1707299
158	0xbca57875	-0.02019904
159	0x3d1671e9	0.036729727
160	0xbdd9217d	-0.106020905
161	0xbd3758b6	-0.044762336
162	0x3da7ae17	0.08187502
163	0x3d67b800	0.05657196
164	0x3e21286a	0.15738073
165	0xbcf92f97	-0.0304182
166	0xbd416e9d	-0.04722463
167	0xbd821079	-0.06350798
168	0xbd959140	-0.07303095
169	0x3ddf0fd9	0.108916946
170	0x3db5af9f	0.08871388
171	0xbd2a0635	-0.041509826
172	0x3b1d2282	0.0023976867
173	0x3e09e9d3	0.13468103
174	0x3cbdfa51	0.02319065
175	0xbbd93a28	-0.006629247
176	0x3d35cf2a	0.04438702
177	0xbdec19a4	-0.11528328
178	0xbdc09706	-0.094038054
179	0x3da3aac6	0.07991557
180	0x3c859f2b	0.016311249
181	0xbc62d58b	-0.013844858
182	0xbdab7be8	-0.083732426
183	0xbd50c6b9	-0.050970767
184	0x3cb310e5	0.021858642
185	0xbdc912aa	-0.09818013
186	0xbb92f0d9	-0.0044842777
187	0xbe1f7ea9	-0.15575661
188	0xbe0a44eb	-0.13502853
189	0xbc89ae46	-0.016806733
190	0x3dbf5566	0.0934246
191	0x3c0a7279	0.008450144
192	0xbdb35cc3	-0.08757927
193	0x3dec3312	0.115331784
194	0xbce73921	-0.028225483
195	0xbd307461	-0.043079738
196	0xbd58d2ff	-0.052935597
197	0x3d068b91	0.032847945
198	0xbd33ad92	-0.0438667
199	0x3ae21362	0.0017248208
200	0xbd698dd9	-0.057020042
201	0x3dcbd227	0.09952193
202	0xbd867a6f	-0.06566321
203	0xbd4c8c4b	-0.04993848
204	0xbcf00656	-0.029299896
205	0xbdb2cc19	-0.08730335
206	0xbdabea3c	-0.08394286
207	0x3d24a833	0.04019947
208	0x3dad5c9a	0.08464928
209	0xbc366abd	-0.011133847
210	0x3b8da69c	0.00432284
211	0x3d9f6248	0.077824175
212	0xbd347456	-0.04405626
213	0x3dbb53ac	0.091468185
214	0x3c32f807	0.010923392
215	0x3d095be8	0.033534914
216	0x3d96730c	0.07346162
217	0xbb835dd1	-0.0040089865
218	0xbc6993af	-0.014256402
219	0xbd9f9ccb	-0.07793578
220	0xbd55263c	-0.052038416
221	0x3c304537	0.01075869
222	0x3d09f9bc	0.03368543
223	0xbde8bb76	-0.1136388
224	0xbd97b4a6	-0.07407503
225	0x3dcb2c81	0.09920598
226	0xbd12fc58	-0.035885185
227	0x3da29d23	0.07940128
228	0xbcaf48fe	-0.02139711
229	0x3d9b68c4	0.07588342
230	0x3df1a833	0.117996596
231	0xbd0df2f8	-0.03465554
232	0xbddddf50	-0.10833609
233	0xbe03ad42	-0.12859061
234	0x3d1acb60	0.03779161
235	0x3d59df55	0.0531915
236	0xbcea8afc	-0.028630726
237	0x3d1604ba	0.0366256
238	0xbda53fac	-0.08068785
239	0xba978974	-0.001156135
240	0xbd2a68ec	-0.041603968
241	0x3d0e1474	0.034687474
242	0x3e44e4c6	0.19227895
243	0x3dfbee9b	0.1230137
244	0x3b98220b	0.00464273
245	0x3cd2b4bd	0.025720948
246	0xbdf74ec1	-0.12075568
247	0xbd2a1e0d	-0.041532565
248	0x3d3a76cb	0.045523446
249	0xbe106a46	-0.1410304
250	0xbe47e8bd	-0.19522376
251	0xbc4a4bab	-0.012347142
252	0xbc87f876	-0.016597968
253	0x3cef438c	0.029207014
254	0x3ea0b1ed	0.31385747
255	0x3d377b4e	0.044795327

gru_in.bias_ih_l0 f4 [372]
0	0x3c551950	0.013006523
1	0xbd47552a	-0.048665203
2	0xbd979c50	-0.07402861
3	0xbdad86fd	-0.084730126
4	0xbcb765fa	-0.022387493
5	0x3dd89cb4	0.10576764
6	0xbd0cbb30	-0.034358203
7	0xbcd5fa7f	-0.026120422
8	0xbdcb94e8	-0.09940511
9	0x3cbd8531	0.0231348
10	0x3cf6438f	0.030061511
11	0xbd8ec20e	-0.06970607
12	0xbb373554	-0.002795537
13	0x3c53d600	0.01292944
14	0xbddc7548	-0.10764557
15	0x3cf0965b	0.02936857
16	0x3ccffa6c	0.025387965
17	0x3dacc8fa	0.08436771
18	0xbd9fff8d	-0.07812414
19	0xbcbefe57	-0.023314638
20	0x3d848b4e	0.06471883
21	0x3daf9b26	0.08574514
22	0x3c93e8b1	0.018055292
23	0x3c47fdd6	0.012206515
24	0x3db36a74	0.08760539
25	0x3d10f9eb	0.03539459
26	0xbd72d57e	-0.059285633
27	0xbcbf72c7	-0.02337016
28	0x3dcf33e0	0.10117316
29	0x3dab5285	0.08365349
30	0xbd559b45	-0.05215003
31	0x3da96ef1	0.082731135
32	0xbd3c15f0	-0.04591936
33	0x3ba707a9	0.0050973487
34	0xbd7223e6	-0.059116267
35	0x3cefb66b	0.029261788
36	0xbc480fdf	-0.012210815
37	0xbd1b2734	-0.037879184
38	0x3d7e013d	0.0620129
39	0xbcc083a5	-0.023500273
40	0xbd94c7b0	-0.0726465
41	0xbce51ccc	-0.027967833
42	0x3dbadab0	0.091237426
43	0xbca3933f	-0.019967673
44	0xbd364125	-0.04449572
45	0xbd82b4a1	-0.063821085
46	0xbdaea6d6	-0.08527915
47	0x3cdcc29d	0.026948268
48	0x3da37d33	0.07982864
49	0xbdc0098b	-0.0937682
50	0x3cf228ff	0.029560564
51	0xbdcebea8	-0.100949585
52	0xbdb56ca5	-0.08858613
53	0x3d00de63	0.031462085
54	0xbc0acac8	-0.008471198
55	0x3dbd62d9	0.09247369
56	0xbcf4d1f6	-0.029885273
57	0xbc92358c	-0.017847799
58	0x3cdbc0dd	0.026825363
59	0x3d334f02	0.04377652
60	0xbdf4ce71	-0.11953438
61	0x3ceacbc8	0.028661624
62	0x3c8f981e	0.01752859
63	0xbde11e71	-0.10992134
64	0x3d982e81	0.07430745
65	0x3d1e9653	0.03871758
66	0xbc8bbcd5	-0.017057816
67	0x3d520f48	0.051284105
68	0xbd8d9d84	-0.06914809
69	0xbd151fca	-0.03640727
70	0x39a8afa5	0.00032174322
71	0xbd340d10	-0.04395777
72	0xbb631dae	-0.0034655142
73	0x3d56f61b	0.0524808
74	0xbd30d95f	-0.04317605
75	0x3dbbba17	0.09166353
76	0xbb49b4a9	-0.0030777848
77	0x3d9ee4cd	0.07758484
78	0xbd34fd43	-0.04418684
79	0x3dc2119c	0.09476015
80	0xbcdd4b90	-0.02701357
81	0xbcc9bb74	-0.024625517
82	0x3d4fd786	0.05074265
83	0x3d68f7a4	0.056876794
84	0xbd008f17	-0.03138646
85	0xbd78b278	-0.060717076
86	0x3cb8ef02	0.022574905
87	0xbd4a0183	-0.049317848
88	0xbdfdff4a	-0.12402208
89	0xbd509c61	-0.050930385
90	0xbdef055d	-0.11670945
91	0x3d80f618	0.06296939
92	0xbdae01bd	-0.08496425
93	0xbb4323c6	-0.0029775961
94	0x3da00d0e	0.0781499
95	0x3cb7f639	0.022456275
96	0x3d52bebc	0.05145143
97	0xbd1124a5	-0.035435338
98	0xbcb0ba60	-0.021573246
99	0x3d2a919f	0.04164278
100	0x3dc199a9	0.094531365
101	0xbbdb91a1	-0.00670071
102	0xbdda0e64	-0.10647276
103	0xbb38adb5	-0.002817971
104	0xba25487f	-0.0006305053
105	0xbd54a599	-0.05191574
106	0xbd2e5f8b	-0.042571586
107	0x3d086dab	0.033307713
108	0x3c8cbd24	0.017180033
109	0xbd447fb6	-0.047973357
110	0xbdf4adc0	-0.11947203
111	0x3cbeca42	0.023289803
112	0x3c946529	0.018114643
113	0xbdf88183	-0.121340774
114	0x3c622fc9	0.013805338
115	0xbd785ec1	-0.06063724
116	0xbda8d8e3	-0.08244493
117	0xbd25daca	-0.040491857
118	0xbd8e3f45	-0.069456615
119	0xbc4fefa0	-0.012691408
120	0x3ab280a2	0.0013618658
121	0xbd0420b9	-0.03225777
122	0xbcd10841	-0.025516631
123	0xbd459d05	-0.04824545
124	0xbdd30eb0	-0.10305536
125	0xbd1c070e	-0.038092665
126	0x3bac4ee7	0.0052584293
127	0xbe0fe059	-0.14050426
128	0xbd97edc6	-0.074183986
129	0xbd9b2f8d	-0.07577429
130	0xbdaee628	-0.085399926
131	0xbcefc1bc	-0.029267184
132	0xbd184f19	-0.03718481
133	0xbdda4286	-0.106572196
134	0x3ca1c729	0.019748287
135	0xbc3fd89f	-0.011709361
136	0xbe369fc9	-0.1783439
137	0xbdb9128f	-0.09036743
138	0xbddcaf83	-0.10775664
139	0x3bd32c8e	0.0064445203
140	0x3d6e66dc	0.058203563
141	0xbdb43a57	-0.0880019
142	0xbde9db8e	-0.1141883
143	0xbd3a6254	-0.04550393
144	0xbca36120	-0.019943774
145	0xbe07a918	-0.13248098
146	0xba88c0a2	-0.0010433386
147	0xbe1b09d1	-0.15140463
148	0xbde7b22f	-0.11313283
149	0xbd71bb81	-0.05901671
150	0xbe3ce9c8	-0.18448555
151	0xbe17226c	-0.14759225
152	0x3b2f2385	0.0026724052
153	0xbe1c4dad	-0.15264006
154	0xbdd54256	-0.10413043
155	0xbd7d4639	-0.061834548
156	0xbda889cd	-0.082294084
157	0xbdf8083e	-0.12110947
158	0xbe114a64	-0.14188534
159	0xbda61bc1	-0.081107624
160	0xbcecf12e	-0.028923597
161	0x3d482fa2	0.04887355
162	0xbc430b12	-0.011904495
163	0x3c818567	0.015810682
164	0xbe2e2c5c	-0.1700911
165	0xbd02c20a	-0.03192333
166	0xbe04dbc9	-0.12974466
167	0xbc666d0f	-0.0140640875
168	0xbe024a6b	-0.127237
169	0xbdc1ddfb	-0.094661675
170	0x3d1303b4	0.035892203
171	0xbcceceb9	-0.025245057
172	0x3d9fdba0	0.07805562
173	0xbde66c2b	-0.112511
174	0xbd8ec283	-0.06970694
175	0x3c41d733	0.011831093
176	0xbdefc2f0	-0.11707103
177	0xbdae48b7	-0.08509963
178	0xbc4816ff	-0.012212514
179	0xbdae315d	-0.08505509
180	0xbd99a90f	-0.075029485
181	0xbcce5736	-0.02518807
182	0xbda8efcb	-0.08248862
183	0xbe34469e	-0.17605063
184	0xbd892218	-0.06695956
185	0xbdadb754	-0.08482233
186	0xbe17d7c1	-0.14828397
187	0xbdd133e0	-0.102149725
188	0xbe28b670	-0.16475844
189	0xbe149868	-0.14511263
190	0xbd9bda66	-0.076100156
191	0xbca7bd3f	-0.020475982
192	0xbd14d71b	-0.036337953
193	0xbdd386be	-0.103284344
194	0xbd76ce0a	-0.060255088
195	0xbdd94b28	-0.10610038
196	0xbe0b0792	-0.13577107
197	0x3d84081b	0.064468585
198	0xbdb57b8f	-0.088614576
199	0xbddafec2	-0.106931224
200	0xbdace92f	-0.08442914
201	0xbbb578fe	-0.005538105
202	0x3cba91ce	0.022774603
203	0xbdcd8a54	-0.100361496
204	0xbdcd09a8	-0.100116074
205	0xbdfb365e	-0.12266229
206	0xbdd8c5d0	-0.10584605
207	0xbe01b36c	-0.126661
208	0xbdb25ed7	-0.087094955
209	0xbe064392	-0.13111714
210	0xbdec6bbb	-0.115439855
211	0xbde50107	-0.111818366
212	0xbd6ae7e8	-0.05735007
213	0xbda39cae	-0.07988869
214	0xbdfb177e	-0.1226034
215	0x3d53ef9b	0.051742177
216	0xbc4f34dd	-0.012646881
217	0xbe270c49	-0.1631328
218	0xbbdd3a90	-0.006751366
219	0xbe00e6be	-0.12588021
220	0xbe1371b5	-0.14398845
221	0xbaf3c805	-0.0018599039
222	0x3aec70c1	0.0018038974
223	0xbb16a8de	-0.0022988836
224	0xbe0521d6	-0.13001189
225	0xbd49726d	-0.04918139
226	0x3c79dabd	0.015249905
227	0x3c45716c	0.012050968
228	0xbdd85389	-0.10562808
229	0xbe4ae1b5	-0.19812663
230	0xbd4c0858	-0.049812645
231	0xbe3be5a1	-0.18349315
232	0xbde12a2a	-0.1099437
233	0xbdd0e43c	-0.10199782
234	0xbcaf1f7b	-0.021377316
235	0x3c004733	0.007829475
236	0xbdc18b4e	-0.094503984
237	0xbd057b2d	-0.032588173
238	0xbd95aebc	-0.073087186
239	0xbd9a39ae	-0.07530533
240	0xbdd68932	-0.10475387
241	0x3cb1e9f9	0.021718012
242	0xbe10e08d	-0.1414816
243	0xbd0d1c19	-0.034450624
244	0xbda78741	-0.081800945
245	0xbdbbec3e	-0.09175919
246	0xbd01e4bf	-0.03171229
247	0xbbf3a3e8	-0.0074353106
248	0x3cb32806	0.02186967
249	0x3cc1e849	0.023670333
250	0xbd9817d6	-0.07426421
251	0x3dac666e	0.084179744
252	0xbd83b7f5	-0.064315714
253	0x3d986829	0.07441742
254	0xbd2353f7	-0.039874997
255	0xbc06cbe2	-0.00822732

gru_in.bias_hh_l0 f4 [372]
0	0xbb3c2a9f	-0.0028711928
1	0x3b1d9a70	0.002404835
2	0xbd8623ee	-0.06549822
3	0xbe0b5f64	-0.13610607
4	0x3d2ebad9	0.04265866
5	0x3d40f46c	0.0471081
6	0xbd7b0d1b	-0.061291795
7	0x3d07f574	0.033193067
8	0xbb180756	-0.0023197732
9	0xbcb148d3	-0.02164117
10	0x3d146e2d	0.036237884
11	0xbc077822	-0.008268388
12	0x3c9a3948	0.018826142
13	0x3d84eb7e	0.06490229
14	0xbd8b753c	-0.0680947
15	0xba400ab8	-0.0007325816
16	0x3e144329	0.14478745
17	0x3ccaff3f	0.024779914
18	0xbd9a90d3	-0.07547154
19	0xbcb614c6	-0.022226702
20	0xbd2e4c70	-0.042553365
21	0x3da9a0a4	0.08282593
22	0xbce4ea7c	-0.027943842
23	0xbc961282	-0.018319372
24	0x3d60ae1d	0.054853547
25	0xbdc28dcb	-0.09499701
26	0xbd6528f3	-0.055947255
27	0xbcc4edaf	-0.024039118
28	0xbd5d4e1b	-0.054029565
29	0xbd96ae08	-0.073574126
30	0x3d21bb9f	0.03948557
31	0x3d2f5106	0.04280188
32	0xbd8602d3	-0.065435074
33	0x3de211c4	0.11038545
34	0xbcb6065f	-0.022219835
35	0x3bd0ce12	0.0063722217
36	0x3d6911fc	0.056901917
37	0xbdd6df0c	-0.104917616
38	0x3d1bfe27	0.038084175
39	0x3a5abd4a	0.00083442463
40	0xbc23a326	-0.009987628
41	0x3bd6d061	0.0065556024
42	0x3dcdca26	0.100483224
43	0xbb5e647c	-0.0033934405
44	0xbd0515a7	-0.032491352
45	0x3d49a40b	0.04922871
46	0xbd45ca37	-0.04828855
47	0x3d8a0d9a	0.067408755
48	0x3cdd7be2	0.027036611
49	0xbdf81da1	-0.12115026
50	0x3d3e1c95	0.046413977
51	0xbda087f5	-0.07838432
52	0x3cba0b5a	0.022710491
53	0xbd325baf	-0.043544468
54	0xbce7e18c	-0.028305791
55	0x3d0a84d2	0.033818074
56	0x3dac32ed	0.08408151
57	0xbd85c16f	-0.06531035
58	0x39e7973e	0.00044172438
59	0x3dbcfbac	0.0922769
60	0x3d33f7f2	0.04393763
61	0x3d8a1cbd	0.06743763
62	0x3d5b90fb	0.05360506
63	0xbd8ebf79	-0.06970114
64	0xbd0c7a76	-0.034296475
65	0x3d083865	0.033256907
66	0xbdace14d	-0.0844141
67	0x3d0418fb	0.032250386
68	0xbd8b4109	-0.06799514
69	0xbcbe9eec	-0.02326914
70	0xbd62d33b	-0.055377226
71	0x3daafd76	0.08349125
72	0xbce7a139	-0.02827512
73	0x3d68dd7d	0.056851853
74	0x3c31d949	0.0108550275
75	0x3d7ba685	0.061438102
76	0xbd73fec2	-0.059569128
77	0xbd80cad9	-0.0628869
78	0xbd757968	-0.059930235
79	0x3cee5747	0.029094351
80	0xbc3e9b81	-0.011633755
81	0x3d61c868	0.055122763
82	0xbca2faa0	-0.019894898
83	0xbd0048dd	-0.031319488
84	0xbcf640a7	-0.030060126
85	0xbe0010ae	-0.12506363
86	0xbdb7fa43	-0.089832805
87	0xbb8b8753	-0.0042580753
88	0xbd1fee0b	-0.039045375
89	0xbc8c30d5	-0.017113129
90	0xbdbc3e00	-0.09191513
91	0xbd867e85	-0.065671004
92	0xbdba3acd	-0.090932466
93	0xbdbc4470	-0.09192741
94	0x3e004a96	0.12528452
95	0x3d0f0e0c	0.034925506
96	0x3db62386	0.08893494
97	0xbd89ef1a	-0.06735058
98	0xbdcefc11	-0.101066716
99	0x3ca455b8	0.020060405
100	0x3cf028e4	0.029316373
101	0x3d488a1f	0.048959848
102	0x3cc94820	0.024570525
103	0xbd39e4b2	-0.045384116
104	0x3c5e3cc6	0.013564294
105	0xbd5a69d1	-0.05332357
106	0x3ca27689	0.019831913
107	0xbcd15e40	-0.025557637
108	0xbdc1d3e6	-0.094642445
109	0x3d23a874	0.03995557
110	0xbdc2b6aa	-0.09507497
111	0x3daef016	0.085418865
112	0x3d3b1315	0.045672495
113	0x3d1f90bf	0.0389564
114	0xbc96cc94	-0.018408097
115	0xbda3e3d8	-0.08002442
116	0x3d0869a9	0.03330389
117	0xbd1bff62	-0.03808535
118	0xbda9ee90	-0.08297455
119	0xbcd76b4e	-0.026296284
120	0xbd4e33e9	-0.050342474
121	0x3d1fdb7b	0.039027672
122	0x3d5645e7	0.052312758
123	0xbd870cee	-0.06594263
124	0xbdef1c49	-0.11675317
125	0xbca81ebd	-0.02052247
126	0x3c0bff5b	0.008544768
127	0xbe2a0a97	-0.16605602
128	0xbcfa09bd	-0.030522222
129	0xbc569b23	-0.013098511
130	0xbc263af2	-0.01014589
131	0xbd979cbd	-0.07402942
132	0xbcc820bb	-0.02442967
133	0xbe0ee37a	-0.13953963
134	0x3c8f0d2d	0.017462337
135	0xbe0258fa	-0.12729254
136	0xbe2aecb1	-0.16691853
137	0xbe02c126	-0.12768993
138	0xbd0dab7b	-0.034587365
139	0xbc5f8b11	-0.013643996
140	0xbd92629b	-0.07147714
141	0xbd8a55d0	-0.06754649
142	0xbd8290ef	-0.063753
143	0xbd9104e5	-0.07081012
144	0xbd93cccc	-0.07216796
145	0xbe0d2ef3	-0.13787441
146	0x3bbc6ab7	0.005750026
147	0xbe159a9f	-0.14609765
148	0xbcfd23b9	-0.030900823
149	0xbcf8a3f3	-0.030351615
150	0xbe19ef1a	-0.15032616
151	0xbce86bab	-0.028371653
152	0x3caba68b	0.020953437
153	0xbcaab82e	-0.020839777
154	0xbe08a0b7	-0.13342558
155	0xbdd5a321	-0.10431505
156	0xbe07f58a	-0.1327726
157	0x3c87c8a5	0.016575167
158	0xbc4a992a	-0.012365619
159	0x3d74b7f6	0.05974575
160	0x3d3216f9	0.04347894
161	0xbdea13f8	-0.1142959
162	0xbe21c206	-0.1579667
163	0x3b2ba5d8	0.002619138
164	0xbdbdbd7b	-0.09264656
165	0x3c3a896d	0.011385304
166	0xbdec05ec	-0.11524567
167	0xbe0e1934	-0.13876802
168	0xba7c245a	-0.0009618454
169	0xbda2b43c	-0.07944533
170	0xbdb4867b	-0.088147126
171	0x3ad7c004	0.0016460423
172	0x3d9ac88e	0.07557784
173	0xbcd1ea4a	-0.025624413
174	0xbd589cdb	-0.052883964
175	0xbd556f8d	-0.052108336
176	0xbcbb6bee	-0.022878613
177	0xbc4cc36f	-0.012497767
178	0xbceebced	-0.029142821
179	0xbdd8150c	-0.105508894
180	0xbd6fb7c2	-0.058524854
181	0xbb188035	-0.0023269777
182	0xbd84eb9f	-0.06490254
183	0xbd2aad9b	-0.04166947
184	0xbd8c6475	-0.06855098
185	0xbd689bd5	-0.056789238
186	0xbdf4a3b1	-0.11945284
187	0xbdc2f690	-0.09519684
188	0xbd280e73	-0.041029405
189	0xbd9a7024	-0.075409204
190	0xbdecfe63	-0.11571958
191	0xbbacb049	-0.0052700383
192	0x3ce8d777	0.028423054
193	0xbdf8e4c4	-0.121530086
194	0xbdbc2cd9	-0.091882415
195	0xbcfb7ce2	-0.030699197
196	0xbe165005	-0.14678963
197	0x3d136dd9	0.03599343
198	0x3d036547	0.032079007
199	0xbcf8584d	-0.030315543
200	0xbe2ba3e0	-0.16761732
201	0xbdc536e8	-0.09629613
202	0xbd8c089f	-0.06837582
203	0x3cd7e05b	0.026352098
204	0x3d28b18d	0.04118495
205	0xbded7a1f	-0.115955584
206	0x3c5ecc31	0.013598488
207	0xbdfba36a	-0.12287028
208	0xbd7a2ba0	-0.06107676
209	0xbd6a927d	-0.05726861
210	0xbdc40b3a	-0.09572454
211	0xbdba9b0a	-0.091116026
212	0xbd0e68a1	-0.03476775
213	0xbe26a011	-0.16271998
214	0x3993dcac	0.00028202438
215	0xbd05fb73	-0.032710504
216	0x3b51967a	0.003198056
217	0xbd8f30a6	-0.06991701
218	0xbd56619a	-0.052339174
219	0xbd0c7c91	-0.034298483
220	0xbd80f19c	-0.06296083
221	0xbd91fa44	-0.071278125
222	0xbd06d4c1	-0.03291774
223	0xbcd623a1	-0.026140036
224	0xbde8ad13	-0.11361136
225	0xbc9d1fb7	-0.019180162
226	0xbdb42288	-0.08795649
227	0xbd111e4d	-0.035429288
228	0xbe37af02	-0.17937854
229	0xbe1c73bb	-0.15278523
230	0xbdb37723	-0.08762958
231	0xbdb09c4c	-0.08623561
232	0xbe1d1f75	-0.15344031
233	0x3d323849	0.04351071
234	0xbde05956	-0.109545395
235	0xbd0b1049	-0.033951078
236	0xbcca457b	-0.024691334
237	0xbd7c558d	-0.061605025
238	0xbdcee323	-0.10101917
239	0xbcfc7980	-0.030819654
240	0xbe015a33	-0.12632065
241	0xbd20a262	-0.03921736
242	0xbe281c00	-0.16416931
243	0xbd8afb87	-0.06786256
244	0xbd407c89	-0.046993766
245	0xbd58b94b	-0.052911084
246	0xbd9c1c24	-0.07622555
247	0xbd3989fd	-0.04529761
248	0x3db99f3f	0.09063577
249	0x3d1d93ad	0.038470913
250	0x3cc5ffb9	0.02416979
251	0x3de7486c	0.1129311
252	0x3c0d24d9	0.008614742
253	0x3dbd9480	0.0925684
254	0x3d0390d3	0.032120537
255	0x3c953f9d	0.01821881

gru_out.weight_ih_l0 f4 [372, 3]
0	0xbc940a0a	-0.018071193
1	0xbc48833d	-0.012238321
2	0xbcd32924	-0.025776453
3	0xbd3d21cc	-0.04617481
4	0x3cc53ae5	0.024075935
5	0x3d8c36a8	0.06846362
6	0x3d8c4b0b	0.06850251
7	0x3ba5b38c	0.005056804
8	0x387da621	6.047462e-05
9	0xbc2c1072	-0.010501968
10	0x3c3f5939	0.011678987
11	0x3d9d1699	0.07670326
12	0xbe161a2f	-0.14658426
13	0xbd1cb079	-0.038254235
14	0x3a0c995a	0.00053634273
15	0x3e0a08ca	0.13479915
16	0xbe454f2e	-0.19268486
17	0x3e195445	0.14973553
18	0xbd7e8a7a	-0.06214378
19	0xbcc30b5d	-0.02380913
20	0x3c9f4f54	0.019447006
21	0x3d91c10d	0.071169
22	0x3b10e38a	0.002210828
23	0xbd4d2d69	-0.050092135
24	0xbd47fff0	-0.048828065
25	0x3d2ec98d	0.042672683
26	0x3d988033	0.07446327
27	0x3b940380	0.004517019
28	0xbde10eb0	-0.109891295
29	0xbd4f8a7b	-0.050669175
30	0x3a097bcf	0.0005244584
31	0xbcb5920d	-0.022164369
32	0x3ca73dcb	0.020415207
33	0xbdbdeb27	-0.092733674
34	0x3c3652f1	0.011128173
35	0xbda074dd	-0.0783479
36	0x3ba045ac	0.004891118
37	0xbdd503e4	-0.10401133
38	0xbd772e61	-0.060346965
39	0x3c625c95	0.013816019
40	0x3d16abdd	0.036784995
41	0x3a0014ac	0.0004885893
42	0x3ca2735f	0.019830404
43	0xbd1ebb5a	-0.03875289
44	0x3d48bdde	0.049009196
45	0x3b784dff	0.0037888286
46	0x3d5b4eac	0.053541824
47	0x3b412039	0.002946867
48	0x3cacf809	0.021114366
49	0x3dab2dfa	0.08358379
50	0xbe12cd07	-0.14336024
51	0x3d1a24c5	0.037632722
52	0x3d84fca5	0.064935006
53	0x3dc7902f	0.09744298
54	0x3c07ac4d	0.008280826
55	0x3c0f2785	0.0087374495
56	0xbd55e73c	-0.052222475
57	0x3dad6342	0.084661976
58	0x3c820dda	0.015875746
59	0xbdf29e2b	-0.118465744
60	0xbd4af8d2	-0.0495537
61	0xbcce50f8	-0.025185093
62	0x3e09cf95	0.13458093
63	0x3d3d1c6f	0.046169695
64	0xbc552bff	-0.013010978
65	0x3c869826	0.016429972
66	0x3b353cbe	0.0027654613
67	0xbdb74297	-0.08948248
68	0x3ce8a54c	0.028399132
69	0xbcfdfb02	-0.031003479
70	0x3c1a5ca4	0.009421501
71	0x3d81b00e	0.06332408
72	0x3d130464	0.03589286
73	0xbd19c558	-0.037541717
74	0x3d8025c0	0.062572
75	0xbc942215	-0.018082658
76	0xb9c1b5e7	-0.00036947356
77	0xbd05b177	-0.032639947
78	0xbcd3c951	-0.025852831
79	0x39b6a223	0.00034834546
80	0x3d876e04	0.06612781
81	0xbc910075	-0.017700413
82	0x3afa69b7	0.0019104992
83	0xbcbc7ad7	-0.023007793
84	0x3d011eb3	0.031523418
85	0x3d900926	0.07032995
86	0xbb5fe8c1	-0.0034165832
87	0x3dd7034f	0.10498678
88	0xbdfb2cdf	-0.12264418
89	0xbd83e78c	-0.064406484
90	0xbdb3ff93	-0.08788981
91	0xbd1979c2	-0.037469633
92	0xbccecda4	-0.025244541
93	0xbe03534a	-0.12824741
94	0xbd9bc446	-0.076057956
95	0x3d73befc	0.05950831
96	0x3bec5c96	0.0072131855
97	0x3cd1f767	0.025630666
98	0xbd94213b	-0.07232901
99	0xbd0c63d7	-0.034274902
100	0x3d944f02	0.07241632
101	0x3d6e2d62	0.05814875
102	0xbb4a00fd	-0.0030823343
103	0xbd574f19	-0.052565668
104	0xbcb32eca	-0.021872897
105	0xbd03d35c	-0.03218399
106	0xbd64b624	-0.055837765
107	0x3cfcf821	0.030880036
108	0xbe70451a	-0.2346386
109	0x3d49d4d0	0.04927522
110	0x3d582563	0.05277003
111	0xbc435c2e	-0.011923833
112	0xbe159c9c	-0.14610523
113	0x3d4a1901	0.04934025
114	0xb9c8b8da	-0.00038284698
115	0x3db60104	0.088869125
116	0x3d77b407	0.06047442
117	0x3dbea5dc	0.09308979
118	0x3d487bed	0.04894631
119	0xbc184704	-0.009294275
120	0xbd7ad329	-0.061236534
121	0x3cfa72da	0.030572344
122	0x3d4cae18	0.049970716
123	0x3d93bd27	0.07213812
124	0xbd9e220f	-0.0772134
125	0xbdc1c385	-0.094611205
126	0x3a30d57c	0.0006745679
127	0x3bfbf0b5	0.0076886066
128	0xbd3140a5	-0.04327454
129	0x3be0b3dd	0.006857379
130	0xbc31d70a	-0.010854492
131	0xbb680509	-0.0035403392
132	0xbd0e6fe8	-0.03477469
133	0x3d569a4d	0.052393246
134	0x3cfb5d5b	0.030684164
135	0x3bfa6b1e	0.007642164
136	0xbd9ac7a7	-0.07557612
137	0x3bc53a29	0.006018896
138	0xbe197622	-0.1498647
139	0xbd908406	-0.070564315
140	0xbdddcae1	-0.10829712
141	0xbdc7e74f	-0.097609155
142	0xbd86c304	-0.06580165
143	0xbd6116ff	-0.05495357
144	0x3df3f0fd	0.11911199
145	0xbbcc6f75	-0.0062388727
146	0x3e1d6efd	0.1537437
147	0xbd2f1ae2	-0.042750247
148	0x3c1a1171	0.009403572
149	0x3ce48a67	0.027898027
150	0x3c19d7bd	0.009389815
151	0xbc9071a6	-0.017632317
152	0x3c1b48b5	0.009477784
153	0xbbae72c5	-0.00532374
154	0xbce2f34c	-0.027703904
155	0xbd977b48	-0.07396561
156	0xbd50eed0	-0.051009
157	0xbd695dd0	-0.056974232
158	0xbc1c183c	-0.009527262
159	0x3d9e30c0	0.07724142
160	0x3dfd9022	0.12381007
161	0x3cacfe50	0.02111736
162	0xbae9b87a	-0.0017831468
163	0xbd08e863	-0.033424746
164	0x3c9bcafe	0.019017693
165	0xbc999f2a	-0.018752653
166	0xbd897aed	-0.06712899
167	0x3ce9225e	0.02845877
168	0x3b506664	0.003179931
169	0xbce6955f	-0.028147398
170	0xbda35f0e	-0.079771146
171	0xbcaf242d	-0.021379555
172	0xbdd82a5c	-0.105549544
173	0x3cc7db68	0.024396613
174	0xbd5a0915	-0.053231318
175	0x3e08976d	0.13339014
176	0xbd86900e	-0.06570445
177	0x3d206da5	0.039167065
178	0x3ce32810	0.027729064
179	0x3db27d8f	0.08715355
180	0x3c85cfa6	0.016334366
181	0xbc7263d4	-0.014794309
182	0x3c6aa44d	0.014321399
183	0x3d24d2d1	0.040240113
184	0x3d8c2090	0.06842148
185	0xbc792102	-0.015205624
186	0x3bc96d34	0.006147051
187	0xbd1ed1dc	-0.038774356
188	0xbcb5513c	-0.022133462
189	0xbb9f1418	-0.0048546903
190	0x3d7e13e7	0.0620307
191	0xbcb52db1	-0.022116514
192	0xbc4c2c5a	-0.012461746
193	0x3c075360	0.008259624
194	0xbcbb81e3	-0.022889083
195	0x3d1b0fba	0.037856795
196	0x3960f9ba	0.00021455335
197	0x3d892f50	0.06698477
198	0x3d278beb	0.04090492
199	0x3cc55635	0.024088958
200	0xbccd74d8	-0.02508013
201	0xbd53a28b	-0.051668685
202	0xbd025170	-0.031815946
203	0xbc5eae3a	-0.013591344
204	0x3daa2e5e	0.08309625
205	0xbc9aa38c	-0.018876813
206	0xbd7e8a17	-0.06214341
207	0xbe02fae9	-0.12791027
208	0x3d224f71	0.039626542
209	0xbd054873	-0.032539796
210	0xbd971302	-0.07376672
211	0x3ccc5916	0.024944823
212	0x3c2a6498	0.01039996
213	0x3bc0c471	0.0058827926
214	0xbd57eb1c	-0.052714452
215	0x3d70d0ed	0.058792997
216	0xbddccb02	-0.10780908
217	0xbcffb432	-0.031213854
218	0xbd84ad61	-0.06478382
219	0x3d2b3bbc	0.041805014
220	0x3d052e3e	0.032514803
221	0x3ca6db6e	0.020368304
222	0x3a3ef98d	0.0007285111
223	0x3c64c67b	0.013963337
224	0xbda9f19e	-0.08298038
225	0x3d8430b6	0.064546034
226	0xbc87c2aa	-0.016572315
227	0xbdd44fe6	-0.10366802
228	0xbdc00333	-0.0937561
229	0x3c5361e4	0.012901757
230	0xbbfc52aa	-0.007700284
231	0x3c184f1e	0.009296207
232	0x3c7fd30a	0.0156142805
233	0xbc7fdc2b	-0.015616457
234	0xbcba2fb0	-0.022727817
235	0xbbfeceac	-0.007776102
236	0x3bb5cfa6	0.0055484353
237	0x3cc2c770	0.02377674
238	0xbd077d49	-0.033078466
239	0x3df1a50b	0.117990576
240	0xbcf6bf4b	-0.030120512
241	0x3d07ce8b	0.03315596
242	0xbd67954e	-0.056538872
243	0xbcc6d620	-0.024272025
244	0xbc3a9fbc	-0.011390623
245	0x3d5c1ad0	0.053736508
246	0xbccd6b8c	-0.025075696
247	0x3ccde7e0	0.02513498
248	0x3bfe0bc5	0.007752868
249	0xbbd63e0b	-0.006538158
250	0xbd3b7acb	-0.0457714
251	0x3d8545c6	0.06507449
252	0xbc845406	-0.016153347
253	0xbd675add	-0.05648314
254	0xbda51a2c	-0.080616325
255	0x3d57b141	0.052659277

gru_out.weight_hh_l0 f4 [372, 124]
0	0xbd8399cc	-0.06425819
1	0x3dd0375f	0.10166811
2	0x3e45c1b4	0.19312173
3	0x3e4d13cb	0.20027082
4	0x3d1ab094	0.037766054
5	0x3dae8ad8	0.08522576
6	0x3e1f84e8	0.15578043
7	0xbca9539a	-0.020669747
8	0x3ea08730	0.3135314
9	0x3d0bfb4d	0.034175206
10	0xbdc2fb80	-0.09520626
11	0x3e3602ac	0.17774457
12	0xbe390cc4	-0.18071276
13	0x3d00d160	0.031449676
14	0xbe59ff84	-0.21288878
15	0x3dead58e	0.114665136
16	0x3ce2e713	0.027698075
17	0x3e0f44d0	0.13991094
18	0x3c99cec4	0.018775351
19	0x3da66469	0.081246205
20	0xbb62db36	-0.0034615523
21	0x3ce951ab	0.028481325
22	0xbde883a6	-0.11353235
23	0x3e17d311	0.14826609
24	0xbee010c5	-0.43762794
25	0xbb6ef6be	-0.0036462988
26	0x3eada604	0.33915722
27	0x3e3a66a9	0.18203224
28	0x3d25aae1	0.040446166
29	0xbbe80ef7	-0.007081862
30	0x3d9d3b80	0.07677364
31	0x3e8cdd43	0.2751256
32	0xbc07a2e0	-0.0082785785
33	0xbd50af1d	-0.05094825
34	0xbd02c437	-0.031925406
35	0x3e30d186	0.17267427
36	0xbdadecd6	-0.084924385
37	0x3d8898a3	0.06669738
38	0xbd165261	-0.036699656
39	0x3d2a1d86	0.041532062
40	0xbe505c2f	-0.20347665
41	0xbd7c4c78	-0.061596364
42	0xbe94972f	-0.29021594
43	0x3f232d9b	0.63741463
44	0x3d28d5e3	0.041219603
45	0x3dd326a7	0.10310107
46	0xbe2c6e72	-0.16839007
47	0x3e9b9d27	0.30393335
48	0x3c147944	0.009062115
49	0x3e876c0c	0.2644962
50	0x3e07e94b	0.13272588
51	0x3e209be8	0.15684474
52	0xbdd26134	-0.10272446
53	0xbbe30256	-0.0069277687
54	0xbd6edb77	-0.058314767
55	0x3f07c522	0.53035176
56	0x3dba21b4	0.090884596
57	0x3d0fb24f	0.035082158
58	0x3e1b0a5b	0.15140669
59	0x3db34b11	0.08754552
60	0x3deb5bc9	0.11492116
61	0xbcb2a10e	-0.021805312
62	0x3eab264c	0.33427656
63	0x3db21b92	0.08696665
64	0xbe2db649	-0.16964068
65	0x3df217b6	0.11820929
66	0xbe3b0936	-0.18265232
67	0xbdb0a46b	-0.0862511
68	0x3cdd7f56	0.027038258
69	0x3b435b95	0.0029809226
70	0x3f243cba	0.6415516
71	0xbd3f1c0d	-0.04665761
72	0x3d4215e4	0.047384158
73	0x3c4c66a6	0.012475645
74	0x3c672a6e	0.014109237
75	0xbd9e9275	-0.07742778
76	0x3d715bc8	0.05892542
77	0xbed11806	-0.4083864
78	0xbe8222ea	-0.25417262
79	0x3dfad31f	0.122472994
80	0x3af77e4c	0.0018882244
81	0xbd3b9137	-0.045792785
82	0xbc88e76f	-0.016711919
83	0x3f4316e0	0.7620678
84	0xbc98d108	-0.018654361
85	0x3db9f25e	0.09079431
86	0xbda43020	-0.080169916
87	0x3ea89df2	0.32933003
88	0xbe1ba324	-0.15198952
89	0xbe993d89	-0.2992976
90	0xbd21344c	-0.039356515
91	0xbee9b180	-0.45643234
92	0x3a037236	0.0005014272
93	0x3d2b5e39	0.041837905
94	0xbe13b460	-0.14424276
95	0x3d1db448	0.038502008
96	0x3d7f0e87	0.062269714
97	0xbe0b78f2	-0.13620356
98	0xbe090fb8	-0.13384902
99	0xbe01ac6d	-0.12663431
100	0x3d240bd5	0.040050346
101	0x3e99450c	0.2993549
102	0x3cc066f6	0.023486596
103	0x3df6c380	0.120490074
104	0x3d1540ab	0.036438625
105	0x3e0f6d90	0.14006639
106	0xbdfa0176	-0.1220731
107	0x3ddad24b	0.106846415
108	0xbdc35314	-0.0953733
109	0x3dc75ac1	0.09734107
110	0xbdebec2a	-0.11519654
111	0xbd185624	-0.037191525
112	0xbe0d9ac6	-0.13828573
113	0x3c89c727	0.016818596
114	0xbeb22de1	-0.34800628
115	0xbb1f7f41	-0.0024337324
116	0x3ddc2fe0	0.10751319
117	0x3c7650b0	0.015033886
118	0x3ed0e651	0.40800717
119	0x3f0039c7	0.5008816
120	0x3e12ed18	0.14348257
121	0x3b9a86f0	0.004715793
122	0x3df0222e	0.11725269
123	0x3de16b08	0.11006743
124	0xbe02730b	-0.12739198
125	0x3de67a35	0.11253778
126	0x3ba5f201	0.0050642495
127	0xbdbe65d2	-0.092967644
128	0x3e72f632	0.23726729
129	0x3d634418	0.05548486
130	0x3dd40136	0.103517935
131	0x3da7d89e	0.08195613
132	0xbd316fb1	-0.043319408
133	0x3dff6226	0.12469892
134	0xbdcc8028	-0.09985381
135	0x3d441901	0.047875408
136	0xbe483bb4	-0.19554025
137	0xbe2374d1	-0.1596253
138	0x3d8c0e46	0.0683866
139	0x3d880930	0.066423774
140	0xbd9103d3	-0.070808075
141	0xbc884f6b	-0.016639432
142	0x3e58a77b	0.21157639
143	0x3c3f11e8	0.011661984
144	0x3c84bdd0	0.01620379
145	0xbd21f267	-0.039537814
146	0x3cd7334c	0.026269577
147	0x3e80d548	0.2516272
148	0xbb82f2a1	-0.003996209
149	0xbd2ab8e6	-0.04168024
150	0x3cd15566	0.025553416
151	0xbd1ccf6f	-0.03828376
152	0x3caea732	0.02131996
153	0xbd0e7693	-0.03478105
154	0x3eb981cd	0.36231843
155	0x3dc89e47	0.09795814
156	0xbebbb936	-0.36664742
157	0xbd915af4	-0.07097426
158	0x3e0a9163	0.13532023
159	0xbcf3c80b	-0.029758474
160	0x3d9169ec	0.07100281
161	0xbd5aadce	-0.05338841
162	0x3d810bec	0.06301102
163	0x3d9d9c62	0.07695843
164	0xbe15ef48	-0.1464206
165	0x3e149030	0.14508128
166	0xbbd02071	-0.0063515236
167	0xbe000521	-0.12501957
168	0x3e1bb5c3	0.15206055
169	0x3d0f1aae	0.034937553
170	0xbd70fe8b	-0.0588365
171	0xbd849f44	-0.0647569
172	0x3d98c861	0.07460094
173	0x3e63a7a3	0.22231917
174	0x3d574be6	0.052562617
175	0x3da80335	0.08203737
176	0xbec297c8	-0.38006425
177	0xbd878b43	-0.06618359
178	0x3e8ac882	0.271061
179	0xbe8d467f	-0.27592847
180	0xbcff00eb	-0.031128367
181	0x3dca07d3	0.098647736
182	0xbe211b36	-0.15733036
183	0x3df20edd	0.11819241
184	0xbd54e42d	-0.051975418
185	0xbdbdec00	-0.09273529
186	0xbd678c2d	-0.056530166
187	0x3e3a2721	0.18178989
188	0xbd79654f	-0.06088763
189	0xbe0115ed	-0.1260602
190	0xbd9267b6	-0.071486875
191	0xbd8bfffb	-0.06835934
192	0x3e0c233e	0.13685319
193	0x3d75c569	0.060002718
194	0x3e09c459	0.13453807
195	0x3e755e1e	0.23961684
196	0x3ce7b00e	0.028282192
197	0x3e5d3afe	0.21604535
198	0x3cabca9f	0.02097064
199	0xbd3600be	-0.0444343
200	0x3dd80a7b	0.10548874
201	0x3e33303b	0.17498867
202	0x3e11df2d	0.14245291
203	0x3ce8e73a	0.02843057
204	0x3d9a4613	0.07532897
205	0x3c47739a	0.012173558
206	0xbd6f742f	-0.05846041
207	0x3c314051	0.010818557
208	0x3cf6d552	0.030131016
209	0xbe0652db	-0.13117544
210	0x3e55a32a	0.20863023
211	0xbdcf370e	-0.10117923
212	0x3e2934b7	0.16524015
213	0x3d04db19	0.03243551
214	0xbd8d66d5	-0.06904379
215	0xbdc87ab6	-0.0978903
216	0x3e44db60	0.1922431
217	0xbdfb8091	-0.122803815
218	0xbd809e02	-0.062801376
219	0xbdfe093d	-0.12404106
220	0x3e401930	0.18759608
221	0x3ead95dc	0.33903396
222	0xbe613830	-0.2199409
223	0x3d83af46	0.06429915
224	0x3d2bc1ae	0.041932754
225	0x3e79632f	0.24354242
226	0x3e8900d2	0.26758438
227	0x3d97fb14	0.07420936
228	0xbe3e816a	-0.18604055
229	0x3b86c9f6	0.004113431
230	0x3daaa4eb	0.08332237
231	0xbe6e498a	-0.2327024
232	0xbd1888a7	-0.037239697
233	0xbd875dbf	-0.066096775
234	0x3d4c570f	0.049887713
235	0xbc912170	-0.01771614
236	0xbcd13979	-0.0255401
237	0xbdab5ec2	-0.08367683
238	0xbd715ae4	-0.05892457
239	0xbd5f983c	-0.05458854
240	0xbd2fc5c2	-0.042913206
241	0x3d941566	0.07230644
242	0x3ed10c9d	0.40829936
243	0xbe1a8aab	-0.1509196
244	0x3e0774c3	0.13228135
245	0x3dfd0452	0.1235434
246	0xbe0ef75e	-0.1396155
247	0xbd73f161	-0.05955637
248	0x3d610005	0.05493166
249	0x3d9f8b06	0.077901885
250	0xbda1419c	-0.07873842
251	0xbccd73bc	-0.0250796
252	0xbe2b35b3	-0.16719703
253	0x3caa84c4	0.02081526
254	0xbde67760	-0.11253238
255	0xbde12fe1	-0.1099546

gru_out.bias_ih_l0 f4 [372]
0	0x3e1707d3	0.14749078
1	0x3df30936	0.11866991
2	0x3daaf40c	0.083473295
3	0x3c9cd47d	0.019144291
4	0x3d7f32a1	0.062304143
5	0xbbaea812	-0.005330094
6	0x3e118814	0.14212066
7	0x3e0696eb	0.13143508
8	0x3e00f101	0.12591936
9	0x3d15bf4d	0.03655939
10	0x3d3a635d	0.045504916
11	0xbd023f9d	-0.031798948
12	0xbd625cb6	-0.055264197
13	0x3e001d72	0.12511232
14	0x3dce01c8	0.100589335
15	0xbd4e5ee6	-0.05038347
16	0x3e3f4042	0.18676856
17	0x3e29284f	0.16519283
18	0x3d6db694	0.05803545
19	0x3db34e87	0.08755212
20	0x3a64fb78	0.00087349815
21	0x3cd6ddfd	0.0262289
22	0xbd0d3527	-0.03447452
23	0x3c0d0d52	0.008609133
24	0xbbbad77b	-0.005701957
25	0x3d223b13	0.03960712
26	0x3c6aab52	0.0143230725
27	0xbc90637e	-0.017625567
28	0x3d821d95	0.063532986
29	0x3df42e4b	0.11922892
30	0xbce869e0	-0.028370798
31	0x3d1d27f5	0.038368184
32	0x3e0a3427	0.13496457
33	0x3d384f0e	0.044997267
34	0xbc80b9d0	-0.015713602
35	0xbbd234c7	-0.006414983
36	0xbd50b74f	-0.050956067
37	0xbd3b1408	-0.0456734
38	0x3c3311ac	0.010929506
39	0xbd58887a	-0.05286453
40	0xbd399b15	-0.045313913
41	0x3d8b7d0a	0.06810959
42	0xbbb2e333	-0.005459213
43	0x3c9cc0ee	0.019134965
44	0xbc5f9325	-0.013645922
45	0x3d91336a	0.070898846
46	0xbd38c155	-0.04510625
47	0xbcf3f3b9	-0.029779302
48	0x3dab5257	0.083653145
49	0x3dc97ea1	0.09838606
50	0xbdaab76f	-0.083357684
51	0x3c86ca3c	0.016453855
52	0x3df4636e	0.11933027
53	0xbd166e3e	-0.03672623
54	0x3dc49dd8	0.09600419
55	0x3e2e4354	0.17017871
56	0xbd833fa6	-0.06408624
57	0x3de6e756	0.112745926
58	0x3c74cc9e	0.014941363
59	0x3d879a5f	0.06621241
60	0x3c21bd4e	0.009871794
61	0x3d6c4f79	0.05769298
62	0xbbeefa08	-0.0072929896
63	0x3e0f211a	0.13977471
64	0xbc994f47	-0.01871456
65	0x3ca48113	0.020081079
66	0x3d062058	0.03274569
67	0x3ddd5f99	0.108092494
68	0x3de9b699	0.11411781
69	0x3c93ea15	0.018055955
70	0x3dc4f4c5	0.096169986
71	0x3d34ce76	0.04414221
72	0xbd84130b	-0.06448945
73	0x3dbe5863	0.09294202
74	0x3dddb7dd	0.10826085
75	0x3e102b56	0.14079031
76	0xbd8b337f	-0.067969315
77	0x3cb0089a	0.021488477
78	0x3dfa554e	0.12223302
79	0x3dc2b39c	0.09506914
80	0xbd320969	-0.043466005
81	0xbd8fc865	-0.07020644
82	0xbce49728	-0.027904108
83	0xbc10058f	-0.008790388
84	0x3d2a5e0b	0.041593593
85	0x3d662648	0.05618885
86	0xbc535cd1	-0.012900547
87	0xbc084a47	-0.00831849
88	0x3d049a04	0.032373443
89	0xbcf8c2bf	-0.0303663
90	0x3c183202	0.009289267
91	0xbd64c2b5	-0.05584975
92	0x3dd14890	0.10218918
93	0x3b78e2f4	0.0037977071
94	0xbc6972f7	-0.014248601
95	0x3d444ee7	0.04792681
96	0x3d81ba2e	0.06334339
97	0x3d6d3768	0.057914168
98	0x3b08a7db	0.0020852003
99	0x3ba6e833	0.0050935983
100	0x3de565e7	0.11201077
101	0x3d3e3569	0.046437655
102	0x3db34002	0.08752443
103	0x3cff3cdd	0.031156952
104	0x3c28ac6d	0.010295016
105	0xbcad4ab7	-0.02115379
106	0xbd97b6ba	-0.07407899
107	0xbbca05a7	-0.0061652246
108	0xbcaa9984	-0.020825155
109	0x3def91cf	0.11697733
110	0x3cba4ef4	0.022742726
111	0x3dc5abf3	0.09651937
112	0x3af554b1	0.0018717257
113	0xbca1afb1	-0.019737097
114	0x3cd822da	0.026383806
115	0x3c84f2ce	0.01622906
116	0x3cf14a75	0.02945445
117	0x3df78f80	0.12087917
118	0xbca50373	-0.020143246
119	0xbd30aa0e	-0.043130927
120	0x3d0e0e15	0.0346814
121	0x3cb9d91a	0.02268653
122	0x3d7b334d	0.06132822
123	0x3ce43d3d	0.027861232
124	0x3ad54b50	0.0016273055
125	0xbc4a91a7	-0.012363828
126	0xbdee0242	-0.116215244
127	0x3d4e9390	0.050433695
128	0xbccd987d	-0.025097126
129	0x3df9633b	0.1217713
130	0xbe32b2c9	-0.17451014
131	0xbe1fb2b0	-0.15595508
132	0xbd1830a2	-0.037155755
133	0xbe080e1f	-0.13286637
134	0xbd65b154	-0.056077316
135	0x3d877c0c	0.06615457
136	0x3bd1148c	0.006380623
137	0xbe0cc031	-0.1374519
138	0x3d9351eb	0.07193359
139	0xbcb4e760	-0.022082984
140	0xbbe7331e	-0.007055654
141	0x3d822649	0.063549586
142	0xbd065438	-0.03279516
143	0xbdcc0c22	-0.09963252
144	0xbd74e954	-0.05979283
145	0xbc1f2ca8	-0.009715237
146	0xbdddd57e	-0.10831736
147	0xbd34006f	-0.043945726
148	0x3cb38b61	0.021917047
149	0x3d83910f	0.06424152
150	0xbd21e3d2	-0.039523907
151	0xbd7878ee	-0.060662203
152	0x3dae4115	0.08508507
153	0xbe08ef0d	-0.1337244
154	0xbd6d1cba	-0.057888724
155	0x3ba0abae	0.0049032783
156	0x3bfb73b2	0.007673704
157	0xbc176637	-0.0092406785
158	0xbcf88ef2	-0.0303416
159	0xbd03c6b0	-0.032171905
160	0x3d8a3e40	0.067501545
161	0xbd8bf8de	-0.06834577
162	0xbd6af5cf	-0.057363328
163	0xbce76087	-0.02824427
164	0xbd77a5b4	-0.06046076
165	0x3dc2461a	0.09486027
166	0xbd88d601	-0.06681443
167	0xbdea126b	-0.11429294
168	0xbd1768b1	-0.036965076
169	0xbe0f512f	-0.13995813
170	0xbc0ac389	-0.008469471
171	0xbdd244bc	-0.10267016
172	0xbd08034b	-0.033206265
173	0x3ca27dfa	0.01983546
174	0xbdab9a39	-0.08379025
175	0xbcb0e1db	-0.021592071
176	0xbd1d134a	-0.038348474
177	0x3d16d963	0.03682841
178	0xbdbfd507	-0.093668036
179	0xbdc280c7	-0.094972186
180	0xbcfaa8d0	-0.030598074
181	0xbd93567f	-0.07194232
182	0x3cb5b3b5	0.022180418
183	0x3da5162c	0.080608696
184	0xbda28ae4	-0.079366475
185	0x3c88cc67	0.01669903
186	0xbd1bead0	-0.03806573
187	0xbe011190	-0.12604356
188	0xbd094f28	-0.033522755
189	0x3d8e476c	0.069472164
190	0xbcfb7d60	-0.030699432
191	0x37abac52	2.0465031e-05
192	0xbceb4f29	-0.02872427
193	0x3d25e67f	0.04050302
194	0xbab7e4b4	-0.0014029951
195	0x3afff77e	0.0019528714
196	0xbd1e7363	-0.03868426
197	0xbca79380	-0.020456076
198	0xbcc1cdce	-0.023657706
199	0xbdf8a810	-0.121414304
200	0xbbd4482b	-0.0064783297
201	0xbc5bf0ad	-0.013424081
202	0xbace30f6	-0.0015731144
203	0xbd66fbe7	-0.056392577
204	0xbde3c197	-0.11120909
205	0xbe02fd14	-0.12791854
206	0xbd0408a1	-0.03223479
207	0xbb261f96	-0.0025348417
208	0xbd8d894a	-0.069109514
209	0xbe0877ca	-0.13326946
210	0x3d9db309	0.07700164
211	0x3d1ecea9	0.038771305
212	0xbd1c10d5	-0.03810199
213	0x3d219ab5	0.03945418
214	0xbd8b6e32	-0.068081275
215	0xbd35fb99	-0.044429395
216	0x3cd4c030	0.025970548
217	0xbe231f04	-0.159298
218	0xbe4241ac	-0.18970364
219	0xbe205721	-0.15658237
220	0x3cf91713	0.03040651
221	0xbd49a0b0	-0.04922551
222	0xbda3029f	-0.07959484
223	0x3d99130d	0.07474337
224	0xbdd5026e	-0.10400854
225	0xbe25a4d4	-0.16176158
226	0x3b8fea75	0.004391963
227	0xbd9635fe	-0.07334517
228	0xbcc47f91	-0.02398661
229	0xbcf743f2	-0.030183766
230	0xbdb3fb4d	-0.08788166
231	0xbdb02d04	-0.08602336
232	0x390d5c0f	0.00013481102
233	0x3cfc0e00	0.030768394
234	0xbd3671b2	-0.044542022
235	0xbdb14646	-0.08655982
236	0xbd2bdc79	-0.041958306
237	0xbdad71ea	-0.08468993
238	0xbc169021	-0.009189636
239	0xba113329	-0.00055389345
240	0x3ca09eb1	0.01960692
241	0x3dade111	0.08490194
242	0xbdaaad7f	-0.08333873
243	0xbdce3ce0	-0.10070205
244	0xbd6c1bc2	-0.05764366
245	0xbd860722	-0.06544329
246	0x3d5a8b63	0.053355586
247	0xbd14dade	-0.03634154
248	0xbe0ab91c	-0.13547176
249	0xbe3defc5	-0.18548496
250	0xbc2f4304	-0.01069713
251	0xbe4d3f65	-0.20043714
252	0x3d1d2084	0.038361087
253	0x3cd72c9a	0.026266385
254	0xbdffa22c	-0.12482104
255	0xbd0b5941	-0.034020666
