rnns/trained_rnns/rapport/GRU_seqin16_seqout1_1layer_21epochs_60000steps_batch32_Adam_lr5E-4.pt (torch_old, 451998 bytes, 10 tensors)

gru_in.weight_ih_l0 f4 [372, 36]
00000000: 82c2 80bd b3e9 933d 8f0c 113d 2e56 44bd
00000010: 83e2 c33c f68f be3d e572 373c 1c98 ac3d
00000020: 1458 793d 386d 253d 7c03 02bd c3bb 5fbd
00000030: d0cd aa3d 0590 bfbc 6fc2 2c3c caef 5dbd
00000040: b909 cf3b 9912 723c 7d1a af3d e696 79bc
00000050: 5363 5b3c 7f87 a53d f173 1abd 98af d0bc
00000060: caff 17bd 5655 c0bd 1145 fabb 5e8e debc
00000070: 7282 fbbc e1ca 02be b15f 9cbc c556 77bd
00000080: 6118 4f3e 7437 7c3f e71d 003e 7201 1a3d
00000090: 94ef c2bd e07d c33c ae1a b1bd 0f9e d1bd
000000a0: 7343 913d e716 23be bfee b3bd 4921 b2bc
000000b0: d435 c3bc 451f 5b3d f70e 21bd 2aa2 c83c
000000c0: e8c2 e7bd 4069 13be f9fb 10be 8fbc 03bd
000000d0: 5722 503d e93d cb3d 9fc6 213e 7258 5e3d
000000e0: be06 07bb 403c 9a3d 6b28 8c3d 2b27 e4bd
000000f0: e646 5a3d f9d6 423d 526e 173d ca05 a93d
00000100: b16c 88bc 5b0c d3bd 29bd 023d 9018 0e3e
00000110: 5c8f 123d c1f4 26bf e665 61be 3b1a 03be
00000120: f975 37bd b26f 433b 49ee 54bc 9e0a 383d
00000130: 6d4e e63a 89b6 c63c bd04 053c 4007 5c3d
00000140: 920e bdbc 1119 d9bd e7c4 4e3d b65f e73d
00000150: e805 e2bc 983b f73c 2e75 a13d fabb c23c
00000160: 3e6a a23c 82fd 04bd bc32 553d 0fcc cbbc
00000170: cf29 433d 538f 12bd 2473 c13c 9c27 fcbd
00000180: bfdc 1a3d ef3a df3c d71a 793d 6c19 c1bc
00000190: 82d0 50be 92ea acbd b5f3 253d f0eb 423d
000001a0: 7fc8 37be 68d3 843f 7427 203e bdb0 c5bd
000001b0: 7c20 97bb 1f8c e5bc 0922 273d 11c3 d13b
000001c0: 99e8 46bd 9ea7 c7bc 4a39 cf3d 53e6 7b3d
000001d0: 0aee 95bc d017 523c 389a 623c 1e59 95bc
000001e0: 6b7a 8d3d eec9 d6bd 39a2 a13d 8919 9bbd
000001f0: d29c 46bd 031b 8f3d dedf 4cbd 5efa 773d
00000200: a040 f13c 0b5f ccbd 28c6 63bd 9641 633d
00000210: 6453 033e 5e57 83bd e61a 053e be0b d43c
00000220: cea9 2cbd a7db 0c3e ccf9 f1bb 87c9 94bd
00000230: d1ac ff3d bf76 0b3f 952f cbbd 5bfb b03d
00000240: ad76 78bd 3447 9bbd 6cd1 bfbd 24de 3ebb
00000250: 9fd3 e83c 17c3 39ba 9e30 6bb9 ee71 babd
00000260: f1dc 96bd a3b3 f33c 1e42 163e 4d20 9dbc
00000270: 577f dfbd a344 d4bd bcba 98bd 53c9 01bd
00000280: b9ff acbd 8de0 7abd 3244 c5bd 5754 39bd
00000290: 874d bd3d 7015 e73d a535 353e 60b8 70be
000002a0: fdaa bb3d 06fc 85bd 774a 2b3d bb08 f73c
000002b0: 7f87 fbbb 6f6e 4f3d 50a0 8bbd 2963 d63d
000002c0: 97ca a73d 7c02 343f 7fec cb3d a7af c8bc
000002d0: dad1 953d 6d33 223c 2936 593d 37cc 3fbd
000002e0: b146 573c 06a6 99bd 9958 cd3d f6b1 ef3d
000002f0: f82d fdbd b5e4 00be 2569 a33d 5844 dd3d
00000300: b312 82bd fcc0 57be e9a8 22bd efd1 71bc
00000310: 8dce 603d c825 f03d 2ef9 873d dd04 de3c
00000320: 44ca 8a3d a860 003e f4b3 42bd e7f8 33be
00000330: 9013 f33d 0149 43bd f083 663c acef cd3d
00000340: 5024 29be 889a 86bd d280 84bc fcfa 9fbd
00000350: 8d34 763c d8fe 263f 6256 89bc 4409 523a
00000360: cb42 f13d 7938 13bd fe6c 1cbc 0adb 773d
00000370: 32a7 5abb d765 c43c 27c6 8fbc 49ff c5bc
00000380: df4a f33a f0df 373e 56ed 23be f2de f0bb
00000390: 5fd6 413d f4a2 75bd e632 4cbc 8481 b1bd
000003a0: 616f 713d 4fa3 a73d 4bae 823d c5a5 a93c
000003b0: 685d 79bc fa8d bfbd a0ed 913d d370 c93d
000003c0: 5252 22bc deb8 883d c9fd 753c 29c4 343c
000003d0: 1da3 523d 1872 9b3d ab27 cabb caec 12bd
000003e0: d953 093c 4d1f dbbe abdd 94be 8ac3 843b
000003f0: f5b8 dcbc 53ef c8bd 1861 e5bc 3ed8 bbbc
-0.062870994 0.07222309 0.035412367 -0.04793375 0.02391172 0.09304802 0.011196827 0.0842745
0.060875013 0.040387362 -0.031741604 -0.054622423 0.08340037 -0.023384104 0.010544403 -0.05418376
0.0063182977 0.014774942 0.08549974 -0.015233731 0.01339038 0.080824845 -0.037708227 -0.025474355
-0.037109174 -0.093912765 -0.007637628 -0.027167495 -0.03070185 -0.12772705 -0.019088598 -0.060385484
0.20224144 0.98522115 0.12511407 0.037599035 -0.09518352 0.023863733 -0.08647667 -0.102352254
0.07092943 -0.15926705 -0.087857716 -0.021744387 -0.023829378 0.053496618 -0.039320912 0.024491388
-0.11316472 -0.14395618 -0.1415862 -0.032162245 0.050814 0.09923918 0.15798424 0.054283567
-0.0020603384 0.07531023 0.068436466 -0.11140283 0.05329027 0.047568295 0.036970444 0.08253057
-0.01665339 -0.10305091 0.03191868 0.13876557 0.03578125 -0.65217215 -0.22011527 -0.12802975
-0.044790242 0.0029821214 -0.012996265 0.044932 0.001757098 0.024256961 0.0081188055 0.05371785
-0.023078237 -0.10600484 0.05048075 0.11297552 -0.027590707 0.030179784 0.078836784 0.023771275
0.01982605 -0.032468326 0.052050337 -0.024877576 0.047647294 -0.035781216 0.023614474 -0.123122424
0.037808176 0.027249781 0.060816612 -0.023571692 -0.2039204 -0.08443178 0.04051562 0.04758829
-0.17947577 1.0377016 0.1564005 -0.09652851 -0.0046120267 -0.028020917 0.040803943 0.0064014276
-0.048561666 -0.024371918 0.10118349 0.06149895 -0.018301982 0.01282306 0.013830714 -0.018230971
0.06908115 -0.10487734 0.0789227 -0.0757323 -0.0484894 0.06987574 -0.050018184 0.060541503
0.02944976 -0.099790655 -0.0556089 0.05548247 0.1282478 -0.06413148 0.12998542 0.025884505
-0.042154126 0.13755666 -0.0073845144 -0.07265001 0.12484134 0.5447807 -0.09921185 0.08641692
-0.060660053 -0.0758194 -0.09366116 -0.0029124105 0.028421221 -0.00070862606 -0.00022429458 -0.091037616
-0.0736636 0.029748743 0.14673659 -0.019180441 -0.1091296 -0.10364654 -0.07457492 -0.03168614
-0.08447213 -0.061249305 -0.09632148 -0.04524645 0.09243303 0.11283386 0.17696245 -0.23507833
0.09163473 -0.0654221 0.041819062 0.03015553 -0.0076760645 0.050642427 -0.068176866 0.10468132
0.08192938 0.7031629 0.099572174 -0.02449782 0.07315417 0.009899956 0.053030167 -0.046825614
0.013139413 -0.075023696 0.10026664 0.11703865 -0.123622835 -0.12587245 0.07979039 0.10804051
-0.06351223 -0.21069711 -0.039711867 -0.014759525 0.054884482 0.11725956 0.06639324 0.027101928
0.0677686 0.12536871 -0.047534898 -0.17575417 0.118689656 -0.047677044 0.014069542 0.100554794
-0.16517758 -0.06572443 -0.016174708 -0.07811543 0.0150271775 0.6523261 -0.016764823 0.0008012245
0.11780318 -0.03594253 -0.00954747 0.060511626 -0.0033363816 0.023974342 -0.017550541 -0.024169581
0.0018561742 0.17956519 -0.16008505 -0.007350796 0.04732358 -0.059969857 -0.012463307 -0.08667281
0.05894411 0.081854455 0.063809 0.020708928 -0.015220024 -0.09353252 0.071254015 0.09835973
-0.009907322 0.066758856 0.01501412 0.011033096 0.05142509 0.07590121 -0.0061692796 -0.03587035
0.008381807 -0.42797318 -0.2907537 0.0040516304 -0.026943663 -0.098112725 -0.0280004 -0.02293026

gru_in.weight_hh_l0 f4 [372, 124]
00000000: 9c7f 083c ef6d 493d 054d 06bd e18c 0f3d
00000010: 41fa ffbd 53c5 95bd 8b53 e7bc d9a8 6bbc
00000020: 4735 f63c f769 833c 4121 31bc 320e 733d
00000030: 61ba b2bd afce cc3c 5bde 203b 344d 203c
00000040: 8c00 9abd 2fdf 653d 68ed 30b9 5624 77bc
00000050: 127e 733d 399c 093c 7235 c33d 5d9f 0cbd
00000060: 0c87 5cbd 17da 1fbd c4fd 94bc 3363 943c
00000070: 2941 dcbd ef47 c7bb 4286 cf3b faed 9cbd
00000080: d3e7 883d d0f2 a8bd 3aba 54bd 5e1f 823d
00000090: 25c8 bebc a3eb 56bd c50e 513d 1ce3 0e3d
000000a0: 9d8d 9fbd 89d3 bc3c 744f df3d f862 9e3d
000000b0: d985 1ebd 0958 353c d4ca 4dbc 15ab 3dbd
000000c0: 4dfd 31bb 4d0c e93d f713 57bc f5ec 2fbd
000000d0: 9ce9 a4bb 3834 00bd bd6c 663d 695a f6bc
000000e0: b585 8c3d 4330 793d 2747 d63c 4c0d 18bd
000000f0: 2df3 13bd e8c1 aa3b 8fdb 09be c64b b0bd
00000100: 3ae9 ecbb 1df7 6cbd f191 aa3c a384 91bc
00000110: 9e60 963d ef3e 3abd 77db f3bb 9808 cb3d
00000120: b89a 8fbc 5f26 24be e413 8cbb 38ce 2abd
00000130: 1f1f 003e 7921 a33c dafd a83d 89f7 0cbd
00000140: 6a0c 0cbc c7cb dbbd ae5e b0bd f8a7 1abd
00000150: a141 843c 8550 d83d ddef 1dbe 1032 973d
00000160: 960e 853c 0f6b 053b 416f 9fbc f85f 0d3d
00000170: 98c5 48bc baa3 86bd df5b 543c 818e d4bd
00000180: 0708 0a3d 48ab 493c 82c4 07bc 8589 d43b
00000190: c23c 563d 3b49 d3bb 8f8a 5abd 1ae9 293d
000001a0: 06f8 30bd 1718 e3bc dd3a 4ebc c194 9e3c
000001b0: 5ddb 26bc e86f d2bc a3c7 853d ebcb 753c
000001c0: b75a ebbc 0381 25bd 9d99 0b3d af93 e33c
000001d0: ae61 7f3c 27e3 f0bc 2610 943d a003 e9b9
000001e0: b43d 4cbd 0c33 773d 24b9 f0bd 99fa b93d
000001f0: 6d4a 08be 53c8 dcbd cc97 8abd e846 483d
00000200: c2d5 023e c03c 383e 0082 4bbd 23d2 d7bc
00000210: 9378 62bc 4d78 e83c 74af 613c b9ae 13be
00000220: 7ece 9cbc ccbb dabc d47e ffbd a76e 003d
00000230: 122f 943d 2227 8e3c eb9c d4bc e87a 953d
00000240: 6a29 96bd 2fb9 e63d 1dbb c03c 39f9 4b3d
00000250: be11 74bd 68ea 8ebc 048c 093e bbf2 7a3d
00000260: f156 f23c e06a 21bd a08b 2ebd 05b6 a63d
00000270: a75d 1f3c 3b7a a43a 9482 9e3c a331 053d
00000280: 960b bb3d 92d1 bcbc 8c37 03be ef7f 863c
00000290: 70e4 d03d ad38 d5bb 56de 173c 3f88 00be
000002a0: f5ca 84bc cf03 99bd 7c62 2abd 761e ddbc
000002b0: d01a c13d 7870 eabd 7b78 d63d 042b b63d
000002c0: 0f6a bb3d 7e24 d7bc 79e8 84bd 7d74 58bb
000002d0: 1a8c 00bd 2a75 d03d cd63 54bb e681 b33d
000002e0: 61fd c13d 04a0 c0bc e103 b83d e485 893d
000002f0: d4b7 813d 276f 04be 3333 5ebd 88ab c9bb
00000300: 9508 9cbd c2ed 5a3c b8b5 723d 5b4f 91bd
00000310: 6a93 9bbd 573c 893d ad5d 19bd 50b0 2e3d
00000320: 2f3f 573b 606a de3d 8afe 2ebe eeea 1bbd
00000330: 40f7 bc3d b68b 493d 81e3 d13d 9837 3cbe
00000340: 54ec f53d 9407 993d 4bd6 6c3d b056 e83b
00000350: 9104 8c3d 88ac 12be c22f c7bd eb4e 873c
00000360: 7fa2 d6bd f6e1 3ebd 3cf9 ebbd cfc0 203c
00000370: af9e d43c 889a d0bb df70 c53a 2223 743d
00000380: 59a8 b53d 9b48 30bd 2a56 f2bd e956 3bbd
00000390: 7022 80bd f9a2 ba3d 6fb2 46be 1fb6 c5bc
000003a0: 728e 45bd d9fe 1cbd 5fbc d0bd 4503 6c3d
000003b0: e859 6a3c 0356 d13c 89bb a13c 9b3b 8d3d
000003c0: f4bb e6bd afd4 873c 9f26 ee3c bee4 2b3d
000003d0: 0ca2 cbbc 667f 5f3d bac8 77bc f8fd e2bd
000003e0: 1e30 bcbd 1d86 193d c750 843b d390 42bd
000003f0: 7fa0 873b 6636 2cbe 3f97 703d a0db 183c
0.008331206 0.049177106 -0.032788295 0.035046462 -0.12498904 -0.07313027 -0.028238079 -0.014383518
0.030054701 0.016041739 -0.010811151 0.05933971 -0.08726955 0.025000898 0.0024546597 0.009784032
-0.075196356 0.056121048 -0.00016873109 -0.015084347 0.059446402 0.008399063 0.09531678 -0.03433167
-0.05383973 -0.039026346 -0.018187411 0.018113708 -0.10754616 -0.006081573 0.0063331435 -0.07662578
0.06684842 -0.08249438 -0.051935412 0.06353639 -0.023288796 -0.052470814 0.051039476 0.034884557
-0.077906825 0.023050087 0.10903826 0.077337205 -0.038701866 0.0110683525 -0.012560565 -0.046305735
-0.0027159036 0.11379299 -0.013127319 -0.04295059 -0.005032731 -0.0312998 0.056256045 -0.030072408
0.0686144 0.06083704 0.026156975 -0.037122056 -0.036120582 0.0052111037 -0.13462661 -0.08608203
-0.007229951 -0.057852853 0.020821543 -0.017763441 0.07342647 -0.045470174 -0.0074419337 0.099137485
-0.01752983 -0.16030262 -0.004274832 -0.04170057 0.12511872 0.019913422 0.08251543 -0.034415755
-0.008547882 -0.10732227 -0.08611809 -0.037757844 0.016144576 0.10562233 -0.15423532 0.073825955
0.016242307 0.0020358001 -0.01946223 0.03451535 -0.012254141 -0.06574197 0.012961357 -0.10378743
0.03369906 0.012308903 -0.008286597 0.00648612 0.052304037 -0.0064479387 -0.053354796 0.04148207
-0.043205284 -0.027721448 -0.012587276 0.01935804 -0.010184136 -0.025688127 0.06532218 0.015002231
-0.02872978 -0.04040624 0.034082044 0.027780382 0.0155872535 -0.02940519 0.072296426 -0.00044443924
-0.049863532 0.060351416 -0.11754063 0.09081001 -0.13309641 -0.10780396 -0.06767234 0.048895746
0.12776855 0.17991924 -0.049684525 -0.026345318 -0.013822692 0.028377676 0.013774741 -0.1442212
-0.019141432 -0.026700877 -0.124753624 0.031355526 0.072355404 0.017352644 -0.02595373 0.07298833
-0.07332118 0.1126579 0.023526723 0.049798224 -0.059587233 -0.017445758 0.13432318 0.061266642
0.029582473 -0.039408565 -0.042613626 0.08140186 0.009726918 0.0012548635 0.019349374 0.03251804
0.09133069 -0.02304915 -0.12814158 0.016418425 0.10199821 -0.0065070004 0.009269318 -0.12551974
-0.016210059 -0.074714296 -0.04159783 -0.026992064 0.09428942 -0.11447233 0.104721986 0.08894923
0.091510884 -0.026262518 -0.06489653 -0.0033028417 -0.03138361 0.10178597 -0.0032408119 0.087650105
0.09472156 -0.023513801 0.08985115 0.06714991 0.063338906 -0.12933026 -0.054248046 -0.0061544813
-0.076188244 0.01336235 0.05925533 -0.07095214 -0.075964764 0.06700962 -0.03744285 0.042648613
0.0032844057 0.10860133 -0.17089286 -0.038065843 0.09226847 0.049205504 0.10248471 -0.18380582
0.12007967 0.074721485 0.057821553 0.007090412 0.068368085 -0.14323628 -0.09725906 0.016517123
-0.104802124 -0.046602212 -0.11522147 0.009811594 0.025954572 -0.006366078 0.0015063545 0.059603818
0.088700004 -0.043037992 -0.11832841 -0.04573718 -0.062565684 0.09113116 -0.19404005 -0.024134694
-0.04823155 -0.03832898 -0.10192179 0.057620306 0.014303662 0.025553709 0.019742744 0.068961345
-0.11266318 0.016580908 0.02907115 0.041966192 -0.024857543 0.054564856 -0.015123541 -0.11083597
-0.09188865 0.037481416 0.0040379497 -0.047501396 0.0041390057 -0.16817626 0.05873799 0.009329706

gru_in.bias_ih_l0 f4 [372]
00000000: f6b0 c5bc ef26 a3bb 0275 aabc 758c 51bd
00000010: 217b 0fbc 0b16 5cbd 70a7 133c e04c 1abd
00000020: e482 23bd d288 6ebd d97c 8e3d f22c bfbc
00000030: 5f14 b63c 199f 20bd df67 3ebd 88c5 01bd
00000040: 4364 29bb 0f5d 943d 791e babd 494d ec3d
00000050: 2b5a 56bd 97d8 ae3c 793e e13d 607f 9bbd
00000060: 2def a33d 3d59 053e b8fd cfbc 9865 c7bc
00000070: 994a 323d 8eb2 d13d 53dc 4d3d d38f b23d
00000080: 86e9 43bd aec1 0a3d bb71 37bb cca3 863d
00000090: 94c5 b73d 4be5 8a3c 8c63 14bd 752e 8ebc
000000a0: ed9c 45bd e89c 3f3d 0eae 1e3d e1ac 62bc
000000b0: 4f28 913c b594 b53d c003 e2bc a17b 75bd
000000c0: fed4 903d eb3c 12bd ec83 c33c 57ef 16be
000000d0: 55a7 a0bd 5291 b33d d347 99bb 1e18 503d
000000e0: e4c0 7c3d 34e0 e8bb 08c0 0fbd dc05 a23c
000000f0: 3666 df3c b531 8abd 5419 813d 4f9c 8d3d
00000100: 2027 78bd b32d fd3b ab2b 4f3d bce4 3a3d
00000110: 069c 443d b177 8a3c e6dc 1dbc 47c2 85bd
00000120: 10b5 943d fa38 a33d b22d 513d 97b6 c8bd
00000130: 7c8b 973d 3a98 19bc 637f de3d 8ebc d1bd
00000140: 8b12 69bd 367b 57bd c5e7 0a3c f7e5 9c3d
00000150: fdbc c5bd a2e1 433c c836 2bbd e5fc 273d
00000160: 6f9e 98bd 5947 e7bc aacf 613d e1d9 323c
00000170: 2005 e63c cddf 01bd 9461 823d 057a aebd
00000180: 2186 e2bc 72fe 51bd 0bd7 463d 8b46 81bd
00000190: e2d0 c3bb 3a69 1e3d 4458 3e3c bd3b b0bd
000001a0: 550e a83d 3c6e 11bd 6643 b0bc d906 54bd
000001b0: 7060 df3c 33d7 c0bc b5b9 913d 87b6 fabd
000001c0: f440 c33c 5512 c83b 6c3d 973d 3525 7ebd
000001d0: 6257 e5bc fc1e 723d 17c8 b83a 7f0c 503d
000001e0: 2802 94bc a812 db3d ab94 86bd 743c 24bd
000001f0: 27a5 85bd 6fe8 c5bd 7515 11be 64aa 00bc
00000200: 2f31 89bd 609f 30bd 5a3c 463d 9914 193d
00000210: 3db7 0bbe a389 bebd 6fc5 15be 496a 21bd
00000220: 102c 5cbd 20f4 81bd b618 62bd 80c8 803c
00000230: c786 debd ea3f c3bb 8203 abbd 55ba a23d
00000240: 7320 9ebd 30f6 05bc 58cd 53bd d7d5 07be
00000250: e9de 19be 40e6 80bd 8a73 71bc 223c 863d
00000260: 21d6 3f3d f785 9b3c 89a0 03be 5ae7 323c
00000270: d4a4 573c 066e 59bd 45e5 4dbd 1e77 0cbe
00000280: 1feb e0bd 676c 98bd 9860 bbbb a8eb 18be
00000290: cdfb 893d 97d5 c8bd 99f1 51bc 0973 b4bd
000002a0: a4f7 ad3b 2da7 1ebe 5c0e 14be 4f7b 3d3d
000002b0: 52ee aabd 716f 09bd e287 1bbc ff3e 8f3c
000002c0: 47d6 6cbc bc54 83bd 6e8e 5dbd 10ea 9bbd
000002d0: 289e 83bd ea2e 57bc a244 e8bd b546 82bd
000002e0: 0066 b2bd fb2a ab3c 3fd5 cbbd 62ca 1dbe
000002f0: 9ce2 063c 4e60 bebd a781 693d 2fa5 fcbd
00000300: 83d3 79bd b65c de3d 416c 2b3d 4279 11bc
00000310: 2692 b53c 0778 393c 0cca 0b3d 9866 33be
00000320: 2fac 2dbd f023 d9bd 1562 ffbd 4149 dcbd
00000330: a502 25bd cbc8 38bd 15b5 fcbc ffc0 aabd
00000340: b722 c6bc b963 e9bd 53ee dfbb 9f37 eabc
00000350: 5258 dcbd baec abbc 3d2f 8f3c ce45 c5bd
00000360: 4d86 dabc 0ce8 08bd 12b4 c9bd 10a8 083d
00000370: 1704 e1bd 7aee ecbd 701e b4bd 0c10 e0bd
00000380: 1b1b 93bc cfb9 70bd ae20 09be 700c 89bd
00000390: a5ba 593d 5cda 33bd b75d 47bd 5e46 dabd
000003a0: a516 d2bc 28fb 8bbd 9bc8 d0bd 0c7e 723c
000003b0: 4f80 39bd c1f9 e43c 2466 f4bd bbaa 6bbd
000003c0: 6ba4 e3bd 7c1b bbbd be5e 893c 438b 36bd
000003d0: 4e71 83bc 4bd1 0a3c 9a52 15be 8238 083d
000003e0: 6b2a 063a 468f 94bb 5085 42bd 6c76 9a3d
000003f0: e1d6 853d 871f fdbc aa19 8abc 7d0a bb3c
-0.024132233 -0.0049790065 -0.020807747 -0.05115934 -0.008757384 -0.05373196 0.009012088 -0.03767097
-0.03991975 -0.05823595 0.069574066 -0.023336861 0.02222651 -0.039214227 -0.046485778 -0.03168252
-0.0025847114 0.07244312 -0.090878434 0.115381785 -0.052332085 0.021343512 0.10998244 -0.07592654
0.080046035 0.13022323 -0.025389537 -0.024340436 0.043528173 0.10239135 0.050258946 0.087188385
-0.047830127 0.033876114 -0.0027991373 0.065742105 0.08973232 0.016955039 -0.036227748 -0.017356137
-0.04824536 0.046780497 0.03874021 -0.013835163 0.017719416 0.08866254 -0.027589679 -0.059932355
0.07071875 -0.035702627 0.023866616 -0.14739738 -0.07844416 0.08767952 -0.0046777516 0.05080425
0.061707392 -0.007106805 -0.035095245 0.019778185 0.027270418 -0.06747762 0.06303659 0.06914579
-0.060584188 0.007726395 0.050578754 0.045628294 0.048000358 0.016902776 -0.009635186 -0.06531196
0.072610974 0.07969852 0.05106897 -0.09800451 0.073996514 -0.009374673 0.10864141 -0.10241042
-0.05690245 -0.052607737 0.00847811 0.0766105 -0.09655187 0.0119556505 -0.04180029 0.041012663
-0.07452094 -0.028232263 0.055129685 0.010916204 0.028078616 -0.031707574 0.06366268 -0.08519367
-0.027651848 -0.05126805 0.048544925 -0.06312283 -0.0059758285 0.03867457 0.011617724 -0.08605144
0.082058586 -0.03550552 -0.021516513 -0.051764343 0.027267665 -0.023540115 0.07115499 -0.122418456
0.023834683 0.006105701 0.07384762 -0.062047202 -0.027995769 0.05911158 0.0014097717 0.050793167
-0.018067434 0.10696918 -0.06571325 -0.040096715 -0.06525641 -0.09663474 -0.14168341 -0.007853124
-0.06698834 -0.04312074 0.0483974 0.03737316 -0.13644119 -0.09303596 -0.14626096 -0.039408002
-0.05375296 -0.06345391 -0.055199347 0.015720606 -0.108655505 -0.005958547 -0.083502784 0.07945696
-0.07721033 -0.008176371 -0.051709503 -0.13265167 -0.1502644 -0.06293917 -0.014737019 0.06554438
0.04683507 0.018984778 -0.12854208 0.010919416 0.013161857 -0.053083442 -0.050267477 -0.13717315
-0.10982346 -0.07442551 -0.005718302 -0.14933646 0.0673748 -0.09806364 -0.012813949 -0.08811004
0.005309062 -0.1549346 -0.14458603 0.046260174 -0.08346237 -0.033553544 -0.009492846 0.017486094
-0.014455385 -0.06412646 -0.05409091 -0.07613003 -0.0642665 -0.013133744 -0.11341216 -0.063611425
-0.08710861 0.020894518 -0.09952783 -0.15409234 0.008232739 -0.092957124 0.05700841 -0.12336194
-0.06099273 0.10857527 0.041851286 -0.008879008 0.022164416 0.011320121 0.034128234 -0.17519605
-0.042400535 -0.10602558 -0.124698795 -0.107561596 -0.040285725 -0.045113366 -0.030848065 -0.08337592
-0.024186475 -0.11395974 -0.0068338304 -0.028590975 -0.10759033 -0.020986903 0.01747858 -0.09632455
-0.026675368 -0.033424422 -0.09848799 0.033363402 -0.10987108 -0.11568923 -0.08794868 -0.10940561
-0.01795726 -0.05877095 -0.13391373 -0.066918254 0.053156514 -0.043909416 -0.048673358 -0.10657953
-0.025645563 -0.06835014 -0.101945125 0.01480056 -0.04528838 0.027951123 -0.11933544 -0.05753587
-0.111153446 -0.091361016 0.01676881 -0.044566404 -0.016045239 0.008472751 -0.14582291 0.033257015
0.0005118015 -0.004533681 -0.047490418 0.075421184 0.065351255 -0.030898822 -0.01685794 0.02283215

gru_in.bias_hh_l0 f4 [372]
00000000: d469 d13d 0f55 0ebd 27be ad3c 2208 c53d
00000010: f9c7 14bd 81e1 54bd ad52 f13d 7cbd c33d
00000020: deb5 30bd 42fe 54bd 3e10 f1bc 1918 8a3d
00000030: a655 89bc 1367 0d3c ee73 8dbc cbe9 71bd
00000040: 8e76 91bd b225 003d 26d1 b5bd 46d4 e23c
00000050: 0253 f4bd 5033 c1bc 19aa 0d3e 4567 9fbd
00000060: 4be9 aabd 01db bebc fd6f 3b3d 241c c1ba
00000070: b440 943d 4c6d 69bc 4eba f43d 1358 073d
00000080: 282d 903c d131 64bd ebb1 c6bc d248 8e3b
00000090: 8def b03d bea4 8abd e057 4f3c 163a 64bb
000000a0: 5a56 39bd cf3b d53d 3380 f4bc a8d7 3d3d
000000b0: 9924 90bd 1c54 48bd d5c3 a6bd f9b7 a3bb
000000c0: 58ef 6bbd 6306 b63d 200f 733d c1bc 0dbc
000000d0: d4ae 9b3d aa84 92bc 9f16 babd 994f b7bd
000000e0: 0e30 8f3d 4c3d dcbc 701b 273d 5321 dd3d
000000f0: f897 7bbc 5fe3 fdbd 4dc3 05bd 0dc3 403d
00000100: 4c19 4dbc 7092 a53d 3890 8c3d 77aa 063d
00000110: 1b96 55bd a3e7 1b3d 8d93 d33b b006 a93d
00000120: b320 c9b8 83da 97bd fa3c 743d 1a4e 1dbd
00000130: 8eea 0ebd 8edf 2cbd a9b3 de3c 9c00 dbbc
00000140: 930d 4dbd a78c f93c 39fe c73b 246b 0abd
00000150: a3c6 643d 98fa 453c 2ab3 583d 2afb 80bd
00000160: c05b 153d 3d80 b7bd 7d1f 67bd 6dca 32bd
00000170: 97c8 1cbd 0e2b 83bd f439 c43c 75a4 de3c
00000180: f070 e5bc df88 e8bc 9b64 593d 32d5 84bd
00000190: 66a0 943d dec4 b6bd ffb6 cd3c 70fe 5f3d
000001a0: eb5d 3ebd bd49 65bc 0326 56bd 0097 3cbd
000001b0: f7f4 d93c ba94 083d 5c87 d8bc a205 12bd
000001c0: e91d 12bc 70dc 533d 413d e4bb 2a69 813b
000001d0: 64f6 823c d0ff b4bd d893 d4bd a4b2 5cbd
000001e0: 2559 283d 132c 58bd 8225 18bc d317 e53c
000001f0: 915b 8c3b 7e51 0bbe d88f a7bd 2492 acbd
00000200: 48ff d3bd b0a8 75bd 19d9 d8bc f0d8 383d
00000210: 2cb5 31be 249b 1abd f3e9 ddbd 584d 4abd
00000220: 3597 32be 705c 0cbe f560 93bd 947c 7fbd
00000230: b3e2 f5bd 2672 883d 1044 c0bc 00f3 4bbd
00000240: 7a09 76bd 7047 71bb 2445 b1bd b0ad 44bc
00000250: 009a b8bd 06c9 1bbd 20db eebd e70c 9dbd
00000260: 3d43 dabd 3229 eebc ccf2 bfba c22c 213d
00000270: 20ce c7bd 8d9b d0bd ca11 b2bd a8a8 603c
00000280: ff36 31bd 4684 efbc 93cf 9abc 25e7 ebbd
00000290: 79cc f6bc 3cd0 2a3d 4dd9 9abd d4d7 c3bd
000002a0: 1d6b 993c 65be bebd e875 02be ae9c 1bbd
000002b0: eb34 83bc 2bdc 723c f54b 0cbd 8639 72bd
000002c0: 7785 c2bc 175a 8cbd bc73 9bbd fe3b e9bd
000002d0: 20be 69bd b051 a93b c403 04bd 8cbf 09be
000002e0: f2d8 eebc 28f2 20bd f96b b3bd b4e1 c6bc
000002f0: 6563 7dbd 21f9 6d3d 1a45 55bc 6989 03bd
00000300: 27d1 e2bd 38d6 30bd 065a 77bd 2c19 ebbd
00000310: 01d4 093c 38bc a83c e49a c03c 54e4 0dbd
00000320: c9e7 183d 3179 b8bd 4c66 8ebd 5418 aebc
00000330: f87a 0abe b6ba 743c b167 64bb 00af adbc
00000340: 449b 2dbe ed67 1abe 6dc7 ffbd 104a 5abd
00000350: e6be 0cbe dfd5 0fbe 2273 363d b17a 21be
00000360: ec3f a13c d0b4 e4bd 9750 bfbd 41c8 103d
00000370: 0a85 fdbd 4c76 1dbd a341 03be 48e6 bcbd
00000380: e289 bcbd f2b0 45bd 1625 38be 6d12 c13c
00000390: 7ece 263c 0dd9 0bbe 70db ebbd c75e efbd
000003a0: 438f 00be 685f 0abe c0ec 3e3a cffd f4bd
000003b0: df70 18bd 7989 c03c 2eb1 d5bd e4a4 99bd
000003c0: 4b80 63bd 05ad a2bc 8940 08be c602 2b3d
000003d0: ac46 bfbd 4ed2 91bd aaad 5a3b cc2e 8b3c
000003e0: 48f1 cc3d 8687 003e 2b86 283e 6fbd b13d
000003f0: 0902 8fbd e9fb d1ba 8199 163e 235c 1bbe
0.10225263 -0.034749087 0.021208836 0.09620692 -0.03632352 -0.05197287 0.11783347 0.09557626
-0.043142192 -0.05200029 -0.02942669 0.067428775 -0.016764473 0.008630532 -0.017267194 -0.059060853
-0.07102691 0.03128595 -0.088777825 0.02768911 -0.11929895 -0.023584038 0.13834418 -0.07783369
-0.08345278 -0.023297789 0.045761097 -0.0014733118 0.07238904 -0.01424725 0.11949597 0.03304298
0.017599657 -0.05571157 -0.02425476 0.004342177 0.08639441 -0.06769703 0.012655228 -0.003482466
-0.045248367 0.10411798 -0.029846286 0.046348244 -0.070382304 -0.048908338 -0.08142821 -0.0049962965
-0.057601303 0.08887937 0.059340596 -0.0086509595 0.07601705 -0.017885525 -0.09086346 -0.08950729
0.069915876 -0.026884697 0.04079765 0.10797372 -0.015356056 -0.12396883 -0.032656956 0.047061015
-0.012518238 0.08084571 0.06863445 0.03287741 -0.052145105 0.038062703 0.0064567984 0.08253229
-9.5905176e-05 -0.07414725 0.059628464 -0.03840456 -0.034891658 -0.042205386 0.027185278 -0.026733689
-0.050061774 0.030462576 0.0061033037 -0.033793584 0.055853497 0.012083672 0.05290524 -0.06297906
0.036464453 -0.089600064 -0.056426514 -0.04365008 -0.038277235 -0.064046964 0.023953415 0.027178029
-0.028007954 -0.028385578 0.05307446 -0.06485976 0.07257156 -0.08924268 0.025111673 0.05468601
-0.046476286 -0.013994631 -0.052282345 -0.046042442 0.026606066 0.03334496 -0.026431732 -0.035649903
-0.008918264 0.051723897 -0.00696531 0.003949304 0.015986629 -0.08837855 -0.103797615 -0.053881302
0.04110064 -0.052776407 -0.009286286 0.027965462 0.0042833765 -0.13605306 -0.08181733 -0.084263116
-0.103514254 -0.059975326 -0.026470708 0.045128763 -0.17354268 -0.03774561 -0.10835638 -0.049390167
-0.17440493 -0.13707137 -0.071962275 -0.062374666 -0.1200613 0.06662397 -0.023469955 -0.04979229
-0.06006763 -0.0036816262 -0.08655766 -0.012004301 -0.09013748 -0.038033508 -0.116628885 -0.076684766
-0.10657356 -0.029072378 -0.0014644503 0.039349325 -0.09756112 -0.10185919 -0.08694799 0.013712086
-0.04326534 -0.029237878 -0.018897807 -0.11518697 -0.030126797 0.041702494 -0.07560978 -0.0956265
0.018727833 -0.093136586 -0.1274029 -0.03799122 -0.016016444 0.014823 -0.034252126 -0.05913689
-0.023745282 -0.06853121 -0.07590434 -0.11388396 -0.057066083 0.0051672086 -0.032230154 -0.13451976
-0.029156182 -0.03929344 -0.087608285 -0.024277546 -0.061862368 0.058098916 -0.013016963 -0.032113466
-0.11075049 -0.043173045 -0.060388587 -0.114794105 0.008412362 0.020597562 0.023511358 -0.03464158
0.037330423 -0.090074904 -0.06953105 -0.021251835 -0.13523471 0.0149370935 -0.0034851844 -0.02120161
-0.1695376 -0.15078707 -0.12489209 -0.053293288 -0.13744697 -0.14046429 0.044543393 -0.1576946
0.0196838 -0.111673 -0.09341543 0.035347227 -0.12378891 -0.038442895 -0.12818007 -0.0922361
-0.092059866 -0.04826445 -0.17982897 0.023568356 0.0101810675 -0.13657017 -0.11516464 -0.11687999
-0.1255465 -0.13512957 0.00072832033 -0.11962473 -0.037217017 0.023503052 -0.10434185 -0.075021535
-0.05554227 -0.019857893 -0.13305868 0.04175069 -0.093396515 -0.071201906 0.0033367672 0.016990088
0.10006958 0.12551698 0.16457431 0.0867871 -0.0698281 -0.001602051 0.14706995 -0.15171866

gru_out.weight_ih_l0 f4 [372, 4]
00000000: e9f0 553c d911 afbc 300c 493c ea46 2f3d
00000010: 6d0e 9e3d f3f3 cbbd a34f 81bd e414 f13c
00000020: fb5e 05bd 82f9 8e3d 1746 34bd 1346 09bb
00000030: 6bfc 583c 9b2e 343d ccd4 44bc 2a11 863d
00000040: 7237 36ba 85a6 443c 58d3 963d 5d48 813d
00000050: 9d09 343d 1c43 cb3c 407d bd3d a804 163e
00000060: f8a8 b63d 8dfa 7bbd 9e6e 303b 0bfc 28be
00000070: 670a 3b3e 5e52 163e 7892 223e 181c 60bc
00000080: cd4f 67bd 4b59 c6bb 47a2 b6bb afd7 b2bc
00000090: 60bb eb3d 9d78 743d 78fb 723d 0fa5 203d
000000a0: 235d c03c e269 483d ca1b b0bd 4725 aabd
000000b0: 89c0 82bc aa26 093d 0835 113e b1d0 243d
000000c0: 8943 3abc f43e 1d3e 71bf 923c 43bf d2bd
000000d0: 37c2 87bd 24e5 21be 87ec 9e3d 56a0 79bd
000000e0: 0076 d8bb 3a9d edbd d3ec f83c a05a 04bc
000000f0: 542b 87bd d01f 003e 1928 ec3c e5f0 293d
00000100: 2188 6b3d 5cb3 5abc 27ea 9e3c 352e b5bc
00000110: bf87 ff3c 593f a0bc 04de acbc 515f 253c
00000120: 4c55 0fbd 4c16 f43d e2c2 c8bd 4348 68bc
00000130: 486f c53c bda3 d03c efd5 2fbb a059 07bc
00000140: abdd 56bd 3cf5 8e3d eb5e e5bd 37fe 363d
00000150: 3446 703d 3323 30ba f867 f4bd 66ce e3bb
00000160: 0271 bebb 1cad 40bd 7d01 3bbd 7986 a3bc
00000170: 94cd f43c cb32 b93d b803 35bd 4622 613d
00000180: 222e ba3d ef60 edbd e9e1 9abd c157 5fbd
00000190: b96c 31bd cce9 68bd 88d1 1cbc 2dce 45bc
000001a0: 2738 d53c 0f6f 8a3d 5fa0 a43d 73cf 323b
000001b0: d3a9 10bd ed61 debc 3857 3b3d 47bb 4bbd
000001c0: 4dbb 933d fb67 383d fe72 29bd 889b 28bb
000001d0: ec2f 45bd 56da 46bd 4d5c 423d f49a e93c
000001e0: d6ca 91bc c2fa df3c e0eb 6b3c 1100 66bd
000001f0: 742f 333d bcfe 47bd 79e8 043e fd6f 12bc
00000200: 5518 033e 38d4 ecbd c2ed 7dbd e069 37bd
00000210: b274 06bd e4df 51bd 51af c1bd b55c 5e3d
00000220: 5a20 90bd 92cf 23bd d46f 59bd 529f 55bc
00000230: 5c44 283c 83a7 d1bd ad95 14bd fd39 8bbd
00000240: 4a79 fa3d 7dab 0dbd 0f6b 89bd 80aa 933d
00000250: 422f aebd 4172 2fbd 2f27 e1bd ae20 8c3d
00000260: 1cf0 a43c 8d42 0a3d 74b7 193d 0ffe 033d
00000270: 4223 83bc 5229 72bd 2e5b e73d 9204 df3d
00000280: 9674 083d 262b b03d 4b19 703d 1036 0ebe
00000290: 5b94 85bc 9b07 8abc f062 2c3e 0868 a93d
000002a0: 5558 a7bc 5150 1ebd a340 db3d 350c 083d
000002b0: 0381 8a3c 6777 9e3d 534d 0f3e 20e7 903d
000002c0: 91f7 81bc bc8f 98bc b868 d1bd c141 29bd
000002d0: 0306 16bd 585c b83d ab34 03bd 5675 efbc
000002e0: c105 c1bd c718 7cbd 12df 063d 1387 263e
000002f0: 4cc1 9d3d aaad 38bd c022 fc3d 8dd2 413e
00000300: 47ff 7cbd f357 efbd e24b b63b e375 503d
00000310: 77c4 dbbd 0e4e 753c a6ca 2cbd f5a6 2ebb
00000320: 30da 89bd 4d62 443c d3be 703d e1a1 00be
00000330: cae2 32bd 9885 d63b bfde ea3d 15fc 3f3e
00000340: b029 f93c cc06 45bd f799 1f3d b4ef d13c
00000350: 0522 fbbc 643f 8cbd 553e c43d f578 3b3d
00000360: 8e19 bd3c 5684 8abd f1a5 2ebd 405f 473c
00000370: b259 86bc 8a76 7f3d ac8b a93b 0fe1 533c
00000380: 7a45 ac3d 5630 283e 5137 8ebd 89ef 8a3d
00000390: b227 b2bd 3eb2 5d3d e203 83bc 0fdd eb3d
000003a0: 349b 5fbd 16df e83c 7972 37bd f9a3 013e
000003b0: 429f 8fbd 0a13 66bd 69a9 ffbc 450b 2f3d
000003c0: 80ac 38bd f97a 55be a913 09be 88de 123d
000003d0: 7b4d 16bd 3908 6bbd 455a 97bd a049 58bd
000003e0: 3faa b0bc 2a8d 823c dbd1 123c 99da 0abd
000003f0: 623f 3fbc b372 dc3b 3877 273d 9e4c 283c
0.013057926 -0.021370815 0.012270972 0.04279224 0.07717595 -0.09958639 -0.063140176 0.029428907
-0.032561284 0.069811836 -0.044012155 -0.0020946309 0.013243775 0.04398976 -0.012013625 0.065462425
-0.0006951011 0.012002592 0.07364529 0.0631263 0.04395448 0.024812274 0.09252405 0.14650214
0.08918947 -0.06151824 0.0026921402 -0.16502397 0.18265687 0.14679858 0.15876186 -0.013678573
-0.05647259 -0.006053125 -0.005573544 -0.021831362 0.11510348 0.05968534 0.05932185 0.039219912
0.023481911 0.048929103 -0.0859905 -0.08307891 -0.015960949 0.03348414 0.14180386 0.040238086
-0.011368641 0.15356046 0.017913552 -0.102903865 -0.066288404 -0.15810066 0.07759958 -0.060943924
-0.0066058636 -0.11602254 0.030386364 -0.008078247 -0.06600061 0.12512136 0.028827714 0.0414895
0.05750287 -0.013348427 0.019398762 -0.02211676 0.031192658 -0.019561457 -0.021101959 0.010093526
-0.034993455 0.11918315 -0.09802796 -0.014177385 0.024100915 0.025468701 -0.0026830395 -0.008261114
-0.052457493 0.069803685 -0.11199745 0.044676032 0.0586607 -0.0006719112 -0.11933893 -0.006952095
-0.0058118114 -0.04704009 -0.045655716 -0.019961582 0.029883184 0.09042891 -0.044193 0.054964326
0.090908304 -0.11590754 -0.0756262 -0.054527048 -0.043316577 -0.05686359 -0.0095714405 -0.012073082
0.026027752 0.06759464 0.08038401 0.0027284294 -0.035318207 -0.027146304 0.045737475 -0.04973915
0.07213459 0.04502104 -0.04136943 -0.002572747 -0.048141405 -0.048548065 0.047451306 0.02851627
-0.017796915 0.02734125 0.014399499 -0.056152407 0.043746427 -0.048826918 0.12979306 -0.008937833
0.1280225 -0.11563915 -0.06199432 -0.044778705 -0.032826133 -0.05123891 -0.09457267 0.05428763
-0.070374206 -0.039992876 -0.053085163 -0.013038473 0.010270204 -0.102370284 -0.036275554 -0.0679817
0.12230165 -0.034587372 -0.06709873 0.07210255 -0.085051075 -0.04283357 -0.10993802 0.06842171
0.020134024 0.033754874 0.03752847 0.03222471 -0.016008023 -0.059121437 0.11296688 0.108895436
0.03331431 0.0860198 0.05861787 -0.1388781 -0.016306093 -0.01684933 0.16834617 0.082717955
-0.020427862 -0.038650814 0.10705688 0.033214767 0.01690722 0.07737618 0.1399434 0.070753336
-0.01586512 -0.018623225 -0.10225052 -0.041322473 -0.036626827 0.09001988 -0.03203265 -0.029230755
-0.094249256 -0.061547067 0.03292758 0.16262464 0.07702884 -0.045087494 0.123113155 0.18927975
-0.06176689 -0.11686697 0.005563245 0.050893676 -0.10730832 0.014972223 -0.042185448 -0.0026649807
-0.06731069 0.011986327 0.058775734 -0.12561752 -0.043673314 0.0065466873 0.11468267 0.18748505
0.030415386 -0.048102185 0.03896519 0.025626995 -0.03065587 -0.06848028 0.095822014 0.04576965
0.023083474 -0.06763522 -0.042638723 0.012168705 -0.016400192 0.062368907 0.005174121 0.012932076
0.08411689 0.16424689 -0.069441445 0.06783969 -0.086989775 0.054125063 -0.015993062 0.11516773
-0.054591373 0.028426688 -0.044786904 0.12660207 -0.07012798 -0.0561705 -0.03120871 0.042735357
-0.045086384 -0.20847692 -0.13386406 0.035856754 -0.036694985 -0.05738089 -0.073902644 -0.05280459
-0.021565555 0.015936453 0.008961166 -0.033899877 -0.0116728265 0.0067275404 0.04088518 0.010272173

gru_out.weight_hh_l0 f4 [372, 124]
00000000: 5d38 f5bc 932e 093d d655 8f3b aa6d 813c
00000010: 0153 debd 2b58 b73d 10ac 753d 1b2a 913d
00000020: 6195 9b3d 4b8c f4bd 43c8 89bb ee8c 08bc
00000030: b00c 14bd df4e 11be 57e7 203d 6628 4f3e
00000040: 912f 26be 25ea abbc c762 c53b c470 0fbe
00000050: 97ff 4f3e 893e 43bd ea6d d93c 50e4 c43d
00000060: 2b1d 06ba 2bc9 49bd a513 df3d 1b3c 49ba
00000070: 90ea 033e 37a2 ddbd 7017 113e d626 153e
00000080: 017b 763e b002 343e 08f0 bbbb 3627 febb
00000090: e4c4 f93c f8f1 8c3d cd28 b93d 2d80 6e3e
000000a0: 87e4 2c3d c79f e4bd ac70 e63d 25bf 8a3d
000000b0: bbc8 893e 5ae3 1c3e 50f4 a6bc 45a4 afbc
000000c0: 24a2 75bd f080 f6bd 59d6 b5bd c4af 243d
000000d0: dfbf 04bd e524 493e d060 bb3c 47d3 c6bd
000000e0: bcd2 1abe 3de3 96bb 5a48 e33d 7b1c 023d
000000f0: 24d6 653d e9d2 853d 3ebb 73bd 7867 b03c
00000100: e92e 33bc 0090 09bc fcfa 003e 41a8 603d
00000110: 4f58 313b ce09 02be 7514 4a3c 8e1f 103e
00000120: f002 5b3d 40f5 3a3e ff4d 02be d231 40bc
00000130: f4ee bfbd 5459 a1be 6cd9 223c 9bb7 633d
00000140: 41fb 5ebd 350a 6ebc fea1 06be 8967 173e
00000150: 2e04 41bd 850c 333d 9e52 573e a136 18be
00000160: 536e 5dbe 5c4f cfbc 7ae9 85be af19 6bbd
00000170: 7c9b 33be 09fd 383e c1ac 533d 4f01 f4bd
00000180: 2d6b cdbd 9504 21be ab28 7c3c d6b1 1a3e
00000190: 818b d0bd 4d6a 5bbe b341 793d 516d 14bd
000001a0: 86d9 603c e334 25be 770b d0bd ca3b 213d
000001b0: 79cf 373d 4dec 53bc 448c c43d c78d bf3d
000001c0: 7e10 dc3d d32b 1a3e 7a58 35bd bb00 b7bd
000001d0: a53a 353e fbf8 b5bd 8218 59bd 4169 073e
000001e0: 2507 253d f96e 4b3c 75c2 9bbd 0a0a c3bd
000001f0: a2c3 43bd 8e05 723e 12a1 903d b306 f73c
00000200: 1da3 73bd 7d87 67bd 6478 13bd b039 223d
00000210: 6613 e03d fb84 9f3c 619c 323e 11aa 663d
00000220: e8e8 bf3c 1574 79bc eb39 483e a280 1ebd
00000230: ef21 53bd 4b4a e1bd a9de e13c 4f41 9dbd
00000240: e4a8 d3bd db76 04be 45ee bc3c 9d0d 323e
00000250: ebb4 4f3c 7021 afbd 38f8 c9bd 51bc 053e
00000260: 3346 113e 387f 95bd 875e 593e 9677 a13b
00000270: 9eaa 93bd 8ed6 483e 5028 1fbd 062f 71bb
00000280: fa96 0bbe 1558 473e 47ba c33d e40d 7c3d
00000290: e63a bb3d 13c0 45bd 2e9f 5d3d 19b1 963e
000002a0: d5a8 2b3e 1882 cd3d 0328 8ebb abf1 8ebd
000002b0: 7127 87bc 4fe3 c13d 7bf6 e3bd 2497 183e
000002c0: b852 d43d 7ad3 92bb 6bf0 903d ccce b9bc
000002d0: f96c 94bd 4b5d 82bc ff6e 0abd 1984 8e3e
000002e0: f30d 0bbd 8d16 3d3e b766 52bd f3b8 273d
000002f0: dc2e 20be 2abd 383e 3222 9a3d 8cf6 cc3d
00000300: d09b 0c3e c2d8 2fbe 2452 24be fff7 3f3d
00000310: 857f da3d 1bbf d0bc 8656 1c3e 6ae1 8a3c
00000320: 213d 93bd 7998 9bbd 3172 fb3c 8497 9d3d
00000330: 9b13 153c 4878 74bd 9b8b afbd 255c 98bd
00000340: cf33 713d 6337 01be fd8a 603e c1d8 bbbd
00000350: 6f09 1bbe 1707 13be a107 22be 9735 0f3e
00000360: 21b7 c0bc 7b82 883d e0e3 8c3d 2fa5 32be
00000370: 0a20 923b a58a 2cbe 5159 92bc 8073 0abc
00000380: d396 87be 1c63 a73d 906c 0cbd 0a9d 4abb
00000390: 0ede 023e e88d 46be e35b 173b 5830 2ebe
000003a0: 9116 f4bc 2821 e4bc aad8 793d 1788 61bd
000003b0: 7b1a 1c3e 2b00 0f3e d7ce c53d bc05 6abe
000003c0: aace 7d3d a3ce e3bd 57c8 293d 3015 51bd
000003d0: 4429 52bd 4b1b 443e 84a3 38bb 0269 b9bd
000003e0: e137 223e 5727 983d 00ee 2dbc 7e95 183c
000003f0: d3b5 a0bd 7eb3 eabd 790b c93c 9239 253d
-0.029934103 0.033491682 0.004374246 0.015799362 -0.108556755 0.089523636 0.059978545 0.07088109
0.07596851 -0.11940821 -0.0042047813 -0.0083343815 -0.036144912 -0.14190243 0.039283123 0.20230255
-0.16229083 -0.020985672 0.006023738 -0.1400786 0.20312344 -0.04766706 0.026541669 0.0961386
-0.00051160407 -0.049264114 0.10892419 -0.0007676498 0.12882447 -0.10821956 0.14169097 0.14565596
0.2407036 0.1757915 -0.005735401 -0.007756139 0.030489393 0.068820894 0.09040985 0.23291083
0.04221013 -0.111632876 0.11251959 0.06774739 0.26910958 0.15321103 -0.02038017 -0.021440635
-0.059969082 -0.120363116 -0.08878774 0.040206686 -0.032409545 0.1964298 0.022873312 -0.09708267
-0.15119451 -0.0046047256 0.11097784 0.031765442 0.056112424 0.065343685 -0.05950474 0.021533713
-0.010936477 -0.008396149 0.12595743 0.05484796 0.0027060693 -0.12699053 0.012333979 0.14074537
0.0534696 0.18257618 -0.12725066 -0.011730628 -0.093717486 -0.31513464 0.009939533 0.05559502
-0.054438833 -0.014528801 -0.13147733 0.1478559 -0.047123127 0.04371311 0.2102761 -0.1486459
-0.21624117 -0.025306396 -0.2615469 -0.05739754 -0.17539781 0.18065275 0.051678423 -0.11914312
-0.10030208 -0.15724404 0.015390555 0.15106902 -0.10182858 -0.2142727 0.06085367 -0.036237065
0.013723737 -0.16133456 -0.10158437 0.03936366 0.044875596 -0.012934756 0.09597066 0.09353214
0.10745333 0.1505578 -0.04427383 -0.08935686 0.17698152 -0.0888538 -0.053001888 0.13223745
0.040290017 0.012416595 -0.07605449 -0.09523399 -0.047793992 0.23634931 0.07061972 0.030154562
-0.05948173 -0.056525696 -0.036003485 0.039605796 0.109412 0.01947259 0.17442466 0.05631453
0.023426488 -0.01522543 0.19553344 -0.038696893 -0.051546033 -0.110004984 0.027571993 -0.07678472
-0.10334948 -0.12935965 0.023062835 0.17388006 0.012677412 -0.085512996 -0.09861797 0.13060118
0.14186935 -0.07299656 0.21227466 0.004927586 -0.07210277 0.19613096 -0.038856804 -0.003680171
-0.13631812 0.19467194 0.09557014 0.061536685 0.09142093 -0.04827888 0.054106884 0.2943199
0.16763623 0.10034579 -0.004338266 -0.06979688 -0.0164983 0.09467184 -0.11130997 0.14901406
0.1036734 -0.0044807764 0.07077106 -0.022681616 -0.072473474 -0.015913626 -0.03379726 0.27835158
-0.03394885 0.18465634 -0.051367488 0.040947866 -0.15642875 0.1804091 0.075260535 0.100079626
0.13731313 -0.1717253 -0.16046959 0.046867367 0.10668854 -0.025481751 0.15267381 0.016953189
-0.07189394 -0.07597441 0.0306941 0.07694915 0.009098913 -0.05968502 -0.085715495 -0.0743945
0.0588873 -0.12618785 0.2192802 -0.09172202 -0.15140317 -0.14358173 -0.15823223 0.13985287
-0.023524823 0.06665512 0.06879401 -0.17445825 0.0044593858 -0.16849764 -0.017864855 -0.008450389
-0.26482257 0.081732005 -0.03428322 -0.0030916356 0.1278002 -0.1939007 0.002309554 -0.17010629
-0.029795917 -0.027847841 0.060997643 -0.055061426 0.15244476 0.13964908 0.09658592 -0.2285375
0.06196467 -0.11123397 0.041450825 -0.051045597 -0.051308885 0.19151036 -0.0028173635 -0.09053232
0.15841629 0.074293785 -0.010615826 0.009312985 -0.0784718 -0.11460017 0.024541603 0.040338106

gru_out.bias_ih_l0 f4 [372]
00000000: 50fb d13b b291 863d 9d5e e43d 1a46 283d
00000010: 9be7 743d 1b55 c0bc a832 233d eb86 d73c
00000020: 394a 873d d144 f13d 80fe cf3d a1a6 1f3e
00000030: a26b f03d f604 83bc 8d73 af3c f24b 293e
00000040: c604 3b3e 9423 27bd 496a 993d 18a2 3a3d
00000050: 8772 f83d 613e 243e ab7f ac3d a6e9 0d3d
00000060: a7e7 633d 86b7 8dbd 2b5a b23d ffc2 8b3d
00000070: db95 263d 9f7d 943d bda5 383e 1409 7e3d
00000080: b8bf 9d3d 4c06 d03d 61d5 a83d 4726 133e
00000090: 1fa6 dabc d97f c03d 21ab 703d 7111 893d
000000a0: ba5c 303e c2bf c8bc e264 c43c d17b 8f3d
000000b0: ce8b 843d 6bc3 193e 584f dbbb 87cf af3d
000000c0: 7944 03bc 6bcf 883c ddf8 3bbd ddbb 393c
000000d0: f49c a83d 6edd bebb bf36 d93d ba7e 103e
000000e0: 5270 cb3d bbf8 a93d 0d36 d63b 8bcd a4bc
000000f0: 1e0e e43c 523b 9c3d 8375 013d 4dbd 903c
00000100: dfb6 e53d 4ad6 843e 1558 d6bc 0048 873c
00000110: f478 dd3d 746e 213a 8543 f73d fe87 ae3d
00000120: 047d cb3d c583 ee3c 56ee 4b3e 237a 2cbb
00000130: 96dc d03d 73e4 d2bd cc9c 2a3e 17e9 ebbc
00000140: d528 d6bb 2cfc d63d 74f4 813d 8927 2a3d
00000150: 0aea 353e cb70 debc f2fd 2f3d 2d28 0d3d
00000160: 5759 fb3c 3f2a 873c 5e73 dc3b 34e6 c039
00000170: f96d cf3d 5516 d93d ad87 f73d 4da7 243d
00000180: 3944 ea3c ba79 673c 3752 fabc 73c9 893d
00000190: 5b54 0a3e 5a55 ac3d 9ada 323e eb7d 3a3e
000001a0: 48b2 eabc a1bf 36bc 7b66 9b3d e7cd f33c
000001b0: 2628 c93d 2f11 df3d c526 633d fe65 803d
000001c0: 726f cb3d 9d1c 3cbd fc9b 273d 7ef6 3a3d
000001d0: b12a f83d 97dc 0c3d 0bd2 573d 7b3f 223d
000001e0: 992e 5a3e 6c98 a13d c8ba 2e3c bafd e63c
000001f0: 582e e3bd 84a2 7ebd 7c13 76bc 8893 53bd
00000200: d0da 6bbc 8c4e 883d fb63 8bbc 1e7d 1abc
00000210: 80ad 13be 725e 0dbd 64f8 d2bd 866e fbbc
00000220: 0eff 8c3d d893 da3a 813c c8bd d396 51bb
00000230: 311d 2abe 743c aabc fcf3 aabd 0cf8 e53a
00000240: 3e26 8f3d e24c d0bd adc7 af3d b4d7 55bc
00000250: 4ead 913c 59a2 9e3d 8ef6 79bd 1a33 803d
00000260: 4005 8abd d370 dc3b 52e1 8cbc 869e 163d
00000270: 2864 8e3c f5ec a03d 9eb5 c7bd 46e5 903d
00000280: d015 90bd e6be 41bd 9e4d 2c3d c0a1 c6bd
00000290: c7b3 0dbd 16cd 1e3d dc84 263d 22ea a7bd
000002a0: d46e 6a3d 5848 843d e27e 57bd 06d0 433d
000002b0: dcb7 68bc d65b babd ae94 8dbd 665a bb3d
000002c0: 57e1 363c 87de a53d 3044 4a3d a4f7 4dbd
000002d0: 362f 72bd f1d8 a8bd bf0a 4bbd fcc1 d2bd
000002e0: 464e d03c c941 11bc 48a8 ddbc e942 45bd
000002f0: c12a 8fbd 8ea9 98bc b779 1f3a b327 1dbd
00000300: ace1 b13c 39da 09bd bd0e fb3a 647e 92bd
00000310: 128c e23b 2bbe 823d 2395 70bd f794 b43c
00000320: 5bd5 0bbc 510b 4b3c 22c8 6bbd ee69 763d
00000330: c30f cfbd a461 d2bd ec26 313c 0d6f e13c
00000340: bb07 d9bd 8a6b 28bd 8d1f 8a3d 7ae5 e2bd
00000350: 832f 8fbc b450 cc3c 61c4 cebc 4e22 a1bd
00000360: 2705 01bd 576c 4abd 7255 9d3c f82e ba3d
00000370: 7761 9d3c d7a0 86bc 6cc2 e1bc 2e0e 6fbc
00000380: 6c18 093d 64bb e13c 7947 3ebd e932 c7bd
00000390: 4525 a4bd 0aba 09bd 27af 903d d1bf 2bbd
000003a0: 8f0c ac3d 8fce 323d 0513 d33d db70 e43d
000003b0: 1627 5ebd 3622 a03c 0a3e fc3d 8aac 893d
000003c0: b085 b6bc 9844 edbc 8667 d53c abd8 4c3b
000003d0: 71fd 4c3d 9e8f 7dbd 270f 74bd f16b 1fbe
000003e0: c80c 123d a8cb d93d 1d82 603d a25c c0bc
000003f0: d51f 5dbd 816a adbd f923 7b3d b442 7cbd
0.0064081326 0.06570758 0.111508586 0.04108248 0.05979119 -0.023478081 0.03984323 0.026309451
0.06605954 0.11780704 0.10155964 0.15590908 0.11739279 -0.015993576 0.021417404 0.16532877
0.1826354 -0.040805414 0.074909754 0.04556474 0.12131219 0.1603942 0.08422788 0.034646653
0.055640843 -0.0691977 0.087086044 0.06824302 0.040670257 0.07250523 0.18031974 0.062020376
0.07702583 0.10157451 0.08243824 0.1437007 -0.02669054 0.09399385 0.05875695 0.0669278
0.17222872 -0.0245055 0.023973886 0.07006038 0.06471978 0.15015952 -0.006692808 0.085845046
-0.008011931 0.016700467 -0.04589163 0.011336294 0.082330614 -0.0058247363 0.10606145 0.14110842
0.09933533 0.08299395 0.006537205 -0.020117542 0.027838763 0.07628502 0.03160621 0.01766839
0.112165205 0.2594474 -0.026165048 0.016513824 0.108140856 0.00061581214 0.12073425 0.08522032
0.09935954 0.029115567 0.19915137 -0.0026317916 0.101983234 -0.102974795 0.16661376 -0.02879767
-0.0065356293 0.10497317 0.06345454 0.04154161 0.1776506 -0.027153393 0.04296679 0.034462143
0.030682249 0.016499637 0.00672762 0.00036792608 0.101283975 0.105999626 0.12086425 0.040198613
0.028596984 0.014128143 -0.030556781 0.067278765 0.13508742 0.08414717 0.17466202 0.18212096
-0.028649464 -0.011154086 0.07587906 0.029761268 0.09822111 0.108919494 0.055456895 0.062694535
0.09933366 -0.045925725 0.040920243 0.04564523 0.12117518 0.03439006 0.052690547 0.03961132
0.21306838 0.078904 0.010664649 0.028197158 -0.11092824 -0.062166706 -0.015019294 -0.05165437
-0.014395431 0.066556066 -0.017015448 -0.009429244 -0.14421654 -0.0345139 -0.10301283 -0.03069235
0.06884585 0.0016676141 -0.09777165 -0.0031980767 -0.16612698 -0.02078078 -0.083473176 0.0017545237
0.06989716 -0.10170914 0.08583007 -0.013051916 0.017782833 0.07745809 -0.06102615 0.06259747
-0.067392826 0.006727317 -0.017197285 0.036772273 0.017381743 0.07857696 -0.097514376 0.070749804
-0.070354104 -0.047301196 0.04206621 -0.0969882 -0.034595277 0.038769804 0.04065405 -0.08198954
0.0572346 0.06459111 -0.05261124 0.04780581 -0.014203992 -0.090995476 -0.06913124 0.091481015
0.011162124 0.08099084 0.049381435 -0.050284997 -0.059127055 -0.08244503 -0.049570795 -0.10290906
0.025427949 -0.008865782 -0.027057782 -0.048159514 -0.069905765 -0.018635537 0.00060835056 -0.03836794
0.021714054 -0.03365538 0.0019154173 -0.07153013 0.0069136703 0.06383928 -0.058735978 0.022043688
-0.008534755 0.012392835 -0.05756391 0.060159616 -0.10110428 -0.1027253 0.010812502 0.027518773
-0.105971776 -0.041118182 0.06744299 -0.110789254 -0.01747871 0.024940826 -0.025240125 -0.07867871
-0.031499054 -0.049419727 0.019205783 0.0909099 0.019211514 -0.016434116 -0.027558528 -0.014590783
0.033470556 0.027555175 -0.04645488 -0.09726507 -0.08014921 -0.033624686 0.07064658 -0.041930977
0.08400833 0.04365402 0.10306362 0.11154338 -0.054236494 0.019547563 0.123165205 0.06722362
-0.022280544 -0.028963372 0.02605034 0.0031257074 0.050046388 -0.061904542 -0.059584763 -0.1556852
0.03565672 0.106345475 0.054811586 -0.02348167 -0.053985436 -0.0846758 0.061313603 -0.06158705
