rnns/trained_rnns/rapport/GRU_seqin16_seqout3_1layer_27epochs_60000steps_MultiStep2_batch32_Adam_lr5E-4.pt (torch_old, 449022 bytes, 10 tensors)

gru_in.weight_ih_l0 f4 [372, 35]
0	0x3dc72356	0.09723537
1	0xbd8bcc2e	-0.068260536
2	0xbdf293a1	-0.11844564
3	0xbd0890d2	-0.033341236
4	0x3d54e421	0.051975373
5	0x3d3f0fb2	0.046645828
6	0xbd39beee	-0.0453481
7	0xbc5e9d40	-0.013587296
8	0x3cba1eb1	0.022719713
9	0x3d9e9a7e	0.07744311
10	0x3dd6353b	0.10459372
11	0x3c27ea20	0.010248691
12	0xbce842a5	-0.028352091
13	0xbcaa58be	-0.020794269
14	0x3ceb84c5	0.028749833
15	0xbcb39ea3	-0.02192623
16	0x3d99dad0	0.07512438
17	0x3cba8535	0.022768596
18	0x3d6073e8	0.054798037
19	0x3c7598bf	0.014990031
20	0x3d9ab849	0.07554681
21	0xbdb9842b	-0.09058412
22	0xbd773949	-0.060357366
23	0xbdb3d53d	-0.08780906
24	0xbcbb6cb6	-0.022878986
25	0xbd8cc6b7	-0.06873839
26	0x3d72db7c	0.059291348
27	0xbd7116ed	-0.058859754
28	0x3e0e2a3c	0.13883299
29	0x3c6cc1d0	0.014450505
30	0x3d712b88	0.058879405
31	0x3e0b578a	0.13607612
32	0xbcf60641	-0.030032279
33	0xbf451146	-0.7697948
34	0xbd403250	-0.04692298
35	0xbdb630c7	-0.08896022
36	0x3b83efff	0.0040264125
37	0xbd38e398	-0.045138925
38	0x3cf77fcf	0.030212311
39	0x3b61d955	0.0034461815
40	0xbddc7a57	-0.10765522
41	0x3c7a8b86	0.015292054
42	0x3d8ce49a	0.0687954
43	0x3da4da48	0.08049446
44	0x3cf602d5	0.030030647
45	0xbdd50746	-0.10401778
46	0x3c5e5763	0.013570639
47	0x3c4858a5	0.012228166
48	0x3de34a54	0.11098161
49	0x3d0f4a61	0.034983043
50	0xbc90c491	-0.017671855
51	0xbca70eb9	-0.020392762
52	0xbd1e93ae	-0.038715057
53	0xbc85d027	-0.016334606
54	0xbd112197	-0.035432424
55	0x3b52b22e	0.003214966
56	0x3e0253dc	0.12727302
57	0x3d82a3e9	0.0637892
58	0x3d59d888	0.053185016
59	0xbc3598d8	-0.011083804
60	0xbda2b007	-0.07943731
61	0xbd55ab13	-0.052165102
62	0x3c9aea0b	0.018910429
63	0xbe6b0b56	-0.22953543
64	0x3d657430	0.05601901
65	0xbd3a0eab	-0.045424145
66	0x3aa0a7b2	0.0012257008
67	0x3df98ccc	0.12185058
68	0xbe3f617f	-0.18689536
69	0xbd591081	-0.052994255
70	0x3d9e0fff	0.07717895
71	0x3d0f29ef	0.0349521
72	0xbe149abe	-0.14512154
73	0xbacc4961	-0.0015585833
74	0xbd0aa332	-0.03384704
75	0x39feaa4f	0.00048573545
76	0x3d96f19d	0.07370303
77	0x3de099eb	0.109668575
78	0x3dee18d1	0.11625827
79	0xbb1fdd31	-0.0024393315
80	0x3d679a47	0.056543615
81	0x3d4d07cd	0.050056268
82	0x3c9d5ad3	0.019208347
83	0x3a47b41a	0.0007618085
84	0xbc8f9ecc	-0.017531775
85	0xbdaceb1a	-0.084432796
86	0x3da7b9e0	0.0818975
87	0xbdcdcf4f	-0.100493066
88	0x3dac69d4	0.084186226
89	0xbc5d5093	-0.01350798
90	0x3d6a8e7e	0.057264797
91	0xbbc478fa	-0.005995867
92	0x3e09592e	0.13412926
93	0xbd38630e	-0.04501634
94	0x3d6a4fc6	0.057204984
95	0xbd4730ed	-0.048630644
96	0xbcc0c1de	-0.023529943
97	0x3d777fe7	0.06042471
98	0x3c9a4afe	0.018834587
99	0xbcd786c5	-0.02630938
100	0x3d853794	0.06504741
101	0x3d9919c3	0.07475617
102	0x3d076b43	0.033061277
103	0x3fb08a10	1.3792133
104	0x3d530ad0	0.051523983
105	0xbd5764a6	-0.05258622
106	0xbd8cc3d3	-0.06873288
107	0xbdcde9e9	-0.100543804
108	0x3d891688	0.066937506
109	0x3dc9d424	0.09854916
110	0x3d3c2891	0.045937125
111	0xbbd40ec7	-0.006471488
112	0xbc98497a	-0.018589724
113	0x3db3d4f2	0.087808505
114	0x3d5fa5f8	0.05460164
115	0xbda56b21	-0.08077074
116	0x3c06f40c	0.008236896
117	0xbcb2a857	-0.021808786
118	0xbdd022d5	-0.10162894
119	0x3b9d2feb	0.004796972
120	0xbd3cb097	-0.046066847
121	0x3da67170	0.08127105
122	0x3cd427ed	0.025897944
123	0x3cfb7645	0.030696044
124	0x3d385745	0.0450051
125	0xbdd20c66	-0.10256271
126	0x3c9ce661	0.019152822
127	0x3d03020e	0.03198438
128	0xbd7e7fef	-0.062133726
129	0xbc19637a	-0.009362096
130	0x3bb8ce66	0.005639839
131	0xbb9367a4	-0.004498439
132	0x3e472779	0.19448651
133	0x3dcb0073	0.09912195
134	0x3bf8fa3b	0.007598189
135	0xbcafbb73	-0.021451687
136	0x3e267394	0.16255027
137	0xbe2f6b9b	-0.17130892
138	0xbf5bd0a4	-0.85865235
139	0xbdb0b321	-0.08627916
140	0xbce1776f	-0.02752277
141	0xbd89156c	-0.06693539
142	0x3dbc2da0	0.0918839
143	0x3c105561	0.008809418
144	0x3d71f23a	0.059068896
145	0x3d956fb3	0.072966956
146	0xbd550d6e	-0.05201476
147	0xbd84f5e1	-0.0649221
148	0xbe4f9281	-0.2027073
149	0xbd19ad74	-0.037518933
150	0xbdb44dca	-0.088038996
151	0x3c971d8f	0.018446712
152	0xbbc22fae	-0.005926094
153	0xbd7e126a	-0.06202928
154	0xbdd48c15	-0.10378281
155	0xbcf3a378	-0.029741034
156	0x3dba9225	0.09109906
157	0xbd15f8b9	-0.036614154
158	0xbdd6e470	-0.1049279
159	0x3dcc82b5	0.09985868
160	0xbcac2e2c	-0.02101811
161	0xbba24743	-0.0049523427
162	0xbd1527d6	-0.036414944
163	0x3dadd967	0.08488732
164	0xbd295c93	-0.04134805
165	0x3d875598	0.066081226
166	0xbd688419	-0.056766603
167	0xbd0e6dec	-0.0347728
168	0xbbe4c647	-0.0069816443
169	0xbda3590d	-0.079759695
170	0xbdd90421	-0.10596491
171	0x3e05de87	0.13073169
172	0xbd9d0f33	-0.07668915
173	0x3d96218e	0.07330619
174	0xbe5568e7	-0.20840798
175	0xbd085f5e	-0.033294074
176	0xbdea23f3	-0.11432638
177	0x3c44947f	0.011998295
178	0xbdb5b61a	-0.08872624
179	0x3e249908	0.16074002
180	0x3d6f3717	0.058402147
181	0xbe046e91	-0.12932803
182	0x3da894b5	0.082314886
183	0x3d027809	0.031852756
184	0xbb520470	-0.0032046102
185	0x3b3c54ac	0.0028736992
186	0x3dc962da	0.098333076
187	0xbd4bc387	-0.049747016
188	0x3d69cf9b	0.057082754
189	0xbdf52c42	-0.11971332
190	0xbd90bf4c	-0.07067737
191	0x3c215a1a	0.009848142
192	0xbd40d757	-0.047080364
193	0x3d823c52	0.063591614
194	0x3b4c720d	0.003119591
195	0xbcf12317	-0.029435677
196	0xbdeec8bd	-0.116593815
197	0xbdd51ddf	-0.10406088
198	0xbd1ab91d	-0.037774194
199	0xbd413d6b	-0.047177713
200	0xbc914d78	-0.017737135
201	0x3cf687f8	0.030094132
202	0x3db97b02	0.09056665
203	0x3c9f20af	0.019424764
204	0xbc9eac75	-0.019369343
205	0xbde1362f	-0.10996663
206	0x3dc31eb1	0.09527338
207	0x3daa4249	0.08313424
208	0xbf0cbf30	-0.5497923
209	0xbd7e6a57	-0.062113132
210	0x3b39188a	0.0028243386
211	0x3d9e7007	0.07736211
212	0x3e032e72	0.12810686
213	0x3b995106	0.004678848
214	0xbd4e47a5	-0.050361294
215	0xbcef88f3	-0.029240107
216	0x3b0b9d63	0.0021303527
217	0x3dd72b42	0.10506298
218	0xbcb47bb3	-0.02203164
219	0xbd721dfb	-0.059110623
220	0x3d209daa	0.03921286
221	0xbcab7d6e	-0.020933833
222	0xbcd53759	-0.026027368
223	0x3dc8339a	0.09775467
224	0xbd99836f	-0.07495772
225	0xbd39abb4	-0.045329764
226	0xbdb1d1cd	-0.086825944
227	0xbc6ce4d8	-0.0144588575
228	0xbaa645a7	-0.0012685553
229	0x3d6e793c	0.058221087
230	0x3d8e9b51	0.06963218
231	0x3dbf8932	0.0935234
232	0xbd779dd7	-0.060453262
233	0xbd93afa0	-0.07211232
234	0x3b7b5bb8	0.003835423
235	0x3bf88e2a	0.0075853067
236	0xbe37214b	-0.17883794
237	0xbe0fee83	-0.14055829
238	0xbddb9a23	-0.107227586
239	0xbc4a833e	-0.012360392
240	0xbd5bcd33	-0.05366249
241	0xbda6c05d	-0.08142159
242	0x3a5556dc	0.0008138248
243	0xbdae0fd4	-0.08499113
244	0xbd23afef	-0.039962705
245	0xbc8dd543	-0.017313605
246	0x3ddd08d6	0.10792701
247	0xbdf7afc8	-0.120940745
248	0x3d2f5107	0.042801883
249	0xbd99ca48	-0.07509285
250	0xbc395b1f	-0.011313229
251	0xbd1bda23	-0.03804983
252	0x3a946dd1	0.0011324232
253	0x3dce5c68	0.10076219
254	0x3d8a93d2	0.06766476
255	0x3d238517	0.039921846

gru_in.weight_hh_l0 f4 [372, 124]
0	0x3d2d54a3	0.042317044
1	0xbdaacca3	-0.083398126
2	0x3d9233b1	0.071387656
3	0x3c9dca95	0.019261638
4	0x3e042198	0.1290344
5	0xbc6e6893	-0.0145513
6	0xbd2c23c4	-0.042026296
7	0x3e66481f	0.2248845
8	0xbd296d33	-0.041363906
9	0x3c9e4ce2	0.01932377
10	0x3d26aa6d	0.040689874
11	0x3cbf09de	0.023320135
12	0x3df29116	0.11844079
13	0x3d8ed974	0.0697507
14	0x3cd21198	0.025643155
15	0x3d9c0f8e	0.07620154
16	0x3c9314f3	0.017954325
17	0xbc36bcf8	-0.011153452
18	0x3df12fe3	0.11776712
19	0x3d4a1bc6	0.049342893
20	0x3d3c7c5b	0.046017032
21	0xbd961488	-0.07328135
22	0xbc74cfb8	-0.014942102
23	0x3d94973a	0.07255407
24	0xbcbee9a9	-0.023304777
25	0xbd0e96f4	-0.03481193
26	0xbdac548c	-0.084145635
27	0x3e812368	0.25222325
28	0xbc8e1857	-0.01734559
29	0xbd8af264	-0.067845136
30	0xbd9d26d1	-0.07673419
31	0x3d8def26	0.069303796
32	0x3daf35d0	0.08555186
33	0xbcc87b4a	-0.024472851
34	0x3d780562	0.06055201
35	0x3d310059	0.043213222
36	0x3ddddfdc	0.108337134
37	0x3cbe03d6	0.023195188
38	0xbdeeb89c	-0.11656305
39	0x3d716b40	0.058940172
40	0xbe06d057	-0.13165413
41	0x3ca8cdcf	0.02060595
42	0xbc82262c	-0.015887342
43	0x3d8ce7aa	0.06880124
44	0xbd888246	-0.06665473
45	0xbc0ca61f	-0.008584528
46	0x3d928227	0.07153731
47	0xbc0285c7	-0.007966465
48	0xbca6d7cb	-0.02036657
49	0x3e562adc	0.20914787
50	0x3e1fada0	0.15593576
51	0x3d941779	0.072310396
52	0xbe411c45	-0.1885844
53	0x3dd09146	0.10183959
54	0x3d0bfdee	0.034177713
55	0x3d82f7dc	0.06394932
56	0xbdcb1c94	-0.0991756
57	0x3d81d38e	0.06339179
58	0x3dd30558	0.103037536
59	0x3cea82a2	0.028626744
60	0x3dd0a03e	0.10186814
61	0x3c22c9c9	0.009935805
62	0x3cc59a32	0.024121378
63	0x3cdb09db	0.026738098
64	0xbdc47ff4	-0.095947176
65	0x3e10b298	0.14130628
66	0x3ddf542c	0.109047264
67	0x3c76a62d	0.015054268
68	0x3da5674a	0.080763415
69	0x3dd8e918	0.10591334
70	0xbe21b7a8	-0.15792716
71	0xbd1efc61	-0.038814906
72	0xbd9abbd3	-0.07555356
73	0xbc5a09c1	-0.01330799
74	0xbde3fcd2	-0.11132206
75	0x3dc4e4d2	0.096139565
76	0x3dae316a	0.08505519
77	0xbcbefc04	-0.02331353
78	0xbd2cebc5	-0.042217035
79	0x3c4de3ad	0.012566489
80	0xbcb9e012	-0.022689853
81	0x3c5f1932	0.013616847
82	0x3e1f6143	0.15564446
83	0x3d5b736b	0.053576868
84	0xbc6ac438	-0.014329009
85	0xbd92f5bc	-0.07175776
86	0xbd536565	-0.05161037
87	0xbe1be758	-0.1522497
88	0xbb7afdd4	-0.0038298266
89	0x3d02f116	0.0319682
90	0xbd012acb	-0.03153495
91	0xbdf4fffe	-0.11962889
92	0x3d76a68b	0.06021742
93	0xbd99d6e1	-0.07511688
94	0xbe0f3c59	-0.13987865
95	0xbdd136ea	-0.10215552
96	0x3d6b62c1	0.057467226
97	0xbd453c26	-0.048153065
98	0x3d8a1378	0.067419946
99	0x3d675d2f	0.05648535
100	0x3c67a4db	0.014138426
101	0xbd0a49f8	-0.03376195
102	0xbd31b5c9	-0.043386254
103	0x3da3face	0.080068216
104	0xbda2be32	-0.07946433
105	0xbdd8cd8e	-0.105860814
106	0x3d69c9bd	0.05707716
107	0xbc2d83c6	-0.010590499
108	0x3bf994c4	0.007616611
109	0x3c136502	0.00899625
110	0x3d005506	0.031331085
111	0xbd4aac81	-0.04948092
112	0x3d3f61e9	0.046724234
113	0x3c451eed	0.012031299
114	0x3d2b88de	0.041878574
115	0xbcbbb1a6	-0.022911858
116	0xbd465f38	-0.04843065
117	0x3cbbed1f	0.022940217
118	0xbd5f3987	-0.05449822
119	0x3b78c5f3	0.0037959784
120	0xbc16e8aa	-0.009210745
121	0xbda3fc13	-0.08007064
122	0xbdad39c0	-0.084582806
123	0xbdc48bbe	-0.09596966
124	0xbd363244	-0.04448153
125	0x3dfe10c2	0.1240554
126	0x3c6a37bf	0.0142955175
127	0xbdcb9abd	-0.09941623
128	0xbdda6e40	-0.1066556
129	0xbc372aaa	-0.0111796055
130	0xbd901cd8	-0.070367515
131	0xbd358639	-0.044317458
132	0x3e2ea85b	0.1705641
133	0xbd97a96b	-0.07405361
134	0x3e2734e2	0.16328767
135	0xbdafbedc	-0.085813254
136	0x3d891dd9	0.06695146
137	0xbd102dc4	-0.035199896
138	0xbd854a86	-0.06508355
139	0xbd9f69d8	-0.0778386
140	0x3d4959b0	0.0491578
141	0xbe34bca1	-0.17650081
142	0x3e28a94e	0.16470835
143	0x3db7bbee	0.089713916
144	0xbd4a7896	-0.049431406
145	0x3de1ff15	0.11034981
146	0xbd37ff04	-0.044920936
147	0x3ddebff7	0.10876458
148	0xbdb2a2a6	-0.08722429
149	0xbd59f4c6	-0.05321195
150	0x3e13590b	0.14389436
151	0x3d40e5e0	0.047094226
152	0xbdf185be	-0.117930874
153	0xbd3a5677	-0.045492616
154	0xbe477213	-0.1947711
155	0x3d4eec74	0.050518468
156	0xbd0fd0c2	-0.035111196
157	0xbe0f3504	-0.13985068
158	0xbd299a40	-0.04140687
159	0xbb49e325	-0.0030805555
160	0x3c4d379f	0.012525468
161	0x3c1138c7	0.008863634
162	0xbe130f5b	-0.14361326
163	0xbe08e25f	-0.13367604
164	0x3cfb0965	0.030644128
165	0xbda5e0de	-0.08099531
166	0xbd955dcc	-0.07293281
167	0xbdaad376	-0.08341114
168	0xbd2c59eb	-0.04207794
169	0xbd3977f8	-0.045280427
170	0xbdb575ef	-0.08860385
171	0x3df61257	0.12015217
172	0xbdcfcb67	-0.10146218
173	0x3e89acc4	0.26889622
174	0x3cce86fa	0.025210846
175	0x3cb218cb	0.021740338
176	0x3dac03ee	0.08399187
177	0xbd2371b3	-0.039903354
178	0xbc9e57c0	-0.019328952
179	0x3cc907a5	0.024539778
180	0xbd701bcd	-0.058620263
181	0x3d17a13e	0.037019007
182	0x3a6493e8	0.00087195495
183	0x3cf0edbb	0.029410234
184	0x3c1f8e69	0.009738543
185	0xbcba8c42	-0.022771958
186	0xbd42f37d	-0.04759549
187	0xbd2c701a	-0.042099096
188	0x3d34a84a	0.044105805
189	0xbcb0f952	-0.02160326
190	0xbdb9edf1	-0.09078587
191	0xbde1711f	-0.11007904
192	0xbb1d6f0f	-0.0024022495
193	0xbdcf29ea	-0.10115416
194	0x3d650202	0.055910118
195	0x3d8a374c	0.06748828
196	0x3d110d6f	0.035413202
197	0xbcce2e69	-0.025168614
198	0xbdeb101a	-0.114776805
199	0x3cf220fb	0.029556742
200	0x3d9d300c	0.0767518
201	0x3dfd15f7	0.12357705
202	0x3d957af6	0.072988436
203	0xbd505126	-0.05085864
204	0xbcecf483	-0.028925186
205	0xbde4d74d	-0.11173878
206	0xbd83753a	-0.064188436
207	0xbd34fda9	-0.04418722
208	0x3d00c35b	0.031436305
209	0x3db10d75	0.08645145
210	0xba5558ad	-0.0008138519
211	0xbda834da	-0.08213206
212	0xbda0f547	-0.07859283
213	0x3e00fd97	0.12596737
214	0x3de9c742	0.114149585
215	0xbca3e0e3	-0.020004695
216	0x3b7508ba	0.0037389235
217	0xbb9ef84f	-0.004851378
218	0xbd6810b8	-0.05665657
219	0x3c296694	0.010339398
220	0x3d3b5c41	0.045742277
221	0x3d085371	0.0332827
222	0xbe6c8e64	-0.23101193
223	0xbd8a5d95	-0.067561306
224	0xbbd1e017	-0.0064048874
225	0xbd61ee65	-0.05515899
226	0x3e073d11	0.13206889
227	0x3d36992b	0.044579666
228	0x3cbd2edf	0.023093639
229	0xbd88f7ed	-0.06687913
230	0x3c2fc2b1	0.01072757
231	0xbc5f47a6	-0.013627922
232	0x3c652da3	0.013987931
233	0xbc77c9f4	-0.015123833
234	0xbdcf0ee4	-0.10110262
235	0xbdcd7f99	-0.10034103
236	0xbda051e8	-0.078281224
237	0xbd876632	-0.06611289
238	0x3d6511bd	0.05592512
239	0xbba5b6df	-0.0050572003
240	0xbda8c3d7	-0.082404785
241	0xbd71890f	-0.0589686
242	0x3d88261c	0.06647894
243	0xbd887dd3	-0.06664624
244	0xbd81559d	-0.063151576
245	0xbe24bc57	-0.16087471
246	0x3c1e92c3	0.009678545
247	0x3d5490b2	0.051895805
248	0xbdd9c7e2	-0.10633828
249	0x3cf17623	0.029475277
250	0x3d3616d9	0.044455383
251	0xbe0676ee	-0.13131306
252	0xbe159122	-0.14606145
253	0x3d88ae88	0.06673914
254	0xbdf56f80	-0.119841576
255	0x3e025a50	0.12729764

gru_in.bias_ih_l0 f4 [372]
0	0x3d91d8f6	0.0712146
1	0x3bf8ab5c	0.007588787
2	0xbcc01818	-0.023448989
3	0xbcae4922	-0.021275107
4	0xbbadcb9c	-0.005303813
5	0x3da82e4b	0.08211955
6	0xbbaaccae	-0.005212388
7	0x3beebe5f	0.0072858776
8	0xbd9240a6	-0.07141237
9	0x3d8f854a	0.07007845
10	0xbc558d27	-0.013034142
11	0xbd96e710	-0.073682904
12	0xbe0538ad	-0.13009901
13	0x3db83a8a	0.089955404
14	0x396d8278	0.00022650685
15	0xbdcf8e33	-0.10134544
16	0x3d022bf9	0.031780217
17	0xbd850865	-0.06495742
18	0xbc1d4c75	-0.009600748
19	0xbd021039	-0.031753752
20	0x3d128a2d	0.035776306
21	0x3bbb1da5	0.005710321
22	0xbd647b17	-0.05578145
23	0xbdac7b18	-0.08421916
24	0xbc46c1b6	-0.012131145
25	0xbbaeea02	-0.0053379545
26	0x3ce7d576	0.028300028
27	0xbcf5c48f	-0.030000953
28	0xbd91281c	-0.070877284
29	0x3d82abda	0.06380434
30	0x3c53afff	0.012920379
31	0x3cb45dfa	0.022017468
32	0x3d6ae49f	0.057346936
33	0x3cb3fe12	0.021971736
34	0x3dbc3776	0.09190266
35	0x3d7f3093	0.062302183
36	0xba1ae394	-0.00059085456
37	0xbd4b2e63	-0.049604785
38	0xbda87e24	-0.082271844
39	0xbcea0c56	-0.028570335
40	0xbd1c477f	-0.03815412
41	0x3c0b147f	0.008488773
42	0x3c6c5795	0.014425178
43	0xbd5535f9	-0.052053425
44	0x3d8e96e1	0.069623716
45	0x3dd6c47b	0.104866944
46	0x3d94d00a	0.07266243
47	0x3a34983e	0.0006889141
48	0x3dba5c2b	0.09099611
49	0xbd0fa5fa	-0.035070397
50	0x3ddfb148	0.109224856
51	0x3e0436d2	0.12911537
52	0xbd6c2e2f	-0.05766123
53	0xbd5dba6a	-0.054132856
54	0xbdcac34a	-0.0990053
55	0x3e0b1121	0.13580753
56	0xbd34fced	-0.04418652
57	0x3ca0abe8	0.019613221
58	0xbd3314a0	-0.04372084
59	0xbd933828	-0.07188445
60	0x3d085b26	0.03329005
61	0xbce0eb0e	-0.027455833
62	0xbca34420	-0.019929945
63	0xbd7f01a6	-0.06225743
64	0x3d31078f	0.0432201
65	0xbd21a467	-0.039463427
66	0xbd81a94f	-0.06331121
67	0xbd593a4e	-0.05303412
68	0x3d9b5937	0.07585376
69	0xbda5ba97	-0.0809223
70	0x3d04acb5	0.03239127
71	0xbdb2841e	-0.087166056
72	0xbd881227	-0.06644087
73	0xbe00d0a9	-0.12579598
74	0xbd22c912	-0.039742537
75	0x3d8bcc84	0.06826118
76	0x3e10048d	0.14064236
77	0xbc499c92	-0.012305396
78	0xbcf7fcf7	-0.03027199
79	0xbbff5bfa	-0.007792947
80	0x3d9a1af2	0.07524671
81	0x3ca6d2a8	0.02036412
82	0xbc8164db	-0.015795162
83	0x3ceb0cb1	0.028692575
84	0x3d8a53de	0.06754278
85	0xbd8a0bf4	-0.06740561
86	0xbdb63873	-0.088974856
87	0xbc271863	-0.010198685
88	0xbdc12eb0	-0.09432733
89	0x3d9e6cf8	0.07735628
90	0x3d75742e	0.05992525
91	0xbd25427d	-0.04034661
92	0x3d031266	0.031999968
93	0x3ae0fd1f	0.001716528
94	0x3ce22621	0.027606072
95	0x3dcb3ec6	0.099240825
96	0x3d88edd5	0.06685988
97	0xbd455937	-0.048180785
98	0x3d7403e5	0.059574027
99	0x3ca2bbbf	0.019864915
100	0x3d6141d1	0.054994408
101	0xbc4ccea1	-0.012500436
102	0xbd154d59	-0.036450718
103	0x3cf37643	0.029719478
104	0x3d4492ef	0.04799169
105	0x3d300fc6	0.042983793
106	0x3db7991e	0.08964752
107	0x3ddd7f9f	0.108153574
108	0xbc9d948f	-0.019235877
109	0xbbd17da3	-0.006393151
110	0xbd8e44aa	-0.069466904
111	0xbd23afb7	-0.039962497
112	0x3d15dc63	0.03658713
113	0x3d830a48	0.06398445
114	0x3d37c9f3	0.04487033
115	0x3d0d1e6b	0.034452837
116	0x3d9de941	0.07710505
117	0xbe009d2f	-0.12559961
118	0x3db0083d	0.08595321
119	0xbd1f157a	-0.03883884
120	0xbdb80b42	-0.08986522
121	0x3ca2831a	0.019837905
122	0xbda3dfcc	-0.0800167
123	0xbd1d6928	-0.038430363
124	0x3c9abf67	0.018890096
125	0xbe530ecc	-0.20611113
126	0xbd86d3b9	-0.06583352
127	0xbce31ec2	-0.027724627
128	0xbd4e10fb	-0.050309163
129	0x3a9acabc	0.0011809687
130	0xbd80ac28	-0.06282836
131	0xbd3378c0	-0.043816328
132	0xbb405375	-0.002934662
133	0xbc31d2a0	-0.01085344
134	0xbd959756	-0.07304256
135	0x3bdb34c0	0.006689638
136	0xbd338da8	-0.043836266
137	0xbd82d15d	-0.06387589
138	0x3d4af39b	0.049548727
139	0x3c534687	0.012895233
140	0xbde290fd	-0.110628106
141	0xbd2b5489	-0.041828666
142	0xbd849611	-0.064739354
143	0xbd949b1c	-0.07256147
144	0xbc4aa79c	-0.012369063
145	0xbd901d71	-0.070368655
146	0xbd73137e	-0.05934476
147	0xbdf2f541	-0.11863185
148	0xbd885784	-0.06657317
149	0x3b7fe6ea	0.0039047548
150	0x3d4fe68f	0.050756987
151	0xbdf22f4b	-0.11825427
152	0xbd962cfa	-0.07332797
153	0x3d848385	0.06470398
154	0xbcf8aafe	-0.030354973
155	0xbe075aa1	-0.13218166
156	0xbda8a3be	-0.08234356
157	0xbdd4f3f4	-0.10398093
158	0x3d4f4e09	0.05061153
159	0xbd402f3c	-0.046920046
160	0x3c484391	0.01222314
161	0x3d010b36	0.031504832
162	0xbdda335f	-0.106543295
163	0x3c446e44	0.01198918
164	0xbcca9a94	-0.024731912
165	0xbe19b31d	-0.15009733
166	0xbd505d49	-0.050870214
167	0xbd985e86	-0.07439904
168	0x3bb382aa	0.005478223
169	0xbcbfdcac	-0.023420654
170	0xbb33e2ec	-0.0027448488
171	0xbd33839a	-0.043826677
172	0xbdc41200	-0.09573746
173	0x3dbfbb3b	0.09361883
174	0xbd1f7e97	-0.038939085
175	0xbd579bd9	-0.052638862
176	0xbd8395b3	-0.06425037
177	0xbd61d4b6	-0.055134498
178	0xbc66ec3e	-0.01409441
179	0x3cf5bc7b	0.029997101
180	0x3cc2f5cf	0.023798851
181	0xbda30c79	-0.07961363
182	0xbd6f1ffa	-0.058380105
183	0xbd5ccb0a	-0.05390457
184	0xbd36d75f	-0.044638988
185	0xbe2074e4	-0.1566959
186	0x3a5510fb	0.00081278355
187	0xbc639be4	-0.013892148
188	0x3db40533	0.08790054
189	0xbe093e4d	-0.13402672
190	0xbd433199	-0.047654722
191	0xbdf8b306	-0.12143521
192	0xbd48ca10	-0.049020827
193	0x3d3b3ae0	0.045710444
194	0x3c2f52cc	0.010700893
195	0xbc23c225	-0.009995018
196	0xbdd06636	-0.10175745
197	0xbda71c0d	-0.08159647
198	0xbd66e3f7	-0.056369748
199	0xbd61fe02	-0.05517388
200	0xbd191194	-0.03737028
201	0xbdbf5192	-0.0934173
202	0xbd9c090e	-0.076189145
203	0xbda13127	-0.07870703
204	0xbe1113d4	-0.1416772
205	0xbd20dd96	-0.03927382
206	0xbe0cb9d9	-0.1374277
207	0xbde6c7cc	-0.11268577
208	0x3b724be0	0.0036971495
209	0x3d4e58d6	0.05037769
210	0x3a4fde72	0.000792957
211	0xbd11f30f	-0.03563219
212	0xbd6b1ba7	-0.05739942
213	0xbddcf17b	-0.10788246
214	0xbc8e1b3b	-0.017346969
215	0xbdb40eb9	-0.087918706
216	0xbcefffff	-0.029296873
217	0x3cf635e1	0.030054988
218	0xbd256aec	-0.04038517
219	0xbe150765	-0.14553602
220	0xbb1d6015	-0.0024013568
221	0xbe288ac5	-0.16459186
222	0xbd25269d	-0.040320028
223	0xbdc810b5	-0.097688116
224	0xbdb94603	-0.09046557
225	0xbe1a8516	-0.15089831
226	0x3d5f2316	0.05447682
227	0xbcadbe88	-0.021209016
228	0xbdc27441	-0.0949483
229	0xbd05fd72	-0.032712407
230	0xbe10bf14	-0.1413539
231	0x3bcb17ee	0.006197921
232	0x3d119a33	0.035547446
233	0xbc1d708f	-0.009609356
234	0xbda96e4b	-0.0827299
235	0xbe261708	-0.16219723
236	0x3d0edbb8	0.03487751
237	0x3cebfd9a	0.02880745
238	0x3c6862dc	0.014183726
239	0x3cfd31db	0.030907562
240	0xbcfce449	-0.030870574
241	0xbe219d07	-0.15782557
242	0xbda21e13	-0.079158925
243	0x3bb151da	0.005411369
244	0xbdf24438	-0.11829418
245	0xbdaa7350	-0.08322775
246	0xbdaf411f	-0.08557343
247	0xbd30d3ea	-0.043170847
248	0xbd391cae	-0.045193367
249	0xbcba6b73	-0.022756314
250	0x3dbf999c	0.093554705
251	0x3d950884	0.07277015
252	0x3d773ca6	0.060360573
253	0xbda408e3	-0.080095075
254	0x3d1e1dd2	0.038602658
255	0x3dca6416	0.09882371

gru_in.bias_hh_l0 f4 [372]
0	0x3d73626f	0.059420045
1	0xbbe07af2	-0.0068505937
2	0x3ca5f552	0.02025858
3	0x3d44a77a	0.04801128
4	0x3c9117b7	0.017711503
5	0x3ca3e58f	0.020006923
6	0xbc64f276	-0.013973823
7	0xbd38a133	-0.045075607
8	0x3ca428f2	0.020039055
9	0x3dc7ff82	0.09765531
10	0xba405b7a	-0.000733785
11	0xbd7a6d5b	-0.061139446
12	0xbdb3753a	-0.087625936
13	0x3c9bb85a	0.019008804
14	0x3d76149a	0.06007824
15	0x3d521b34	0.051295474
16	0xbd849503	-0.06473734
17	0xbcc13f7d	-0.023589844
18	0xbd549df8	-0.051908463
19	0x3d6046a0	0.054754853
20	0xbc5f1914	-0.013616819
21	0xbde6a05a	-0.112610534
22	0x3cb824b5	0.02247844
23	0xbde6beb3	-0.11266842
24	0xbbdb1c9f	-0.0066867615
25	0xbd71e559	-0.059056614
26	0x3dbcaaf7	0.092122965
27	0x3d694690	0.05695206
28	0xbd8b1125	-0.067903794
29	0x3d14f8ba	0.036370017
30	0x3da93f3b	0.082640134
31	0xbd5adf08	-0.053435355
32	0x3ddaaf30	0.106779456
33	0x3c86a8bb	0.016437879
34	0xbbb8e7a7	-0.0056428495
35	0xbcd5c00d	-0.026092554
36	0x3e07b4ea	0.13252607
37	0x3d52acbb	0.05143426
38	0xbc94e97b	-0.018177738
39	0xbc55859a	-0.013032341
40	0xbd877320	-0.06613755
41	0xbbd2164a	-0.0064113485
42	0xbd3eaf64	-0.046553984
43	0xbc8aa499	-0.01692419
44	0xbd8a5eeb	-0.067563854
45	0x3db849be	0.0899844
46	0x3d1b99c5	0.037988443
47	0xbd95246b	-0.07282337
48	0xbd057f68	-0.032592207
49	0x3d522046	0.05130031
50	0x3df24a5c	0.11830589
51	0x3dae1b64	0.08501318
52	0xbca4352d	-0.020044887
53	0xbd69b24c	-0.057054803
54	0xbd87d59d	-0.066325404
55	0x3d20ccb7	0.03925773
56	0x3d4387a2	0.04773677
57	0x3e0a9ebf	0.1353712
58	0x3d8ae260	0.06781459
59	0x3d41b50c	0.0472918
60	0xbde40fe9	-0.11135847
61	0xbc60349f	-0.013684421
62	0xbb171ba7	-0.0023057254
63	0x3d37ef19	0.044905756
64	0x3dd2a2cb	0.102849565
65	0x3d97955e	0.074015364
66	0x3dd0dd5f	0.10198473
67	0xbc9169a2	-0.017750565
68	0x3d9a9969	0.07548792
69	0x3bd54590	0.0065085366
70	0x3d0e4e25	0.034742493
71	0xbd0d7109	-0.034531627
72	0xbd1785d5	-0.036992867
73	0xbdea2be4	-0.11434153
74	0x3d348769	0.04407445
75	0xbdaa3a67	-0.083119206
76	0x3baebf4b	0.0053328625
77	0xbd5a4304	-0.053286567
78	0xbd74ba10	-0.059747756
79	0xbd5b4a97	-0.05353793
80	0x3d928a6c	0.07155308
81	0xbd5e8933	-0.054330062
82	0x395eee0a	0.00021260246
83	0xbcae6ebe	-0.02129304
84	0x3da20b59	0.07912321
85	0xbd19c6dd	-0.037543166
86	0xbe2b5ef3	-0.16735439
87	0xbc8c7230	-0.017144293
88	0xbbc67bdc	-0.0060572457
89	0x3cb1f10d	0.021721387
90	0x3d8b7dac	0.068110794
91	0x3c9350da	0.017982889
92	0x3dc83ec8	0.097775996
93	0x3e1db67a	0.1540164
94	0xbdb94f61	-0.090483434
95	0x3d3224ed	0.043492246
96	0xbd352eb0	-0.044233978
97	0xbc8d9520	-0.017283022
98	0x3d4730f4	0.04863067
99	0xbd53dc46	-0.05172374
100	0xbd8284a8	-0.063729584
101	0x3db517a1	0.088423975
102	0xbd33ad85	-0.043866653
103	0xbd81e744	-0.063429385
104	0xbd6087a7	-0.05481687
105	0x3be1cc43	0.006890805
106	0x3cd3560c	0.025797866
107	0x3da225d6	0.07917373
108	0x3d8d1a14	0.0688974
109	0xbd90e2c7	-0.07074504
110	0x3c9c4bf8	0.019079193
111	0xbca7e628	-0.02049549
112	0x3d982831	0.07429541
113	0x3d4f878b	0.050666373
114	0x3dc09990	0.0940429
115	0x3dc687d3	0.09693875
116	0xbd8c0024	-0.06835964
117	0xbe075d3a	-0.13219157
118	0x3cad5799	0.021159934
119	0xbc68a663	-0.014199826
120	0xbcf6894f	-0.03009477
121	0x3d595e24	0.053068295
122	0x3cc8dd91	0.024519714
123	0xbd85217f	-0.065005295
124	0xbd502342	-0.050814874
125	0xbe343b66	-0.17600784
126	0xbe436014	-0.1907962
127	0xbe172469	-0.14759983
128	0xbd79403c	-0.060852274
129	0xbdbe16d9	-0.092817016
130	0xbd99f330	-0.075170875
131	0xbd45f5b5	-0.048330028
132	0x3cfa9ae1	0.03059143
133	0x3c850f41	0.016242625
134	0xbcb032a9	-0.021508532
135	0xbc8968e3	-0.016773647
136	0xbd3df309	-0.046374355
137	0xbd8a566b	-0.06754764
138	0xbd6e4733	-0.05817337
139	0xbd8148ba	-0.063126996
140	0xbc80f1cb	-0.015740296
141	0xbcbecb16	-0.023290198
142	0x3d4a7c4b	0.04943494
143	0xbdc00045	-0.093750514
144	0xbcbc29a6	-0.022969078
145	0xbe178b84	-0.14799315
146	0xbbac452c	-0.0052572694
147	0x3b91b352	0.0044464255
148	0xbe01c42f	-0.12672494
149	0xbd809b4f	-0.06279623
150	0xbc555dd9	-0.013022863
151	0x3afab8bb	0.001912854
152	0xbdd6bdf1	-0.10485447
153	0x3d8a0bed	0.06740556
154	0xbdb0ec6d	-0.08638845
155	0xbd60f374	-0.054919675
156	0xbd85d780	-0.06535244
157	0xbdcb6d3b	-0.099329434
158	0xbd97c56a	-0.074107006
159	0xbd3ddd4c	-0.046353623
160	0xbd505b52	-0.05086834
161	0xbd47499d	-0.048654187
162	0xbcad7b9e	-0.02117711
163	0xbd07502d	-0.033035446
164	0xbd8441a3	-0.06457832
165	0xbdea4641	-0.11439181
166	0xb98f7eff	-0.00027369705
167	0xbe17c2ae	-0.14820358
168	0xbdb977e5	-0.09056071
169	0x3d100341	0.035159353
170	0xbde123fc	-0.109931916
171	0xbd6dfad7	-0.058100548
172	0xbc0451ef	-0.008076175
173	0xbd597a9c	-0.053095445
174	0x3baa678c	0.005200332
175	0x3d018cb6	0.031628333
176	0xbda1af87	-0.07894807
177	0x3c6c0c14	0.0144071765
178	0xbdbea234	-0.093082815
179	0xbd6119a4	-0.054956093
180	0xbdd7d6ba	-0.10539003
181	0xbd5c38ca	-0.053765096
182	0xbd196418	-0.037448972
183	0xbd14c0d9	-0.036316726
184	0xbdcc53b4	-0.099769026
185	0xbdb84238	-0.08997005
186	0x3d856e90	0.06515229
187	0xbd01046a	-0.03149835
188	0xbd65fac8	-0.056147367
189	0xbda0f08c	-0.07858381
190	0xbc1099ea	-0.0088257585
191	0xbd8a14a8	-0.06742221
192	0x3d5ae152	0.05343754
193	0xbdcf2cf8	-0.10115999
194	0xbdfe7641	-0.12424899
195	0xbcd61273	-0.026131844
196	0xbdd215ce	-0.10258065
197	0xbe20e031	-0.15710522
198	0xbda3c08b	-0.07995709
199	0x3c6d7318	0.0144927725
200	0xbca8eb9f	-0.020620165
201	0x3c323f40	0.010879338
202	0x3cd9beb7	0.026580198
203	0xbd2ee14a	-0.04269532
204	0x3d0cecc0	0.03440547
205	0xbe22cb6f	-0.15897916
206	0xbce4f009	-0.027946489
207	0xbd149870	-0.03627819
208	0xbdfbbb1b	-0.12291547
209	0xbda09811	-0.07841504
210	0xbd6bae25	-0.057539124
211	0xbd9f78cc	-0.07786712
212	0xbd59af77	-0.053145852
213	0xbd9a8c0f	-0.07546245
214	0xbde101ba	-0.109866574
215	0xbd31b529	-0.04338566
216	0xbe15edd2	-0.14641502
217	0xbd9de230	-0.077091575
218	0xbe00f5de	-0.12593791
219	0xbd9fc863	-0.078018926
220	0x3c04401c	0.0080719255
221	0xbe23899d	-0.15970464
222	0xbd4ad6fd	-0.049521435
223	0x3c84a554	0.016192116
224	0xbdeeba30	-0.11656606
225	0xbd8ff6f7	-0.07029527
226	0x3d31ae72	0.043379255
227	0xbde353c7	-0.11099964
228	0xbe0158c8	-0.12631524
229	0x3cfaf147	0.030632628
230	0xbbd273a1	-0.0064224754
231	0x3cb370b2	0.021904323
232	0xbd98b753	-0.07456841
233	0xbd842e3a	-0.064541295
234	0xbc1f2151	-0.009712533
235	0xbdd0f00b	-0.102020346
236	0xbbfb75e7	-0.007673967
237	0x3b8c7f15	0.0042876103
238	0xbdca098f	-0.098651044
239	0xbd932b82	-0.07186033
240	0xbd93568c	-0.07194242
241	0xbd59c2d2	-0.05316431
242	0xbd39d3cb	-0.045367997
243	0xbe139b1e	-0.14414641
244	0xbdc25083	-0.09488013
245	0xbdc1420a	-0.09436424
246	0x3da3398d	0.07969961
247	0xbd9814c9	-0.074258395
248	0x3bc3896b	0.005967309
249	0x3ce92496	0.028459828
250	0xbe0bf26c	-0.13666695
251	0x3d42f346	0.047595285
252	0x3ceb88d1	0.028751763
253	0xbe17cb63	-0.1482368
254	0xbceaa426	-0.028642725
255	0x3da04533	0.07825699

gru_out.weight_ih_l0 f4 [372, 3]
0	0xbcc20fe6	-0.023689222
1	0xbdeef463	-0.11667707
2	0x3d34a0a3	0.044098508
3	0xbd9ee05e	-0.077576384
4	0x39394f88	0.00017672603
5	0xbc9c2a84	-0.019063242
6	0xbd96b585	-0.07358841
7	0x3f646b18	0.8922591
8	0xbba97f21	-0.0051726256
9	0x3d1593fc	0.036518082
10	0xbe91700e	-0.28405803
11	0x3db2f416	0.08737962
12	0x3d00d106	0.03144934
13	0xbedc91ec	-0.4308008
14	0xbdbed4a9	-0.093179055
15	0xbcd8fb02	-0.026486877
16	0xbdab59c7	-0.08366733
17	0xbc0509a9	-0.008119979
18	0xbcb3faca	-0.021970171
19	0xbb3ade7c	-0.0028513959
20	0xbb4688d9	-0.003029397
21	0xbd8aa34b	-0.06769427
22	0xbde6407c	-0.11242768
23	0x3dabaf20	0.08383012
24	0x3d20927f	0.03920221
25	0xbf22bff1	-0.6357413
26	0xbc3d73dc	-0.011563268
27	0x3d52e3af	0.051486667
28	0xbdc3260e	-0.09528743
29	0x3d674996	0.05646666
30	0x3db0b797	0.08628767
31	0x3e7406fc	0.2383079
32	0xbd38d4be	-0.04512476
33	0x3d268cc6	0.040661596
34	0x3d29653e	0.041356318
35	0xbd8eae48	-0.06966835
36	0x3e21ce69	0.15801395
37	0x3e9a5918	0.30146098
38	0xbc8886ce	-0.016665842
39	0xbd642f81	-0.055709366
40	0xbe4f481a	-0.20242348
41	0x3c811f6e	0.015762057
42	0x3e0c075e	0.13674685
43	0x3e2c58af	0.16830705
44	0xbada0db7	-0.0016636167
45	0xbb736901	-0.0037141445
46	0x3e5de390	0.2166884
47	0xbc6dcba4	-0.014513884
48	0x3c74dbaa	0.01494495
49	0xbf16c8e0	-0.5890026
50	0xbd45bbbe	-0.048274748
51	0xbb933e0a	-0.0044934796
52	0xbe9d0c16	-0.30673283
53	0xbd3ec6ab	-0.046576183
54	0xbd226e5b	-0.039656024
55	0x3e06d781	0.13168146
56	0x3ceab414	0.028650321
57	0x3d40d988	0.047082454
58	0x3e0a6701	0.13515855
59	0x3c22a7d8	0.009927712
60	0x3e51ccdb	0.20488302
61	0x3d55c977	0.052194085
62	0xbdd6a64f	-0.104809396
63	0x3d99bfe3	0.075073026
64	0x3dff51f3	0.124668024
65	0x3c24f353	0.010067779
66	0xbd9fcf20	-0.07803178
67	0xbe76a9a9	-0.24088158
68	0xbc596fdb	-0.013271297
69	0x3e4d6d85	0.2006131
70	0x3fa7a561	1.3097345
71	0x3cbf4bd3	0.023351585
72	0xbd7c2f9f	-0.061568853
73	0xbe8561d0	-0.26051188
74	0x3c32c262	0.010910602
75	0x3e9bac5b	0.30404934
76	0x3dd8f4b3	0.10593548
77	0x3d471aa9	0.04860941
78	0x3e653b2d	0.22385855
79	0x3e820786	0.25396365
80	0xbe24d6c3	-0.1609755
81	0xbcde6725	-0.027148793
82	0x3cd7841d	0.026308114
83	0x3d3bfba1	0.04589427
84	0xbc376bba	-0.011195118
85	0xbeb27088	-0.3485148
86	0x3dbc8f07	0.09206968
87	0xbd0096af	-0.031393703
88	0x3ea7da28	0.32783628
89	0x3da75715	0.081709065
90	0x3d1598ee	0.0365228
91	0xbe35c6f7	-0.1775168
92	0xbd6a1e98	-0.057158083
93	0x3e34e3b8	0.17664993
94	0xbe4559b7	-0.19272505
95	0xbe6fe1d4	-0.2342599
96	0x3dbc47ea	0.09193404
97	0x3f0e995f	0.55702776
98	0xbc9acb48	-0.01889576
99	0x3cdf1560	0.027231872
100	0xbe93abec	-0.28842103
101	0x3ca1024c	0.019654416
102	0xbacb0acc	-0.0015490889
103	0xbe8188b6	-0.25299615
104	0xbca4e3a2	-0.020128075
105	0xbd577ae4	-0.052607432
106	0xbec642a3	-0.38722715
107	0xbd2a70e9	-0.041611586
108	0xbd76ea02	-0.06028176
109	0x3da693e2	0.08133675
110	0x3d7e484b	0.062080663
111	0xbd5e57c2	-0.05428291
112	0x3d72af1b	0.059249025
113	0x3ce1a081	0.027542355
114	0x3c054aef	0.008135541
115	0xbdd9750b	-0.10618027
116	0x3dc3dfdd	0.09564183
117	0x3dc6aec8	0.09701306
118	0xbe772d15	-0.24138291
119	0x3c7ca395	0.01541986
120	0xbd8c92bb	-0.06863924
121	0x3eef9fb8	0.46801543
122	0xbc86397a	-0.016384829
123	0xbd1e7904	-0.03868963
124	0x3c773488	0.015088208
125	0x3c0844db	0.008317198
126	0x3d56b044	0.052414194
127	0x3d12ea4d	0.035867978
128	0xbd654d4b	-0.055981915
129	0xbd97a15d	-0.074038245
130	0x3ddc035c	0.10742828
131	0x3c9a9bcf	0.018873123
132	0x3c54c53e	0.012986479
133	0x3cb3d025	0.021949837
134	0x3c5985d5	0.013276537
135	0x3c989757	0.018626852
136	0x3e7f6308	0.24940121
137	0x3e5de616	0.21669802
138	0x3bf8713a	0.007581857
139	0x3e1ded1f	0.15422486
140	0xbd2d43cd	-0.042300988
141	0xbc6be0b8	-0.014396839
142	0x3df54763	0.119765066
143	0xbe45bbf9	-0.19309987
144	0x3c4b5951	0.012411431
145	0xbd287f23	-0.041136872
146	0xbb80acb9	-0.00392684
147	0xbd3e970d	-0.046530772
148	0x3e961e04	0.29319775
149	0xbd5042f2	-0.050845094
150	0x3db3e009	0.08782966
151	0x3d2f08be	0.042732947
152	0x3d05a347	0.032626417
153	0xbc85d132	-0.016335104
154	0x3dd2c1c7	0.10290866
155	0x3d842cbc	0.06453845
156	0xbc0aed38	-0.008479409
157	0x3fba6f39	1.4565192
158	0xbc83ec11	-0.016103776
159	0x3c3725e2	0.011178466
160	0xbd30454a	-0.04303483
161	0xbd611277	-0.05494925
162	0xbc892773	-0.016742444
163	0x3ef238dd	0.47309008
164	0x3cedffd3	0.02905265
165	0xbdbd95f7	-0.09257119
166	0x3eec7a26	0.46186942
167	0xbd0a0211	-0.033693377
168	0xbda7cc57	-0.081932716
169	0x3f17dec1	0.5932427
170	0x3d9e54d6	0.07731025
171	0xbe1a7315	-0.15082963
172	0x3d3c8857	0.04602846
173	0xbe0c35ad	-0.1369235
174	0x3d604158	0.054749817
175	0xbfd2c994	-1.6467767
176	0x3c89735e	0.016778644
177	0x3a7671e6	0.00094011275
178	0x3e43067e	0.19045445
179	0x3d8837b0	0.066512465
180	0xbdc491c2	-0.095981136
181	0x3e330518	0.17482412
182	0x3cc13901	0.023586752
183	0x3d1d5574	0.038411573
184	0xbe3f6a60	-0.18692923
185	0x3dc3a065	0.09552077
186	0x3c24174e	0.010015322
187	0xbdeb4fa5	-0.114898
188	0xbb8808c4	-0.0041514356
189	0x3d224419	0.039615724
190	0x3fa00776	1.2502277
191	0x3db19b81	0.08672238
192	0xbd080225	-0.03320517
193	0x3d9f7d75	0.07787601
194	0x3def9f53	0.117003106
195	0x3d05d8aa	0.03267733
196	0xbe236b00	-0.15958786
197	0xbd86274a	-0.065504625
198	0xbc9f2309	-0.019425886
199	0xbe4930c0	-0.19647503
200	0xbc3a3046	-0.011364048
201	0xbc74d848	-0.014944144
202	0xbc85c273	-0.016328072
203	0x3cd45525	0.025919506
204	0xbcdd18ca	-0.02698936
205	0x3d19f701	0.037589077
206	0xbce3690c	-0.027760051
207	0xbcb09ce2	-0.021559183
208	0xbd0bdd88	-0.034146816
209	0x3b9fe064	0.0048790444
210	0xbc4d03c9	-0.0125131095
211	0x3cbe2d44	0.023214944
212	0x3d4520db	0.048127037
213	0xbc2b286b	-0.010446648
214	0x3d3d91e1	0.0462817
215	0x3daa8e5f	0.083279364
216	0xbd3a90b9	-0.045548175
217	0x3f49c553	0.7881672
218	0x3cb48720	0.022037089
219	0x3d99d3f4	0.0751113
220	0xbdd5cbdf	-0.10439276
221	0xbe2d171a	-0.16903344
222	0xbde1dd8a	-0.11028583
223	0xbd944f5a	-0.072416976
224	0xbde847ff	-0.11341857
225	0x3c72bcbc	0.014815506
226	0xbe4dd39a	-0.20100251
227	0xbd3cb64a	-0.046072282
228	0x3c1fdb41	0.009756864
229	0x3f873d09	1.0565501
230	0xbc802664	-0.015643306
231	0xbc8b87de	-0.01703256
232	0xbe46e9ef	-0.19425176
233	0xbd372d8c	-0.04472117
234	0xbe3574f8	-0.17720401
235	0xbeb7ae5e	-0.3587522
236	0xbd088558	-0.03333029
237	0x3d8d6d34	0.069055945
238	0xbd16a510	-0.03677851
239	0xbd98571f	-0.07438492
240	0x3bcf8ecc	0.0063341614
241	0xbe49b20f	-0.1969683
242	0x3b360d07	0.002777876
243	0xbcb461bf	-0.022019265
244	0xbec81ddd	-0.39085284
245	0xbdbacc2c	-0.09120974
246	0xbc94e316	-0.01817469
247	0x3ee7e214	0.4528967
248	0xbd46d239	-0.048540328
249	0xbc918105	-0.017761717
250	0xbf0e79ec	-0.5565479
251	0xbd785c3e	-0.060634844
252	0x3dd0acde	0.10189222
253	0x3e5f2a35	0.21793444
254	0xbb2bf68f	-0.002623949
255	0x3b873fde	0.0041274866

gru_out.weight_hh_l0 f4 [372, 124]
0	0x3df11137	0.117708616
1	0x3dc64668	0.09681398
2	0x3e5a20de	0.213016
3	0x3e4b7d2c	0.19871968
4	0x3e4f4647	0.20241652
5	0xbea150a1	-0.31506827
6	0x3da4c2f9	0.080450006
7	0x3dd62a86	0.104573295
8	0xbe8a19be	-0.26972765
9	0xbd82d881	-0.06388951
10	0xbe24437e	-0.16041371
11	0x3df5db4b	0.120047174
12	0x3e4a537c	0.1975841
13	0x3e327b89	0.17429937
14	0xbc2074d2	-0.009793477
15	0x3c99d5b6	0.018778663
16	0xbc99eba3	-0.018789118
17	0x3cbe31f5	0.02321718
18	0xbe3268cd	-0.17422791
19	0x3cd13f25	0.025542805
20	0xbcf5153b	-0.02991735
21	0x3c65d45b	0.01402768
22	0x3eaad97f	0.3336906
23	0x3e076e84	0.13225752
24	0x3e3fe01e	0.18737838
25	0xbd4359cc	-0.04769306
26	0xbd3d0430	-0.04614657
27	0xbd67b3e6	-0.05656805
28	0xbd26fdce	-0.04076939
29	0x3ea434c3	0.32071504
30	0xbd58dd4f	-0.05294543
31	0xbdf46daa	-0.11934979
32	0x3eb7edf1	0.35923722
33	0xbd2e5478	-0.042561024
34	0xbe7efb5d	-0.24900575
35	0xbe6f5c9e	-0.23375174
36	0xbcc896e6	-0.024486016
37	0xbd2a1fe3	-0.041534316
38	0x3e850d7f	0.2598686
39	0xbe1ba15d	-0.15198274
40	0x3f414b21	0.7550526
41	0xbd5308f8	-0.051522225
42	0x3ca48ff3	0.020088172
43	0xbdf6e8f9	-0.12056155
44	0x3e4f8987	0.20267306
45	0xbdac0709	-0.08399779
46	0xbd7f2e40	-0.062299967
47	0xbd2d254f	-0.04227191
48	0xbe3738ae	-0.17892715
49	0x3d833fb8	0.06408638
50	0xbc74710c	-0.014919531
51	0x3c8bc87d	0.017063374
52	0x3e366a0d	0.17813893
53	0xbaccebbc	-0.0015634219
54	0x3d5c8042	0.053833254
55	0xbd8ec411	-0.069709904
56	0xbe9640c0	-0.29346275
57	0xbcfb084b	-0.030643603
58	0xbd720044	-0.059082285
59	0xbe8df5de	-0.27726644
60	0xbe9a515f	-0.30140206
61	0x3e345e01	0.17613985
62	0x3c898a63	0.01678962
63	0x3e1ac461	0.15113975
64	0x3df6bd19	0.12047786
65	0xbda8874c	-0.08228931
66	0xbda9f44f	-0.08298551
67	0xbdd89e63	-0.10577085
68	0xbe2719d2	-0.16318443
69	0x3e86c204	0.26319897
70	0xbde4e553	-0.111765526
71	0xbdf10063	-0.11767652
72	0x3c88a95b	0.016682317
73	0x3e08898f	0.13333724
74	0xbd7c481c	-0.061592206
75	0x3e2d5bc5	0.16929539
76	0x3c880715	0.01660494
77	0xbd123116	-0.035691343
78	0xbe82d33c	-0.25551784
79	0xbe0b7b35	-0.13621219
80	0x3d6e1d02	0.058133133
81	0x3e468e32	0.1939018
82	0x3f073ff3	0.52831954
83	0xbd98f59a	-0.0746872
84	0xbd0e22ff	-0.034701344
85	0x3d74c740	0.059760332
86	0x3e816e7a	0.252796
87	0x3eebf064	0.4608184
88	0x3ec1dd26	0.37864035
89	0x3e3799b3	0.17929725
90	0x3e3db25b	0.18525068
91	0xbdf65471	-0.12027825
92	0x3e6621cf	0.22473834
93	0xbeff7618	-0.49894786
94	0xbd5e57ef	-0.05428308
95	0xbde2fc44	-0.11083272
96	0x3daf8d39	0.08571858
97	0x3eb57a45	0.35444847
98	0x3e8c2eed	0.27379552
99	0xbe791fce	-0.24328539
100	0x3daa6e07	0.08321767
101	0x3e8aeb33	0.27132568
102	0x3e8f2c7d	0.2796363
103	0xbec017e1	-0.37518218
104	0xbea65ef6	-0.32494324
105	0xbe4b83d2	-0.19874504
106	0x3e3167a0	0.17324686
107	0x3d92f77d	0.07176111
108	0x3e2624dd	0.16225
109	0x3e912d57	0.28354904
110	0x3e7f2742	0.2491732
111	0x397b61c6	0.00023973649
112	0xbc98cd51	-0.01865259
113	0x3d1c6f6e	0.038192205
114	0xbe82030f	-0.2539296
115	0xbdc97bbc	-0.098380536
116	0x3c7909c3	0.015200081
117	0x3e03f6b2	0.12887076
118	0xbbbf0881	-0.005829871
119	0x3e08a003	0.1334229
120	0x3e1e4e74	0.15459615
121	0x3de1c699	0.110242076
122	0xbdde87fd	-0.108657815
123	0x3da4c643	0.08045628
124	0xbd7b47fa	-0.06134794
125	0x3ed9c667	0.4253418
126	0xbe31974c	-0.17342871
127	0xbe685e31	-0.22692181
128	0xbc645c3a	-0.013938004
129	0x3d8ecf18	0.06973094
130	0xbd794756	-0.060859047
131	0xbeabd244	-0.33558857
132	0x3efefed5	0.49803796
133	0x3d69e4a7	0.057102825
134	0xbee229c4	-0.4417249
135	0xbd89e3f6	-0.06732933
136	0x3d3f5633	0.046713065
137	0xbda842cd	-0.08215866
138	0xbe687e48	-0.22704422
139	0x3f042f82	0.5163499
140	0x3e5ae4d2	0.2137635
141	0x3e733008	0.23748791
142	0x3cd4b3ad	0.025964582
143	0x3d3dc129	0.04632679
144	0x3b682d6d	0.0035427467
145	0xbf1abd46	-0.6044506
146	0x3d8e0557	0.06934612
147	0x394187e3	0.00018456536
148	0xbd19a580	-0.03751135
149	0x3e46a03b	0.1939706
150	0xbdea4faf	-0.1144098
151	0xbe28fc37	-0.16502462
152	0x3e1cbc7e	0.15306279
153	0xbe0e6956	-0.1390737
154	0xbdb675be	-0.08909176
155	0x3d3a1786	0.04543259
156	0xbc429a4f	-0.01187761
157	0x3df242fd	0.11829183
158	0xbbb0b704	-0.005392911
159	0x3e94c291	0.29054692
160	0x3d0119f4	0.03151889
161	0x3d4f050c	0.050541922
162	0xbe73dd3d	-0.23814864
163	0x3dbff366	0.093725964
164	0xbed6ed28	-0.4197781
165	0x3e5a413d	0.21313949
166	0x3d8226f0	0.06355083
167	0xba356423	-0.00069195236
168	0xbe01d45b	-0.12678663
169	0x3de3ac03	0.11116793
170	0xbd0b9731	-0.034079734
171	0x3e64ee12	0.22356442
172	0xbe4d012f	-0.20019983
173	0xbc60db69	-0.013724186
174	0xbc2fbcab	-0.010726134
175	0xbb69091a	-0.0035558403
176	0x3d8f11cb	0.069858156
177	0xbd9c5c7c	-0.076348275
178	0xbe1484a1	-0.14503719
179	0xbd799dc8	-0.060941488
180	0xbca04dd2	-0.019568358
181	0x3d1ee7bf	0.03879523
182	0x3f0cff55	0.55077106
183	0x3e3fea30	0.18741679
184	0xbe144c5f	-0.14482258
185	0xbda25515	-0.07926384
186	0xbe68eb3f	-0.2274599
187	0x3ca1f7a1	0.019771399
188	0x3daa343c	0.08310744
189	0x3eaae6a9	0.33379105
190	0xbe66e60f	-0.22548698
191	0x3e69ee52	0.22844818
192	0x3dbf7e31	0.09350241
193	0x3dc823d5	0.097724594
194	0xbdd9e060	-0.10638499
195	0x3e2a89b8	0.16654098
196	0xbc164d6f	-0.009173735
197	0x3df677ac	0.12034544
198	0x3d626d1d	0.05527984
199	0xbe103773	-0.14083652
200	0x3da22c07	0.07918554
201	0xbd31a048	-0.043365747
202	0xbe255109	-0.16144194
203	0x399f002d	0.00030326974
204	0xbda99738	-0.08280796
205	0x3d3ac4af	0.04559773
206	0x3e978428	0.29593015
207	0x3f023a18	0.50869894
208	0x3dbe2269	0.09283907
209	0xbdd542e5	-0.1041315
210	0xbdcae377	-0.09906667
211	0x3c9d1613	0.019175565
212	0x3c6f0412	0.014588373
213	0xbe592fd9	-0.21209659
214	0x3dd597e8	0.104293644
215	0x3cb479f1	0.022030802
216	0x3d376738	0.04477617
217	0x3da6a9f6	0.08137886
218	0xbe9099e6	-0.28242415
219	0xbe8d3e0a	-0.27586395
220	0x3e430b41	0.19047262
221	0xbe2dcc2b	-0.16972415
222	0xbdece05e	-0.11566232
223	0x3cae04eb	0.02124258
224	0xbe1d6268	-0.1536957
225	0x3e34e239	0.17664422
226	0xbebb26cf	-0.36553046
227	0x3e3775ab	0.1791598
228	0xbdf4cdcb	-0.119533144
229	0xbdeb02e4	-0.11475161
230	0xbe95d959	-0.29267386
231	0x3cf2e15c	0.029648475
232	0x3cab7ed3	0.020934498
233	0xbd1c0d71	-0.038098756
234	0xbe0c934b	-0.13728063
235	0xbe97f6be	-0.29680437
236	0x3e01fa3c	0.12693113
237	0xbd9669e9	-0.073444195
238	0x3ea5b5cf	0.3236527
239	0xbcd95a00	-0.026532173
240	0xbf495a9a	-0.7865387
241	0x3ee7ffdf	0.45312402
242	0x3d08afc4	0.03337075
243	0xbeae72dd	-0.3407201
244	0xbd56d5a9	-0.052449856
245	0x3ebab168	0.36463475
246	0x3dd100fa	0.102052644
247	0x3e7daab3	0.24772148
248	0xbd4aa25a	-0.049471237
249	0xbdc9380a	-0.09825142
250	0x3ec46420	0.3835764
251	0xbe78dd14	-0.24303085
252	0xbe2f75ba	-0.17134753
253	0x3dda7337	0.10666507
254	0xbe6bdfdb	-0.23034613
255	0xbda5abbf	-0.080893986

gru_out.bias_ih_l0 f4 [372]
0	0x3df040ff	0.11731147
1	0x3d5988c7	0.053108957
2	0x3c9424bf	0.018083928
3	0x3d63c460	0.0556072
4	0x3d96a089	0.073548384
5	0xbd8ae00e	-0.06781016
6	0x3df44fcd	0.11929283
7	0xbdad104f	-0.08450376
8	0xbc56f802	-0.013120653
9	0x3d787979	0.06066272
10	0x3dfb38e8	0.122667134
11	0x3cab1ffe	0.020889279
12	0x3d0d1c3f	0.034450766
13	0xbcef7159	-0.029228853
14	0x3d122c52	0.0356868
15	0xbd116668	-0.035498053
16	0x3c5ff589	0.01366938
17	0x3dbb66bd	0.09150455
18	0xbcd80690	-0.026370317
19	0xbc514c72	-0.012774574
20	0x3e55a3aa	0.20863214
21	0x3e2b4adf	0.1672778
22	0x3d03b617	0.032156076
23	0xbdd65144	-0.10464719
24	0xbd0d1068	-0.034439474
25	0x3e074231	0.13208844
26	0x3d6883e9	0.056766424
27	0x3c3e0e7c	0.011600133
28	0x3da2059d	0.07911227
29	0x3d2f3a42	0.04278017
30	0x3e295dc0	0.16539669
31	0x3daa94d0	0.08329165
32	0x3d41ad2f	0.0472843
33	0x3d9abed5	0.075559296
34	0x3de9f32d	0.11423335
35	0x3de2ab1a	0.11067791
36	0x3cd9c316	0.026582282
37	0xbccb9f55	-0.024856249
38	0x3b793c2d	0.0038030252
39	0x3bfb9dcf	0.0076787244
40	0xbdb6b42c	-0.08921084
41	0x3e098184	0.13428313
42	0x3dc67415	0.0969011
43	0xbb4607cb	-0.0030217047
44	0x3d577621	0.05260289
45	0x3e3ff386	0.1874524
46	0x3e126227	0.14295255
47	0x3da3041f	0.079597704
48	0x3de85fd5	0.113464035
49	0x3dff40f4	0.12463561
50	0x3ce4961f	0.027903615
51	0x3d8709ae	0.06593643
52	0xbd090cfb	-0.033459645
53	0xbc8315a7	-0.016001536
54	0x3e403141	0.18768789
55	0xbd4dbb0d	-0.050227214
56	0x3ddff46a	0.1093529
57	0x3df3e863	0.119095586
58	0x3c29e640	0.010369837
59	0xbb200131	-0.0024414773
60	0x3d00bb23	0.031428467
61	0x3e1bc94c	0.15213507
62	0xba349356	-0.000688841
63	0x3d6764ff	0.0564928
64	0x3e16e507	0.14735804
65	0x3df653ab	0.12027677
66	0x3d86ea50	0.0658766
67	0x3dc2d7de	0.0951383
68	0x3d07ebc4	0.033183828
69	0x3c9fbd80	0.01949954
70	0x3e22713a	0.15863505
71	0xbcd8f56c	-0.026484214
72	0xbe054d98	-0.13017881
73	0x3d806eae	0.062711105
74	0x3d888a7f	0.06667041
75	0xbda78af4	-0.081808
76	0x3d6446fa	0.05573175
77	0x3dd69cf8	0.10479158
78	0x3caba068	0.020950511
79	0x3df1097c	0.11769387
80	0x3dd3a8a5	0.10334901
81	0x3c16f57c	0.0092138015
82	0x3d0a631b	0.03378592
83	0x3d4e7c86	0.050411724
84	0x3d4e5b44	0.050380006
85	0x3e2035fb	0.15645592
86	0xba2bb1bf	-0.00065496186
87	0x3d884076	0.0665292
88	0x3db21c72	0.08696832
89	0x3db54d55	0.088526405
90	0x3e10bfa9	0.14135613
91	0xbd1f07fc	-0.038825974
92	0x3d97b86e	0.07408224
93	0x3d86a3fa	0.06574245
94	0x364302e0	2.9058938e-06
95	0x3c5d30c5	0.013500397
96	0x3c994cf2	0.018713448
97	0xbd92b26d	-0.07162938
98	0x3e3fa0ae	0.18713638
99	0x3d453752	0.04814846
100	0x3c23d8b0	0.010000393
101	0x3df9c30a	0.12195404
102	0x3d783ba8	0.060603768
103	0x3dd6c3ca	0.104865626
104	0x3c5febd2	0.013667064
105	0x3e08bd4a	0.13353458
106	0x3b8b311c	0.0042477977
107	0x3e5bd8a2	0.21469358
108	0x3d537475	0.051624734
109	0x3dbd09a3	0.09230354
110	0x3d6ce801	0.057838444
111	0x3ce72105	0.028213987
112	0x3e128550	0.14308667
113	0x3e11935d	0.14216371
114	0x3d7b1327	0.061297562
115	0x3cee505f	0.029091058
116	0x3d00b8ba	0.03142617
117	0x3d7d07c5	0.061774988
118	0x3c13dabf	0.009024321
119	0x3d9ff191	0.07809747
120	0x3e2f37be	0.17111108
121	0x3e0fa9ec	0.14029664
122	0x3cf89837	0.03034602
123	0x3d9b7d7f	0.07592296
124	0xbcacfa0a	-0.021115322
125	0xbe4f74ee	-0.20259449
126	0xbd43b44f	-0.047779378
127	0xbe251646	-0.16121778
128	0x3d17b0ad	0.037033726
129	0xbd48fdc3	-0.04907013
130	0xbddf8450	-0.109139085
131	0xbc425314	-0.011860628
132	0xbe2b05f6	-0.16701493
133	0x3c852570	0.016253203
134	0xbddb68ce	-0.10713349
135	0xbca56aba	-0.020192493
136	0x3c8f491a	0.017490912
137	0xbe39bbee	-0.18138096
138	0x3db4a09f	0.088196985
139	0xbdb9261e	-0.090404734
140	0x3ddd8b4b	0.10817584
141	0xbe06459d	-0.13112493
142	0xbd085641	-0.033285383
143	0xba58bade	-0.00082675915
144	0x3dac4a91	0.0841266
145	0x3def1e9e	0.11675762
146	0x3d4e3de8	0.050352007
147	0xbd98e7f9	-0.0746612
148	0x3cd4f73b	0.025996795
149	0x3d05fb3a	0.03271029
150	0x3d86a5a2	0.06574561
151	0xbdada932	-0.08479537
152	0xbca2a91b	-0.019856026
153	0x3d2324be	0.039829962
154	0x3d137718	0.03600225
155	0x3d60553a	0.05476878
156	0xbce5aa44	-0.02803529
157	0x3d841f09	0.06451232
158	0x3d1d7e1b	0.03845034
159	0xbccdf528	-0.025141314
160	0x3dd4ffc3	0.10400345
161	0x3c8a6040	0.016891599
162	0xbd1fc6a6	-0.039007805
163	0xbe0d48cc	-0.13797301
164	0x3d41ddaf	0.047330555
165	0xbda3812f	-0.07983624
166	0x3d86096c	0.06544766
167	0xbdb383c8	-0.0876537
168	0xbd80d3af	-0.062903754
169	0xbdcc66ff	-0.099805824
170	0xbabb17c4	-0.001427405
171	0x3daa7a02	0.083240524
172	0xbe39ef11	-0.18157603
173	0x3dc88fa9	0.09793026
174	0xbe13f03b	-0.1444711
175	0x3ddec808	0.10877997
176	0xbed152a0	-0.4088335
177	0x3db75caa	0.08953221
178	0xbd71beb0	-0.059019744
179	0xbdd3bc1e	-0.10338615
180	0x3d5c9210	0.053850234
181	0xbb7ca26d	-0.0038548962
182	0xbe0c6879	-0.13711728
183	0xbdc0a9cf	-0.094073884
184	0x3ca73278	0.020409808
185	0x3d9fd8b1	0.078050025
186	0xbd39eacb	-0.04538993
187	0xbd7493d3	-0.05971129
188	0xbd01037d	-0.031497467
189	0xbdc68478	-0.09693235
190	0xbdb1e1ea	-0.08685668
191	0xbd4ea63a	-0.050451495
192	0xbe6f3c7e	-0.2336292
193	0xbe11636a	-0.1419808
194	0xbe09c2c9	-0.13453211
195	0xbc22a1d5	-0.009926279
196	0xbd9b4f13	-0.075834416
197	0x3df09e7e	0.1174898
198	0xbc8e4f33	-0.01737175
199	0xbe0ccf1a	-0.13750878
200	0xbca75623	-0.020426815
201	0x3d2637da	0.040580608
202	0xbd02a68f	-0.031897124
203	0xbc923dbc	-0.017851703
204	0xbe49b5cb	-0.19698255
205	0x3e1330d5	0.14374097
206	0xbdcaf4db	-0.09909984
207	0xbe46c304	-0.1941033
208	0xbdf9988a	-0.12187298
209	0x3c26f97a	0.010191316
210	0xbde2c78e	-0.11073218
211	0x3b49ecbe	0.0030811275
212	0x3d660ead	0.05616634
213	0xbdbecb02	-0.093160644
214	0xbcfa8cf2	-0.030584786
215	0xbb984731	-0.0046471586
216	0x3df47175	0.11935703
217	0x3dc423d2	0.09577145
218	0x3dee9f5d	0.1165149
219	0xbd97835b	-0.07398101
220	0x3c09465b	0.00837859
221	0xbe83bf9e	-0.2573213
222	0x3dc67658	0.09690541
223	0xbe0dd51d	-0.13850828
224	0xbe338ad3	-0.17533426
225	0x3c14af4c	0.009074997
226	0xbe2aeea4	-0.16692597
227	0xbe2233e4	-0.15840107
228	0x3cf932e8	0.030419782
229	0xbab23d70	-0.0013598632
230	0x3d873c76	0.06603329
231	0xbdc73339	-0.09726567
232	0xbcefb6c5	-0.029261956
233	0xbd0588f3	-0.032601308
234	0xbda7d3ba	-0.081946805
235	0xbe10c627	-0.14138089
236	0xbde0e164	-0.1098049
237	0xbdebd577	-0.115153246
238	0xbe385a1f	-0.18003128
239	0xbbe90139	-0.0071107415
240	0xbda18215	-0.07886139
241	0xbc12663e	-0.008935509
242	0xbdbacb65	-0.09120826
243	0xbd2fe906	-0.042946838
244	0xbe14f272	-0.1454561
245	0x3e0f5463	0.13997035
246	0xbce6f922	-0.028194968
247	0xbcb0497d	-0.021519417
248	0xbd906839	-0.07051129
249	0x3d2efe48	0.04272297
250	0x3e5c478b	0.21511666
251	0xbc066a1c	-0.008204009
252	0xbdc47c7a	-0.095940545
253	0x3d97ea3d	0.07417724
254	0xbddea6c0	-0.10871649
255	0xbe18f7aa	-0.14938226
